class <lambda>(torch.nn.Module):
    def forward(self, arg0_1: "Sym(s0)", arg1_1: "i64[1, s0][s0, 1]cuda:0", arg2_1: "f16[128256, 4096][4096, 1]cuda:0", arg3_1: "i64[s0][1]cuda:0", arg4_1: "i64[1, s0][s0, 1]cuda:0", arg5_1: "Sym(s1)", arg6_1: "b8[1, 1, s0, s1][s0*s1, s0*s1, s1, 1]cuda:0", arg7_1: "f32[64][1]cuda:0", arg8_1: "f16[4096][1]cuda:0", arg9_1: "f16[4096, 4096][4096, 1]cuda:0", arg10_1: "f16[1024, 4096][4096, 1]cuda:0", arg11_1: "f16[1024, 4096][4096, 1]cuda:0", arg12_1: "Sym(s1)", arg13_1: "f16[4096, 4096][4096, 1]cuda:0", arg14_1: "f16[4096][1]cuda:0", arg15_1: "f16[14336, 4096][4096, 1]cuda:0", arg16_1: "f16[14336, 4096][4096, 1]cuda:0", arg17_1: "f16[4096, 14336][14336, 1]cuda:0", arg18_1: "f16[4096][1]cuda:0", arg19_1: "f16[4096, 4096][4096, 1]cuda:0", arg20_1: "f16[1024, 4096][4096, 1]cuda:0", arg21_1: "f16[1024, 4096][4096, 1]cuda:0", arg22_1: "Sym(s1)", arg23_1: "f16[4096, 4096][4096, 1]cuda:0", arg24_1: "f16[4096][1]cuda:0", arg25_1: "f16[14336, 4096][4096, 1]cuda:0", arg26_1: "f16[14336, 4096][4096, 1]cuda:0", arg27_1: "f16[4096, 14336][14336, 1]cuda:0", arg28_1: "f16[4096][1]cuda:0", arg29_1: "f16[4096, 4096][4096, 1]cuda:0", arg30_1: "f16[1024, 4096][4096, 1]cuda:0", arg31_1: "f16[1024, 4096][4096, 1]cuda:0", arg32_1: "Sym(s1)", arg33_1: "f16[4096, 4096][4096, 1]cuda:0", arg34_1: "f16[4096][1]cuda:0", arg35_1: "f16[14336, 4096][4096, 1]cuda:0", arg36_1: "f16[14336, 4096][4096, 1]cuda:0", arg37_1: "f16[4096, 14336][14336, 1]cuda:0", arg38_1: "f16[4096][1]cuda:0", arg39_1: "f16[4096, 4096][4096, 1]cuda:0", arg40_1: "f16[1024, 4096][4096, 1]cuda:0", arg41_1: "f16[1024, 4096][4096, 1]cuda:0", arg42_1: "Sym(s1)", arg43_1: "f16[4096, 4096][4096, 1]cuda:0", arg44_1: "f16[4096][1]cuda:0", arg45_1: "f16[14336, 4096][4096, 1]cuda:0", arg46_1: "f16[14336, 4096][4096, 1]cuda:0", arg47_1: "f16[4096, 14336][14336, 1]cuda:0", arg48_1: "f16[4096][1]cuda:0", arg49_1: "f16[4096, 4096][4096, 1]cuda:0", arg50_1: "f16[1024, 4096][4096, 1]cuda:0", arg51_1: "f16[1024, 4096][4096, 1]cuda:0", arg52_1: "Sym(s1)", arg53_1: "f16[4096, 4096][4096, 1]cuda:0", arg54_1: "f16[4096][1]cuda:0", arg55_1: "f16[14336, 4096][4096, 1]cuda:0", arg56_1: "f16[14336, 4096][4096, 1]cuda:0", arg57_1: "f16[4096, 14336][14336, 1]cuda:0", arg58_1: "f16[4096][1]cuda:0", arg59_1: "f16[4096, 4096][4096, 1]cuda:0", arg60_1: "f16[1024, 4096][4096, 1]cuda:0", arg61_1: "f16[1024, 4096][4096, 1]cuda:0", arg62_1: "Sym(s1)", arg63_1: "f16[4096, 4096][4096, 1]cuda:0", arg64_1: "f16[4096][1]cuda:0", arg65_1: "f16[14336, 4096][4096, 1]cuda:0", arg66_1: "f16[14336, 4096][4096, 1]cuda:0", arg67_1: "f16[4096, 14336][14336, 1]cuda:0", arg68_1: "f16[4096][1]cuda:0", arg69_1: "f16[4096, 4096][4096, 1]cuda:0", arg70_1: "f16[1024, 4096][4096, 1]cuda:0", arg71_1: "f16[1024, 4096][4096, 1]cuda:0", arg72_1: "Sym(s1)", arg73_1: "f16[4096, 4096][4096, 1]cuda:0", arg74_1: "f16[4096][1]cuda:0", arg75_1: "f16[14336, 4096][4096, 1]cuda:0", arg76_1: "f16[14336, 4096][4096, 1]cuda:0", arg77_1: "f16[4096, 14336][14336, 1]cuda:0", arg78_1: "f16[4096][1]cuda:0", arg79_1: "f16[4096, 4096][4096, 1]cuda:0", arg80_1: "f16[1024, 4096][4096, 1]cuda:0", arg81_1: "f16[1024, 4096][4096, 1]cuda:0", arg82_1: "Sym(s1)", arg83_1: "f16[4096, 4096][4096, 1]cuda:0", arg84_1: "f16[4096][1]cuda:0", arg85_1: "f16[14336, 4096][4096, 1]cuda:0", arg86_1: "f16[14336, 4096][4096, 1]cuda:0", arg87_1: "f16[4096, 14336][14336, 1]cuda:0", arg88_1: "f16[4096][1]cuda:0", arg89_1: "f16[4096, 4096][4096, 1]cuda:0", arg90_1: "f16[1024, 4096][4096, 1]cuda:0", arg91_1: "f16[1024, 4096][4096, 1]cuda:0", arg92_1: "Sym(s1)", arg93_1: "f16[4096, 4096][4096, 1]cuda:0", arg94_1: "f16[4096][1]cuda:0", arg95_1: "f16[14336, 4096][4096, 1]cuda:0", arg96_1: "f16[14336, 4096][4096, 1]cuda:0", arg97_1: "f16[4096, 14336][14336, 1]cuda:0", arg98_1: "f16[4096][1]cuda:0", arg99_1: "f16[4096, 4096][4096, 1]cuda:0", arg100_1: "f16[1024, 4096][4096, 1]cuda:0", arg101_1: "f16[1024, 4096][4096, 1]cuda:0", arg102_1: "Sym(s1)", arg103_1: "f16[4096, 4096][4096, 1]cuda:0", arg104_1: "f16[4096][1]cuda:0", arg105_1: "f16[14336, 4096][4096, 1]cuda:0", arg106_1: "f16[14336, 4096][4096, 1]cuda:0", arg107_1: "f16[4096, 14336][14336, 1]cuda:0", arg108_1: "f16[4096][1]cuda:0", arg109_1: "f16[4096, 4096][4096, 1]cuda:0", arg110_1: "f16[1024, 4096][4096, 1]cuda:0", arg111_1: "f16[1024, 4096][4096, 1]cuda:0", arg112_1: "Sym(s1)", arg113_1: "f16[4096, 4096][4096, 1]cuda:0", arg114_1: "f16[4096][1]cuda:0", arg115_1: "f16[14336, 4096][4096, 1]cuda:0", arg116_1: "f16[14336, 4096][4096, 1]cuda:0", arg117_1: "f16[4096, 14336][14336, 1]cuda:0", arg118_1: "f16[4096][1]cuda:0", arg119_1: "f16[4096, 4096][4096, 1]cuda:0", arg120_1: "f16[1024, 4096][4096, 1]cuda:0", arg121_1: "f16[1024, 4096][4096, 1]cuda:0", arg122_1: "Sym(s1)", arg123_1: "f16[4096, 4096][4096, 1]cuda:0", arg124_1: "f16[4096][1]cuda:0", arg125_1: "f16[14336, 4096][4096, 1]cuda:0", arg126_1: "f16[14336, 4096][4096, 1]cuda:0", arg127_1: "f16[4096, 14336][14336, 1]cuda:0", arg128_1: "f16[4096][1]cuda:0", arg129_1: "f16[4096, 4096][4096, 1]cuda:0", arg130_1: "f16[1024, 4096][4096, 1]cuda:0", arg131_1: "f16[1024, 4096][4096, 1]cuda:0", arg132_1: "Sym(s1)", arg133_1: "f16[4096, 4096][4096, 1]cuda:0", arg134_1: "f16[4096][1]cuda:0", arg135_1: "f16[14336, 4096][4096, 1]cuda:0", arg136_1: "f16[14336, 4096][4096, 1]cuda:0", arg137_1: "f16[4096, 14336][14336, 1]cuda:0", arg138_1: "f16[4096][1]cuda:0", arg139_1: "f16[4096, 4096][4096, 1]cuda:0", arg140_1: "f16[1024, 4096][4096, 1]cuda:0", arg141_1: "f16[1024, 4096][4096, 1]cuda:0", arg142_1: "Sym(s1)", arg143_1: "f16[4096, 4096][4096, 1]cuda:0", arg144_1: "f16[4096][1]cuda:0", arg145_1: "f16[14336, 4096][4096, 1]cuda:0", arg146_1: "f16[14336, 4096][4096, 1]cuda:0", arg147_1: "f16[4096, 14336][14336, 1]cuda:0", arg148_1: "f16[4096][1]cuda:0", arg149_1: "f16[4096, 4096][4096, 1]cuda:0", arg150_1: "f16[1024, 4096][4096, 1]cuda:0", arg151_1: "f16[1024, 4096][4096, 1]cuda:0", arg152_1: "Sym(s1)", arg153_1: "f16[4096, 4096][4096, 1]cuda:0", arg154_1: "f16[4096][1]cuda:0", arg155_1: "f16[14336, 4096][4096, 1]cuda:0", arg156_1: "f16[14336, 4096][4096, 1]cuda:0", arg157_1: "f16[4096, 14336][14336, 1]cuda:0", arg158_1: "f16[4096][1]cuda:0", arg159_1: "f16[4096, 4096][4096, 1]cuda:0", arg160_1: "f16[1024, 4096][4096, 1]cuda:0", arg161_1: "f16[1024, 4096][4096, 1]cuda:0", arg162_1: "Sym(s1)", arg163_1: "f16[4096, 4096][4096, 1]cuda:0", arg164_1: "f16[4096][1]cuda:0", arg165_1: "f16[14336, 4096][4096, 1]cuda:0", arg166_1: "f16[14336, 4096][4096, 1]cuda:0", arg167_1: "f16[4096, 14336][14336, 1]cuda:0", arg168_1: "f16[4096][1]cuda:0", arg169_1: "f16[4096, 4096][4096, 1]cuda:0", arg170_1: "f16[1024, 4096][4096, 1]cuda:0", arg171_1: "f16[1024, 4096][4096, 1]cuda:0", arg172_1: "Sym(s1)", arg173_1: "f16[4096, 4096][4096, 1]cuda:0", arg174_1: "f16[4096][1]cuda:0", arg175_1: "f16[14336, 4096][4096, 1]cuda:0", arg176_1: "f16[14336, 4096][4096, 1]cuda:0", arg177_1: "f16[4096, 14336][14336, 1]cuda:0", arg178_1: "f16[4096][1]cuda:0", arg179_1: "f16[4096, 4096][4096, 1]cuda:0", arg180_1: "f16[1024, 4096][4096, 1]cuda:0", arg181_1: "f16[1024, 4096][4096, 1]cuda:0", arg182_1: "Sym(s1)", arg183_1: "f16[4096, 4096][4096, 1]cuda:0", arg184_1: "f16[4096][1]cuda:0", arg185_1: "f16[14336, 4096][4096, 1]cuda:0", arg186_1: "f16[14336, 4096][4096, 1]cuda:0", arg187_1: "f16[4096, 14336][14336, 1]cuda:0", arg188_1: "f16[4096][1]cuda:0", arg189_1: "f16[4096, 4096][4096, 1]cuda:0", arg190_1: "f16[1024, 4096][4096, 1]cuda:0", arg191_1: "f16[1024, 4096][4096, 1]cuda:0", arg192_1: "Sym(s1)", arg193_1: "f16[4096, 4096][4096, 1]cuda:0", arg194_1: "f16[4096][1]cuda:0", arg195_1: "f16[14336, 4096][4096, 1]cuda:0", arg196_1: "f16[14336, 4096][4096, 1]cuda:0", arg197_1: "f16[4096, 14336][14336, 1]cuda:0", arg198_1: "f16[4096][1]cuda:0", arg199_1: "f16[4096, 4096][4096, 1]cuda:0", arg200_1: "f16[1024, 4096][4096, 1]cuda:0", arg201_1: "f16[1024, 4096][4096, 1]cuda:0", arg202_1: "Sym(s1)", arg203_1: "f16[4096, 4096][4096, 1]cuda:0", arg204_1: "f16[4096][1]cuda:0", arg205_1: "f16[14336, 4096][4096, 1]cuda:0", arg206_1: "f16[14336, 4096][4096, 1]cuda:0", arg207_1: "f16[4096, 14336][14336, 1]cuda:0", arg208_1: "f16[4096][1]cuda:0", arg209_1: "f16[4096, 4096][4096, 1]cuda:0", arg210_1: "f16[1024, 4096][4096, 1]cuda:0", arg211_1: "f16[1024, 4096][4096, 1]cuda:0", arg212_1: "Sym(s1)", arg213_1: "f16[4096, 4096][4096, 1]cuda:0", arg214_1: "f16[4096][1]cuda:0", arg215_1: "f16[14336, 4096][4096, 1]cuda:0", arg216_1: "f16[14336, 4096][4096, 1]cuda:0", arg217_1: "f16[4096, 14336][14336, 1]cuda:0", arg218_1: "f16[4096][1]cuda:0", arg219_1: "f16[4096, 4096][4096, 1]cuda:0", arg220_1: "f16[1024, 4096][4096, 1]cuda:0", arg221_1: "f16[1024, 4096][4096, 1]cuda:0", arg222_1: "Sym(s1)", arg223_1: "f16[4096, 4096][4096, 1]cuda:0", arg224_1: "f16[4096][1]cuda:0", arg225_1: "f16[14336, 4096][4096, 1]cuda:0", arg226_1: "f16[14336, 4096][4096, 1]cuda:0", arg227_1: "f16[4096, 14336][14336, 1]cuda:0", arg228_1: "f16[4096][1]cuda:0", arg229_1: "f16[4096, 4096][4096, 1]cuda:0", arg230_1: "f16[1024, 4096][4096, 1]cuda:0", arg231_1: "f16[1024, 4096][4096, 1]cuda:0", arg232_1: "Sym(s1)", arg233_1: "f16[4096, 4096][4096, 1]cuda:0", arg234_1: "f16[4096][1]cuda:0", arg235_1: "f16[14336, 4096][4096, 1]cuda:0", arg236_1: "f16[14336, 4096][4096, 1]cuda:0", arg237_1: "f16[4096, 14336][14336, 1]cuda:0", arg238_1: "f16[4096][1]cuda:0", arg239_1: "f16[4096, 4096][4096, 1]cuda:0", arg240_1: "f16[1024, 4096][4096, 1]cuda:0", arg241_1: "f16[1024, 4096][4096, 1]cuda:0", arg242_1: "Sym(s1)", arg243_1: "f16[4096, 4096][4096, 1]cuda:0", arg244_1: "f16[4096][1]cuda:0", arg245_1: "f16[14336, 4096][4096, 1]cuda:0", arg246_1: "f16[14336, 4096][4096, 1]cuda:0", arg247_1: "f16[4096, 14336][14336, 1]cuda:0", arg248_1: "f16[4096][1]cuda:0", arg249_1: "f16[4096, 4096][4096, 1]cuda:0", arg250_1: "f16[1024, 4096][4096, 1]cuda:0", arg251_1: "f16[1024, 4096][4096, 1]cuda:0", arg252_1: "Sym(s1)", arg253_1: "f16[4096, 4096][4096, 1]cuda:0", arg254_1: "f16[4096][1]cuda:0", arg255_1: "f16[14336, 4096][4096, 1]cuda:0", arg256_1: "f16[14336, 4096][4096, 1]cuda:0", arg257_1: "f16[4096, 14336][14336, 1]cuda:0", arg258_1: "f16[4096][1]cuda:0", arg259_1: "f16[4096, 4096][4096, 1]cuda:0", arg260_1: "f16[1024, 4096][4096, 1]cuda:0", arg261_1: "f16[1024, 4096][4096, 1]cuda:0", arg262_1: "Sym(s1)", arg263_1: "f16[4096, 4096][4096, 1]cuda:0", arg264_1: "f16[4096][1]cuda:0", arg265_1: "f16[14336, 4096][4096, 1]cuda:0", arg266_1: "f16[14336, 4096][4096, 1]cuda:0", arg267_1: "f16[4096, 14336][14336, 1]cuda:0", arg268_1: "f16[4096][1]cuda:0", arg269_1: "f16[4096, 4096][4096, 1]cuda:0", arg270_1: "f16[1024, 4096][4096, 1]cuda:0", arg271_1: "f16[1024, 4096][4096, 1]cuda:0", arg272_1: "Sym(s1)", arg273_1: "f16[4096, 4096][4096, 1]cuda:0", arg274_1: "f16[4096][1]cuda:0", arg275_1: "f16[14336, 4096][4096, 1]cuda:0", arg276_1: "f16[14336, 4096][4096, 1]cuda:0", arg277_1: "f16[4096, 14336][14336, 1]cuda:0", arg278_1: "f16[4096][1]cuda:0", arg279_1: "f16[4096, 4096][4096, 1]cuda:0", arg280_1: "f16[1024, 4096][4096, 1]cuda:0", arg281_1: "f16[1024, 4096][4096, 1]cuda:0", arg282_1: "Sym(s1)", arg283_1: "f16[4096, 4096][4096, 1]cuda:0", arg284_1: "f16[4096][1]cuda:0", arg285_1: "f16[14336, 4096][4096, 1]cuda:0", arg286_1: "f16[14336, 4096][4096, 1]cuda:0", arg287_1: "f16[4096, 14336][14336, 1]cuda:0", arg288_1: "f16[4096][1]cuda:0", arg289_1: "f16[4096, 4096][4096, 1]cuda:0", arg290_1: "f16[1024, 4096][4096, 1]cuda:0", arg291_1: "f16[1024, 4096][4096, 1]cuda:0", arg292_1: "Sym(s1)", arg293_1: "f16[4096, 4096][4096, 1]cuda:0", arg294_1: "f16[4096][1]cuda:0", arg295_1: "f16[14336, 4096][4096, 1]cuda:0", arg296_1: "f16[14336, 4096][4096, 1]cuda:0", arg297_1: "f16[4096, 14336][14336, 1]cuda:0", arg298_1: "f16[4096][1]cuda:0", arg299_1: "f16[4096, 4096][4096, 1]cuda:0", arg300_1: "f16[1024, 4096][4096, 1]cuda:0", arg301_1: "f16[1024, 4096][4096, 1]cuda:0", arg302_1: "Sym(s1)", arg303_1: "f16[4096, 4096][4096, 1]cuda:0", arg304_1: "f16[4096][1]cuda:0", arg305_1: "f16[14336, 4096][4096, 1]cuda:0", arg306_1: "f16[14336, 4096][4096, 1]cuda:0", arg307_1: "f16[4096, 14336][14336, 1]cuda:0", arg308_1: "f16[4096][1]cuda:0", arg309_1: "f16[4096, 4096][4096, 1]cuda:0", arg310_1: "f16[1024, 4096][4096, 1]cuda:0", arg311_1: "f16[1024, 4096][4096, 1]cuda:0", arg312_1: "Sym(s1)", arg313_1: "f16[4096, 4096][4096, 1]cuda:0", arg314_1: "f16[4096][1]cuda:0", arg315_1: "f16[14336, 4096][4096, 1]cuda:0", arg316_1: "f16[14336, 4096][4096, 1]cuda:0", arg317_1: "f16[4096, 14336][14336, 1]cuda:0", arg318_1: "f16[4096][1]cuda:0", arg319_1: "f16[4096, 4096][4096, 1]cuda:0", arg320_1: "f16[1024, 4096][4096, 1]cuda:0", arg321_1: "f16[1024, 4096][4096, 1]cuda:0", arg322_1: "Sym(s1)", arg323_1: "f16[4096, 4096][4096, 1]cuda:0", arg324_1: "f16[4096][1]cuda:0", arg325_1: "f16[14336, 4096][4096, 1]cuda:0", arg326_1: "f16[14336, 4096][4096, 1]cuda:0", arg327_1: "f16[4096, 14336][14336, 1]cuda:0", arg328_1: "f16[4096][1]cuda:0", arg329_1: "Sym(1)", arg330_1: "f16[128256, 4096][4096, 1]cuda:0"):
         # File: /app/low_bit_inference/optims/rms_norm_kernels/liger_rms_norm.py:447 in rms_norm_forward, code: Y = torch.empty((n_rows, n_cols), dtype=X.dtype, device=X.device)
        empty: "f16[s0, 4096][4096, 1]cuda:0" = torch.ops.aten.empty.memory_format([arg0_1, 4096], dtype = torch.float16, device = device(type='cuda', index=0), pin_memory = False)
        
         # File: /app/low_bit_inference/model.py:346 in forward, code: inputs_embeds: torch.Tensor = self.embed_tokens(input_ids)
        embedding: "f16[1, s0, 4096][4096*s0, 4096, 1]cuda:0" = torch.ops.aten.embedding.default(arg2_1, arg1_1, 128004);  arg2_1 = arg1_1 = None
        
         # File: /app/low_bit_inference/optims/rms_norm_kernels/liger_rms_norm.py:443 in rms_norm_forward, code: X = X.view(-1, dim)
        view_4: "f16[s0, 4096][4096, 1]cuda:0" = torch.ops.aten.reshape.default(embedding, [-1, 4096])
        
         # File: /app/low_bit_inference/optims/rms_norm_kernels/liger_rms_norm.py:451 in rms_norm_forward, code: RSTD = torch.empty(n_rows, dtype=rstd_dtype, device=X.device)
        empty_1: "f32[s0][1]cuda:0" = torch.ops.aten.empty.memory_format([arg0_1], dtype = torch.float32, device = device(type='cuda', index=0), pin_memory = False)
        
         # File: /app/low_bit_inference/optims/rms_norm_kernels/liger_rms_norm.py:461 in rms_norm_forward, code: _rms_norm_forward_kernel[(n_rows,)](
        triton_kernel_wrapper_functional_proxy = torch.ops.higher_order.triton_kernel_wrapper_functional(kernel_idx = 1, constant_args_idx = 0, grid = [(arg0_1, 1, 1)], tma_descriptor_metadata = {}, kwargs = {'Y_ptr': empty, 'X_ptr': view_4, 'W_ptr': arg8_1, 'RSTD_ptr': empty_1}, tensors_to_clone = ['Y_ptr', 'RSTD_ptr']);  empty = view_4 = arg8_1 = empty_1 = None
        getitem: "f16[s0, 4096][4096, 1]cuda:0" = triton_kernel_wrapper_functional_proxy['Y_ptr'];  triton_kernel_wrapper_functional_proxy = None
        
         # File: /app/low_bit_inference/model.py:206 in forward, code: query_states = self.q_proj(hidden_states).view(hidden_shape).transpose(1, 2)
        view_7: "f16[1, s0, 4096][4096*s0, 4096, 1]cuda:0" = torch.ops.aten.reshape.default(getitem, [1, arg0_1, 4096])
        view_8: "f16[s0, 4096][4096, 1]cuda:0" = torch.ops.aten.reshape.default(view_7, [arg0_1, 4096]);  view_7 = None
        permute_1: "f16[4096, 4096][1, 4096]cuda:0" = torch.ops.aten.permute.default(arg9_1, [1, 0]);  arg9_1 = None
        mm: "f16[s0, 4096][4096, 1]cuda:0" = torch.ops.aten.mm.default(view_8, permute_1);  view_8 = permute_1 = None
        view_9: "f16[1, s0, 4096][4096*s0, 4096, 1]cuda:0" = torch.ops.aten.reshape.default(mm, [1, arg0_1, 4096]);  mm = None
        view_10: "f16[1, s0, 32, 128][4096*s0, 4096, 128, 1]cuda:0" = torch.ops.aten.reshape.default(view_9, [1, arg0_1, -1, 128]);  view_9 = None
        permute_2: "f16[1, 32, s0, 128][4096*s0, 128, 4096, 1]cuda:0" = torch.ops.aten.permute.default(view_10, [0, 2, 1, 3]);  view_10 = None
        
         # File: /app/low_bit_inference/model.py:65 in forward, code: inv_freq_expanded = self.inv_freq[None, :, None].float().expand(position_ids.shape[0], -1, 1).to(x.device)
        unsqueeze: "f32[1, 64][64, 1]cuda:0" = torch.ops.aten.unsqueeze.default(arg7_1, 0);  arg7_1 = None
        unsqueeze_1: "f32[1, 64, 1][64, 1, 1]cuda:0" = torch.ops.aten.unsqueeze.default(unsqueeze, 2);  unsqueeze = None
        expand: "f32[1, 64, 1][64, 1, 1]cuda:0" = torch.ops.aten.expand.default(unsqueeze_1, [1, -1, 1]);  unsqueeze_1 = None
        
         # File: /app/low_bit_inference/model.py:70 in forward, code: freqs = (inv_freq_expanded.float() @ position_ids_expanded.float()).transpose(1, 2)
        expand_1: "f32[1, 64, 1][64, 1, 1]cuda:0" = torch.ops.aten.expand.default(expand, [1, 64, 1]);  expand = None
        
         # File: /app/low_bit_inference/model.py:66 in forward, code: position_ids_expanded = position_ids[:, None, :].float()
        unsqueeze_2: "i64[1, 1, s0][s0, s0, 1]cuda:0" = torch.ops.aten.unsqueeze.default(arg4_1, 1);  arg4_1 = None
        convert_element_type: "f32[1, 1, s0][s0, s0, 1]cuda:0" = torch.ops.prims.convert_element_type.default(unsqueeze_2, torch.float32);  unsqueeze_2 = None
        
         # File: /app/low_bit_inference/model.py:70 in forward, code: freqs = (inv_freq_expanded.float() @ position_ids_expanded.float()).transpose(1, 2)
        expand_2: "f32[1, 1, s0][s0, s0, 1]cuda:0" = torch.ops.aten.expand.default(convert_element_type, [1, 1, arg0_1]);  convert_element_type = None
        view_1: "f32[1, 1, s0][s0, s0, 1]cuda:0" = torch.ops.aten.reshape.default(expand_2, [1, 1, arg0_1]);  expand_2 = None
        bmm: "f32[1, 64, s0][64*s0, s0, 1]cuda:0" = torch.ops.aten.bmm.default(expand_1, view_1);  expand_1 = view_1 = None
        view_2: "f32[1, 64, s0][64*s0, s0, 1]cuda:0" = torch.ops.aten.reshape.default(bmm, [1, 64, arg0_1]);  bmm = None
        permute: "f32[1, s0, 64][64*s0, 1, s0]cuda:0" = torch.ops.aten.permute.default(view_2, [0, 2, 1]);  view_2 = None
        
         # File: /app/low_bit_inference/model.py:71 in forward, code: emb = torch.cat((freqs, freqs), dim=-1)
        unsqueeze_3: "f32[1, s0, 1, 64][64*s0, 1, 64*s0, s0]cuda:0" = torch.ops.aten.unsqueeze.default(permute, 2);  permute = None
        expand_3: "f32[1, s0, 2, 64][64*s0, 1, 0, s0]cuda:0" = torch.ops.aten.expand.default(unsqueeze_3, [1, arg0_1, 2, 64]);  unsqueeze_3 = None
        clone: "f32[1, s0, 2, 64][128*s0, 128, 64, 1]cuda:0" = torch.ops.aten.clone.default(expand_3, memory_format = torch.contiguous_format);  expand_3 = None
        view_3: "f32[1, s0, 128][128*s0, 128, 1]cuda:0" = torch.ops.aten.reshape.default(clone, [1, arg0_1, 128]);  clone = None
        
         # File: /app/low_bit_inference/model.py:72 in forward, code: cos = emb.cos() * self.attention_scaling
        cos: "f32[1, s0, 128][128*s0, 128, 1]cuda:0" = torch.ops.aten.cos.default(view_3)
        mul_39: "f32[1, s0, 128][128*s0, 128, 1]cuda:0" = torch.ops.aten.mul.Tensor(cos, 1.0);  cos = None
        
         # File: /app/low_bit_inference/model.py:75 in forward, code: return cos.to(dtype=x.dtype), sin.to(dtype=x.dtype)
        convert_element_type_1: "f16[1, s0, 128][128*s0, 128, 1]cuda:0" = torch.ops.prims.convert_element_type.default(mul_39, torch.float16);  mul_39 = None
        
         # File: /app/low_bit_inference/model.py:105 in apply_rotary_pos_emb, code: cos = cos.unsqueeze(unsqueeze_dim)
        unsqueeze_4: "f16[1, 1, s0, 128][128*s0, 128*s0, 128, 1]cuda:0" = torch.ops.aten.unsqueeze.default(convert_element_type_1, 1)
        
         # File: /app/low_bit_inference/model.py:107 in apply_rotary_pos_emb, code: q_embed = (q * cos) + (rotate_half(q) * sin)
        mul_136: "f16[1, 32, s0, 128][4096*s0, 128, 4096, 1]cuda:0" = torch.ops.aten.mul.Tensor(permute_2, unsqueeze_4)
        
         # File: /app/low_bit_inference/model.py:81 in rotate_half, code: x2 = x[..., x.shape[-1] // 2 :]
        slice_5: "f16[1, 32, s0, 64][4096*s0, 128, 4096, 1]cuda:0" = torch.ops.aten.slice.Tensor(permute_2, 3, 64, 9223372036854775807)
        
         # File: /app/low_bit_inference/model.py:82 in rotate_half, code: return torch.cat((-x2, x1), dim=-1)
        neg: "f16[1, 32, s0, 64][2048*s0, 64, 2048, 1]cuda:0" = torch.ops.aten.neg.default(slice_5);  slice_5 = None
        
         # File: /app/low_bit_inference/model.py:80 in rotate_half, code: x1 = x[..., : x.shape[-1] // 2]
        slice_4: "f16[1, 32, s0, 64][4096*s0, 128, 4096, 1]cuda:0" = torch.ops.aten.slice.Tensor(permute_2, 3, 0, 64);  permute_2 = None
        
         # File: /app/low_bit_inference/model.py:82 in rotate_half, code: return torch.cat((-x2, x1), dim=-1)
        cat: "f16[1, 32, s0, 128][4096*s0, 128*s0, 128, 1]cuda:0" = torch.ops.aten.cat.default([neg, slice_4], -1);  neg = slice_4 = None
        
         # File: /app/low_bit_inference/model.py:73 in forward, code: sin = emb.sin() * self.attention_scaling
        sin: "f32[1, s0, 128][128*s0, 128, 1]cuda:0" = torch.ops.aten.sin.default(view_3);  view_3 = None
        mul_46: "f32[1, s0, 128][128*s0, 128, 1]cuda:0" = torch.ops.aten.mul.Tensor(sin, 1.0);  sin = None
        
         # File: /app/low_bit_inference/model.py:75 in forward, code: return cos.to(dtype=x.dtype), sin.to(dtype=x.dtype)
        convert_element_type_2: "f16[1, s0, 128][128*s0, 128, 1]cuda:0" = torch.ops.prims.convert_element_type.default(mul_46, torch.float16);  mul_46 = None
        
         # File: /app/low_bit_inference/model.py:106 in apply_rotary_pos_emb, code: sin = sin.unsqueeze(unsqueeze_dim)
        unsqueeze_5: "f16[1, 1, s0, 128][128*s0, 128*s0, 128, 1]cuda:0" = torch.ops.aten.unsqueeze.default(convert_element_type_2, 1)
        
         # File: /app/low_bit_inference/model.py:107 in apply_rotary_pos_emb, code: q_embed = (q * cos) + (rotate_half(q) * sin)
        mul_153: "f16[1, 32, s0, 128][4096*s0, 128*s0, 128, 1]cuda:0" = torch.ops.aten.mul.Tensor(cat, unsqueeze_5);  cat = None
        add_135: "f16[1, 32, s0, 128][4096*s0, 128, 4096, 1]cuda:0" = torch.ops.aten.add.Tensor(mul_136, mul_153);  mul_136 = mul_153 = None
        
         # File: /app/.venv/lib/python3.12/site-packages/transformers/integrations/sdpa_attention.py:39 in sdpa_attention_forward, code: query = query.contiguous()
        clone_4: "f16[1, 32, s0, 128][4096*s0, 128*s0, 128, 1]cuda:0" = torch.ops.aten.clone.default(add_135, memory_format = torch.contiguous_format);  add_135 = None
        
         # File: /app/low_bit_inference/optims/cache_optim.py:109 in lazy_initialization, code: self.keys = torch.zeros(
        full_default: "f16[1, 8, s1, 128][1024*s1, 128*s1, 128, 1]cuda:0" = torch.ops.aten.full.default([1, 8, arg322_1, 128], 0, dtype = torch.float16, layout = torch.strided, device = device(type='cuda', index=0), pin_memory = False)
        
         # File: /app/low_bit_inference/model.py:207 in forward, code: key_states = self.k_proj(hidden_states).view(hidden_shape).transpose(1, 2)
        view_12: "f16[1, s0, 4096][4096*s0, 4096, 1]cuda:0" = torch.ops.aten.reshape.default(getitem, [1, arg0_1, 4096])
        view_13: "f16[s0, 4096][4096, 1]cuda:0" = torch.ops.aten.reshape.default(view_12, [arg0_1, 4096]);  view_12 = None
        permute_3: "f16[4096, 1024][1, 4096]cuda:0" = torch.ops.aten.permute.default(arg10_1, [1, 0]);  arg10_1 = None
        mm_1: "f16[s0, 1024][1024, 1]cuda:0" = torch.ops.aten.mm.default(view_13, permute_3);  view_13 = permute_3 = None
        view_14: "f16[1, s0, 1024][1024*s0, 1024, 1]cuda:0" = torch.ops.aten.reshape.default(mm_1, [1, arg0_1, 1024]);  mm_1 = None
        view_15: "f16[1, s0, 8, 128][1024*s0, 1024, 128, 1]cuda:0" = torch.ops.aten.reshape.default(view_14, [1, arg0_1, -1, 128]);  view_14 = None
        permute_4: "f16[1, 8, s0, 128][1024*s0, 128, 1024, 1]cuda:0" = torch.ops.aten.permute.default(view_15, [0, 2, 1, 3]);  view_15 = None
        
         # File: /app/low_bit_inference/model.py:108 in apply_rotary_pos_emb, code: k_embed = (k * cos) + (rotate_half(k) * sin)
        mul_161: "f16[1, 8, s0, 128][1024*s0, 128, 1024, 1]cuda:0" = torch.ops.aten.mul.Tensor(permute_4, unsqueeze_4);  unsqueeze_4 = None
        
         # File: /app/low_bit_inference/model.py:81 in rotate_half, code: x2 = x[..., x.shape[-1] // 2 :]
        slice_7: "f16[1, 8, s0, 64][1024*s0, 128, 1024, 1]cuda:0" = torch.ops.aten.slice.Tensor(permute_4, 3, 64, 9223372036854775807)
        
         # File: /app/low_bit_inference/model.py:82 in rotate_half, code: return torch.cat((-x2, x1), dim=-1)
        neg_1: "f16[1, 8, s0, 64][512*s0, 64, 512, 1]cuda:0" = torch.ops.aten.neg.default(slice_7);  slice_7 = None
        
         # File: /app/low_bit_inference/model.py:80 in rotate_half, code: x1 = x[..., : x.shape[-1] // 2]
        slice_6: "f16[1, 8, s0, 64][1024*s0, 128, 1024, 1]cuda:0" = torch.ops.aten.slice.Tensor(permute_4, 3, 0, 64);  permute_4 = None
        
         # File: /app/low_bit_inference/model.py:82 in rotate_half, code: return torch.cat((-x2, x1), dim=-1)
        cat_1: "f16[1, 8, s0, 128][1024*s0, 128*s0, 128, 1]cuda:0" = torch.ops.aten.cat.default([neg_1, slice_6], -1);  neg_1 = slice_6 = None
        
         # File: /app/low_bit_inference/model.py:108 in apply_rotary_pos_emb, code: k_embed = (k * cos) + (rotate_half(k) * sin)
        mul_178: "f16[1, 8, s0, 128][1024*s0, 128*s0, 128, 1]cuda:0" = torch.ops.aten.mul.Tensor(cat_1, unsqueeze_5);  cat_1 = unsqueeze_5 = None
        add_159: "f16[1, 8, s0, 128][1024*s0, 128, 1024, 1]cuda:0" = torch.ops.aten.add.Tensor(mul_161, mul_178);  mul_161 = mul_178 = None
        
         # File: /app/low_bit_inference/optims/cache_optim.py:150 in update, code: self.keys.index_copy_(2, cache_position, key_states)
        index_put: "f16[1, 8, s1, 128][1024*s1, 128*s1, 128, 1]cuda:0" = torch.ops.aten.index_put.default(full_default, [None, None, arg3_1], add_159);  full_default = add_159 = None
        
         # File: /app/.venv/lib/python3.12/site-packages/transformers/integrations/sdpa_attention.py:15 in repeat_kv, code: return hidden_states.reshape(batch, num_key_value_heads * n_rep, slen, head_dim)
        unsqueeze_7: "f16[1, 8, 1, s1, 128][1024*s1, 128*s1, 128*s1, 128, 1]cuda:0" = torch.ops.aten.unsqueeze.default(index_put, 2)
        expand_5: "f16[1, 8, 4, s1, 128][1024*s1, 128*s1, 0, 128, 1]cuda:0" = torch.ops.aten.expand.default(unsqueeze_7, [1, 8, 4, arg5_1, 128]);  unsqueeze_7 = None
        clone_2: "f16[1, 8, 4, s1, 128][4096*s1, 512*s1, 128*s1, 128, 1]cuda:0" = torch.ops.aten.clone.default(expand_5, memory_format = torch.contiguous_format);  expand_5 = None
        view_21: "f16[1, 32, s1, 128][4096*s1, 128*s1, 128, 1]cuda:0" = torch.ops.aten.reshape.default(clone_2, [1, 32, arg5_1, 128]);  clone_2 = None
        
         # File: /app/low_bit_inference/optims/cache_optim.py:114 in lazy_initialization, code: self.values = torch.zeros(
        full_default_1: "f16[1, 8, s1, 128][1024*s1, 128*s1, 128, 1]cuda:0" = torch.ops.aten.full.default([1, 8, arg322_1, 128], 0, dtype = torch.float16, layout = torch.strided, device = device(type='cuda', index=0), pin_memory = False)
        
         # File: /app/low_bit_inference/model.py:208 in forward, code: value_states = self.v_proj(hidden_states).view(hidden_shape).transpose(1, 2)
        view_17: "f16[1, s0, 4096][4096*s0, 4096, 1]cuda:0" = torch.ops.aten.reshape.default(getitem, [1, arg0_1, 4096]);  getitem = None
        view_18: "f16[s0, 4096][4096, 1]cuda:0" = torch.ops.aten.reshape.default(view_17, [arg0_1, 4096]);  view_17 = None
        permute_5: "f16[4096, 1024][1, 4096]cuda:0" = torch.ops.aten.permute.default(arg11_1, [1, 0]);  arg11_1 = None
        mm_2: "f16[s0, 1024][1024, 1]cuda:0" = torch.ops.aten.mm.default(view_18, permute_5);  view_18 = permute_5 = None
        view_19: "f16[1, s0, 1024][1024*s0, 1024, 1]cuda:0" = torch.ops.aten.reshape.default(mm_2, [1, arg0_1, 1024]);  mm_2 = None
        view_20: "f16[1, s0, 8, 128][1024*s0, 1024, 128, 1]cuda:0" = torch.ops.aten.reshape.default(view_19, [1, arg0_1, -1, 128]);  view_19 = None
        permute_6: "f16[1, 8, s0, 128][1024*s0, 128, 1024, 1]cuda:0" = torch.ops.aten.permute.default(view_20, [0, 2, 1, 3]);  view_20 = None
        
         # File: /app/low_bit_inference/optims/cache_optim.py:151 in update, code: self.values.index_copy_(2, cache_position, value_states)
        index_put_1: "f16[1, 8, s1, 128][1024*s1, 128*s1, 128, 1]cuda:0" = torch.ops.aten.index_put.default(full_default_1, [None, None, arg3_1], permute_6);  full_default_1 = permute_6 = None
        
         # File: /app/.venv/lib/python3.12/site-packages/transformers/integrations/sdpa_attention.py:15 in repeat_kv, code: return hidden_states.reshape(batch, num_key_value_heads * n_rep, slen, head_dim)
        unsqueeze_9: "f16[1, 8, 1, s1, 128][1024*s1, 128*s1, 128*s1, 128, 1]cuda:0" = torch.ops.aten.unsqueeze.default(index_put_1, 2)
        expand_7: "f16[1, 8, 4, s1, 128][1024*s1, 128*s1, 0, 128, 1]cuda:0" = torch.ops.aten.expand.default(unsqueeze_9, [1, 8, 4, arg5_1, 128]);  unsqueeze_9 = None
        clone_3: "f16[1, 8, 4, s1, 128][4096*s1, 512*s1, 128*s1, 128, 1]cuda:0" = torch.ops.aten.clone.default(expand_7, memory_format = torch.contiguous_format);  expand_7 = None
        view_22: "f16[1, 32, s1, 128][4096*s1, 128*s1, 128, 1]cuda:0" = torch.ops.aten.reshape.default(clone_3, [1, 32, arg5_1, 128]);  clone_3 = None
        
         # File: /app/.venv/lib/python3.12/site-packages/transformers/integrations/sdpa_attention.py:54 in sdpa_attention_forward, code: attn_output = torch.nn.functional.scaled_dot_product_attention(
        full_default_3: "f16[][]cuda:0" = torch.ops.aten.full.default([], 0.0, dtype = torch.float16, layout = torch.strided, device = device(type='cuda', index=0), pin_memory = False)
        full_default_2: "f16[][]cuda:0" = torch.ops.aten.full.default([], -inf, dtype = torch.float16, layout = torch.strided, device = device(type='cuda', index=0), pin_memory = False)
        where: "f16[1, 1, s0, s1][s0*s1, s0*s1, s1, 1]cuda:0" = torch.ops.aten.where.self(arg6_1, full_default_3, full_default_2);  full_default_3 = full_default_2 = None
        expand_8: "f16[1, 32, s0, s1][s0*s1, 0, s1, 1]cuda:0" = torch.ops.aten.expand.default(where, [1, 32, arg0_1, arg5_1]);  where = None
        _scaled_dot_product_efficient_attention = torch.ops.aten._scaled_dot_product_efficient_attention.default(clone_4, view_21, view_22, expand_8, False, scale = 0.08838834764831845);  clone_4 = view_21 = view_22 = expand_8 = None
        getitem_2: "f16[1, 32, s0, 128][4096*s0, 128, 4096, 1]cuda:0" = _scaled_dot_product_efficient_attention[0];  _scaled_dot_product_efficient_attention = None
        
         # File: /app/low_bit_inference/optims/rms_norm_kernels/liger_rms_norm.py:447 in rms_norm_forward, code: Y = torch.empty((n_rows, n_cols), dtype=X.dtype, device=X.device)
        empty_2: "f16[s0, 4096][4096, 1]cuda:0" = torch.ops.aten.empty.memory_format([arg0_1, 4096], dtype = torch.float16, device = device(type='cuda', index=0), pin_memory = False)
        
         # File: /app/.venv/lib/python3.12/site-packages/transformers/integrations/sdpa_attention.py:63 in sdpa_attention_forward, code: attn_output = attn_output.transpose(1, 2).contiguous()
        permute_7: "f16[1, s0, 32, 128][4096*s0, 4096, 128, 1]cuda:0" = torch.ops.aten.permute.default(getitem_2, [0, 2, 1, 3]);  getitem_2 = None
        
         # File: /app/low_bit_inference/model.py:233 in forward, code: attn_output = attn_output.reshape(*input_shape, -1).contiguous()
        view_23: "f16[1, s0, 4096][4096*s0, 4096, 1]cuda:0" = torch.ops.aten.reshape.default(permute_7, [1, arg0_1, -1]);  permute_7 = None
        
         # File: /app/low_bit_inference/model.py:234 in forward, code: attn_output = self.o_proj(attn_output)
        view_24: "f16[s0, 4096][4096, 1]cuda:0" = torch.ops.aten.reshape.default(view_23, [arg0_1, 4096]);  view_23 = None
        permute_8: "f16[4096, 4096][1, 4096]cuda:0" = torch.ops.aten.permute.default(arg13_1, [1, 0]);  arg13_1 = None
        mm_3: "f16[s0, 4096][4096, 1]cuda:0" = torch.ops.aten.mm.default(view_24, permute_8);  view_24 = permute_8 = None
        view_25: "f16[1, s0, 4096][4096*s0, 4096, 1]cuda:0" = torch.ops.aten.reshape.default(mm_3, [1, arg0_1, 4096]);  mm_3 = None
        
         # File: /app/low_bit_inference/model.py:273 in forward, code: hidden_states = residual + hidden_states
        add_317: "f16[1, s0, 4096][4096*s0, 4096, 1]cuda:0" = torch.ops.aten.add.Tensor(embedding, view_25);  embedding = view_25 = None
        
         # File: /app/low_bit_inference/optims/rms_norm_kernels/liger_rms_norm.py:443 in rms_norm_forward, code: X = X.view(-1, dim)
        view_26: "f16[s0, 4096][4096, 1]cuda:0" = torch.ops.aten.reshape.default(add_317, [-1, 4096])
        
         # File: /app/low_bit_inference/optims/rms_norm_kernels/liger_rms_norm.py:451 in rms_norm_forward, code: RSTD = torch.empty(n_rows, dtype=rstd_dtype, device=X.device)
        empty_3: "f32[s0][1]cuda:0" = torch.ops.aten.empty.memory_format([arg0_1], dtype = torch.float32, device = device(type='cuda', index=0), pin_memory = False)
        
         # File: /app/low_bit_inference/optims/rms_norm_kernels/liger_rms_norm.py:461 in rms_norm_forward, code: _rms_norm_forward_kernel[(n_rows,)](
        triton_kernel_wrapper_functional_proxy_1 = torch.ops.higher_order.triton_kernel_wrapper_functional(kernel_idx = 2, constant_args_idx = 1, grid = [(arg0_1, 1, 1)], tma_descriptor_metadata = {}, kwargs = {'Y_ptr': empty_2, 'X_ptr': view_26, 'W_ptr': arg14_1, 'RSTD_ptr': empty_3}, tensors_to_clone = ['Y_ptr', 'RSTD_ptr']);  empty_2 = view_26 = arg14_1 = empty_3 = None
        getitem_6: "f16[s0, 4096][4096, 1]cuda:0" = triton_kernel_wrapper_functional_proxy_1['Y_ptr'];  triton_kernel_wrapper_functional_proxy_1 = None
        
         # File: /app/low_bit_inference/optims/rms_norm_kernels/liger_rms_norm.py:447 in rms_norm_forward, code: Y = torch.empty((n_rows, n_cols), dtype=X.dtype, device=X.device)
        empty_4: "f16[s0, 4096][4096, 1]cuda:0" = torch.ops.aten.empty.memory_format([arg0_1, 4096], dtype = torch.float16, device = device(type='cuda', index=0), pin_memory = False)
        
         # File: /app/low_bit_inference/model.py:124 in forward, code: down_proj = self.down_proj(self.act_fn(self.gate_proj(x)) * self.up_proj(x))
        view_29: "f16[1, s0, 4096][4096*s0, 4096, 1]cuda:0" = torch.ops.aten.reshape.default(getitem_6, [1, arg0_1, 4096])
        view_30: "f16[s0, 4096][4096, 1]cuda:0" = torch.ops.aten.reshape.default(view_29, [arg0_1, 4096]);  view_29 = None
        permute_9: "f16[4096, 14336][1, 4096]cuda:0" = torch.ops.aten.permute.default(arg15_1, [1, 0]);  arg15_1 = None
        mm_4: "f16[s0, 14336][14336, 1]cuda:0" = torch.ops.aten.mm.default(view_30, permute_9);  view_30 = permute_9 = None
        view_31: "f16[1, s0, 14336][14336*s0, 14336, 1]cuda:0" = torch.ops.aten.reshape.default(mm_4, [1, arg0_1, 14336]);  mm_4 = None
        convert_element_type_13: "f32[1, s0, 14336][14336*s0, 14336, 1]cuda:0" = torch.ops.prims.convert_element_type.default(view_31, torch.float32);  view_31 = None
        sigmoid: "f32[1, s0, 14336][14336*s0, 14336, 1]cuda:0" = torch.ops.aten.sigmoid.default(convert_element_type_13)
        mul_426: "f32[1, s0, 14336][14336*s0, 14336, 1]cuda:0" = torch.ops.aten.mul.Tensor(convert_element_type_13, sigmoid);  convert_element_type_13 = sigmoid = None
        convert_element_type_14: "f16[1, s0, 14336][14336*s0, 14336, 1]cuda:0" = torch.ops.prims.convert_element_type.default(mul_426, torch.float16);  mul_426 = None
        view_33: "f16[1, s0, 4096][4096*s0, 4096, 1]cuda:0" = torch.ops.aten.reshape.default(getitem_6, [1, arg0_1, 4096]);  getitem_6 = None
        view_34: "f16[s0, 4096][4096, 1]cuda:0" = torch.ops.aten.reshape.default(view_33, [arg0_1, 4096]);  view_33 = None
        permute_10: "f16[4096, 14336][1, 4096]cuda:0" = torch.ops.aten.permute.default(arg16_1, [1, 0]);  arg16_1 = None
        mm_5: "f16[s0, 14336][14336, 1]cuda:0" = torch.ops.aten.mm.default(view_34, permute_10);  view_34 = permute_10 = None
        view_35: "f16[1, s0, 14336][14336*s0, 14336, 1]cuda:0" = torch.ops.aten.reshape.default(mm_5, [1, arg0_1, 14336]);  mm_5 = None
        mul_443: "f16[1, s0, 14336][14336*s0, 14336, 1]cuda:0" = torch.ops.aten.mul.Tensor(convert_element_type_14, view_35);  convert_element_type_14 = view_35 = None
        view_36: "f16[s0, 14336][14336, 1]cuda:0" = torch.ops.aten.reshape.default(mul_443, [arg0_1, 14336]);  mul_443 = None
        permute_11: "f16[14336, 4096][1, 14336]cuda:0" = torch.ops.aten.permute.default(arg17_1, [1, 0]);  arg17_1 = None
        mm_6: "f16[s0, 4096][4096, 1]cuda:0" = torch.ops.aten.mm.default(view_36, permute_11);  view_36 = permute_11 = None
        view_37: "f16[1, s0, 4096][4096*s0, 4096, 1]cuda:0" = torch.ops.aten.reshape.default(mm_6, [1, arg0_1, 4096]);  mm_6 = None
        
         # File: /app/low_bit_inference/model.py:279 in forward, code: hidden_states = residual + hidden_states
        add_370: "f16[1, s0, 4096][4096*s0, 4096, 1]cuda:0" = torch.ops.aten.add.Tensor(add_317, view_37);  add_317 = view_37 = None
        
         # File: /app/low_bit_inference/optims/rms_norm_kernels/liger_rms_norm.py:443 in rms_norm_forward, code: X = X.view(-1, dim)
        view_38: "f16[s0, 4096][4096, 1]cuda:0" = torch.ops.aten.reshape.default(add_370, [-1, 4096])
        
         # File: /app/low_bit_inference/optims/rms_norm_kernels/liger_rms_norm.py:451 in rms_norm_forward, code: RSTD = torch.empty(n_rows, dtype=rstd_dtype, device=X.device)
        empty_5: "f32[s0][1]cuda:0" = torch.ops.aten.empty.memory_format([arg0_1], dtype = torch.float32, device = device(type='cuda', index=0), pin_memory = False)
        
         # File: /app/low_bit_inference/optims/rms_norm_kernels/liger_rms_norm.py:461 in rms_norm_forward, code: _rms_norm_forward_kernel[(n_rows,)](
        triton_kernel_wrapper_functional_proxy_2 = torch.ops.higher_order.triton_kernel_wrapper_functional(kernel_idx = 3, constant_args_idx = 2, grid = [(arg0_1, 1, 1)], tma_descriptor_metadata = {}, kwargs = {'Y_ptr': empty_4, 'X_ptr': view_38, 'W_ptr': arg18_1, 'RSTD_ptr': empty_5}, tensors_to_clone = ['Y_ptr', 'RSTD_ptr']);  empty_4 = view_38 = arg18_1 = empty_5 = None
        getitem_8: "f16[s0, 4096][4096, 1]cuda:0" = triton_kernel_wrapper_functional_proxy_2['Y_ptr'];  triton_kernel_wrapper_functional_proxy_2 = None
        
         # File: /app/low_bit_inference/model.py:206 in forward, code: query_states = self.q_proj(hidden_states).view(hidden_shape).transpose(1, 2)
        view_41: "f16[1, s0, 4096][4096*s0, 4096, 1]cuda:0" = torch.ops.aten.reshape.default(getitem_8, [1, arg0_1, 4096])
        view_42: "f16[s0, 4096][4096, 1]cuda:0" = torch.ops.aten.reshape.default(view_41, [arg0_1, 4096]);  view_41 = None
        permute_12: "f16[4096, 4096][1, 4096]cuda:0" = torch.ops.aten.permute.default(arg19_1, [1, 0]);  arg19_1 = None
        mm_7: "f16[s0, 4096][4096, 1]cuda:0" = torch.ops.aten.mm.default(view_42, permute_12);  view_42 = permute_12 = None
        view_43: "f16[1, s0, 4096][4096*s0, 4096, 1]cuda:0" = torch.ops.aten.reshape.default(mm_7, [1, arg0_1, 4096]);  mm_7 = None
        view_44: "f16[1, s0, 32, 128][4096*s0, 4096, 128, 1]cuda:0" = torch.ops.aten.reshape.default(view_43, [1, arg0_1, -1, 128]);  view_43 = None
        permute_13: "f16[1, 32, s0, 128][4096*s0, 128, 4096, 1]cuda:0" = torch.ops.aten.permute.default(view_44, [0, 2, 1, 3]);  view_44 = None
        
         # File: /app/low_bit_inference/model.py:105 in apply_rotary_pos_emb, code: cos = cos.unsqueeze(unsqueeze_dim)
        unsqueeze_10: "f16[1, 1, s0, 128][128*s0, 128*s0, 128, 1]cuda:0" = torch.ops.aten.unsqueeze.default(convert_element_type_1, 1)
        
         # File: /app/low_bit_inference/model.py:107 in apply_rotary_pos_emb, code: q_embed = (q * cos) + (rotate_half(q) * sin)
        mul_545: "f16[1, 32, s0, 128][4096*s0, 128, 4096, 1]cuda:0" = torch.ops.aten.mul.Tensor(permute_13, unsqueeze_10)
        
         # File: /app/low_bit_inference/model.py:81 in rotate_half, code: x2 = x[..., x.shape[-1] // 2 :]
        slice_28: "f16[1, 32, s0, 64][4096*s0, 128, 4096, 1]cuda:0" = torch.ops.aten.slice.Tensor(permute_13, 3, 64, 9223372036854775807)
        
         # File: /app/low_bit_inference/model.py:82 in rotate_half, code: return torch.cat((-x2, x1), dim=-1)
        neg_2: "f16[1, 32, s0, 64][2048*s0, 64, 2048, 1]cuda:0" = torch.ops.aten.neg.default(slice_28);  slice_28 = None
        
         # File: /app/low_bit_inference/model.py:80 in rotate_half, code: x1 = x[..., : x.shape[-1] // 2]
        slice_27: "f16[1, 32, s0, 64][4096*s0, 128, 4096, 1]cuda:0" = torch.ops.aten.slice.Tensor(permute_13, 3, 0, 64);  permute_13 = None
        
         # File: /app/low_bit_inference/model.py:82 in rotate_half, code: return torch.cat((-x2, x1), dim=-1)
        cat_2: "f16[1, 32, s0, 128][4096*s0, 128*s0, 128, 1]cuda:0" = torch.ops.aten.cat.default([neg_2, slice_27], -1);  neg_2 = slice_27 = None
        
         # File: /app/low_bit_inference/model.py:106 in apply_rotary_pos_emb, code: sin = sin.unsqueeze(unsqueeze_dim)
        unsqueeze_11: "f16[1, 1, s0, 128][128*s0, 128*s0, 128, 1]cuda:0" = torch.ops.aten.unsqueeze.default(convert_element_type_2, 1)
        
         # File: /app/low_bit_inference/model.py:107 in apply_rotary_pos_emb, code: q_embed = (q * cos) + (rotate_half(q) * sin)
        mul_562: "f16[1, 32, s0, 128][4096*s0, 128*s0, 128, 1]cuda:0" = torch.ops.aten.mul.Tensor(cat_2, unsqueeze_11);  cat_2 = None
        add_464: "f16[1, 32, s0, 128][4096*s0, 128, 4096, 1]cuda:0" = torch.ops.aten.add.Tensor(mul_545, mul_562);  mul_545 = mul_562 = None
        
         # File: /app/.venv/lib/python3.12/site-packages/transformers/integrations/sdpa_attention.py:39 in sdpa_attention_forward, code: query = query.contiguous()
        clone_7: "f16[1, 32, s0, 128][4096*s0, 128*s0, 128, 1]cuda:0" = torch.ops.aten.clone.default(add_464, memory_format = torch.contiguous_format);  add_464 = None
        
         # File: /app/low_bit_inference/optims/cache_optim.py:109 in lazy_initialization, code: self.keys = torch.zeros(
        full_default_4: "f16[1, 8, s1, 128][1024*s1, 128*s1, 128, 1]cuda:0" = torch.ops.aten.full.default([1, 8, arg322_1, 128], 0, dtype = torch.float16, layout = torch.strided, device = device(type='cuda', index=0), pin_memory = False)
        
         # File: /app/low_bit_inference/model.py:207 in forward, code: key_states = self.k_proj(hidden_states).view(hidden_shape).transpose(1, 2)
        view_46: "f16[1, s0, 4096][4096*s0, 4096, 1]cuda:0" = torch.ops.aten.reshape.default(getitem_8, [1, arg0_1, 4096])
        view_47: "f16[s0, 4096][4096, 1]cuda:0" = torch.ops.aten.reshape.default(view_46, [arg0_1, 4096]);  view_46 = None
        permute_14: "f16[4096, 1024][1, 4096]cuda:0" = torch.ops.aten.permute.default(arg20_1, [1, 0]);  arg20_1 = None
        mm_8: "f16[s0, 1024][1024, 1]cuda:0" = torch.ops.aten.mm.default(view_47, permute_14);  view_47 = permute_14 = None
        view_48: "f16[1, s0, 1024][1024*s0, 1024, 1]cuda:0" = torch.ops.aten.reshape.default(mm_8, [1, arg0_1, 1024]);  mm_8 = None
        view_49: "f16[1, s0, 8, 128][1024*s0, 1024, 128, 1]cuda:0" = torch.ops.aten.reshape.default(view_48, [1, arg0_1, -1, 128]);  view_48 = None
        permute_15: "f16[1, 8, s0, 128][1024*s0, 128, 1024, 1]cuda:0" = torch.ops.aten.permute.default(view_49, [0, 2, 1, 3]);  view_49 = None
        
         # File: /app/low_bit_inference/model.py:108 in apply_rotary_pos_emb, code: k_embed = (k * cos) + (rotate_half(k) * sin)
        mul_570: "f16[1, 8, s0, 128][1024*s0, 128, 1024, 1]cuda:0" = torch.ops.aten.mul.Tensor(permute_15, unsqueeze_10);  unsqueeze_10 = None
        
         # File: /app/low_bit_inference/model.py:81 in rotate_half, code: x2 = x[..., x.shape[-1] // 2 :]
        slice_30: "f16[1, 8, s0, 64][1024*s0, 128, 1024, 1]cuda:0" = torch.ops.aten.slice.Tensor(permute_15, 3, 64, 9223372036854775807)
        
         # File: /app/low_bit_inference/model.py:82 in rotate_half, code: return torch.cat((-x2, x1), dim=-1)
        neg_3: "f16[1, 8, s0, 64][512*s0, 64, 512, 1]cuda:0" = torch.ops.aten.neg.default(slice_30);  slice_30 = None
        
         # File: /app/low_bit_inference/model.py:80 in rotate_half, code: x1 = x[..., : x.shape[-1] // 2]
        slice_29: "f16[1, 8, s0, 64][1024*s0, 128, 1024, 1]cuda:0" = torch.ops.aten.slice.Tensor(permute_15, 3, 0, 64);  permute_15 = None
        
         # File: /app/low_bit_inference/model.py:82 in rotate_half, code: return torch.cat((-x2, x1), dim=-1)
        cat_3: "f16[1, 8, s0, 128][1024*s0, 128*s0, 128, 1]cuda:0" = torch.ops.aten.cat.default([neg_3, slice_29], -1);  neg_3 = slice_29 = None
        
         # File: /app/low_bit_inference/model.py:108 in apply_rotary_pos_emb, code: k_embed = (k * cos) + (rotate_half(k) * sin)
        mul_587: "f16[1, 8, s0, 128][1024*s0, 128*s0, 128, 1]cuda:0" = torch.ops.aten.mul.Tensor(cat_3, unsqueeze_11);  cat_3 = unsqueeze_11 = None
        add_488: "f16[1, 8, s0, 128][1024*s0, 128, 1024, 1]cuda:0" = torch.ops.aten.add.Tensor(mul_570, mul_587);  mul_570 = mul_587 = None
        
         # File: /app/low_bit_inference/optims/cache_optim.py:150 in update, code: self.keys.index_copy_(2, cache_position, key_states)
        index_put_2: "f16[1, 8, s1, 128][1024*s1, 128*s1, 128, 1]cuda:0" = torch.ops.aten.index_put.default(full_default_4, [None, None, arg3_1], add_488);  full_default_4 = add_488 = None
        
         # File: /app/.venv/lib/python3.12/site-packages/transformers/integrations/sdpa_attention.py:15 in repeat_kv, code: return hidden_states.reshape(batch, num_key_value_heads * n_rep, slen, head_dim)
        unsqueeze_13: "f16[1, 8, 1, s1, 128][1024*s1, 128*s1, 128*s1, 128, 1]cuda:0" = torch.ops.aten.unsqueeze.default(index_put_2, 2)
        expand_10: "f16[1, 8, 4, s1, 128][1024*s1, 128*s1, 0, 128, 1]cuda:0" = torch.ops.aten.expand.default(unsqueeze_13, [1, 8, 4, arg5_1, 128]);  unsqueeze_13 = None
        clone_5: "f16[1, 8, 4, s1, 128][4096*s1, 512*s1, 128*s1, 128, 1]cuda:0" = torch.ops.aten.clone.default(expand_10, memory_format = torch.contiguous_format);  expand_10 = None
        view_55: "f16[1, 32, s1, 128][4096*s1, 128*s1, 128, 1]cuda:0" = torch.ops.aten.reshape.default(clone_5, [1, 32, arg5_1, 128]);  clone_5 = None
        
         # File: /app/low_bit_inference/optims/cache_optim.py:114 in lazy_initialization, code: self.values = torch.zeros(
        full_default_5: "f16[1, 8, s1, 128][1024*s1, 128*s1, 128, 1]cuda:0" = torch.ops.aten.full.default([1, 8, arg322_1, 128], 0, dtype = torch.float16, layout = torch.strided, device = device(type='cuda', index=0), pin_memory = False)
        
         # File: /app/low_bit_inference/model.py:208 in forward, code: value_states = self.v_proj(hidden_states).view(hidden_shape).transpose(1, 2)
        view_51: "f16[1, s0, 4096][4096*s0, 4096, 1]cuda:0" = torch.ops.aten.reshape.default(getitem_8, [1, arg0_1, 4096]);  getitem_8 = None
        view_52: "f16[s0, 4096][4096, 1]cuda:0" = torch.ops.aten.reshape.default(view_51, [arg0_1, 4096]);  view_51 = None
        permute_16: "f16[4096, 1024][1, 4096]cuda:0" = torch.ops.aten.permute.default(arg21_1, [1, 0]);  arg21_1 = None
        mm_9: "f16[s0, 1024][1024, 1]cuda:0" = torch.ops.aten.mm.default(view_52, permute_16);  view_52 = permute_16 = None
        view_53: "f16[1, s0, 1024][1024*s0, 1024, 1]cuda:0" = torch.ops.aten.reshape.default(mm_9, [1, arg0_1, 1024]);  mm_9 = None
        view_54: "f16[1, s0, 8, 128][1024*s0, 1024, 128, 1]cuda:0" = torch.ops.aten.reshape.default(view_53, [1, arg0_1, -1, 128]);  view_53 = None
        permute_17: "f16[1, 8, s0, 128][1024*s0, 128, 1024, 1]cuda:0" = torch.ops.aten.permute.default(view_54, [0, 2, 1, 3]);  view_54 = None
        
         # File: /app/low_bit_inference/optims/cache_optim.py:151 in update, code: self.values.index_copy_(2, cache_position, value_states)
        index_put_3: "f16[1, 8, s1, 128][1024*s1, 128*s1, 128, 1]cuda:0" = torch.ops.aten.index_put.default(full_default_5, [None, None, arg3_1], permute_17);  full_default_5 = permute_17 = None
        
         # File: /app/.venv/lib/python3.12/site-packages/transformers/integrations/sdpa_attention.py:15 in repeat_kv, code: return hidden_states.reshape(batch, num_key_value_heads * n_rep, slen, head_dim)
        unsqueeze_15: "f16[1, 8, 1, s1, 128][1024*s1, 128*s1, 128*s1, 128, 1]cuda:0" = torch.ops.aten.unsqueeze.default(index_put_3, 2)
        expand_12: "f16[1, 8, 4, s1, 128][1024*s1, 128*s1, 0, 128, 1]cuda:0" = torch.ops.aten.expand.default(unsqueeze_15, [1, 8, 4, arg5_1, 128]);  unsqueeze_15 = None
        clone_6: "f16[1, 8, 4, s1, 128][4096*s1, 512*s1, 128*s1, 128, 1]cuda:0" = torch.ops.aten.clone.default(expand_12, memory_format = torch.contiguous_format);  expand_12 = None
        view_56: "f16[1, 32, s1, 128][4096*s1, 128*s1, 128, 1]cuda:0" = torch.ops.aten.reshape.default(clone_6, [1, 32, arg5_1, 128]);  clone_6 = None
        
         # File: /app/.venv/lib/python3.12/site-packages/transformers/integrations/sdpa_attention.py:54 in sdpa_attention_forward, code: attn_output = torch.nn.functional.scaled_dot_product_attention(
        full_default_7: "f16[][]cuda:0" = torch.ops.aten.full.default([], 0.0, dtype = torch.float16, layout = torch.strided, device = device(type='cuda', index=0), pin_memory = False)
        full_default_6: "f16[][]cuda:0" = torch.ops.aten.full.default([], -inf, dtype = torch.float16, layout = torch.strided, device = device(type='cuda', index=0), pin_memory = False)
        where_1: "f16[1, 1, s0, s1][s0*s1, s0*s1, s1, 1]cuda:0" = torch.ops.aten.where.self(arg6_1, full_default_7, full_default_6);  full_default_7 = full_default_6 = None
        expand_13: "f16[1, 32, s0, s1][s0*s1, 0, s1, 1]cuda:0" = torch.ops.aten.expand.default(where_1, [1, 32, arg0_1, arg5_1]);  where_1 = None
        _scaled_dot_product_efficient_attention_1 = torch.ops.aten._scaled_dot_product_efficient_attention.default(clone_7, view_55, view_56, expand_13, False, scale = 0.08838834764831845);  clone_7 = view_55 = view_56 = expand_13 = None
        getitem_10: "f16[1, 32, s0, 128][4096*s0, 128, 4096, 1]cuda:0" = _scaled_dot_product_efficient_attention_1[0];  _scaled_dot_product_efficient_attention_1 = None
        
         # File: /app/low_bit_inference/optims/rms_norm_kernels/liger_rms_norm.py:447 in rms_norm_forward, code: Y = torch.empty((n_rows, n_cols), dtype=X.dtype, device=X.device)
        empty_6: "f16[s0, 4096][4096, 1]cuda:0" = torch.ops.aten.empty.memory_format([arg0_1, 4096], dtype = torch.float16, device = device(type='cuda', index=0), pin_memory = False)
        
         # File: /app/.venv/lib/python3.12/site-packages/transformers/integrations/sdpa_attention.py:63 in sdpa_attention_forward, code: attn_output = attn_output.transpose(1, 2).contiguous()
        permute_18: "f16[1, s0, 32, 128][4096*s0, 4096, 128, 1]cuda:0" = torch.ops.aten.permute.default(getitem_10, [0, 2, 1, 3]);  getitem_10 = None
        
         # File: /app/low_bit_inference/model.py:233 in forward, code: attn_output = attn_output.reshape(*input_shape, -1).contiguous()
        view_57: "f16[1, s0, 4096][4096*s0, 4096, 1]cuda:0" = torch.ops.aten.reshape.default(permute_18, [1, arg0_1, -1]);  permute_18 = None
        
         # File: /app/low_bit_inference/model.py:234 in forward, code: attn_output = self.o_proj(attn_output)
        view_58: "f16[s0, 4096][4096, 1]cuda:0" = torch.ops.aten.reshape.default(view_57, [arg0_1, 4096]);  view_57 = None
        permute_19: "f16[4096, 4096][1, 4096]cuda:0" = torch.ops.aten.permute.default(arg23_1, [1, 0]);  arg23_1 = None
        mm_10: "f16[s0, 4096][4096, 1]cuda:0" = torch.ops.aten.mm.default(view_58, permute_19);  view_58 = permute_19 = None
        view_59: "f16[1, s0, 4096][4096*s0, 4096, 1]cuda:0" = torch.ops.aten.reshape.default(mm_10, [1, arg0_1, 4096]);  mm_10 = None
        
         # File: /app/low_bit_inference/model.py:273 in forward, code: hidden_states = residual + hidden_states
        add_646: "f16[1, s0, 4096][4096*s0, 4096, 1]cuda:0" = torch.ops.aten.add.Tensor(add_370, view_59);  add_370 = view_59 = None
        
         # File: /app/low_bit_inference/optims/rms_norm_kernels/liger_rms_norm.py:443 in rms_norm_forward, code: X = X.view(-1, dim)
        view_60: "f16[s0, 4096][4096, 1]cuda:0" = torch.ops.aten.reshape.default(add_646, [-1, 4096])
        
         # File: /app/low_bit_inference/optims/rms_norm_kernels/liger_rms_norm.py:451 in rms_norm_forward, code: RSTD = torch.empty(n_rows, dtype=rstd_dtype, device=X.device)
        empty_7: "f32[s0][1]cuda:0" = torch.ops.aten.empty.memory_format([arg0_1], dtype = torch.float32, device = device(type='cuda', index=0), pin_memory = False)
        
         # File: /app/low_bit_inference/optims/rms_norm_kernels/liger_rms_norm.py:461 in rms_norm_forward, code: _rms_norm_forward_kernel[(n_rows,)](
        triton_kernel_wrapper_functional_proxy_3 = torch.ops.higher_order.triton_kernel_wrapper_functional(kernel_idx = 4, constant_args_idx = 3, grid = [(arg0_1, 1, 1)], tma_descriptor_metadata = {}, kwargs = {'Y_ptr': empty_6, 'X_ptr': view_60, 'W_ptr': arg24_1, 'RSTD_ptr': empty_7}, tensors_to_clone = ['Y_ptr', 'RSTD_ptr']);  empty_6 = view_60 = arg24_1 = empty_7 = None
        getitem_14: "f16[s0, 4096][4096, 1]cuda:0" = triton_kernel_wrapper_functional_proxy_3['Y_ptr'];  triton_kernel_wrapper_functional_proxy_3 = None
        
         # File: /app/low_bit_inference/optims/rms_norm_kernels/liger_rms_norm.py:447 in rms_norm_forward, code: Y = torch.empty((n_rows, n_cols), dtype=X.dtype, device=X.device)
        empty_8: "f16[s0, 4096][4096, 1]cuda:0" = torch.ops.aten.empty.memory_format([arg0_1, 4096], dtype = torch.float16, device = device(type='cuda', index=0), pin_memory = False)
        
         # File: /app/low_bit_inference/model.py:124 in forward, code: down_proj = self.down_proj(self.act_fn(self.gate_proj(x)) * self.up_proj(x))
        view_63: "f16[1, s0, 4096][4096*s0, 4096, 1]cuda:0" = torch.ops.aten.reshape.default(getitem_14, [1, arg0_1, 4096])
        view_64: "f16[s0, 4096][4096, 1]cuda:0" = torch.ops.aten.reshape.default(view_63, [arg0_1, 4096]);  view_63 = None
        permute_20: "f16[4096, 14336][1, 4096]cuda:0" = torch.ops.aten.permute.default(arg25_1, [1, 0]);  arg25_1 = None
        mm_11: "f16[s0, 14336][14336, 1]cuda:0" = torch.ops.aten.mm.default(view_64, permute_20);  view_64 = permute_20 = None
        view_65: "f16[1, s0, 14336][14336*s0, 14336, 1]cuda:0" = torch.ops.aten.reshape.default(mm_11, [1, arg0_1, 14336]);  mm_11 = None
        convert_element_type_29: "f32[1, s0, 14336][14336*s0, 14336, 1]cuda:0" = torch.ops.prims.convert_element_type.default(view_65, torch.float32);  view_65 = None
        sigmoid_1: "f32[1, s0, 14336][14336*s0, 14336, 1]cuda:0" = torch.ops.aten.sigmoid.default(convert_element_type_29)
        mul_835: "f32[1, s0, 14336][14336*s0, 14336, 1]cuda:0" = torch.ops.aten.mul.Tensor(convert_element_type_29, sigmoid_1);  convert_element_type_29 = sigmoid_1 = None
        convert_element_type_30: "f16[1, s0, 14336][14336*s0, 14336, 1]cuda:0" = torch.ops.prims.convert_element_type.default(mul_835, torch.float16);  mul_835 = None
        view_67: "f16[1, s0, 4096][4096*s0, 4096, 1]cuda:0" = torch.ops.aten.reshape.default(getitem_14, [1, arg0_1, 4096]);  getitem_14 = None
        view_68: "f16[s0, 4096][4096, 1]cuda:0" = torch.ops.aten.reshape.default(view_67, [arg0_1, 4096]);  view_67 = None
        permute_21: "f16[4096, 14336][1, 4096]cuda:0" = torch.ops.aten.permute.default(arg26_1, [1, 0]);  arg26_1 = None
        mm_12: "f16[s0, 14336][14336, 1]cuda:0" = torch.ops.aten.mm.default(view_68, permute_21);  view_68 = permute_21 = None
        view_69: "f16[1, s0, 14336][14336*s0, 14336, 1]cuda:0" = torch.ops.aten.reshape.default(mm_12, [1, arg0_1, 14336]);  mm_12 = None
        mul_852: "f16[1, s0, 14336][14336*s0, 14336, 1]cuda:0" = torch.ops.aten.mul.Tensor(convert_element_type_30, view_69);  convert_element_type_30 = view_69 = None
        view_70: "f16[s0, 14336][14336, 1]cuda:0" = torch.ops.aten.reshape.default(mul_852, [arg0_1, 14336]);  mul_852 = None
        permute_22: "f16[14336, 4096][1, 14336]cuda:0" = torch.ops.aten.permute.default(arg27_1, [1, 0]);  arg27_1 = None
        mm_13: "f16[s0, 4096][4096, 1]cuda:0" = torch.ops.aten.mm.default(view_70, permute_22);  view_70 = permute_22 = None
        view_71: "f16[1, s0, 4096][4096*s0, 4096, 1]cuda:0" = torch.ops.aten.reshape.default(mm_13, [1, arg0_1, 4096]);  mm_13 = None
        
         # File: /app/low_bit_inference/model.py:279 in forward, code: hidden_states = residual + hidden_states
        add_699: "f16[1, s0, 4096][4096*s0, 4096, 1]cuda:0" = torch.ops.aten.add.Tensor(add_646, view_71);  add_646 = view_71 = None
        
         # File: /app/low_bit_inference/optims/rms_norm_kernels/liger_rms_norm.py:443 in rms_norm_forward, code: X = X.view(-1, dim)
        view_72: "f16[s0, 4096][4096, 1]cuda:0" = torch.ops.aten.reshape.default(add_699, [-1, 4096])
        
         # File: /app/low_bit_inference/optims/rms_norm_kernels/liger_rms_norm.py:451 in rms_norm_forward, code: RSTD = torch.empty(n_rows, dtype=rstd_dtype, device=X.device)
        empty_9: "f32[s0][1]cuda:0" = torch.ops.aten.empty.memory_format([arg0_1], dtype = torch.float32, device = device(type='cuda', index=0), pin_memory = False)
        
         # File: /app/low_bit_inference/optims/rms_norm_kernels/liger_rms_norm.py:461 in rms_norm_forward, code: _rms_norm_forward_kernel[(n_rows,)](
        triton_kernel_wrapper_functional_proxy_4 = torch.ops.higher_order.triton_kernel_wrapper_functional(kernel_idx = 5, constant_args_idx = 4, grid = [(arg0_1, 1, 1)], tma_descriptor_metadata = {}, kwargs = {'Y_ptr': empty_8, 'X_ptr': view_72, 'W_ptr': arg28_1, 'RSTD_ptr': empty_9}, tensors_to_clone = ['Y_ptr', 'RSTD_ptr']);  empty_8 = view_72 = arg28_1 = empty_9 = None
        getitem_16: "f16[s0, 4096][4096, 1]cuda:0" = triton_kernel_wrapper_functional_proxy_4['Y_ptr'];  triton_kernel_wrapper_functional_proxy_4 = None
        
         # File: /app/low_bit_inference/model.py:206 in forward, code: query_states = self.q_proj(hidden_states).view(hidden_shape).transpose(1, 2)
        view_75: "f16[1, s0, 4096][4096*s0, 4096, 1]cuda:0" = torch.ops.aten.reshape.default(getitem_16, [1, arg0_1, 4096])
        view_76: "f16[s0, 4096][4096, 1]cuda:0" = torch.ops.aten.reshape.default(view_75, [arg0_1, 4096]);  view_75 = None
        permute_23: "f16[4096, 4096][1, 4096]cuda:0" = torch.ops.aten.permute.default(arg29_1, [1, 0]);  arg29_1 = None
        mm_14: "f16[s0, 4096][4096, 1]cuda:0" = torch.ops.aten.mm.default(view_76, permute_23);  view_76 = permute_23 = None
        view_77: "f16[1, s0, 4096][4096*s0, 4096, 1]cuda:0" = torch.ops.aten.reshape.default(mm_14, [1, arg0_1, 4096]);  mm_14 = None
        view_78: "f16[1, s0, 32, 128][4096*s0, 4096, 128, 1]cuda:0" = torch.ops.aten.reshape.default(view_77, [1, arg0_1, -1, 128]);  view_77 = None
        permute_24: "f16[1, 32, s0, 128][4096*s0, 128, 4096, 1]cuda:0" = torch.ops.aten.permute.default(view_78, [0, 2, 1, 3]);  view_78 = None
        
         # File: /app/low_bit_inference/model.py:105 in apply_rotary_pos_emb, code: cos = cos.unsqueeze(unsqueeze_dim)
        unsqueeze_16: "f16[1, 1, s0, 128][128*s0, 128*s0, 128, 1]cuda:0" = torch.ops.aten.unsqueeze.default(convert_element_type_1, 1)
        
         # File: /app/low_bit_inference/model.py:107 in apply_rotary_pos_emb, code: q_embed = (q * cos) + (rotate_half(q) * sin)
        mul_954: "f16[1, 32, s0, 128][4096*s0, 128, 4096, 1]cuda:0" = torch.ops.aten.mul.Tensor(permute_24, unsqueeze_16)
        
         # File: /app/low_bit_inference/model.py:81 in rotate_half, code: x2 = x[..., x.shape[-1] // 2 :]
        slice_51: "f16[1, 32, s0, 64][4096*s0, 128, 4096, 1]cuda:0" = torch.ops.aten.slice.Tensor(permute_24, 3, 64, 9223372036854775807)
        
         # File: /app/low_bit_inference/model.py:82 in rotate_half, code: return torch.cat((-x2, x1), dim=-1)
        neg_4: "f16[1, 32, s0, 64][2048*s0, 64, 2048, 1]cuda:0" = torch.ops.aten.neg.default(slice_51);  slice_51 = None
        
         # File: /app/low_bit_inference/model.py:80 in rotate_half, code: x1 = x[..., : x.shape[-1] // 2]
        slice_50: "f16[1, 32, s0, 64][4096*s0, 128, 4096, 1]cuda:0" = torch.ops.aten.slice.Tensor(permute_24, 3, 0, 64);  permute_24 = None
        
         # File: /app/low_bit_inference/model.py:82 in rotate_half, code: return torch.cat((-x2, x1), dim=-1)
        cat_4: "f16[1, 32, s0, 128][4096*s0, 128*s0, 128, 1]cuda:0" = torch.ops.aten.cat.default([neg_4, slice_50], -1);  neg_4 = slice_50 = None
        
         # File: /app/low_bit_inference/model.py:106 in apply_rotary_pos_emb, code: sin = sin.unsqueeze(unsqueeze_dim)
        unsqueeze_17: "f16[1, 1, s0, 128][128*s0, 128*s0, 128, 1]cuda:0" = torch.ops.aten.unsqueeze.default(convert_element_type_2, 1)
        
         # File: /app/low_bit_inference/model.py:107 in apply_rotary_pos_emb, code: q_embed = (q * cos) + (rotate_half(q) * sin)
        mul_971: "f16[1, 32, s0, 128][4096*s0, 128*s0, 128, 1]cuda:0" = torch.ops.aten.mul.Tensor(cat_4, unsqueeze_17);  cat_4 = None
        add_793: "f16[1, 32, s0, 128][4096*s0, 128, 4096, 1]cuda:0" = torch.ops.aten.add.Tensor(mul_954, mul_971);  mul_954 = mul_971 = None
        
         # File: /app/.venv/lib/python3.12/site-packages/transformers/integrations/sdpa_attention.py:39 in sdpa_attention_forward, code: query = query.contiguous()
        clone_10: "f16[1, 32, s0, 128][4096*s0, 128*s0, 128, 1]cuda:0" = torch.ops.aten.clone.default(add_793, memory_format = torch.contiguous_format);  add_793 = None
        
         # File: /app/low_bit_inference/optims/cache_optim.py:109 in lazy_initialization, code: self.keys = torch.zeros(
        full_default_8: "f16[1, 8, s1, 128][1024*s1, 128*s1, 128, 1]cuda:0" = torch.ops.aten.full.default([1, 8, arg322_1, 128], 0, dtype = torch.float16, layout = torch.strided, device = device(type='cuda', index=0), pin_memory = False)
        
         # File: /app/low_bit_inference/model.py:207 in forward, code: key_states = self.k_proj(hidden_states).view(hidden_shape).transpose(1, 2)
        view_80: "f16[1, s0, 4096][4096*s0, 4096, 1]cuda:0" = torch.ops.aten.reshape.default(getitem_16, [1, arg0_1, 4096])
        view_81: "f16[s0, 4096][4096, 1]cuda:0" = torch.ops.aten.reshape.default(view_80, [arg0_1, 4096]);  view_80 = None
        permute_25: "f16[4096, 1024][1, 4096]cuda:0" = torch.ops.aten.permute.default(arg30_1, [1, 0]);  arg30_1 = None
        mm_15: "f16[s0, 1024][1024, 1]cuda:0" = torch.ops.aten.mm.default(view_81, permute_25);  view_81 = permute_25 = None
        view_82: "f16[1, s0, 1024][1024*s0, 1024, 1]cuda:0" = torch.ops.aten.reshape.default(mm_15, [1, arg0_1, 1024]);  mm_15 = None
        view_83: "f16[1, s0, 8, 128][1024*s0, 1024, 128, 1]cuda:0" = torch.ops.aten.reshape.default(view_82, [1, arg0_1, -1, 128]);  view_82 = None
        permute_26: "f16[1, 8, s0, 128][1024*s0, 128, 1024, 1]cuda:0" = torch.ops.aten.permute.default(view_83, [0, 2, 1, 3]);  view_83 = None
        
         # File: /app/low_bit_inference/model.py:108 in apply_rotary_pos_emb, code: k_embed = (k * cos) + (rotate_half(k) * sin)
        mul_979: "f16[1, 8, s0, 128][1024*s0, 128, 1024, 1]cuda:0" = torch.ops.aten.mul.Tensor(permute_26, unsqueeze_16);  unsqueeze_16 = None
        
         # File: /app/low_bit_inference/model.py:81 in rotate_half, code: x2 = x[..., x.shape[-1] // 2 :]
        slice_53: "f16[1, 8, s0, 64][1024*s0, 128, 1024, 1]cuda:0" = torch.ops.aten.slice.Tensor(permute_26, 3, 64, 9223372036854775807)
        
         # File: /app/low_bit_inference/model.py:82 in rotate_half, code: return torch.cat((-x2, x1), dim=-1)
        neg_5: "f16[1, 8, s0, 64][512*s0, 64, 512, 1]cuda:0" = torch.ops.aten.neg.default(slice_53);  slice_53 = None
        
         # File: /app/low_bit_inference/model.py:80 in rotate_half, code: x1 = x[..., : x.shape[-1] // 2]
        slice_52: "f16[1, 8, s0, 64][1024*s0, 128, 1024, 1]cuda:0" = torch.ops.aten.slice.Tensor(permute_26, 3, 0, 64);  permute_26 = None
        
         # File: /app/low_bit_inference/model.py:82 in rotate_half, code: return torch.cat((-x2, x1), dim=-1)
        cat_5: "f16[1, 8, s0, 128][1024*s0, 128*s0, 128, 1]cuda:0" = torch.ops.aten.cat.default([neg_5, slice_52], -1);  neg_5 = slice_52 = None
        
         # File: /app/low_bit_inference/model.py:108 in apply_rotary_pos_emb, code: k_embed = (k * cos) + (rotate_half(k) * sin)
        mul_996: "f16[1, 8, s0, 128][1024*s0, 128*s0, 128, 1]cuda:0" = torch.ops.aten.mul.Tensor(cat_5, unsqueeze_17);  cat_5 = unsqueeze_17 = None
        add_817: "f16[1, 8, s0, 128][1024*s0, 128, 1024, 1]cuda:0" = torch.ops.aten.add.Tensor(mul_979, mul_996);  mul_979 = mul_996 = None
        
         # File: /app/low_bit_inference/optims/cache_optim.py:150 in update, code: self.keys.index_copy_(2, cache_position, key_states)
        index_put_4: "f16[1, 8, s1, 128][1024*s1, 128*s1, 128, 1]cuda:0" = torch.ops.aten.index_put.default(full_default_8, [None, None, arg3_1], add_817);  full_default_8 = add_817 = None
        
         # File: /app/.venv/lib/python3.12/site-packages/transformers/integrations/sdpa_attention.py:15 in repeat_kv, code: return hidden_states.reshape(batch, num_key_value_heads * n_rep, slen, head_dim)
        unsqueeze_19: "f16[1, 8, 1, s1, 128][1024*s1, 128*s1, 128*s1, 128, 1]cuda:0" = torch.ops.aten.unsqueeze.default(index_put_4, 2)
        expand_15: "f16[1, 8, 4, s1, 128][1024*s1, 128*s1, 0, 128, 1]cuda:0" = torch.ops.aten.expand.default(unsqueeze_19, [1, 8, 4, arg5_1, 128]);  unsqueeze_19 = None
        clone_8: "f16[1, 8, 4, s1, 128][4096*s1, 512*s1, 128*s1, 128, 1]cuda:0" = torch.ops.aten.clone.default(expand_15, memory_format = torch.contiguous_format);  expand_15 = None
        view_89: "f16[1, 32, s1, 128][4096*s1, 128*s1, 128, 1]cuda:0" = torch.ops.aten.reshape.default(clone_8, [1, 32, arg5_1, 128]);  clone_8 = None
        
         # File: /app/low_bit_inference/optims/cache_optim.py:114 in lazy_initialization, code: self.values = torch.zeros(
        full_default_9: "f16[1, 8, s1, 128][1024*s1, 128*s1, 128, 1]cuda:0" = torch.ops.aten.full.default([1, 8, arg322_1, 128], 0, dtype = torch.float16, layout = torch.strided, device = device(type='cuda', index=0), pin_memory = False)
        
         # File: /app/low_bit_inference/model.py:208 in forward, code: value_states = self.v_proj(hidden_states).view(hidden_shape).transpose(1, 2)
        view_85: "f16[1, s0, 4096][4096*s0, 4096, 1]cuda:0" = torch.ops.aten.reshape.default(getitem_16, [1, arg0_1, 4096]);  getitem_16 = None
        view_86: "f16[s0, 4096][4096, 1]cuda:0" = torch.ops.aten.reshape.default(view_85, [arg0_1, 4096]);  view_85 = None
        permute_27: "f16[4096, 1024][1, 4096]cuda:0" = torch.ops.aten.permute.default(arg31_1, [1, 0]);  arg31_1 = None
        mm_16: "f16[s0, 1024][1024, 1]cuda:0" = torch.ops.aten.mm.default(view_86, permute_27);  view_86 = permute_27 = None
        view_87: "f16[1, s0, 1024][1024*s0, 1024, 1]cuda:0" = torch.ops.aten.reshape.default(mm_16, [1, arg0_1, 1024]);  mm_16 = None
        view_88: "f16[1, s0, 8, 128][1024*s0, 1024, 128, 1]cuda:0" = torch.ops.aten.reshape.default(view_87, [1, arg0_1, -1, 128]);  view_87 = None
        permute_28: "f16[1, 8, s0, 128][1024*s0, 128, 1024, 1]cuda:0" = torch.ops.aten.permute.default(view_88, [0, 2, 1, 3]);  view_88 = None
        
         # File: /app/low_bit_inference/optims/cache_optim.py:151 in update, code: self.values.index_copy_(2, cache_position, value_states)
        index_put_5: "f16[1, 8, s1, 128][1024*s1, 128*s1, 128, 1]cuda:0" = torch.ops.aten.index_put.default(full_default_9, [None, None, arg3_1], permute_28);  full_default_9 = permute_28 = None
        
         # File: /app/.venv/lib/python3.12/site-packages/transformers/integrations/sdpa_attention.py:15 in repeat_kv, code: return hidden_states.reshape(batch, num_key_value_heads * n_rep, slen, head_dim)
        unsqueeze_21: "f16[1, 8, 1, s1, 128][1024*s1, 128*s1, 128*s1, 128, 1]cuda:0" = torch.ops.aten.unsqueeze.default(index_put_5, 2)
        expand_17: "f16[1, 8, 4, s1, 128][1024*s1, 128*s1, 0, 128, 1]cuda:0" = torch.ops.aten.expand.default(unsqueeze_21, [1, 8, 4, arg5_1, 128]);  unsqueeze_21 = None
        clone_9: "f16[1, 8, 4, s1, 128][4096*s1, 512*s1, 128*s1, 128, 1]cuda:0" = torch.ops.aten.clone.default(expand_17, memory_format = torch.contiguous_format);  expand_17 = None
        view_90: "f16[1, 32, s1, 128][4096*s1, 128*s1, 128, 1]cuda:0" = torch.ops.aten.reshape.default(clone_9, [1, 32, arg5_1, 128]);  clone_9 = None
        
         # File: /app/.venv/lib/python3.12/site-packages/transformers/integrations/sdpa_attention.py:54 in sdpa_attention_forward, code: attn_output = torch.nn.functional.scaled_dot_product_attention(
        full_default_11: "f16[][]cuda:0" = torch.ops.aten.full.default([], 0.0, dtype = torch.float16, layout = torch.strided, device = device(type='cuda', index=0), pin_memory = False)
        full_default_10: "f16[][]cuda:0" = torch.ops.aten.full.default([], -inf, dtype = torch.float16, layout = torch.strided, device = device(type='cuda', index=0), pin_memory = False)
        where_2: "f16[1, 1, s0, s1][s0*s1, s0*s1, s1, 1]cuda:0" = torch.ops.aten.where.self(arg6_1, full_default_11, full_default_10);  full_default_11 = full_default_10 = None
        expand_18: "f16[1, 32, s0, s1][s0*s1, 0, s1, 1]cuda:0" = torch.ops.aten.expand.default(where_2, [1, 32, arg0_1, arg5_1]);  where_2 = None
        _scaled_dot_product_efficient_attention_2 = torch.ops.aten._scaled_dot_product_efficient_attention.default(clone_10, view_89, view_90, expand_18, False, scale = 0.08838834764831845);  clone_10 = view_89 = view_90 = expand_18 = None
        getitem_18: "f16[1, 32, s0, 128][4096*s0, 128, 4096, 1]cuda:0" = _scaled_dot_product_efficient_attention_2[0];  _scaled_dot_product_efficient_attention_2 = None
        
         # File: /app/low_bit_inference/optims/rms_norm_kernels/liger_rms_norm.py:447 in rms_norm_forward, code: Y = torch.empty((n_rows, n_cols), dtype=X.dtype, device=X.device)
        empty_10: "f16[s0, 4096][4096, 1]cuda:0" = torch.ops.aten.empty.memory_format([arg0_1, 4096], dtype = torch.float16, device = device(type='cuda', index=0), pin_memory = False)
        
         # File: /app/.venv/lib/python3.12/site-packages/transformers/integrations/sdpa_attention.py:63 in sdpa_attention_forward, code: attn_output = attn_output.transpose(1, 2).contiguous()
        permute_29: "f16[1, s0, 32, 128][4096*s0, 4096, 128, 1]cuda:0" = torch.ops.aten.permute.default(getitem_18, [0, 2, 1, 3]);  getitem_18 = None
        
         # File: /app/low_bit_inference/model.py:233 in forward, code: attn_output = attn_output.reshape(*input_shape, -1).contiguous()
        view_91: "f16[1, s0, 4096][4096*s0, 4096, 1]cuda:0" = torch.ops.aten.reshape.default(permute_29, [1, arg0_1, -1]);  permute_29 = None
        
         # File: /app/low_bit_inference/model.py:234 in forward, code: attn_output = self.o_proj(attn_output)
        view_92: "f16[s0, 4096][4096, 1]cuda:0" = torch.ops.aten.reshape.default(view_91, [arg0_1, 4096]);  view_91 = None
        permute_30: "f16[4096, 4096][1, 4096]cuda:0" = torch.ops.aten.permute.default(arg33_1, [1, 0]);  arg33_1 = None
        mm_17: "f16[s0, 4096][4096, 1]cuda:0" = torch.ops.aten.mm.default(view_92, permute_30);  view_92 = permute_30 = None
        view_93: "f16[1, s0, 4096][4096*s0, 4096, 1]cuda:0" = torch.ops.aten.reshape.default(mm_17, [1, arg0_1, 4096]);  mm_17 = None
        
         # File: /app/low_bit_inference/model.py:273 in forward, code: hidden_states = residual + hidden_states
        add_975: "f16[1, s0, 4096][4096*s0, 4096, 1]cuda:0" = torch.ops.aten.add.Tensor(add_699, view_93);  add_699 = view_93 = None
        
         # File: /app/low_bit_inference/optims/rms_norm_kernels/liger_rms_norm.py:443 in rms_norm_forward, code: X = X.view(-1, dim)
        view_94: "f16[s0, 4096][4096, 1]cuda:0" = torch.ops.aten.reshape.default(add_975, [-1, 4096])
        
         # File: /app/low_bit_inference/optims/rms_norm_kernels/liger_rms_norm.py:451 in rms_norm_forward, code: RSTD = torch.empty(n_rows, dtype=rstd_dtype, device=X.device)
        empty_11: "f32[s0][1]cuda:0" = torch.ops.aten.empty.memory_format([arg0_1], dtype = torch.float32, device = device(type='cuda', index=0), pin_memory = False)
        
         # File: /app/low_bit_inference/optims/rms_norm_kernels/liger_rms_norm.py:461 in rms_norm_forward, code: _rms_norm_forward_kernel[(n_rows,)](
        triton_kernel_wrapper_functional_proxy_5 = torch.ops.higher_order.triton_kernel_wrapper_functional(kernel_idx = 6, constant_args_idx = 5, grid = [(arg0_1, 1, 1)], tma_descriptor_metadata = {}, kwargs = {'Y_ptr': empty_10, 'X_ptr': view_94, 'W_ptr': arg34_1, 'RSTD_ptr': empty_11}, tensors_to_clone = ['Y_ptr', 'RSTD_ptr']);  empty_10 = view_94 = arg34_1 = empty_11 = None
        getitem_22: "f16[s0, 4096][4096, 1]cuda:0" = triton_kernel_wrapper_functional_proxy_5['Y_ptr'];  triton_kernel_wrapper_functional_proxy_5 = None
        
         # File: /app/low_bit_inference/optims/rms_norm_kernels/liger_rms_norm.py:447 in rms_norm_forward, code: Y = torch.empty((n_rows, n_cols), dtype=X.dtype, device=X.device)
        empty_12: "f16[s0, 4096][4096, 1]cuda:0" = torch.ops.aten.empty.memory_format([arg0_1, 4096], dtype = torch.float16, device = device(type='cuda', index=0), pin_memory = False)
        
         # File: /app/low_bit_inference/model.py:124 in forward, code: down_proj = self.down_proj(self.act_fn(self.gate_proj(x)) * self.up_proj(x))
        view_97: "f16[1, s0, 4096][4096*s0, 4096, 1]cuda:0" = torch.ops.aten.reshape.default(getitem_22, [1, arg0_1, 4096])
        view_98: "f16[s0, 4096][4096, 1]cuda:0" = torch.ops.aten.reshape.default(view_97, [arg0_1, 4096]);  view_97 = None
        permute_31: "f16[4096, 14336][1, 4096]cuda:0" = torch.ops.aten.permute.default(arg35_1, [1, 0]);  arg35_1 = None
        mm_18: "f16[s0, 14336][14336, 1]cuda:0" = torch.ops.aten.mm.default(view_98, permute_31);  view_98 = permute_31 = None
        view_99: "f16[1, s0, 14336][14336*s0, 14336, 1]cuda:0" = torch.ops.aten.reshape.default(mm_18, [1, arg0_1, 14336]);  mm_18 = None
        convert_element_type_45: "f32[1, s0, 14336][14336*s0, 14336, 1]cuda:0" = torch.ops.prims.convert_element_type.default(view_99, torch.float32);  view_99 = None
        sigmoid_2: "f32[1, s0, 14336][14336*s0, 14336, 1]cuda:0" = torch.ops.aten.sigmoid.default(convert_element_type_45)
        mul_1244: "f32[1, s0, 14336][14336*s0, 14336, 1]cuda:0" = torch.ops.aten.mul.Tensor(convert_element_type_45, sigmoid_2);  convert_element_type_45 = sigmoid_2 = None
        convert_element_type_46: "f16[1, s0, 14336][14336*s0, 14336, 1]cuda:0" = torch.ops.prims.convert_element_type.default(mul_1244, torch.float16);  mul_1244 = None
        view_101: "f16[1, s0, 4096][4096*s0, 4096, 1]cuda:0" = torch.ops.aten.reshape.default(getitem_22, [1, arg0_1, 4096]);  getitem_22 = None
        view_102: "f16[s0, 4096][4096, 1]cuda:0" = torch.ops.aten.reshape.default(view_101, [arg0_1, 4096]);  view_101 = None
        permute_32: "f16[4096, 14336][1, 4096]cuda:0" = torch.ops.aten.permute.default(arg36_1, [1, 0]);  arg36_1 = None
        mm_19: "f16[s0, 14336][14336, 1]cuda:0" = torch.ops.aten.mm.default(view_102, permute_32);  view_102 = permute_32 = None
        view_103: "f16[1, s0, 14336][14336*s0, 14336, 1]cuda:0" = torch.ops.aten.reshape.default(mm_19, [1, arg0_1, 14336]);  mm_19 = None
        mul_1261: "f16[1, s0, 14336][14336*s0, 14336, 1]cuda:0" = torch.ops.aten.mul.Tensor(convert_element_type_46, view_103);  convert_element_type_46 = view_103 = None
        view_104: "f16[s0, 14336][14336, 1]cuda:0" = torch.ops.aten.reshape.default(mul_1261, [arg0_1, 14336]);  mul_1261 = None
        permute_33: "f16[14336, 4096][1, 14336]cuda:0" = torch.ops.aten.permute.default(arg37_1, [1, 0]);  arg37_1 = None
        mm_20: "f16[s0, 4096][4096, 1]cuda:0" = torch.ops.aten.mm.default(view_104, permute_33);  view_104 = permute_33 = None
        view_105: "f16[1, s0, 4096][4096*s0, 4096, 1]cuda:0" = torch.ops.aten.reshape.default(mm_20, [1, arg0_1, 4096]);  mm_20 = None
        
         # File: /app/low_bit_inference/model.py:279 in forward, code: hidden_states = residual + hidden_states
        add_1028: "f16[1, s0, 4096][4096*s0, 4096, 1]cuda:0" = torch.ops.aten.add.Tensor(add_975, view_105);  add_975 = view_105 = None
        
         # File: /app/low_bit_inference/optims/rms_norm_kernels/liger_rms_norm.py:443 in rms_norm_forward, code: X = X.view(-1, dim)
        view_106: "f16[s0, 4096][4096, 1]cuda:0" = torch.ops.aten.reshape.default(add_1028, [-1, 4096])
        
         # File: /app/low_bit_inference/optims/rms_norm_kernels/liger_rms_norm.py:451 in rms_norm_forward, code: RSTD = torch.empty(n_rows, dtype=rstd_dtype, device=X.device)
        empty_13: "f32[s0][1]cuda:0" = torch.ops.aten.empty.memory_format([arg0_1], dtype = torch.float32, device = device(type='cuda', index=0), pin_memory = False)
        
         # File: /app/low_bit_inference/optims/rms_norm_kernels/liger_rms_norm.py:461 in rms_norm_forward, code: _rms_norm_forward_kernel[(n_rows,)](
        triton_kernel_wrapper_functional_proxy_6 = torch.ops.higher_order.triton_kernel_wrapper_functional(kernel_idx = 7, constant_args_idx = 6, grid = [(arg0_1, 1, 1)], tma_descriptor_metadata = {}, kwargs = {'Y_ptr': empty_12, 'X_ptr': view_106, 'W_ptr': arg38_1, 'RSTD_ptr': empty_13}, tensors_to_clone = ['Y_ptr', 'RSTD_ptr']);  empty_12 = view_106 = arg38_1 = empty_13 = None
        getitem_24: "f16[s0, 4096][4096, 1]cuda:0" = triton_kernel_wrapper_functional_proxy_6['Y_ptr'];  triton_kernel_wrapper_functional_proxy_6 = None
        
         # File: /app/low_bit_inference/model.py:206 in forward, code: query_states = self.q_proj(hidden_states).view(hidden_shape).transpose(1, 2)
        view_109: "f16[1, s0, 4096][4096*s0, 4096, 1]cuda:0" = torch.ops.aten.reshape.default(getitem_24, [1, arg0_1, 4096])
        view_110: "f16[s0, 4096][4096, 1]cuda:0" = torch.ops.aten.reshape.default(view_109, [arg0_1, 4096]);  view_109 = None
        permute_34: "f16[4096, 4096][1, 4096]cuda:0" = torch.ops.aten.permute.default(arg39_1, [1, 0]);  arg39_1 = None
        mm_21: "f16[s0, 4096][4096, 1]cuda:0" = torch.ops.aten.mm.default(view_110, permute_34);  view_110 = permute_34 = None
        view_111: "f16[1, s0, 4096][4096*s0, 4096, 1]cuda:0" = torch.ops.aten.reshape.default(mm_21, [1, arg0_1, 4096]);  mm_21 = None
        view_112: "f16[1, s0, 32, 128][4096*s0, 4096, 128, 1]cuda:0" = torch.ops.aten.reshape.default(view_111, [1, arg0_1, -1, 128]);  view_111 = None
        permute_35: "f16[1, 32, s0, 128][4096*s0, 128, 4096, 1]cuda:0" = torch.ops.aten.permute.default(view_112, [0, 2, 1, 3]);  view_112 = None
        
         # File: /app/low_bit_inference/model.py:105 in apply_rotary_pos_emb, code: cos = cos.unsqueeze(unsqueeze_dim)
        unsqueeze_22: "f16[1, 1, s0, 128][128*s0, 128*s0, 128, 1]cuda:0" = torch.ops.aten.unsqueeze.default(convert_element_type_1, 1)
        
         # File: /app/low_bit_inference/model.py:107 in apply_rotary_pos_emb, code: q_embed = (q * cos) + (rotate_half(q) * sin)
        mul_1363: "f16[1, 32, s0, 128][4096*s0, 128, 4096, 1]cuda:0" = torch.ops.aten.mul.Tensor(permute_35, unsqueeze_22)
        
         # File: /app/low_bit_inference/model.py:81 in rotate_half, code: x2 = x[..., x.shape[-1] // 2 :]
        slice_74: "f16[1, 32, s0, 64][4096*s0, 128, 4096, 1]cuda:0" = torch.ops.aten.slice.Tensor(permute_35, 3, 64, 9223372036854775807)
        
         # File: /app/low_bit_inference/model.py:82 in rotate_half, code: return torch.cat((-x2, x1), dim=-1)
        neg_6: "f16[1, 32, s0, 64][2048*s0, 64, 2048, 1]cuda:0" = torch.ops.aten.neg.default(slice_74);  slice_74 = None
        
         # File: /app/low_bit_inference/model.py:80 in rotate_half, code: x1 = x[..., : x.shape[-1] // 2]
        slice_73: "f16[1, 32, s0, 64][4096*s0, 128, 4096, 1]cuda:0" = torch.ops.aten.slice.Tensor(permute_35, 3, 0, 64);  permute_35 = None
        
         # File: /app/low_bit_inference/model.py:82 in rotate_half, code: return torch.cat((-x2, x1), dim=-1)
        cat_6: "f16[1, 32, s0, 128][4096*s0, 128*s0, 128, 1]cuda:0" = torch.ops.aten.cat.default([neg_6, slice_73], -1);  neg_6 = slice_73 = None
        
         # File: /app/low_bit_inference/model.py:106 in apply_rotary_pos_emb, code: sin = sin.unsqueeze(unsqueeze_dim)
        unsqueeze_23: "f16[1, 1, s0, 128][128*s0, 128*s0, 128, 1]cuda:0" = torch.ops.aten.unsqueeze.default(convert_element_type_2, 1)
        
         # File: /app/low_bit_inference/model.py:107 in apply_rotary_pos_emb, code: q_embed = (q * cos) + (rotate_half(q) * sin)
        mul_1380: "f16[1, 32, s0, 128][4096*s0, 128*s0, 128, 1]cuda:0" = torch.ops.aten.mul.Tensor(cat_6, unsqueeze_23);  cat_6 = None
        add_1122: "f16[1, 32, s0, 128][4096*s0, 128, 4096, 1]cuda:0" = torch.ops.aten.add.Tensor(mul_1363, mul_1380);  mul_1363 = mul_1380 = None
        
         # File: /app/.venv/lib/python3.12/site-packages/transformers/integrations/sdpa_attention.py:39 in sdpa_attention_forward, code: query = query.contiguous()
        clone_13: "f16[1, 32, s0, 128][4096*s0, 128*s0, 128, 1]cuda:0" = torch.ops.aten.clone.default(add_1122, memory_format = torch.contiguous_format);  add_1122 = None
        
         # File: /app/low_bit_inference/optims/cache_optim.py:109 in lazy_initialization, code: self.keys = torch.zeros(
        full_default_12: "f16[1, 8, s1, 128][1024*s1, 128*s1, 128, 1]cuda:0" = torch.ops.aten.full.default([1, 8, arg322_1, 128], 0, dtype = torch.float16, layout = torch.strided, device = device(type='cuda', index=0), pin_memory = False)
        
         # File: /app/low_bit_inference/model.py:207 in forward, code: key_states = self.k_proj(hidden_states).view(hidden_shape).transpose(1, 2)
        view_114: "f16[1, s0, 4096][4096*s0, 4096, 1]cuda:0" = torch.ops.aten.reshape.default(getitem_24, [1, arg0_1, 4096])
        view_115: "f16[s0, 4096][4096, 1]cuda:0" = torch.ops.aten.reshape.default(view_114, [arg0_1, 4096]);  view_114 = None
        permute_36: "f16[4096, 1024][1, 4096]cuda:0" = torch.ops.aten.permute.default(arg40_1, [1, 0]);  arg40_1 = None
        mm_22: "f16[s0, 1024][1024, 1]cuda:0" = torch.ops.aten.mm.default(view_115, permute_36);  view_115 = permute_36 = None
        view_116: "f16[1, s0, 1024][1024*s0, 1024, 1]cuda:0" = torch.ops.aten.reshape.default(mm_22, [1, arg0_1, 1024]);  mm_22 = None
        view_117: "f16[1, s0, 8, 128][1024*s0, 1024, 128, 1]cuda:0" = torch.ops.aten.reshape.default(view_116, [1, arg0_1, -1, 128]);  view_116 = None
        permute_37: "f16[1, 8, s0, 128][1024*s0, 128, 1024, 1]cuda:0" = torch.ops.aten.permute.default(view_117, [0, 2, 1, 3]);  view_117 = None
        
         # File: /app/low_bit_inference/model.py:108 in apply_rotary_pos_emb, code: k_embed = (k * cos) + (rotate_half(k) * sin)
        mul_1388: "f16[1, 8, s0, 128][1024*s0, 128, 1024, 1]cuda:0" = torch.ops.aten.mul.Tensor(permute_37, unsqueeze_22);  unsqueeze_22 = None
        
         # File: /app/low_bit_inference/model.py:81 in rotate_half, code: x2 = x[..., x.shape[-1] // 2 :]
        slice_76: "f16[1, 8, s0, 64][1024*s0, 128, 1024, 1]cuda:0" = torch.ops.aten.slice.Tensor(permute_37, 3, 64, 9223372036854775807)
        
         # File: /app/low_bit_inference/model.py:82 in rotate_half, code: return torch.cat((-x2, x1), dim=-1)
        neg_7: "f16[1, 8, s0, 64][512*s0, 64, 512, 1]cuda:0" = torch.ops.aten.neg.default(slice_76);  slice_76 = None
        
         # File: /app/low_bit_inference/model.py:80 in rotate_half, code: x1 = x[..., : x.shape[-1] // 2]
        slice_75: "f16[1, 8, s0, 64][1024*s0, 128, 1024, 1]cuda:0" = torch.ops.aten.slice.Tensor(permute_37, 3, 0, 64);  permute_37 = None
        
         # File: /app/low_bit_inference/model.py:82 in rotate_half, code: return torch.cat((-x2, x1), dim=-1)
        cat_7: "f16[1, 8, s0, 128][1024*s0, 128*s0, 128, 1]cuda:0" = torch.ops.aten.cat.default([neg_7, slice_75], -1);  neg_7 = slice_75 = None
        
         # File: /app/low_bit_inference/model.py:108 in apply_rotary_pos_emb, code: k_embed = (k * cos) + (rotate_half(k) * sin)
        mul_1405: "f16[1, 8, s0, 128][1024*s0, 128*s0, 128, 1]cuda:0" = torch.ops.aten.mul.Tensor(cat_7, unsqueeze_23);  cat_7 = unsqueeze_23 = None
        add_1146: "f16[1, 8, s0, 128][1024*s0, 128, 1024, 1]cuda:0" = torch.ops.aten.add.Tensor(mul_1388, mul_1405);  mul_1388 = mul_1405 = None
        
         # File: /app/low_bit_inference/optims/cache_optim.py:150 in update, code: self.keys.index_copy_(2, cache_position, key_states)
        index_put_6: "f16[1, 8, s1, 128][1024*s1, 128*s1, 128, 1]cuda:0" = torch.ops.aten.index_put.default(full_default_12, [None, None, arg3_1], add_1146);  full_default_12 = add_1146 = None
        
         # File: /app/.venv/lib/python3.12/site-packages/transformers/integrations/sdpa_attention.py:15 in repeat_kv, code: return hidden_states.reshape(batch, num_key_value_heads * n_rep, slen, head_dim)
        unsqueeze_25: "f16[1, 8, 1, s1, 128][1024*s1, 128*s1, 128*s1, 128, 1]cuda:0" = torch.ops.aten.unsqueeze.default(index_put_6, 2)
        expand_20: "f16[1, 8, 4, s1, 128][1024*s1, 128*s1, 0, 128, 1]cuda:0" = torch.ops.aten.expand.default(unsqueeze_25, [1, 8, 4, arg5_1, 128]);  unsqueeze_25 = None
        clone_11: "f16[1, 8, 4, s1, 128][4096*s1, 512*s1, 128*s1, 128, 1]cuda:0" = torch.ops.aten.clone.default(expand_20, memory_format = torch.contiguous_format);  expand_20 = None
        view_123: "f16[1, 32, s1, 128][4096*s1, 128*s1, 128, 1]cuda:0" = torch.ops.aten.reshape.default(clone_11, [1, 32, arg5_1, 128]);  clone_11 = None
        
         # File: /app/low_bit_inference/optims/cache_optim.py:114 in lazy_initialization, code: self.values = torch.zeros(
        full_default_13: "f16[1, 8, s1, 128][1024*s1, 128*s1, 128, 1]cuda:0" = torch.ops.aten.full.default([1, 8, arg322_1, 128], 0, dtype = torch.float16, layout = torch.strided, device = device(type='cuda', index=0), pin_memory = False)
        
         # File: /app/low_bit_inference/model.py:208 in forward, code: value_states = self.v_proj(hidden_states).view(hidden_shape).transpose(1, 2)
        view_119: "f16[1, s0, 4096][4096*s0, 4096, 1]cuda:0" = torch.ops.aten.reshape.default(getitem_24, [1, arg0_1, 4096]);  getitem_24 = None
        view_120: "f16[s0, 4096][4096, 1]cuda:0" = torch.ops.aten.reshape.default(view_119, [arg0_1, 4096]);  view_119 = None
        permute_38: "f16[4096, 1024][1, 4096]cuda:0" = torch.ops.aten.permute.default(arg41_1, [1, 0]);  arg41_1 = None
        mm_23: "f16[s0, 1024][1024, 1]cuda:0" = torch.ops.aten.mm.default(view_120, permute_38);  view_120 = permute_38 = None
        view_121: "f16[1, s0, 1024][1024*s0, 1024, 1]cuda:0" = torch.ops.aten.reshape.default(mm_23, [1, arg0_1, 1024]);  mm_23 = None
        view_122: "f16[1, s0, 8, 128][1024*s0, 1024, 128, 1]cuda:0" = torch.ops.aten.reshape.default(view_121, [1, arg0_1, -1, 128]);  view_121 = None
        permute_39: "f16[1, 8, s0, 128][1024*s0, 128, 1024, 1]cuda:0" = torch.ops.aten.permute.default(view_122, [0, 2, 1, 3]);  view_122 = None
        
         # File: /app/low_bit_inference/optims/cache_optim.py:151 in update, code: self.values.index_copy_(2, cache_position, value_states)
        index_put_7: "f16[1, 8, s1, 128][1024*s1, 128*s1, 128, 1]cuda:0" = torch.ops.aten.index_put.default(full_default_13, [None, None, arg3_1], permute_39);  full_default_13 = permute_39 = None
        
         # File: /app/.venv/lib/python3.12/site-packages/transformers/integrations/sdpa_attention.py:15 in repeat_kv, code: return hidden_states.reshape(batch, num_key_value_heads * n_rep, slen, head_dim)
        unsqueeze_27: "f16[1, 8, 1, s1, 128][1024*s1, 128*s1, 128*s1, 128, 1]cuda:0" = torch.ops.aten.unsqueeze.default(index_put_7, 2)
        expand_22: "f16[1, 8, 4, s1, 128][1024*s1, 128*s1, 0, 128, 1]cuda:0" = torch.ops.aten.expand.default(unsqueeze_27, [1, 8, 4, arg5_1, 128]);  unsqueeze_27 = None
        clone_12: "f16[1, 8, 4, s1, 128][4096*s1, 512*s1, 128*s1, 128, 1]cuda:0" = torch.ops.aten.clone.default(expand_22, memory_format = torch.contiguous_format);  expand_22 = None
        view_124: "f16[1, 32, s1, 128][4096*s1, 128*s1, 128, 1]cuda:0" = torch.ops.aten.reshape.default(clone_12, [1, 32, arg5_1, 128]);  clone_12 = None
        
         # File: /app/.venv/lib/python3.12/site-packages/transformers/integrations/sdpa_attention.py:54 in sdpa_attention_forward, code: attn_output = torch.nn.functional.scaled_dot_product_attention(
        full_default_15: "f16[][]cuda:0" = torch.ops.aten.full.default([], 0.0, dtype = torch.float16, layout = torch.strided, device = device(type='cuda', index=0), pin_memory = False)
        full_default_14: "f16[][]cuda:0" = torch.ops.aten.full.default([], -inf, dtype = torch.float16, layout = torch.strided, device = device(type='cuda', index=0), pin_memory = False)
        where_3: "f16[1, 1, s0, s1][s0*s1, s0*s1, s1, 1]cuda:0" = torch.ops.aten.where.self(arg6_1, full_default_15, full_default_14);  full_default_15 = full_default_14 = None
        expand_23: "f16[1, 32, s0, s1][s0*s1, 0, s1, 1]cuda:0" = torch.ops.aten.expand.default(where_3, [1, 32, arg0_1, arg5_1]);  where_3 = None
        _scaled_dot_product_efficient_attention_3 = torch.ops.aten._scaled_dot_product_efficient_attention.default(clone_13, view_123, view_124, expand_23, False, scale = 0.08838834764831845);  clone_13 = view_123 = view_124 = expand_23 = None
        getitem_26: "f16[1, 32, s0, 128][4096*s0, 128, 4096, 1]cuda:0" = _scaled_dot_product_efficient_attention_3[0];  _scaled_dot_product_efficient_attention_3 = None
        
         # File: /app/low_bit_inference/optims/rms_norm_kernels/liger_rms_norm.py:447 in rms_norm_forward, code: Y = torch.empty((n_rows, n_cols), dtype=X.dtype, device=X.device)
        empty_14: "f16[s0, 4096][4096, 1]cuda:0" = torch.ops.aten.empty.memory_format([arg0_1, 4096], dtype = torch.float16, device = device(type='cuda', index=0), pin_memory = False)
        
         # File: /app/.venv/lib/python3.12/site-packages/transformers/integrations/sdpa_attention.py:63 in sdpa_attention_forward, code: attn_output = attn_output.transpose(1, 2).contiguous()
        permute_40: "f16[1, s0, 32, 128][4096*s0, 4096, 128, 1]cuda:0" = torch.ops.aten.permute.default(getitem_26, [0, 2, 1, 3]);  getitem_26 = None
        
         # File: /app/low_bit_inference/model.py:233 in forward, code: attn_output = attn_output.reshape(*input_shape, -1).contiguous()
        view_125: "f16[1, s0, 4096][4096*s0, 4096, 1]cuda:0" = torch.ops.aten.reshape.default(permute_40, [1, arg0_1, -1]);  permute_40 = None
        
         # File: /app/low_bit_inference/model.py:234 in forward, code: attn_output = self.o_proj(attn_output)
        view_126: "f16[s0, 4096][4096, 1]cuda:0" = torch.ops.aten.reshape.default(view_125, [arg0_1, 4096]);  view_125 = None
        permute_41: "f16[4096, 4096][1, 4096]cuda:0" = torch.ops.aten.permute.default(arg43_1, [1, 0]);  arg43_1 = None
        mm_24: "f16[s0, 4096][4096, 1]cuda:0" = torch.ops.aten.mm.default(view_126, permute_41);  view_126 = permute_41 = None
        view_127: "f16[1, s0, 4096][4096*s0, 4096, 1]cuda:0" = torch.ops.aten.reshape.default(mm_24, [1, arg0_1, 4096]);  mm_24 = None
        
         # File: /app/low_bit_inference/model.py:273 in forward, code: hidden_states = residual + hidden_states
        add_1304: "f16[1, s0, 4096][4096*s0, 4096, 1]cuda:0" = torch.ops.aten.add.Tensor(add_1028, view_127);  add_1028 = view_127 = None
        
         # File: /app/low_bit_inference/optims/rms_norm_kernels/liger_rms_norm.py:443 in rms_norm_forward, code: X = X.view(-1, dim)
        view_128: "f16[s0, 4096][4096, 1]cuda:0" = torch.ops.aten.reshape.default(add_1304, [-1, 4096])
        
         # File: /app/low_bit_inference/optims/rms_norm_kernels/liger_rms_norm.py:451 in rms_norm_forward, code: RSTD = torch.empty(n_rows, dtype=rstd_dtype, device=X.device)
        empty_15: "f32[s0][1]cuda:0" = torch.ops.aten.empty.memory_format([arg0_1], dtype = torch.float32, device = device(type='cuda', index=0), pin_memory = False)
        
         # File: /app/low_bit_inference/optims/rms_norm_kernels/liger_rms_norm.py:461 in rms_norm_forward, code: _rms_norm_forward_kernel[(n_rows,)](
        triton_kernel_wrapper_functional_proxy_7 = torch.ops.higher_order.triton_kernel_wrapper_functional(kernel_idx = 8, constant_args_idx = 7, grid = [(arg0_1, 1, 1)], tma_descriptor_metadata = {}, kwargs = {'Y_ptr': empty_14, 'X_ptr': view_128, 'W_ptr': arg44_1, 'RSTD_ptr': empty_15}, tensors_to_clone = ['Y_ptr', 'RSTD_ptr']);  empty_14 = view_128 = arg44_1 = empty_15 = None
        getitem_30: "f16[s0, 4096][4096, 1]cuda:0" = triton_kernel_wrapper_functional_proxy_7['Y_ptr'];  triton_kernel_wrapper_functional_proxy_7 = None
        
         # File: /app/low_bit_inference/optims/rms_norm_kernels/liger_rms_norm.py:447 in rms_norm_forward, code: Y = torch.empty((n_rows, n_cols), dtype=X.dtype, device=X.device)
        empty_16: "f16[s0, 4096][4096, 1]cuda:0" = torch.ops.aten.empty.memory_format([arg0_1, 4096], dtype = torch.float16, device = device(type='cuda', index=0), pin_memory = False)
        
         # File: /app/low_bit_inference/model.py:124 in forward, code: down_proj = self.down_proj(self.act_fn(self.gate_proj(x)) * self.up_proj(x))
        view_131: "f16[1, s0, 4096][4096*s0, 4096, 1]cuda:0" = torch.ops.aten.reshape.default(getitem_30, [1, arg0_1, 4096])
        view_132: "f16[s0, 4096][4096, 1]cuda:0" = torch.ops.aten.reshape.default(view_131, [arg0_1, 4096]);  view_131 = None
        permute_42: "f16[4096, 14336][1, 4096]cuda:0" = torch.ops.aten.permute.default(arg45_1, [1, 0]);  arg45_1 = None
        mm_25: "f16[s0, 14336][14336, 1]cuda:0" = torch.ops.aten.mm.default(view_132, permute_42);  view_132 = permute_42 = None
        view_133: "f16[1, s0, 14336][14336*s0, 14336, 1]cuda:0" = torch.ops.aten.reshape.default(mm_25, [1, arg0_1, 14336]);  mm_25 = None
        convert_element_type_61: "f32[1, s0, 14336][14336*s0, 14336, 1]cuda:0" = torch.ops.prims.convert_element_type.default(view_133, torch.float32);  view_133 = None
        sigmoid_3: "f32[1, s0, 14336][14336*s0, 14336, 1]cuda:0" = torch.ops.aten.sigmoid.default(convert_element_type_61)
        mul_1653: "f32[1, s0, 14336][14336*s0, 14336, 1]cuda:0" = torch.ops.aten.mul.Tensor(convert_element_type_61, sigmoid_3);  convert_element_type_61 = sigmoid_3 = None
        convert_element_type_62: "f16[1, s0, 14336][14336*s0, 14336, 1]cuda:0" = torch.ops.prims.convert_element_type.default(mul_1653, torch.float16);  mul_1653 = None
        view_135: "f16[1, s0, 4096][4096*s0, 4096, 1]cuda:0" = torch.ops.aten.reshape.default(getitem_30, [1, arg0_1, 4096]);  getitem_30 = None
        view_136: "f16[s0, 4096][4096, 1]cuda:0" = torch.ops.aten.reshape.default(view_135, [arg0_1, 4096]);  view_135 = None
        permute_43: "f16[4096, 14336][1, 4096]cuda:0" = torch.ops.aten.permute.default(arg46_1, [1, 0]);  arg46_1 = None
        mm_26: "f16[s0, 14336][14336, 1]cuda:0" = torch.ops.aten.mm.default(view_136, permute_43);  view_136 = permute_43 = None
        view_137: "f16[1, s0, 14336][14336*s0, 14336, 1]cuda:0" = torch.ops.aten.reshape.default(mm_26, [1, arg0_1, 14336]);  mm_26 = None
        mul_1670: "f16[1, s0, 14336][14336*s0, 14336, 1]cuda:0" = torch.ops.aten.mul.Tensor(convert_element_type_62, view_137);  convert_element_type_62 = view_137 = None
        view_138: "f16[s0, 14336][14336, 1]cuda:0" = torch.ops.aten.reshape.default(mul_1670, [arg0_1, 14336]);  mul_1670 = None
        permute_44: "f16[14336, 4096][1, 14336]cuda:0" = torch.ops.aten.permute.default(arg47_1, [1, 0]);  arg47_1 = None
        mm_27: "f16[s0, 4096][4096, 1]cuda:0" = torch.ops.aten.mm.default(view_138, permute_44);  view_138 = permute_44 = None
        view_139: "f16[1, s0, 4096][4096*s0, 4096, 1]cuda:0" = torch.ops.aten.reshape.default(mm_27, [1, arg0_1, 4096]);  mm_27 = None
        
         # File: /app/low_bit_inference/model.py:279 in forward, code: hidden_states = residual + hidden_states
        add_1357: "f16[1, s0, 4096][4096*s0, 4096, 1]cuda:0" = torch.ops.aten.add.Tensor(add_1304, view_139);  add_1304 = view_139 = None
        
         # File: /app/low_bit_inference/optims/rms_norm_kernels/liger_rms_norm.py:443 in rms_norm_forward, code: X = X.view(-1, dim)
        view_140: "f16[s0, 4096][4096, 1]cuda:0" = torch.ops.aten.reshape.default(add_1357, [-1, 4096])
        
         # File: /app/low_bit_inference/optims/rms_norm_kernels/liger_rms_norm.py:451 in rms_norm_forward, code: RSTD = torch.empty(n_rows, dtype=rstd_dtype, device=X.device)
        empty_17: "f32[s0][1]cuda:0" = torch.ops.aten.empty.memory_format([arg0_1], dtype = torch.float32, device = device(type='cuda', index=0), pin_memory = False)
        
         # File: /app/low_bit_inference/optims/rms_norm_kernels/liger_rms_norm.py:461 in rms_norm_forward, code: _rms_norm_forward_kernel[(n_rows,)](
        triton_kernel_wrapper_functional_proxy_8 = torch.ops.higher_order.triton_kernel_wrapper_functional(kernel_idx = 9, constant_args_idx = 8, grid = [(arg0_1, 1, 1)], tma_descriptor_metadata = {}, kwargs = {'Y_ptr': empty_16, 'X_ptr': view_140, 'W_ptr': arg48_1, 'RSTD_ptr': empty_17}, tensors_to_clone = ['Y_ptr', 'RSTD_ptr']);  empty_16 = view_140 = arg48_1 = empty_17 = None
        getitem_32: "f16[s0, 4096][4096, 1]cuda:0" = triton_kernel_wrapper_functional_proxy_8['Y_ptr'];  triton_kernel_wrapper_functional_proxy_8 = None
        
         # File: /app/low_bit_inference/model.py:206 in forward, code: query_states = self.q_proj(hidden_states).view(hidden_shape).transpose(1, 2)
        view_143: "f16[1, s0, 4096][4096*s0, 4096, 1]cuda:0" = torch.ops.aten.reshape.default(getitem_32, [1, arg0_1, 4096])
        view_144: "f16[s0, 4096][4096, 1]cuda:0" = torch.ops.aten.reshape.default(view_143, [arg0_1, 4096]);  view_143 = None
        permute_45: "f16[4096, 4096][1, 4096]cuda:0" = torch.ops.aten.permute.default(arg49_1, [1, 0]);  arg49_1 = None
        mm_28: "f16[s0, 4096][4096, 1]cuda:0" = torch.ops.aten.mm.default(view_144, permute_45);  view_144 = permute_45 = None
        view_145: "f16[1, s0, 4096][4096*s0, 4096, 1]cuda:0" = torch.ops.aten.reshape.default(mm_28, [1, arg0_1, 4096]);  mm_28 = None
        view_146: "f16[1, s0, 32, 128][4096*s0, 4096, 128, 1]cuda:0" = torch.ops.aten.reshape.default(view_145, [1, arg0_1, -1, 128]);  view_145 = None
        permute_46: "f16[1, 32, s0, 128][4096*s0, 128, 4096, 1]cuda:0" = torch.ops.aten.permute.default(view_146, [0, 2, 1, 3]);  view_146 = None
        
         # File: /app/low_bit_inference/model.py:105 in apply_rotary_pos_emb, code: cos = cos.unsqueeze(unsqueeze_dim)
        unsqueeze_28: "f16[1, 1, s0, 128][128*s0, 128*s0, 128, 1]cuda:0" = torch.ops.aten.unsqueeze.default(convert_element_type_1, 1)
        
         # File: /app/low_bit_inference/model.py:107 in apply_rotary_pos_emb, code: q_embed = (q * cos) + (rotate_half(q) * sin)
        mul_1772: "f16[1, 32, s0, 128][4096*s0, 128, 4096, 1]cuda:0" = torch.ops.aten.mul.Tensor(permute_46, unsqueeze_28)
        
         # File: /app/low_bit_inference/model.py:81 in rotate_half, code: x2 = x[..., x.shape[-1] // 2 :]
        slice_97: "f16[1, 32, s0, 64][4096*s0, 128, 4096, 1]cuda:0" = torch.ops.aten.slice.Tensor(permute_46, 3, 64, 9223372036854775807)
        
         # File: /app/low_bit_inference/model.py:82 in rotate_half, code: return torch.cat((-x2, x1), dim=-1)
        neg_8: "f16[1, 32, s0, 64][2048*s0, 64, 2048, 1]cuda:0" = torch.ops.aten.neg.default(slice_97);  slice_97 = None
        
         # File: /app/low_bit_inference/model.py:80 in rotate_half, code: x1 = x[..., : x.shape[-1] // 2]
        slice_96: "f16[1, 32, s0, 64][4096*s0, 128, 4096, 1]cuda:0" = torch.ops.aten.slice.Tensor(permute_46, 3, 0, 64);  permute_46 = None
        
         # File: /app/low_bit_inference/model.py:82 in rotate_half, code: return torch.cat((-x2, x1), dim=-1)
        cat_8: "f16[1, 32, s0, 128][4096*s0, 128*s0, 128, 1]cuda:0" = torch.ops.aten.cat.default([neg_8, slice_96], -1);  neg_8 = slice_96 = None
        
         # File: /app/low_bit_inference/model.py:106 in apply_rotary_pos_emb, code: sin = sin.unsqueeze(unsqueeze_dim)
        unsqueeze_29: "f16[1, 1, s0, 128][128*s0, 128*s0, 128, 1]cuda:0" = torch.ops.aten.unsqueeze.default(convert_element_type_2, 1)
        
         # File: /app/low_bit_inference/model.py:107 in apply_rotary_pos_emb, code: q_embed = (q * cos) + (rotate_half(q) * sin)
        mul_1789: "f16[1, 32, s0, 128][4096*s0, 128*s0, 128, 1]cuda:0" = torch.ops.aten.mul.Tensor(cat_8, unsqueeze_29);  cat_8 = None
        add_1451: "f16[1, 32, s0, 128][4096*s0, 128, 4096, 1]cuda:0" = torch.ops.aten.add.Tensor(mul_1772, mul_1789);  mul_1772 = mul_1789 = None
        
         # File: /app/.venv/lib/python3.12/site-packages/transformers/integrations/sdpa_attention.py:39 in sdpa_attention_forward, code: query = query.contiguous()
        clone_16: "f16[1, 32, s0, 128][4096*s0, 128*s0, 128, 1]cuda:0" = torch.ops.aten.clone.default(add_1451, memory_format = torch.contiguous_format);  add_1451 = None
        
         # File: /app/low_bit_inference/optims/cache_optim.py:109 in lazy_initialization, code: self.keys = torch.zeros(
        full_default_16: "f16[1, 8, s1, 128][1024*s1, 128*s1, 128, 1]cuda:0" = torch.ops.aten.full.default([1, 8, arg322_1, 128], 0, dtype = torch.float16, layout = torch.strided, device = device(type='cuda', index=0), pin_memory = False)
        
         # File: /app/low_bit_inference/model.py:207 in forward, code: key_states = self.k_proj(hidden_states).view(hidden_shape).transpose(1, 2)
        view_148: "f16[1, s0, 4096][4096*s0, 4096, 1]cuda:0" = torch.ops.aten.reshape.default(getitem_32, [1, arg0_1, 4096])
        view_149: "f16[s0, 4096][4096, 1]cuda:0" = torch.ops.aten.reshape.default(view_148, [arg0_1, 4096]);  view_148 = None
        permute_47: "f16[4096, 1024][1, 4096]cuda:0" = torch.ops.aten.permute.default(arg50_1, [1, 0]);  arg50_1 = None
        mm_29: "f16[s0, 1024][1024, 1]cuda:0" = torch.ops.aten.mm.default(view_149, permute_47);  view_149 = permute_47 = None
        view_150: "f16[1, s0, 1024][1024*s0, 1024, 1]cuda:0" = torch.ops.aten.reshape.default(mm_29, [1, arg0_1, 1024]);  mm_29 = None
        view_151: "f16[1, s0, 8, 128][1024*s0, 1024, 128, 1]cuda:0" = torch.ops.aten.reshape.default(view_150, [1, arg0_1, -1, 128]);  view_150 = None
        permute_48: "f16[1, 8, s0, 128][1024*s0, 128, 1024, 1]cuda:0" = torch.ops.aten.permute.default(view_151, [0, 2, 1, 3]);  view_151 = None
        
         # File: /app/low_bit_inference/model.py:108 in apply_rotary_pos_emb, code: k_embed = (k * cos) + (rotate_half(k) * sin)
        mul_1797: "f16[1, 8, s0, 128][1024*s0, 128, 1024, 1]cuda:0" = torch.ops.aten.mul.Tensor(permute_48, unsqueeze_28);  unsqueeze_28 = None
        
         # File: /app/low_bit_inference/model.py:81 in rotate_half, code: x2 = x[..., x.shape[-1] // 2 :]
        slice_99: "f16[1, 8, s0, 64][1024*s0, 128, 1024, 1]cuda:0" = torch.ops.aten.slice.Tensor(permute_48, 3, 64, 9223372036854775807)
        
         # File: /app/low_bit_inference/model.py:82 in rotate_half, code: return torch.cat((-x2, x1), dim=-1)
        neg_9: "f16[1, 8, s0, 64][512*s0, 64, 512, 1]cuda:0" = torch.ops.aten.neg.default(slice_99);  slice_99 = None
        
         # File: /app/low_bit_inference/model.py:80 in rotate_half, code: x1 = x[..., : x.shape[-1] // 2]
        slice_98: "f16[1, 8, s0, 64][1024*s0, 128, 1024, 1]cuda:0" = torch.ops.aten.slice.Tensor(permute_48, 3, 0, 64);  permute_48 = None
        
         # File: /app/low_bit_inference/model.py:82 in rotate_half, code: return torch.cat((-x2, x1), dim=-1)
        cat_9: "f16[1, 8, s0, 128][1024*s0, 128*s0, 128, 1]cuda:0" = torch.ops.aten.cat.default([neg_9, slice_98], -1);  neg_9 = slice_98 = None
        
         # File: /app/low_bit_inference/model.py:108 in apply_rotary_pos_emb, code: k_embed = (k * cos) + (rotate_half(k) * sin)
        mul_1814: "f16[1, 8, s0, 128][1024*s0, 128*s0, 128, 1]cuda:0" = torch.ops.aten.mul.Tensor(cat_9, unsqueeze_29);  cat_9 = unsqueeze_29 = None
        add_1475: "f16[1, 8, s0, 128][1024*s0, 128, 1024, 1]cuda:0" = torch.ops.aten.add.Tensor(mul_1797, mul_1814);  mul_1797 = mul_1814 = None
        
         # File: /app/low_bit_inference/optims/cache_optim.py:150 in update, code: self.keys.index_copy_(2, cache_position, key_states)
        index_put_8: "f16[1, 8, s1, 128][1024*s1, 128*s1, 128, 1]cuda:0" = torch.ops.aten.index_put.default(full_default_16, [None, None, arg3_1], add_1475);  full_default_16 = add_1475 = None
        
         # File: /app/.venv/lib/python3.12/site-packages/transformers/integrations/sdpa_attention.py:15 in repeat_kv, code: return hidden_states.reshape(batch, num_key_value_heads * n_rep, slen, head_dim)
        unsqueeze_31: "f16[1, 8, 1, s1, 128][1024*s1, 128*s1, 128*s1, 128, 1]cuda:0" = torch.ops.aten.unsqueeze.default(index_put_8, 2)
        expand_25: "f16[1, 8, 4, s1, 128][1024*s1, 128*s1, 0, 128, 1]cuda:0" = torch.ops.aten.expand.default(unsqueeze_31, [1, 8, 4, arg5_1, 128]);  unsqueeze_31 = None
        clone_14: "f16[1, 8, 4, s1, 128][4096*s1, 512*s1, 128*s1, 128, 1]cuda:0" = torch.ops.aten.clone.default(expand_25, memory_format = torch.contiguous_format);  expand_25 = None
        view_157: "f16[1, 32, s1, 128][4096*s1, 128*s1, 128, 1]cuda:0" = torch.ops.aten.reshape.default(clone_14, [1, 32, arg5_1, 128]);  clone_14 = None
        
         # File: /app/low_bit_inference/optims/cache_optim.py:114 in lazy_initialization, code: self.values = torch.zeros(
        full_default_17: "f16[1, 8, s1, 128][1024*s1, 128*s1, 128, 1]cuda:0" = torch.ops.aten.full.default([1, 8, arg322_1, 128], 0, dtype = torch.float16, layout = torch.strided, device = device(type='cuda', index=0), pin_memory = False)
        
         # File: /app/low_bit_inference/model.py:208 in forward, code: value_states = self.v_proj(hidden_states).view(hidden_shape).transpose(1, 2)
        view_153: "f16[1, s0, 4096][4096*s0, 4096, 1]cuda:0" = torch.ops.aten.reshape.default(getitem_32, [1, arg0_1, 4096]);  getitem_32 = None
        view_154: "f16[s0, 4096][4096, 1]cuda:0" = torch.ops.aten.reshape.default(view_153, [arg0_1, 4096]);  view_153 = None
        permute_49: "f16[4096, 1024][1, 4096]cuda:0" = torch.ops.aten.permute.default(arg51_1, [1, 0]);  arg51_1 = None
        mm_30: "f16[s0, 1024][1024, 1]cuda:0" = torch.ops.aten.mm.default(view_154, permute_49);  view_154 = permute_49 = None
        view_155: "f16[1, s0, 1024][1024*s0, 1024, 1]cuda:0" = torch.ops.aten.reshape.default(mm_30, [1, arg0_1, 1024]);  mm_30 = None
        view_156: "f16[1, s0, 8, 128][1024*s0, 1024, 128, 1]cuda:0" = torch.ops.aten.reshape.default(view_155, [1, arg0_1, -1, 128]);  view_155 = None
        permute_50: "f16[1, 8, s0, 128][1024*s0, 128, 1024, 1]cuda:0" = torch.ops.aten.permute.default(view_156, [0, 2, 1, 3]);  view_156 = None
        
         # File: /app/low_bit_inference/optims/cache_optim.py:151 in update, code: self.values.index_copy_(2, cache_position, value_states)
        index_put_9: "f16[1, 8, s1, 128][1024*s1, 128*s1, 128, 1]cuda:0" = torch.ops.aten.index_put.default(full_default_17, [None, None, arg3_1], permute_50);  full_default_17 = permute_50 = None
        
         # File: /app/.venv/lib/python3.12/site-packages/transformers/integrations/sdpa_attention.py:15 in repeat_kv, code: return hidden_states.reshape(batch, num_key_value_heads * n_rep, slen, head_dim)
        unsqueeze_33: "f16[1, 8, 1, s1, 128][1024*s1, 128*s1, 128*s1, 128, 1]cuda:0" = torch.ops.aten.unsqueeze.default(index_put_9, 2)
        expand_27: "f16[1, 8, 4, s1, 128][1024*s1, 128*s1, 0, 128, 1]cuda:0" = torch.ops.aten.expand.default(unsqueeze_33, [1, 8, 4, arg5_1, 128]);  unsqueeze_33 = None
        clone_15: "f16[1, 8, 4, s1, 128][4096*s1, 512*s1, 128*s1, 128, 1]cuda:0" = torch.ops.aten.clone.default(expand_27, memory_format = torch.contiguous_format);  expand_27 = None
        view_158: "f16[1, 32, s1, 128][4096*s1, 128*s1, 128, 1]cuda:0" = torch.ops.aten.reshape.default(clone_15, [1, 32, arg5_1, 128]);  clone_15 = None
        
         # File: /app/.venv/lib/python3.12/site-packages/transformers/integrations/sdpa_attention.py:54 in sdpa_attention_forward, code: attn_output = torch.nn.functional.scaled_dot_product_attention(
        full_default_19: "f16[][]cuda:0" = torch.ops.aten.full.default([], 0.0, dtype = torch.float16, layout = torch.strided, device = device(type='cuda', index=0), pin_memory = False)
        full_default_18: "f16[][]cuda:0" = torch.ops.aten.full.default([], -inf, dtype = torch.float16, layout = torch.strided, device = device(type='cuda', index=0), pin_memory = False)
        where_4: "f16[1, 1, s0, s1][s0*s1, s0*s1, s1, 1]cuda:0" = torch.ops.aten.where.self(arg6_1, full_default_19, full_default_18);  full_default_19 = full_default_18 = None
        expand_28: "f16[1, 32, s0, s1][s0*s1, 0, s1, 1]cuda:0" = torch.ops.aten.expand.default(where_4, [1, 32, arg0_1, arg5_1]);  where_4 = None
        _scaled_dot_product_efficient_attention_4 = torch.ops.aten._scaled_dot_product_efficient_attention.default(clone_16, view_157, view_158, expand_28, False, scale = 0.08838834764831845);  clone_16 = view_157 = view_158 = expand_28 = None
        getitem_34: "f16[1, 32, s0, 128][4096*s0, 128, 4096, 1]cuda:0" = _scaled_dot_product_efficient_attention_4[0];  _scaled_dot_product_efficient_attention_4 = None
        
         # File: /app/low_bit_inference/optims/rms_norm_kernels/liger_rms_norm.py:447 in rms_norm_forward, code: Y = torch.empty((n_rows, n_cols), dtype=X.dtype, device=X.device)
        empty_18: "f16[s0, 4096][4096, 1]cuda:0" = torch.ops.aten.empty.memory_format([arg0_1, 4096], dtype = torch.float16, device = device(type='cuda', index=0), pin_memory = False)
        
         # File: /app/.venv/lib/python3.12/site-packages/transformers/integrations/sdpa_attention.py:63 in sdpa_attention_forward, code: attn_output = attn_output.transpose(1, 2).contiguous()
        permute_51: "f16[1, s0, 32, 128][4096*s0, 4096, 128, 1]cuda:0" = torch.ops.aten.permute.default(getitem_34, [0, 2, 1, 3]);  getitem_34 = None
        
         # File: /app/low_bit_inference/model.py:233 in forward, code: attn_output = attn_output.reshape(*input_shape, -1).contiguous()
        view_159: "f16[1, s0, 4096][4096*s0, 4096, 1]cuda:0" = torch.ops.aten.reshape.default(permute_51, [1, arg0_1, -1]);  permute_51 = None
        
         # File: /app/low_bit_inference/model.py:234 in forward, code: attn_output = self.o_proj(attn_output)
        view_160: "f16[s0, 4096][4096, 1]cuda:0" = torch.ops.aten.reshape.default(view_159, [arg0_1, 4096]);  view_159 = None
        permute_52: "f16[4096, 4096][1, 4096]cuda:0" = torch.ops.aten.permute.default(arg53_1, [1, 0]);  arg53_1 = None
        mm_31: "f16[s0, 4096][4096, 1]cuda:0" = torch.ops.aten.mm.default(view_160, permute_52);  view_160 = permute_52 = None
        view_161: "f16[1, s0, 4096][4096*s0, 4096, 1]cuda:0" = torch.ops.aten.reshape.default(mm_31, [1, arg0_1, 4096]);  mm_31 = None
        
         # File: /app/low_bit_inference/model.py:273 in forward, code: hidden_states = residual + hidden_states
        add_1633: "f16[1, s0, 4096][4096*s0, 4096, 1]cuda:0" = torch.ops.aten.add.Tensor(add_1357, view_161);  add_1357 = view_161 = None
        
         # File: /app/low_bit_inference/optims/rms_norm_kernels/liger_rms_norm.py:443 in rms_norm_forward, code: X = X.view(-1, dim)
        view_162: "f16[s0, 4096][4096, 1]cuda:0" = torch.ops.aten.reshape.default(add_1633, [-1, 4096])
        
         # File: /app/low_bit_inference/optims/rms_norm_kernels/liger_rms_norm.py:451 in rms_norm_forward, code: RSTD = torch.empty(n_rows, dtype=rstd_dtype, device=X.device)
        empty_19: "f32[s0][1]cuda:0" = torch.ops.aten.empty.memory_format([arg0_1], dtype = torch.float32, device = device(type='cuda', index=0), pin_memory = False)
        
         # File: /app/low_bit_inference/optims/rms_norm_kernels/liger_rms_norm.py:461 in rms_norm_forward, code: _rms_norm_forward_kernel[(n_rows,)](
        triton_kernel_wrapper_functional_proxy_9 = torch.ops.higher_order.triton_kernel_wrapper_functional(kernel_idx = 10, constant_args_idx = 9, grid = [(arg0_1, 1, 1)], tma_descriptor_metadata = {}, kwargs = {'Y_ptr': empty_18, 'X_ptr': view_162, 'W_ptr': arg54_1, 'RSTD_ptr': empty_19}, tensors_to_clone = ['Y_ptr', 'RSTD_ptr']);  empty_18 = view_162 = arg54_1 = empty_19 = None
        getitem_38: "f16[s0, 4096][4096, 1]cuda:0" = triton_kernel_wrapper_functional_proxy_9['Y_ptr'];  triton_kernel_wrapper_functional_proxy_9 = None
        
         # File: /app/low_bit_inference/optims/rms_norm_kernels/liger_rms_norm.py:447 in rms_norm_forward, code: Y = torch.empty((n_rows, n_cols), dtype=X.dtype, device=X.device)
        empty_20: "f16[s0, 4096][4096, 1]cuda:0" = torch.ops.aten.empty.memory_format([arg0_1, 4096], dtype = torch.float16, device = device(type='cuda', index=0), pin_memory = False)
        
         # File: /app/low_bit_inference/model.py:124 in forward, code: down_proj = self.down_proj(self.act_fn(self.gate_proj(x)) * self.up_proj(x))
        view_165: "f16[1, s0, 4096][4096*s0, 4096, 1]cuda:0" = torch.ops.aten.reshape.default(getitem_38, [1, arg0_1, 4096])
        view_166: "f16[s0, 4096][4096, 1]cuda:0" = torch.ops.aten.reshape.default(view_165, [arg0_1, 4096]);  view_165 = None
        permute_53: "f16[4096, 14336][1, 4096]cuda:0" = torch.ops.aten.permute.default(arg55_1, [1, 0]);  arg55_1 = None
        mm_32: "f16[s0, 14336][14336, 1]cuda:0" = torch.ops.aten.mm.default(view_166, permute_53);  view_166 = permute_53 = None
        view_167: "f16[1, s0, 14336][14336*s0, 14336, 1]cuda:0" = torch.ops.aten.reshape.default(mm_32, [1, arg0_1, 14336]);  mm_32 = None
        convert_element_type_77: "f32[1, s0, 14336][14336*s0, 14336, 1]cuda:0" = torch.ops.prims.convert_element_type.default(view_167, torch.float32);  view_167 = None
        sigmoid_4: "f32[1, s0, 14336][14336*s0, 14336, 1]cuda:0" = torch.ops.aten.sigmoid.default(convert_element_type_77)
        mul_2062: "f32[1, s0, 14336][14336*s0, 14336, 1]cuda:0" = torch.ops.aten.mul.Tensor(convert_element_type_77, sigmoid_4);  convert_element_type_77 = sigmoid_4 = None
        convert_element_type_78: "f16[1, s0, 14336][14336*s0, 14336, 1]cuda:0" = torch.ops.prims.convert_element_type.default(mul_2062, torch.float16);  mul_2062 = None
        view_169: "f16[1, s0, 4096][4096*s0, 4096, 1]cuda:0" = torch.ops.aten.reshape.default(getitem_38, [1, arg0_1, 4096]);  getitem_38 = None
        view_170: "f16[s0, 4096][4096, 1]cuda:0" = torch.ops.aten.reshape.default(view_169, [arg0_1, 4096]);  view_169 = None
        permute_54: "f16[4096, 14336][1, 4096]cuda:0" = torch.ops.aten.permute.default(arg56_1, [1, 0]);  arg56_1 = None
        mm_33: "f16[s0, 14336][14336, 1]cuda:0" = torch.ops.aten.mm.default(view_170, permute_54);  view_170 = permute_54 = None
        view_171: "f16[1, s0, 14336][14336*s0, 14336, 1]cuda:0" = torch.ops.aten.reshape.default(mm_33, [1, arg0_1, 14336]);  mm_33 = None
        mul_2079: "f16[1, s0, 14336][14336*s0, 14336, 1]cuda:0" = torch.ops.aten.mul.Tensor(convert_element_type_78, view_171);  convert_element_type_78 = view_171 = None
        view_172: "f16[s0, 14336][14336, 1]cuda:0" = torch.ops.aten.reshape.default(mul_2079, [arg0_1, 14336]);  mul_2079 = None
        permute_55: "f16[14336, 4096][1, 14336]cuda:0" = torch.ops.aten.permute.default(arg57_1, [1, 0]);  arg57_1 = None
        mm_34: "f16[s0, 4096][4096, 1]cuda:0" = torch.ops.aten.mm.default(view_172, permute_55);  view_172 = permute_55 = None
        view_173: "f16[1, s0, 4096][4096*s0, 4096, 1]cuda:0" = torch.ops.aten.reshape.default(mm_34, [1, arg0_1, 4096]);  mm_34 = None
        
         # File: /app/low_bit_inference/model.py:279 in forward, code: hidden_states = residual + hidden_states
        add_1686: "f16[1, s0, 4096][4096*s0, 4096, 1]cuda:0" = torch.ops.aten.add.Tensor(add_1633, view_173);  add_1633 = view_173 = None
        
         # File: /app/low_bit_inference/optims/rms_norm_kernels/liger_rms_norm.py:443 in rms_norm_forward, code: X = X.view(-1, dim)
        view_174: "f16[s0, 4096][4096, 1]cuda:0" = torch.ops.aten.reshape.default(add_1686, [-1, 4096])
        
         # File: /app/low_bit_inference/optims/rms_norm_kernels/liger_rms_norm.py:451 in rms_norm_forward, code: RSTD = torch.empty(n_rows, dtype=rstd_dtype, device=X.device)
        empty_21: "f32[s0][1]cuda:0" = torch.ops.aten.empty.memory_format([arg0_1], dtype = torch.float32, device = device(type='cuda', index=0), pin_memory = False)
        
         # File: /app/low_bit_inference/optims/rms_norm_kernels/liger_rms_norm.py:461 in rms_norm_forward, code: _rms_norm_forward_kernel[(n_rows,)](
        triton_kernel_wrapper_functional_proxy_10 = torch.ops.higher_order.triton_kernel_wrapper_functional(kernel_idx = 11, constant_args_idx = 10, grid = [(arg0_1, 1, 1)], tma_descriptor_metadata = {}, kwargs = {'Y_ptr': empty_20, 'X_ptr': view_174, 'W_ptr': arg58_1, 'RSTD_ptr': empty_21}, tensors_to_clone = ['Y_ptr', 'RSTD_ptr']);  empty_20 = view_174 = arg58_1 = empty_21 = None
        getitem_40: "f16[s0, 4096][4096, 1]cuda:0" = triton_kernel_wrapper_functional_proxy_10['Y_ptr'];  triton_kernel_wrapper_functional_proxy_10 = None
        
         # File: /app/low_bit_inference/model.py:206 in forward, code: query_states = self.q_proj(hidden_states).view(hidden_shape).transpose(1, 2)
        view_177: "f16[1, s0, 4096][4096*s0, 4096, 1]cuda:0" = torch.ops.aten.reshape.default(getitem_40, [1, arg0_1, 4096])
        view_178: "f16[s0, 4096][4096, 1]cuda:0" = torch.ops.aten.reshape.default(view_177, [arg0_1, 4096]);  view_177 = None
        permute_56: "f16[4096, 4096][1, 4096]cuda:0" = torch.ops.aten.permute.default(arg59_1, [1, 0]);  arg59_1 = None
        mm_35: "f16[s0, 4096][4096, 1]cuda:0" = torch.ops.aten.mm.default(view_178, permute_56);  view_178 = permute_56 = None
        view_179: "f16[1, s0, 4096][4096*s0, 4096, 1]cuda:0" = torch.ops.aten.reshape.default(mm_35, [1, arg0_1, 4096]);  mm_35 = None
        view_180: "f16[1, s0, 32, 128][4096*s0, 4096, 128, 1]cuda:0" = torch.ops.aten.reshape.default(view_179, [1, arg0_1, -1, 128]);  view_179 = None
        permute_57: "f16[1, 32, s0, 128][4096*s0, 128, 4096, 1]cuda:0" = torch.ops.aten.permute.default(view_180, [0, 2, 1, 3]);  view_180 = None
        
         # File: /app/low_bit_inference/model.py:105 in apply_rotary_pos_emb, code: cos = cos.unsqueeze(unsqueeze_dim)
        unsqueeze_34: "f16[1, 1, s0, 128][128*s0, 128*s0, 128, 1]cuda:0" = torch.ops.aten.unsqueeze.default(convert_element_type_1, 1)
        
         # File: /app/low_bit_inference/model.py:107 in apply_rotary_pos_emb, code: q_embed = (q * cos) + (rotate_half(q) * sin)
        mul_2181: "f16[1, 32, s0, 128][4096*s0, 128, 4096, 1]cuda:0" = torch.ops.aten.mul.Tensor(permute_57, unsqueeze_34)
        
         # File: /app/low_bit_inference/model.py:81 in rotate_half, code: x2 = x[..., x.shape[-1] // 2 :]
        slice_120: "f16[1, 32, s0, 64][4096*s0, 128, 4096, 1]cuda:0" = torch.ops.aten.slice.Tensor(permute_57, 3, 64, 9223372036854775807)
        
         # File: /app/low_bit_inference/model.py:82 in rotate_half, code: return torch.cat((-x2, x1), dim=-1)
        neg_10: "f16[1, 32, s0, 64][2048*s0, 64, 2048, 1]cuda:0" = torch.ops.aten.neg.default(slice_120);  slice_120 = None
        
         # File: /app/low_bit_inference/model.py:80 in rotate_half, code: x1 = x[..., : x.shape[-1] // 2]
        slice_119: "f16[1, 32, s0, 64][4096*s0, 128, 4096, 1]cuda:0" = torch.ops.aten.slice.Tensor(permute_57, 3, 0, 64);  permute_57 = None
        
         # File: /app/low_bit_inference/model.py:82 in rotate_half, code: return torch.cat((-x2, x1), dim=-1)
        cat_10: "f16[1, 32, s0, 128][4096*s0, 128*s0, 128, 1]cuda:0" = torch.ops.aten.cat.default([neg_10, slice_119], -1);  neg_10 = slice_119 = None
        
         # File: /app/low_bit_inference/model.py:106 in apply_rotary_pos_emb, code: sin = sin.unsqueeze(unsqueeze_dim)
        unsqueeze_35: "f16[1, 1, s0, 128][128*s0, 128*s0, 128, 1]cuda:0" = torch.ops.aten.unsqueeze.default(convert_element_type_2, 1)
        
         # File: /app/low_bit_inference/model.py:107 in apply_rotary_pos_emb, code: q_embed = (q * cos) + (rotate_half(q) * sin)
        mul_2198: "f16[1, 32, s0, 128][4096*s0, 128*s0, 128, 1]cuda:0" = torch.ops.aten.mul.Tensor(cat_10, unsqueeze_35);  cat_10 = None
        add_1780: "f16[1, 32, s0, 128][4096*s0, 128, 4096, 1]cuda:0" = torch.ops.aten.add.Tensor(mul_2181, mul_2198);  mul_2181 = mul_2198 = None
        
         # File: /app/.venv/lib/python3.12/site-packages/transformers/integrations/sdpa_attention.py:39 in sdpa_attention_forward, code: query = query.contiguous()
        clone_19: "f16[1, 32, s0, 128][4096*s0, 128*s0, 128, 1]cuda:0" = torch.ops.aten.clone.default(add_1780, memory_format = torch.contiguous_format);  add_1780 = None
        
         # File: /app/low_bit_inference/optims/cache_optim.py:109 in lazy_initialization, code: self.keys = torch.zeros(
        full_default_20: "f16[1, 8, s1, 128][1024*s1, 128*s1, 128, 1]cuda:0" = torch.ops.aten.full.default([1, 8, arg322_1, 128], 0, dtype = torch.float16, layout = torch.strided, device = device(type='cuda', index=0), pin_memory = False)
        
         # File: /app/low_bit_inference/model.py:207 in forward, code: key_states = self.k_proj(hidden_states).view(hidden_shape).transpose(1, 2)
        view_182: "f16[1, s0, 4096][4096*s0, 4096, 1]cuda:0" = torch.ops.aten.reshape.default(getitem_40, [1, arg0_1, 4096])
        view_183: "f16[s0, 4096][4096, 1]cuda:0" = torch.ops.aten.reshape.default(view_182, [arg0_1, 4096]);  view_182 = None
        permute_58: "f16[4096, 1024][1, 4096]cuda:0" = torch.ops.aten.permute.default(arg60_1, [1, 0]);  arg60_1 = None
        mm_36: "f16[s0, 1024][1024, 1]cuda:0" = torch.ops.aten.mm.default(view_183, permute_58);  view_183 = permute_58 = None
        view_184: "f16[1, s0, 1024][1024*s0, 1024, 1]cuda:0" = torch.ops.aten.reshape.default(mm_36, [1, arg0_1, 1024]);  mm_36 = None
        view_185: "f16[1, s0, 8, 128][1024*s0, 1024, 128, 1]cuda:0" = torch.ops.aten.reshape.default(view_184, [1, arg0_1, -1, 128]);  view_184 = None
        permute_59: "f16[1, 8, s0, 128][1024*s0, 128, 1024, 1]cuda:0" = torch.ops.aten.permute.default(view_185, [0, 2, 1, 3]);  view_185 = None
        
         # File: /app/low_bit_inference/model.py:108 in apply_rotary_pos_emb, code: k_embed = (k * cos) + (rotate_half(k) * sin)
        mul_2206: "f16[1, 8, s0, 128][1024*s0, 128, 1024, 1]cuda:0" = torch.ops.aten.mul.Tensor(permute_59, unsqueeze_34);  unsqueeze_34 = None
        
         # File: /app/low_bit_inference/model.py:81 in rotate_half, code: x2 = x[..., x.shape[-1] // 2 :]
        slice_122: "f16[1, 8, s0, 64][1024*s0, 128, 1024, 1]cuda:0" = torch.ops.aten.slice.Tensor(permute_59, 3, 64, 9223372036854775807)
        
         # File: /app/low_bit_inference/model.py:82 in rotate_half, code: return torch.cat((-x2, x1), dim=-1)
        neg_11: "f16[1, 8, s0, 64][512*s0, 64, 512, 1]cuda:0" = torch.ops.aten.neg.default(slice_122);  slice_122 = None
        
         # File: /app/low_bit_inference/model.py:80 in rotate_half, code: x1 = x[..., : x.shape[-1] // 2]
        slice_121: "f16[1, 8, s0, 64][1024*s0, 128, 1024, 1]cuda:0" = torch.ops.aten.slice.Tensor(permute_59, 3, 0, 64);  permute_59 = None
        
         # File: /app/low_bit_inference/model.py:82 in rotate_half, code: return torch.cat((-x2, x1), dim=-1)
        cat_11: "f16[1, 8, s0, 128][1024*s0, 128*s0, 128, 1]cuda:0" = torch.ops.aten.cat.default([neg_11, slice_121], -1);  neg_11 = slice_121 = None
        
         # File: /app/low_bit_inference/model.py:108 in apply_rotary_pos_emb, code: k_embed = (k * cos) + (rotate_half(k) * sin)
        mul_2223: "f16[1, 8, s0, 128][1024*s0, 128*s0, 128, 1]cuda:0" = torch.ops.aten.mul.Tensor(cat_11, unsqueeze_35);  cat_11 = unsqueeze_35 = None
        add_1804: "f16[1, 8, s0, 128][1024*s0, 128, 1024, 1]cuda:0" = torch.ops.aten.add.Tensor(mul_2206, mul_2223);  mul_2206 = mul_2223 = None
        
         # File: /app/low_bit_inference/optims/cache_optim.py:150 in update, code: self.keys.index_copy_(2, cache_position, key_states)
        index_put_10: "f16[1, 8, s1, 128][1024*s1, 128*s1, 128, 1]cuda:0" = torch.ops.aten.index_put.default(full_default_20, [None, None, arg3_1], add_1804);  full_default_20 = add_1804 = None
        
         # File: /app/.venv/lib/python3.12/site-packages/transformers/integrations/sdpa_attention.py:15 in repeat_kv, code: return hidden_states.reshape(batch, num_key_value_heads * n_rep, slen, head_dim)
        unsqueeze_37: "f16[1, 8, 1, s1, 128][1024*s1, 128*s1, 128*s1, 128, 1]cuda:0" = torch.ops.aten.unsqueeze.default(index_put_10, 2)
        expand_30: "f16[1, 8, 4, s1, 128][1024*s1, 128*s1, 0, 128, 1]cuda:0" = torch.ops.aten.expand.default(unsqueeze_37, [1, 8, 4, arg5_1, 128]);  unsqueeze_37 = None
        clone_17: "f16[1, 8, 4, s1, 128][4096*s1, 512*s1, 128*s1, 128, 1]cuda:0" = torch.ops.aten.clone.default(expand_30, memory_format = torch.contiguous_format);  expand_30 = None
        view_191: "f16[1, 32, s1, 128][4096*s1, 128*s1, 128, 1]cuda:0" = torch.ops.aten.reshape.default(clone_17, [1, 32, arg5_1, 128]);  clone_17 = None
        
         # File: /app/low_bit_inference/optims/cache_optim.py:114 in lazy_initialization, code: self.values = torch.zeros(
        full_default_21: "f16[1, 8, s1, 128][1024*s1, 128*s1, 128, 1]cuda:0" = torch.ops.aten.full.default([1, 8, arg322_1, 128], 0, dtype = torch.float16, layout = torch.strided, device = device(type='cuda', index=0), pin_memory = False)
        
         # File: /app/low_bit_inference/model.py:208 in forward, code: value_states = self.v_proj(hidden_states).view(hidden_shape).transpose(1, 2)
        view_187: "f16[1, s0, 4096][4096*s0, 4096, 1]cuda:0" = torch.ops.aten.reshape.default(getitem_40, [1, arg0_1, 4096]);  getitem_40 = None
        view_188: "f16[s0, 4096][4096, 1]cuda:0" = torch.ops.aten.reshape.default(view_187, [arg0_1, 4096]);  view_187 = None
        permute_60: "f16[4096, 1024][1, 4096]cuda:0" = torch.ops.aten.permute.default(arg61_1, [1, 0]);  arg61_1 = None
        mm_37: "f16[s0, 1024][1024, 1]cuda:0" = torch.ops.aten.mm.default(view_188, permute_60);  view_188 = permute_60 = None
        view_189: "f16[1, s0, 1024][1024*s0, 1024, 1]cuda:0" = torch.ops.aten.reshape.default(mm_37, [1, arg0_1, 1024]);  mm_37 = None
        view_190: "f16[1, s0, 8, 128][1024*s0, 1024, 128, 1]cuda:0" = torch.ops.aten.reshape.default(view_189, [1, arg0_1, -1, 128]);  view_189 = None
        permute_61: "f16[1, 8, s0, 128][1024*s0, 128, 1024, 1]cuda:0" = torch.ops.aten.permute.default(view_190, [0, 2, 1, 3]);  view_190 = None
        
         # File: /app/low_bit_inference/optims/cache_optim.py:151 in update, code: self.values.index_copy_(2, cache_position, value_states)
        index_put_11: "f16[1, 8, s1, 128][1024*s1, 128*s1, 128, 1]cuda:0" = torch.ops.aten.index_put.default(full_default_21, [None, None, arg3_1], permute_61);  full_default_21 = permute_61 = None
        
         # File: /app/.venv/lib/python3.12/site-packages/transformers/integrations/sdpa_attention.py:15 in repeat_kv, code: return hidden_states.reshape(batch, num_key_value_heads * n_rep, slen, head_dim)
        unsqueeze_39: "f16[1, 8, 1, s1, 128][1024*s1, 128*s1, 128*s1, 128, 1]cuda:0" = torch.ops.aten.unsqueeze.default(index_put_11, 2)
        expand_32: "f16[1, 8, 4, s1, 128][1024*s1, 128*s1, 0, 128, 1]cuda:0" = torch.ops.aten.expand.default(unsqueeze_39, [1, 8, 4, arg5_1, 128]);  unsqueeze_39 = None
        clone_18: "f16[1, 8, 4, s1, 128][4096*s1, 512*s1, 128*s1, 128, 1]cuda:0" = torch.ops.aten.clone.default(expand_32, memory_format = torch.contiguous_format);  expand_32 = None
        view_192: "f16[1, 32, s1, 128][4096*s1, 128*s1, 128, 1]cuda:0" = torch.ops.aten.reshape.default(clone_18, [1, 32, arg5_1, 128]);  clone_18 = None
        
         # File: /app/.venv/lib/python3.12/site-packages/transformers/integrations/sdpa_attention.py:54 in sdpa_attention_forward, code: attn_output = torch.nn.functional.scaled_dot_product_attention(
        full_default_23: "f16[][]cuda:0" = torch.ops.aten.full.default([], 0.0, dtype = torch.float16, layout = torch.strided, device = device(type='cuda', index=0), pin_memory = False)
        full_default_22: "f16[][]cuda:0" = torch.ops.aten.full.default([], -inf, dtype = torch.float16, layout = torch.strided, device = device(type='cuda', index=0), pin_memory = False)
        where_5: "f16[1, 1, s0, s1][s0*s1, s0*s1, s1, 1]cuda:0" = torch.ops.aten.where.self(arg6_1, full_default_23, full_default_22);  full_default_23 = full_default_22 = None
        expand_33: "f16[1, 32, s0, s1][s0*s1, 0, s1, 1]cuda:0" = torch.ops.aten.expand.default(where_5, [1, 32, arg0_1, arg5_1]);  where_5 = None
        _scaled_dot_product_efficient_attention_5 = torch.ops.aten._scaled_dot_product_efficient_attention.default(clone_19, view_191, view_192, expand_33, False, scale = 0.08838834764831845);  clone_19 = view_191 = view_192 = expand_33 = None
        getitem_42: "f16[1, 32, s0, 128][4096*s0, 128, 4096, 1]cuda:0" = _scaled_dot_product_efficient_attention_5[0];  _scaled_dot_product_efficient_attention_5 = None
        
         # File: /app/low_bit_inference/optims/rms_norm_kernels/liger_rms_norm.py:447 in rms_norm_forward, code: Y = torch.empty((n_rows, n_cols), dtype=X.dtype, device=X.device)
        empty_22: "f16[s0, 4096][4096, 1]cuda:0" = torch.ops.aten.empty.memory_format([arg0_1, 4096], dtype = torch.float16, device = device(type='cuda', index=0), pin_memory = False)
        
         # File: /app/.venv/lib/python3.12/site-packages/transformers/integrations/sdpa_attention.py:63 in sdpa_attention_forward, code: attn_output = attn_output.transpose(1, 2).contiguous()
        permute_62: "f16[1, s0, 32, 128][4096*s0, 4096, 128, 1]cuda:0" = torch.ops.aten.permute.default(getitem_42, [0, 2, 1, 3]);  getitem_42 = None
        
         # File: /app/low_bit_inference/model.py:233 in forward, code: attn_output = attn_output.reshape(*input_shape, -1).contiguous()
        view_193: "f16[1, s0, 4096][4096*s0, 4096, 1]cuda:0" = torch.ops.aten.reshape.default(permute_62, [1, arg0_1, -1]);  permute_62 = None
        
         # File: /app/low_bit_inference/model.py:234 in forward, code: attn_output = self.o_proj(attn_output)
        view_194: "f16[s0, 4096][4096, 1]cuda:0" = torch.ops.aten.reshape.default(view_193, [arg0_1, 4096]);  view_193 = None
        permute_63: "f16[4096, 4096][1, 4096]cuda:0" = torch.ops.aten.permute.default(arg63_1, [1, 0]);  arg63_1 = None
        mm_38: "f16[s0, 4096][4096, 1]cuda:0" = torch.ops.aten.mm.default(view_194, permute_63);  view_194 = permute_63 = None
        view_195: "f16[1, s0, 4096][4096*s0, 4096, 1]cuda:0" = torch.ops.aten.reshape.default(mm_38, [1, arg0_1, 4096]);  mm_38 = None
        
         # File: /app/low_bit_inference/model.py:273 in forward, code: hidden_states = residual + hidden_states
        add_1962: "f16[1, s0, 4096][4096*s0, 4096, 1]cuda:0" = torch.ops.aten.add.Tensor(add_1686, view_195);  add_1686 = view_195 = None
        
         # File: /app/low_bit_inference/optims/rms_norm_kernels/liger_rms_norm.py:443 in rms_norm_forward, code: X = X.view(-1, dim)
        view_196: "f16[s0, 4096][4096, 1]cuda:0" = torch.ops.aten.reshape.default(add_1962, [-1, 4096])
        
         # File: /app/low_bit_inference/optims/rms_norm_kernels/liger_rms_norm.py:451 in rms_norm_forward, code: RSTD = torch.empty(n_rows, dtype=rstd_dtype, device=X.device)
        empty_23: "f32[s0][1]cuda:0" = torch.ops.aten.empty.memory_format([arg0_1], dtype = torch.float32, device = device(type='cuda', index=0), pin_memory = False)
        
         # File: /app/low_bit_inference/optims/rms_norm_kernels/liger_rms_norm.py:461 in rms_norm_forward, code: _rms_norm_forward_kernel[(n_rows,)](
        triton_kernel_wrapper_functional_proxy_11 = torch.ops.higher_order.triton_kernel_wrapper_functional(kernel_idx = 12, constant_args_idx = 11, grid = [(arg0_1, 1, 1)], tma_descriptor_metadata = {}, kwargs = {'Y_ptr': empty_22, 'X_ptr': view_196, 'W_ptr': arg64_1, 'RSTD_ptr': empty_23}, tensors_to_clone = ['Y_ptr', 'RSTD_ptr']);  empty_22 = view_196 = arg64_1 = empty_23 = None
        getitem_46: "f16[s0, 4096][4096, 1]cuda:0" = triton_kernel_wrapper_functional_proxy_11['Y_ptr'];  triton_kernel_wrapper_functional_proxy_11 = None
        
         # File: /app/low_bit_inference/optims/rms_norm_kernels/liger_rms_norm.py:447 in rms_norm_forward, code: Y = torch.empty((n_rows, n_cols), dtype=X.dtype, device=X.device)
        empty_24: "f16[s0, 4096][4096, 1]cuda:0" = torch.ops.aten.empty.memory_format([arg0_1, 4096], dtype = torch.float16, device = device(type='cuda', index=0), pin_memory = False)
        
         # File: /app/low_bit_inference/model.py:124 in forward, code: down_proj = self.down_proj(self.act_fn(self.gate_proj(x)) * self.up_proj(x))
        view_199: "f16[1, s0, 4096][4096*s0, 4096, 1]cuda:0" = torch.ops.aten.reshape.default(getitem_46, [1, arg0_1, 4096])
        view_200: "f16[s0, 4096][4096, 1]cuda:0" = torch.ops.aten.reshape.default(view_199, [arg0_1, 4096]);  view_199 = None
        permute_64: "f16[4096, 14336][1, 4096]cuda:0" = torch.ops.aten.permute.default(arg65_1, [1, 0]);  arg65_1 = None
        mm_39: "f16[s0, 14336][14336, 1]cuda:0" = torch.ops.aten.mm.default(view_200, permute_64);  view_200 = permute_64 = None
        view_201: "f16[1, s0, 14336][14336*s0, 14336, 1]cuda:0" = torch.ops.aten.reshape.default(mm_39, [1, arg0_1, 14336]);  mm_39 = None
        convert_element_type_93: "f32[1, s0, 14336][14336*s0, 14336, 1]cuda:0" = torch.ops.prims.convert_element_type.default(view_201, torch.float32);  view_201 = None
        sigmoid_5: "f32[1, s0, 14336][14336*s0, 14336, 1]cuda:0" = torch.ops.aten.sigmoid.default(convert_element_type_93)
        mul_2471: "f32[1, s0, 14336][14336*s0, 14336, 1]cuda:0" = torch.ops.aten.mul.Tensor(convert_element_type_93, sigmoid_5);  convert_element_type_93 = sigmoid_5 = None
        convert_element_type_94: "f16[1, s0, 14336][14336*s0, 14336, 1]cuda:0" = torch.ops.prims.convert_element_type.default(mul_2471, torch.float16);  mul_2471 = None
        view_203: "f16[1, s0, 4096][4096*s0, 4096, 1]cuda:0" = torch.ops.aten.reshape.default(getitem_46, [1, arg0_1, 4096]);  getitem_46 = None
        view_204: "f16[s0, 4096][4096, 1]cuda:0" = torch.ops.aten.reshape.default(view_203, [arg0_1, 4096]);  view_203 = None
        permute_65: "f16[4096, 14336][1, 4096]cuda:0" = torch.ops.aten.permute.default(arg66_1, [1, 0]);  arg66_1 = None
        mm_40: "f16[s0, 14336][14336, 1]cuda:0" = torch.ops.aten.mm.default(view_204, permute_65);  view_204 = permute_65 = None
        view_205: "f16[1, s0, 14336][14336*s0, 14336, 1]cuda:0" = torch.ops.aten.reshape.default(mm_40, [1, arg0_1, 14336]);  mm_40 = None
        mul_2488: "f16[1, s0, 14336][14336*s0, 14336, 1]cuda:0" = torch.ops.aten.mul.Tensor(convert_element_type_94, view_205);  convert_element_type_94 = view_205 = None
        view_206: "f16[s0, 14336][14336, 1]cuda:0" = torch.ops.aten.reshape.default(mul_2488, [arg0_1, 14336]);  mul_2488 = None
        permute_66: "f16[14336, 4096][1, 14336]cuda:0" = torch.ops.aten.permute.default(arg67_1, [1, 0]);  arg67_1 = None
        mm_41: "f16[s0, 4096][4096, 1]cuda:0" = torch.ops.aten.mm.default(view_206, permute_66);  view_206 = permute_66 = None
        view_207: "f16[1, s0, 4096][4096*s0, 4096, 1]cuda:0" = torch.ops.aten.reshape.default(mm_41, [1, arg0_1, 4096]);  mm_41 = None
        
         # File: /app/low_bit_inference/model.py:279 in forward, code: hidden_states = residual + hidden_states
        add_2015: "f16[1, s0, 4096][4096*s0, 4096, 1]cuda:0" = torch.ops.aten.add.Tensor(add_1962, view_207);  add_1962 = view_207 = None
        
         # File: /app/low_bit_inference/optims/rms_norm_kernels/liger_rms_norm.py:443 in rms_norm_forward, code: X = X.view(-1, dim)
        view_208: "f16[s0, 4096][4096, 1]cuda:0" = torch.ops.aten.reshape.default(add_2015, [-1, 4096])
        
         # File: /app/low_bit_inference/optims/rms_norm_kernels/liger_rms_norm.py:451 in rms_norm_forward, code: RSTD = torch.empty(n_rows, dtype=rstd_dtype, device=X.device)
        empty_25: "f32[s0][1]cuda:0" = torch.ops.aten.empty.memory_format([arg0_1], dtype = torch.float32, device = device(type='cuda', index=0), pin_memory = False)
        
         # File: /app/low_bit_inference/optims/rms_norm_kernels/liger_rms_norm.py:461 in rms_norm_forward, code: _rms_norm_forward_kernel[(n_rows,)](
        triton_kernel_wrapper_functional_proxy_12 = torch.ops.higher_order.triton_kernel_wrapper_functional(kernel_idx = 13, constant_args_idx = 12, grid = [(arg0_1, 1, 1)], tma_descriptor_metadata = {}, kwargs = {'Y_ptr': empty_24, 'X_ptr': view_208, 'W_ptr': arg68_1, 'RSTD_ptr': empty_25}, tensors_to_clone = ['Y_ptr', 'RSTD_ptr']);  empty_24 = view_208 = arg68_1 = empty_25 = None
        getitem_48: "f16[s0, 4096][4096, 1]cuda:0" = triton_kernel_wrapper_functional_proxy_12['Y_ptr'];  triton_kernel_wrapper_functional_proxy_12 = None
        
         # File: /app/low_bit_inference/model.py:206 in forward, code: query_states = self.q_proj(hidden_states).view(hidden_shape).transpose(1, 2)
        view_211: "f16[1, s0, 4096][4096*s0, 4096, 1]cuda:0" = torch.ops.aten.reshape.default(getitem_48, [1, arg0_1, 4096])
        view_212: "f16[s0, 4096][4096, 1]cuda:0" = torch.ops.aten.reshape.default(view_211, [arg0_1, 4096]);  view_211 = None
        permute_67: "f16[4096, 4096][1, 4096]cuda:0" = torch.ops.aten.permute.default(arg69_1, [1, 0]);  arg69_1 = None
        mm_42: "f16[s0, 4096][4096, 1]cuda:0" = torch.ops.aten.mm.default(view_212, permute_67);  view_212 = permute_67 = None
        view_213: "f16[1, s0, 4096][4096*s0, 4096, 1]cuda:0" = torch.ops.aten.reshape.default(mm_42, [1, arg0_1, 4096]);  mm_42 = None
        view_214: "f16[1, s0, 32, 128][4096*s0, 4096, 128, 1]cuda:0" = torch.ops.aten.reshape.default(view_213, [1, arg0_1, -1, 128]);  view_213 = None
        permute_68: "f16[1, 32, s0, 128][4096*s0, 128, 4096, 1]cuda:0" = torch.ops.aten.permute.default(view_214, [0, 2, 1, 3]);  view_214 = None
        
         # File: /app/low_bit_inference/model.py:105 in apply_rotary_pos_emb, code: cos = cos.unsqueeze(unsqueeze_dim)
        unsqueeze_40: "f16[1, 1, s0, 128][128*s0, 128*s0, 128, 1]cuda:0" = torch.ops.aten.unsqueeze.default(convert_element_type_1, 1)
        
         # File: /app/low_bit_inference/model.py:107 in apply_rotary_pos_emb, code: q_embed = (q * cos) + (rotate_half(q) * sin)
        mul_2590: "f16[1, 32, s0, 128][4096*s0, 128, 4096, 1]cuda:0" = torch.ops.aten.mul.Tensor(permute_68, unsqueeze_40)
        
         # File: /app/low_bit_inference/model.py:81 in rotate_half, code: x2 = x[..., x.shape[-1] // 2 :]
        slice_143: "f16[1, 32, s0, 64][4096*s0, 128, 4096, 1]cuda:0" = torch.ops.aten.slice.Tensor(permute_68, 3, 64, 9223372036854775807)
        
         # File: /app/low_bit_inference/model.py:82 in rotate_half, code: return torch.cat((-x2, x1), dim=-1)
        neg_12: "f16[1, 32, s0, 64][2048*s0, 64, 2048, 1]cuda:0" = torch.ops.aten.neg.default(slice_143);  slice_143 = None
        
         # File: /app/low_bit_inference/model.py:80 in rotate_half, code: x1 = x[..., : x.shape[-1] // 2]
        slice_142: "f16[1, 32, s0, 64][4096*s0, 128, 4096, 1]cuda:0" = torch.ops.aten.slice.Tensor(permute_68, 3, 0, 64);  permute_68 = None
        
         # File: /app/low_bit_inference/model.py:82 in rotate_half, code: return torch.cat((-x2, x1), dim=-1)
        cat_12: "f16[1, 32, s0, 128][4096*s0, 128*s0, 128, 1]cuda:0" = torch.ops.aten.cat.default([neg_12, slice_142], -1);  neg_12 = slice_142 = None
        
         # File: /app/low_bit_inference/model.py:106 in apply_rotary_pos_emb, code: sin = sin.unsqueeze(unsqueeze_dim)
        unsqueeze_41: "f16[1, 1, s0, 128][128*s0, 128*s0, 128, 1]cuda:0" = torch.ops.aten.unsqueeze.default(convert_element_type_2, 1)
        
         # File: /app/low_bit_inference/model.py:107 in apply_rotary_pos_emb, code: q_embed = (q * cos) + (rotate_half(q) * sin)
        mul_2607: "f16[1, 32, s0, 128][4096*s0, 128*s0, 128, 1]cuda:0" = torch.ops.aten.mul.Tensor(cat_12, unsqueeze_41);  cat_12 = None
        add_2109: "f16[1, 32, s0, 128][4096*s0, 128, 4096, 1]cuda:0" = torch.ops.aten.add.Tensor(mul_2590, mul_2607);  mul_2590 = mul_2607 = None
        
         # File: /app/.venv/lib/python3.12/site-packages/transformers/integrations/sdpa_attention.py:39 in sdpa_attention_forward, code: query = query.contiguous()
        clone_22: "f16[1, 32, s0, 128][4096*s0, 128*s0, 128, 1]cuda:0" = torch.ops.aten.clone.default(add_2109, memory_format = torch.contiguous_format);  add_2109 = None
        
         # File: /app/low_bit_inference/optims/cache_optim.py:109 in lazy_initialization, code: self.keys = torch.zeros(
        full_default_24: "f16[1, 8, s1, 128][1024*s1, 128*s1, 128, 1]cuda:0" = torch.ops.aten.full.default([1, 8, arg322_1, 128], 0, dtype = torch.float16, layout = torch.strided, device = device(type='cuda', index=0), pin_memory = False)
        
         # File: /app/low_bit_inference/model.py:207 in forward, code: key_states = self.k_proj(hidden_states).view(hidden_shape).transpose(1, 2)
        view_216: "f16[1, s0, 4096][4096*s0, 4096, 1]cuda:0" = torch.ops.aten.reshape.default(getitem_48, [1, arg0_1, 4096])
        view_217: "f16[s0, 4096][4096, 1]cuda:0" = torch.ops.aten.reshape.default(view_216, [arg0_1, 4096]);  view_216 = None
        permute_69: "f16[4096, 1024][1, 4096]cuda:0" = torch.ops.aten.permute.default(arg70_1, [1, 0]);  arg70_1 = None
        mm_43: "f16[s0, 1024][1024, 1]cuda:0" = torch.ops.aten.mm.default(view_217, permute_69);  view_217 = permute_69 = None
        view_218: "f16[1, s0, 1024][1024*s0, 1024, 1]cuda:0" = torch.ops.aten.reshape.default(mm_43, [1, arg0_1, 1024]);  mm_43 = None
        view_219: "f16[1, s0, 8, 128][1024*s0, 1024, 128, 1]cuda:0" = torch.ops.aten.reshape.default(view_218, [1, arg0_1, -1, 128]);  view_218 = None
        permute_70: "f16[1, 8, s0, 128][1024*s0, 128, 1024, 1]cuda:0" = torch.ops.aten.permute.default(view_219, [0, 2, 1, 3]);  view_219 = None
        
         # File: /app/low_bit_inference/model.py:108 in apply_rotary_pos_emb, code: k_embed = (k * cos) + (rotate_half(k) * sin)
        mul_2615: "f16[1, 8, s0, 128][1024*s0, 128, 1024, 1]cuda:0" = torch.ops.aten.mul.Tensor(permute_70, unsqueeze_40);  unsqueeze_40 = None
        
         # File: /app/low_bit_inference/model.py:81 in rotate_half, code: x2 = x[..., x.shape[-1] // 2 :]
        slice_145: "f16[1, 8, s0, 64][1024*s0, 128, 1024, 1]cuda:0" = torch.ops.aten.slice.Tensor(permute_70, 3, 64, 9223372036854775807)
        
         # File: /app/low_bit_inference/model.py:82 in rotate_half, code: return torch.cat((-x2, x1), dim=-1)
        neg_13: "f16[1, 8, s0, 64][512*s0, 64, 512, 1]cuda:0" = torch.ops.aten.neg.default(slice_145);  slice_145 = None
        
         # File: /app/low_bit_inference/model.py:80 in rotate_half, code: x1 = x[..., : x.shape[-1] // 2]
        slice_144: "f16[1, 8, s0, 64][1024*s0, 128, 1024, 1]cuda:0" = torch.ops.aten.slice.Tensor(permute_70, 3, 0, 64);  permute_70 = None
        
         # File: /app/low_bit_inference/model.py:82 in rotate_half, code: return torch.cat((-x2, x1), dim=-1)
        cat_13: "f16[1, 8, s0, 128][1024*s0, 128*s0, 128, 1]cuda:0" = torch.ops.aten.cat.default([neg_13, slice_144], -1);  neg_13 = slice_144 = None
        
         # File: /app/low_bit_inference/model.py:108 in apply_rotary_pos_emb, code: k_embed = (k * cos) + (rotate_half(k) * sin)
        mul_2632: "f16[1, 8, s0, 128][1024*s0, 128*s0, 128, 1]cuda:0" = torch.ops.aten.mul.Tensor(cat_13, unsqueeze_41);  cat_13 = unsqueeze_41 = None
        add_2133: "f16[1, 8, s0, 128][1024*s0, 128, 1024, 1]cuda:0" = torch.ops.aten.add.Tensor(mul_2615, mul_2632);  mul_2615 = mul_2632 = None
        
         # File: /app/low_bit_inference/optims/cache_optim.py:150 in update, code: self.keys.index_copy_(2, cache_position, key_states)
        index_put_12: "f16[1, 8, s1, 128][1024*s1, 128*s1, 128, 1]cuda:0" = torch.ops.aten.index_put.default(full_default_24, [None, None, arg3_1], add_2133);  full_default_24 = add_2133 = None
        
         # File: /app/.venv/lib/python3.12/site-packages/transformers/integrations/sdpa_attention.py:15 in repeat_kv, code: return hidden_states.reshape(batch, num_key_value_heads * n_rep, slen, head_dim)
        unsqueeze_43: "f16[1, 8, 1, s1, 128][1024*s1, 128*s1, 128*s1, 128, 1]cuda:0" = torch.ops.aten.unsqueeze.default(index_put_12, 2)
        expand_35: "f16[1, 8, 4, s1, 128][1024*s1, 128*s1, 0, 128, 1]cuda:0" = torch.ops.aten.expand.default(unsqueeze_43, [1, 8, 4, arg5_1, 128]);  unsqueeze_43 = None
        clone_20: "f16[1, 8, 4, s1, 128][4096*s1, 512*s1, 128*s1, 128, 1]cuda:0" = torch.ops.aten.clone.default(expand_35, memory_format = torch.contiguous_format);  expand_35 = None
        view_225: "f16[1, 32, s1, 128][4096*s1, 128*s1, 128, 1]cuda:0" = torch.ops.aten.reshape.default(clone_20, [1, 32, arg5_1, 128]);  clone_20 = None
        
         # File: /app/low_bit_inference/optims/cache_optim.py:114 in lazy_initialization, code: self.values = torch.zeros(
        full_default_25: "f16[1, 8, s1, 128][1024*s1, 128*s1, 128, 1]cuda:0" = torch.ops.aten.full.default([1, 8, arg322_1, 128], 0, dtype = torch.float16, layout = torch.strided, device = device(type='cuda', index=0), pin_memory = False)
        
         # File: /app/low_bit_inference/model.py:208 in forward, code: value_states = self.v_proj(hidden_states).view(hidden_shape).transpose(1, 2)
        view_221: "f16[1, s0, 4096][4096*s0, 4096, 1]cuda:0" = torch.ops.aten.reshape.default(getitem_48, [1, arg0_1, 4096]);  getitem_48 = None
        view_222: "f16[s0, 4096][4096, 1]cuda:0" = torch.ops.aten.reshape.default(view_221, [arg0_1, 4096]);  view_221 = None
        permute_71: "f16[4096, 1024][1, 4096]cuda:0" = torch.ops.aten.permute.default(arg71_1, [1, 0]);  arg71_1 = None
        mm_44: "f16[s0, 1024][1024, 1]cuda:0" = torch.ops.aten.mm.default(view_222, permute_71);  view_222 = permute_71 = None
        view_223: "f16[1, s0, 1024][1024*s0, 1024, 1]cuda:0" = torch.ops.aten.reshape.default(mm_44, [1, arg0_1, 1024]);  mm_44 = None
        view_224: "f16[1, s0, 8, 128][1024*s0, 1024, 128, 1]cuda:0" = torch.ops.aten.reshape.default(view_223, [1, arg0_1, -1, 128]);  view_223 = None
        permute_72: "f16[1, 8, s0, 128][1024*s0, 128, 1024, 1]cuda:0" = torch.ops.aten.permute.default(view_224, [0, 2, 1, 3]);  view_224 = None
        
         # File: /app/low_bit_inference/optims/cache_optim.py:151 in update, code: self.values.index_copy_(2, cache_position, value_states)
        index_put_13: "f16[1, 8, s1, 128][1024*s1, 128*s1, 128, 1]cuda:0" = torch.ops.aten.index_put.default(full_default_25, [None, None, arg3_1], permute_72);  full_default_25 = permute_72 = None
        
         # File: /app/.venv/lib/python3.12/site-packages/transformers/integrations/sdpa_attention.py:15 in repeat_kv, code: return hidden_states.reshape(batch, num_key_value_heads * n_rep, slen, head_dim)
        unsqueeze_45: "f16[1, 8, 1, s1, 128][1024*s1, 128*s1, 128*s1, 128, 1]cuda:0" = torch.ops.aten.unsqueeze.default(index_put_13, 2)
        expand_37: "f16[1, 8, 4, s1, 128][1024*s1, 128*s1, 0, 128, 1]cuda:0" = torch.ops.aten.expand.default(unsqueeze_45, [1, 8, 4, arg5_1, 128]);  unsqueeze_45 = None
        clone_21: "f16[1, 8, 4, s1, 128][4096*s1, 512*s1, 128*s1, 128, 1]cuda:0" = torch.ops.aten.clone.default(expand_37, memory_format = torch.contiguous_format);  expand_37 = None
        view_226: "f16[1, 32, s1, 128][4096*s1, 128*s1, 128, 1]cuda:0" = torch.ops.aten.reshape.default(clone_21, [1, 32, arg5_1, 128]);  clone_21 = None
        
         # File: /app/.venv/lib/python3.12/site-packages/transformers/integrations/sdpa_attention.py:54 in sdpa_attention_forward, code: attn_output = torch.nn.functional.scaled_dot_product_attention(
        full_default_27: "f16[][]cuda:0" = torch.ops.aten.full.default([], 0.0, dtype = torch.float16, layout = torch.strided, device = device(type='cuda', index=0), pin_memory = False)
        full_default_26: "f16[][]cuda:0" = torch.ops.aten.full.default([], -inf, dtype = torch.float16, layout = torch.strided, device = device(type='cuda', index=0), pin_memory = False)
        where_6: "f16[1, 1, s0, s1][s0*s1, s0*s1, s1, 1]cuda:0" = torch.ops.aten.where.self(arg6_1, full_default_27, full_default_26);  full_default_27 = full_default_26 = None
        expand_38: "f16[1, 32, s0, s1][s0*s1, 0, s1, 1]cuda:0" = torch.ops.aten.expand.default(where_6, [1, 32, arg0_1, arg5_1]);  where_6 = None
        _scaled_dot_product_efficient_attention_6 = torch.ops.aten._scaled_dot_product_efficient_attention.default(clone_22, view_225, view_226, expand_38, False, scale = 0.08838834764831845);  clone_22 = view_225 = view_226 = expand_38 = None
        getitem_50: "f16[1, 32, s0, 128][4096*s0, 128, 4096, 1]cuda:0" = _scaled_dot_product_efficient_attention_6[0];  _scaled_dot_product_efficient_attention_6 = None
        
…
        mm_206: "f16[s0, 4096][4096, 1]cuda:0" = torch.ops.aten.mm.default(view_1010, permute_327);  view_1010 = permute_327 = None
        view_1011: "f16[1, s0, 4096][4096*s0, 4096, 1]cuda:0" = torch.ops.aten.reshape.default(mm_206, [1, arg0_1, 4096]);  mm_206 = None
        
         # File: /app/low_bit_inference/model.py:273 in forward, code: hidden_states = residual + hidden_states
        add_9858: "f16[1, s0, 4096][4096*s0, 4096, 1]cuda:0" = torch.ops.aten.add.Tensor(add_9582, view_1011);  add_9582 = view_1011 = None
        
         # File: /app/low_bit_inference/optims/rms_norm_kernels/liger_rms_norm.py:443 in rms_norm_forward, code: X = X.view(-1, dim)
        view_1012: "f16[s0, 4096][4096, 1]cuda:0" = torch.ops.aten.reshape.default(add_9858, [-1, 4096])
        
         # File: /app/low_bit_inference/optims/rms_norm_kernels/liger_rms_norm.py:451 in rms_norm_forward, code: RSTD = torch.empty(n_rows, dtype=rstd_dtype, device=X.device)
        empty_119: "f32[s0][1]cuda:0" = torch.ops.aten.empty.memory_format([arg0_1], dtype = torch.float32, device = device(type='cuda', index=0), pin_memory = False)
        
         # File: /app/low_bit_inference/optims/rms_norm_kernels/liger_rms_norm.py:461 in rms_norm_forward, code: _rms_norm_forward_kernel[(n_rows,)](
        triton_kernel_wrapper_functional_proxy_59 = torch.ops.higher_order.triton_kernel_wrapper_functional(kernel_idx = 60, constant_args_idx = 59, grid = [(arg0_1, 1, 1)], tma_descriptor_metadata = {}, kwargs = {'Y_ptr': empty_118, 'X_ptr': view_1012, 'W_ptr': arg304_1, 'RSTD_ptr': empty_119}, tensors_to_clone = ['Y_ptr', 'RSTD_ptr']);  empty_118 = view_1012 = arg304_1 = empty_119 = None
        getitem_238: "f16[s0, 4096][4096, 1]cuda:0" = triton_kernel_wrapper_functional_proxy_59['Y_ptr'];  triton_kernel_wrapper_functional_proxy_59 = None
        
         # File: /app/low_bit_inference/optims/rms_norm_kernels/liger_rms_norm.py:447 in rms_norm_forward, code: Y = torch.empty((n_rows, n_cols), dtype=X.dtype, device=X.device)
        empty_120: "f16[s0, 4096][4096, 1]cuda:0" = torch.ops.aten.empty.memory_format([arg0_1, 4096], dtype = torch.float16, device = device(type='cuda', index=0), pin_memory = False)
        
         # File: /app/low_bit_inference/model.py:124 in forward, code: down_proj = self.down_proj(self.act_fn(self.gate_proj(x)) * self.up_proj(x))
        view_1015: "f16[1, s0, 4096][4096*s0, 4096, 1]cuda:0" = torch.ops.aten.reshape.default(getitem_238, [1, arg0_1, 4096])
        view_1016: "f16[s0, 4096][4096, 1]cuda:0" = torch.ops.aten.reshape.default(view_1015, [arg0_1, 4096]);  view_1015 = None
        permute_328: "f16[4096, 14336][1, 4096]cuda:0" = torch.ops.aten.permute.default(arg305_1, [1, 0]);  arg305_1 = None
        mm_207: "f16[s0, 14336][14336, 1]cuda:0" = torch.ops.aten.mm.default(view_1016, permute_328);  view_1016 = permute_328 = None
        view_1017: "f16[1, s0, 14336][14336*s0, 14336, 1]cuda:0" = torch.ops.aten.reshape.default(mm_207, [1, arg0_1, 14336]);  mm_207 = None
        convert_element_type_477: "f32[1, s0, 14336][14336*s0, 14336, 1]cuda:0" = torch.ops.prims.convert_element_type.default(view_1017, torch.float32);  view_1017 = None
        sigmoid_29: "f32[1, s0, 14336][14336*s0, 14336, 1]cuda:0" = torch.ops.aten.sigmoid.default(convert_element_type_477)
        mul_12287: "f32[1, s0, 14336][14336*s0, 14336, 1]cuda:0" = torch.ops.aten.mul.Tensor(convert_element_type_477, sigmoid_29);  convert_element_type_477 = sigmoid_29 = None
        convert_element_type_478: "f16[1, s0, 14336][14336*s0, 14336, 1]cuda:0" = torch.ops.prims.convert_element_type.default(mul_12287, torch.float16);  mul_12287 = None
        view_1019: "f16[1, s0, 4096][4096*s0, 4096, 1]cuda:0" = torch.ops.aten.reshape.default(getitem_238, [1, arg0_1, 4096]);  getitem_238 = None
        view_1020: "f16[s0, 4096][4096, 1]cuda:0" = torch.ops.aten.reshape.default(view_1019, [arg0_1, 4096]);  view_1019 = None
        permute_329: "f16[4096, 14336][1, 4096]cuda:0" = torch.ops.aten.permute.default(arg306_1, [1, 0]);  arg306_1 = None
        mm_208: "f16[s0, 14336][14336, 1]cuda:0" = torch.ops.aten.mm.default(view_1020, permute_329);  view_1020 = permute_329 = None
        view_1021: "f16[1, s0, 14336][14336*s0, 14336, 1]cuda:0" = torch.ops.aten.reshape.default(mm_208, [1, arg0_1, 14336]);  mm_208 = None
        mul_12304: "f16[1, s0, 14336][14336*s0, 14336, 1]cuda:0" = torch.ops.aten.mul.Tensor(convert_element_type_478, view_1021);  convert_element_type_478 = view_1021 = None
        view_1022: "f16[s0, 14336][14336, 1]cuda:0" = torch.ops.aten.reshape.default(mul_12304, [arg0_1, 14336]);  mul_12304 = None
        permute_330: "f16[14336, 4096][1, 14336]cuda:0" = torch.ops.aten.permute.default(arg307_1, [1, 0]);  arg307_1 = None
        mm_209: "f16[s0, 4096][4096, 1]cuda:0" = torch.ops.aten.mm.default(view_1022, permute_330);  view_1022 = permute_330 = None
        view_1023: "f16[1, s0, 4096][4096*s0, 4096, 1]cuda:0" = torch.ops.aten.reshape.default(mm_209, [1, arg0_1, 4096]);  mm_209 = None
        
         # File: /app/low_bit_inference/model.py:279 in forward, code: hidden_states = residual + hidden_states
        add_9911: "f16[1, s0, 4096][4096*s0, 4096, 1]cuda:0" = torch.ops.aten.add.Tensor(add_9858, view_1023);  add_9858 = view_1023 = None
        
         # File: /app/low_bit_inference/optims/rms_norm_kernels/liger_rms_norm.py:443 in rms_norm_forward, code: X = X.view(-1, dim)
        view_1024: "f16[s0, 4096][4096, 1]cuda:0" = torch.ops.aten.reshape.default(add_9911, [-1, 4096])
        
         # File: /app/low_bit_inference/optims/rms_norm_kernels/liger_rms_norm.py:451 in rms_norm_forward, code: RSTD = torch.empty(n_rows, dtype=rstd_dtype, device=X.device)
        empty_121: "f32[s0][1]cuda:0" = torch.ops.aten.empty.memory_format([arg0_1], dtype = torch.float32, device = device(type='cuda', index=0), pin_memory = False)
        
         # File: /app/low_bit_inference/optims/rms_norm_kernels/liger_rms_norm.py:461 in rms_norm_forward, code: _rms_norm_forward_kernel[(n_rows,)](
        triton_kernel_wrapper_functional_proxy_60 = torch.ops.higher_order.triton_kernel_wrapper_functional(kernel_idx = 61, constant_args_idx = 60, grid = [(arg0_1, 1, 1)], tma_descriptor_metadata = {}, kwargs = {'Y_ptr': empty_120, 'X_ptr': view_1024, 'W_ptr': arg308_1, 'RSTD_ptr': empty_121}, tensors_to_clone = ['Y_ptr', 'RSTD_ptr']);  empty_120 = view_1024 = arg308_1 = empty_121 = None
        getitem_240: "f16[s0, 4096][4096, 1]cuda:0" = triton_kernel_wrapper_functional_proxy_60['Y_ptr'];  triton_kernel_wrapper_functional_proxy_60 = None
        
         # File: /app/low_bit_inference/model.py:206 in forward, code: query_states = self.q_proj(hidden_states).view(hidden_shape).transpose(1, 2)
        view_1027: "f16[1, s0, 4096][4096*s0, 4096, 1]cuda:0" = torch.ops.aten.reshape.default(getitem_240, [1, arg0_1, 4096])
        view_1028: "f16[s0, 4096][4096, 1]cuda:0" = torch.ops.aten.reshape.default(view_1027, [arg0_1, 4096]);  view_1027 = None
        permute_331: "f16[4096, 4096][1, 4096]cuda:0" = torch.ops.aten.permute.default(arg309_1, [1, 0]);  arg309_1 = None
        mm_210: "f16[s0, 4096][4096, 1]cuda:0" = torch.ops.aten.mm.default(view_1028, permute_331);  view_1028 = permute_331 = None
        view_1029: "f16[1, s0, 4096][4096*s0, 4096, 1]cuda:0" = torch.ops.aten.reshape.default(mm_210, [1, arg0_1, 4096]);  mm_210 = None
        view_1030: "f16[1, s0, 32, 128][4096*s0, 4096, 128, 1]cuda:0" = torch.ops.aten.reshape.default(view_1029, [1, arg0_1, -1, 128]);  view_1029 = None
        permute_332: "f16[1, 32, s0, 128][4096*s0, 128, 4096, 1]cuda:0" = torch.ops.aten.permute.default(view_1030, [0, 2, 1, 3]);  view_1030 = None
        
         # File: /app/low_bit_inference/model.py:105 in apply_rotary_pos_emb, code: cos = cos.unsqueeze(unsqueeze_dim)
        unsqueeze_184: "f16[1, 1, s0, 128][128*s0, 128*s0, 128, 1]cuda:0" = torch.ops.aten.unsqueeze.default(convert_element_type_1, 1)
        
         # File: /app/low_bit_inference/model.py:107 in apply_rotary_pos_emb, code: q_embed = (q * cos) + (rotate_half(q) * sin)
        mul_12406: "f16[1, 32, s0, 128][4096*s0, 128, 4096, 1]cuda:0" = torch.ops.aten.mul.Tensor(permute_332, unsqueeze_184)
        
         # File: /app/low_bit_inference/model.py:81 in rotate_half, code: x2 = x[..., x.shape[-1] // 2 :]
        slice_695: "f16[1, 32, s0, 64][4096*s0, 128, 4096, 1]cuda:0" = torch.ops.aten.slice.Tensor(permute_332, 3, 64, 9223372036854775807)
        
         # File: /app/low_bit_inference/model.py:82 in rotate_half, code: return torch.cat((-x2, x1), dim=-1)
        neg_60: "f16[1, 32, s0, 64][2048*s0, 64, 2048, 1]cuda:0" = torch.ops.aten.neg.default(slice_695);  slice_695 = None
        
         # File: /app/low_bit_inference/model.py:80 in rotate_half, code: x1 = x[..., : x.shape[-1] // 2]
        slice_694: "f16[1, 32, s0, 64][4096*s0, 128, 4096, 1]cuda:0" = torch.ops.aten.slice.Tensor(permute_332, 3, 0, 64);  permute_332 = None
        
         # File: /app/low_bit_inference/model.py:82 in rotate_half, code: return torch.cat((-x2, x1), dim=-1)
        cat_60: "f16[1, 32, s0, 128][4096*s0, 128*s0, 128, 1]cuda:0" = torch.ops.aten.cat.default([neg_60, slice_694], -1);  neg_60 = slice_694 = None
        
         # File: /app/low_bit_inference/model.py:106 in apply_rotary_pos_emb, code: sin = sin.unsqueeze(unsqueeze_dim)
        unsqueeze_185: "f16[1, 1, s0, 128][128*s0, 128*s0, 128, 1]cuda:0" = torch.ops.aten.unsqueeze.default(convert_element_type_2, 1)
        
         # File: /app/low_bit_inference/model.py:107 in apply_rotary_pos_emb, code: q_embed = (q * cos) + (rotate_half(q) * sin)
        mul_12423: "f16[1, 32, s0, 128][4096*s0, 128*s0, 128, 1]cuda:0" = torch.ops.aten.mul.Tensor(cat_60, unsqueeze_185);  cat_60 = None
        add_10005: "f16[1, 32, s0, 128][4096*s0, 128, 4096, 1]cuda:0" = torch.ops.aten.add.Tensor(mul_12406, mul_12423);  mul_12406 = mul_12423 = None
        
         # File: /app/.venv/lib/python3.12/site-packages/transformers/integrations/sdpa_attention.py:39 in sdpa_attention_forward, code: query = query.contiguous()
        clone_94: "f16[1, 32, s0, 128][4096*s0, 128*s0, 128, 1]cuda:0" = torch.ops.aten.clone.default(add_10005, memory_format = torch.contiguous_format);  add_10005 = None
        
         # File: /app/low_bit_inference/optims/cache_optim.py:109 in lazy_initialization, code: self.keys = torch.zeros(
        full_default_120: "f16[1, 8, s1, 128][1024*s1, 128*s1, 128, 1]cuda:0" = torch.ops.aten.full.default([1, 8, arg322_1, 128], 0, dtype = torch.float16, layout = torch.strided, device = device(type='cuda', index=0), pin_memory = False)
        
         # File: /app/low_bit_inference/model.py:207 in forward, code: key_states = self.k_proj(hidden_states).view(hidden_shape).transpose(1, 2)
        view_1032: "f16[1, s0, 4096][4096*s0, 4096, 1]cuda:0" = torch.ops.aten.reshape.default(getitem_240, [1, arg0_1, 4096])
        view_1033: "f16[s0, 4096][4096, 1]cuda:0" = torch.ops.aten.reshape.default(view_1032, [arg0_1, 4096]);  view_1032 = None
        permute_333: "f16[4096, 1024][1, 4096]cuda:0" = torch.ops.aten.permute.default(arg310_1, [1, 0]);  arg310_1 = None
        mm_211: "f16[s0, 1024][1024, 1]cuda:0" = torch.ops.aten.mm.default(view_1033, permute_333);  view_1033 = permute_333 = None
        view_1034: "f16[1, s0, 1024][1024*s0, 1024, 1]cuda:0" = torch.ops.aten.reshape.default(mm_211, [1, arg0_1, 1024]);  mm_211 = None
        view_1035: "f16[1, s0, 8, 128][1024*s0, 1024, 128, 1]cuda:0" = torch.ops.aten.reshape.default(view_1034, [1, arg0_1, -1, 128]);  view_1034 = None
        permute_334: "f16[1, 8, s0, 128][1024*s0, 128, 1024, 1]cuda:0" = torch.ops.aten.permute.default(view_1035, [0, 2, 1, 3]);  view_1035 = None
        
         # File: /app/low_bit_inference/model.py:108 in apply_rotary_pos_emb, code: k_embed = (k * cos) + (rotate_half(k) * sin)
        mul_12431: "f16[1, 8, s0, 128][1024*s0, 128, 1024, 1]cuda:0" = torch.ops.aten.mul.Tensor(permute_334, unsqueeze_184);  unsqueeze_184 = None
        
         # File: /app/low_bit_inference/model.py:81 in rotate_half, code: x2 = x[..., x.shape[-1] // 2 :]
        slice_697: "f16[1, 8, s0, 64][1024*s0, 128, 1024, 1]cuda:0" = torch.ops.aten.slice.Tensor(permute_334, 3, 64, 9223372036854775807)
        
         # File: /app/low_bit_inference/model.py:82 in rotate_half, code: return torch.cat((-x2, x1), dim=-1)
        neg_61: "f16[1, 8, s0, 64][512*s0, 64, 512, 1]cuda:0" = torch.ops.aten.neg.default(slice_697);  slice_697 = None
        
         # File: /app/low_bit_inference/model.py:80 in rotate_half, code: x1 = x[..., : x.shape[-1] // 2]
        slice_696: "f16[1, 8, s0, 64][1024*s0, 128, 1024, 1]cuda:0" = torch.ops.aten.slice.Tensor(permute_334, 3, 0, 64);  permute_334 = None
        
         # File: /app/low_bit_inference/model.py:82 in rotate_half, code: return torch.cat((-x2, x1), dim=-1)
        cat_61: "f16[1, 8, s0, 128][1024*s0, 128*s0, 128, 1]cuda:0" = torch.ops.aten.cat.default([neg_61, slice_696], -1);  neg_61 = slice_696 = None
        
         # File: /app/low_bit_inference/model.py:108 in apply_rotary_pos_emb, code: k_embed = (k * cos) + (rotate_half(k) * sin)
        mul_12448: "f16[1, 8, s0, 128][1024*s0, 128*s0, 128, 1]cuda:0" = torch.ops.aten.mul.Tensor(cat_61, unsqueeze_185);  cat_61 = unsqueeze_185 = None
        add_10029: "f16[1, 8, s0, 128][1024*s0, 128, 1024, 1]cuda:0" = torch.ops.aten.add.Tensor(mul_12431, mul_12448);  mul_12431 = mul_12448 = None
        
         # File: /app/low_bit_inference/optims/cache_optim.py:150 in update, code: self.keys.index_copy_(2, cache_position, key_states)
        index_put_60: "f16[1, 8, s1, 128][1024*s1, 128*s1, 128, 1]cuda:0" = torch.ops.aten.index_put.default(full_default_120, [None, None, arg3_1], add_10029);  full_default_120 = add_10029 = None
        
         # File: /app/.venv/lib/python3.12/site-packages/transformers/integrations/sdpa_attention.py:15 in repeat_kv, code: return hidden_states.reshape(batch, num_key_value_heads * n_rep, slen, head_dim)
        unsqueeze_187: "f16[1, 8, 1, s1, 128][1024*s1, 128*s1, 128*s1, 128, 1]cuda:0" = torch.ops.aten.unsqueeze.default(index_put_60, 2)
        expand_155: "f16[1, 8, 4, s1, 128][1024*s1, 128*s1, 0, 128, 1]cuda:0" = torch.ops.aten.expand.default(unsqueeze_187, [1, 8, 4, arg5_1, 128]);  unsqueeze_187 = None
        clone_92: "f16[1, 8, 4, s1, 128][4096*s1, 512*s1, 128*s1, 128, 1]cuda:0" = torch.ops.aten.clone.default(expand_155, memory_format = torch.contiguous_format);  expand_155 = None
        view_1041: "f16[1, 32, s1, 128][4096*s1, 128*s1, 128, 1]cuda:0" = torch.ops.aten.reshape.default(clone_92, [1, 32, arg5_1, 128]);  clone_92 = None
        
         # File: /app/low_bit_inference/optims/cache_optim.py:114 in lazy_initialization, code: self.values = torch.zeros(
        full_default_121: "f16[1, 8, s1, 128][1024*s1, 128*s1, 128, 1]cuda:0" = torch.ops.aten.full.default([1, 8, arg322_1, 128], 0, dtype = torch.float16, layout = torch.strided, device = device(type='cuda', index=0), pin_memory = False)
        
         # File: /app/low_bit_inference/model.py:208 in forward, code: value_states = self.v_proj(hidden_states).view(hidden_shape).transpose(1, 2)
        view_1037: "f16[1, s0, 4096][4096*s0, 4096, 1]cuda:0" = torch.ops.aten.reshape.default(getitem_240, [1, arg0_1, 4096]);  getitem_240 = None
        view_1038: "f16[s0, 4096][4096, 1]cuda:0" = torch.ops.aten.reshape.default(view_1037, [arg0_1, 4096]);  view_1037 = None
        permute_335: "f16[4096, 1024][1, 4096]cuda:0" = torch.ops.aten.permute.default(arg311_1, [1, 0]);  arg311_1 = None
        mm_212: "f16[s0, 1024][1024, 1]cuda:0" = torch.ops.aten.mm.default(view_1038, permute_335);  view_1038 = permute_335 = None
        view_1039: "f16[1, s0, 1024][1024*s0, 1024, 1]cuda:0" = torch.ops.aten.reshape.default(mm_212, [1, arg0_1, 1024]);  mm_212 = None
        view_1040: "f16[1, s0, 8, 128][1024*s0, 1024, 128, 1]cuda:0" = torch.ops.aten.reshape.default(view_1039, [1, arg0_1, -1, 128]);  view_1039 = None
        permute_336: "f16[1, 8, s0, 128][1024*s0, 128, 1024, 1]cuda:0" = torch.ops.aten.permute.default(view_1040, [0, 2, 1, 3]);  view_1040 = None
        
         # File: /app/low_bit_inference/optims/cache_optim.py:151 in update, code: self.values.index_copy_(2, cache_position, value_states)
        index_put_61: "f16[1, 8, s1, 128][1024*s1, 128*s1, 128, 1]cuda:0" = torch.ops.aten.index_put.default(full_default_121, [None, None, arg3_1], permute_336);  full_default_121 = permute_336 = None
        
         # File: /app/.venv/lib/python3.12/site-packages/transformers/integrations/sdpa_attention.py:15 in repeat_kv, code: return hidden_states.reshape(batch, num_key_value_heads * n_rep, slen, head_dim)
        unsqueeze_189: "f16[1, 8, 1, s1, 128][1024*s1, 128*s1, 128*s1, 128, 1]cuda:0" = torch.ops.aten.unsqueeze.default(index_put_61, 2)
        expand_157: "f16[1, 8, 4, s1, 128][1024*s1, 128*s1, 0, 128, 1]cuda:0" = torch.ops.aten.expand.default(unsqueeze_189, [1, 8, 4, arg5_1, 128]);  unsqueeze_189 = None
        clone_93: "f16[1, 8, 4, s1, 128][4096*s1, 512*s1, 128*s1, 128, 1]cuda:0" = torch.ops.aten.clone.default(expand_157, memory_format = torch.contiguous_format);  expand_157 = None
        view_1042: "f16[1, 32, s1, 128][4096*s1, 128*s1, 128, 1]cuda:0" = torch.ops.aten.reshape.default(clone_93, [1, 32, arg5_1, 128]);  clone_93 = None
        
         # File: /app/.venv/lib/python3.12/site-packages/transformers/integrations/sdpa_attention.py:54 in sdpa_attention_forward, code: attn_output = torch.nn.functional.scaled_dot_product_attention(
        full_default_123: "f16[][]cuda:0" = torch.ops.aten.full.default([], 0.0, dtype = torch.float16, layout = torch.strided, device = device(type='cuda', index=0), pin_memory = False)
        full_default_122: "f16[][]cuda:0" = torch.ops.aten.full.default([], -inf, dtype = torch.float16, layout = torch.strided, device = device(type='cuda', index=0), pin_memory = False)
        where_30: "f16[1, 1, s0, s1][s0*s1, s0*s1, s1, 1]cuda:0" = torch.ops.aten.where.self(arg6_1, full_default_123, full_default_122);  full_default_123 = full_default_122 = None
        expand_158: "f16[1, 32, s0, s1][s0*s1, 0, s1, 1]cuda:0" = torch.ops.aten.expand.default(where_30, [1, 32, arg0_1, arg5_1]);  where_30 = None
        _scaled_dot_product_efficient_attention_30 = torch.ops.aten._scaled_dot_product_efficient_attention.default(clone_94, view_1041, view_1042, expand_158, False, scale = 0.08838834764831845);  clone_94 = view_1041 = view_1042 = expand_158 = None
        getitem_242: "f16[1, 32, s0, 128][4096*s0, 128, 4096, 1]cuda:0" = _scaled_dot_product_efficient_attention_30[0];  _scaled_dot_product_efficient_attention_30 = None
        
         # File: /app/low_bit_inference/optims/rms_norm_kernels/liger_rms_norm.py:447 in rms_norm_forward, code: Y = torch.empty((n_rows, n_cols), dtype=X.dtype, device=X.device)
        empty_122: "f16[s0, 4096][4096, 1]cuda:0" = torch.ops.aten.empty.memory_format([arg0_1, 4096], dtype = torch.float16, device = device(type='cuda', index=0), pin_memory = False)
        
         # File: /app/.venv/lib/python3.12/site-packages/transformers/integrations/sdpa_attention.py:63 in sdpa_attention_forward, code: attn_output = attn_output.transpose(1, 2).contiguous()
        permute_337: "f16[1, s0, 32, 128][4096*s0, 4096, 128, 1]cuda:0" = torch.ops.aten.permute.default(getitem_242, [0, 2, 1, 3]);  getitem_242 = None
        
         # File: /app/low_bit_inference/model.py:233 in forward, code: attn_output = attn_output.reshape(*input_shape, -1).contiguous()
        view_1043: "f16[1, s0, 4096][4096*s0, 4096, 1]cuda:0" = torch.ops.aten.reshape.default(permute_337, [1, arg0_1, -1]);  permute_337 = None
        
         # File: /app/low_bit_inference/model.py:234 in forward, code: attn_output = self.o_proj(attn_output)
        view_1044: "f16[s0, 4096][4096, 1]cuda:0" = torch.ops.aten.reshape.default(view_1043, [arg0_1, 4096]);  view_1043 = None
        permute_338: "f16[4096, 4096][1, 4096]cuda:0" = torch.ops.aten.permute.default(arg313_1, [1, 0]);  arg313_1 = None
        mm_213: "f16[s0, 4096][4096, 1]cuda:0" = torch.ops.aten.mm.default(view_1044, permute_338);  view_1044 = permute_338 = None
        view_1045: "f16[1, s0, 4096][4096*s0, 4096, 1]cuda:0" = torch.ops.aten.reshape.default(mm_213, [1, arg0_1, 4096]);  mm_213 = None
        
         # File: /app/low_bit_inference/model.py:273 in forward, code: hidden_states = residual + hidden_states
        add_10187: "f16[1, s0, 4096][4096*s0, 4096, 1]cuda:0" = torch.ops.aten.add.Tensor(add_9911, view_1045);  add_9911 = view_1045 = None
        
         # File: /app/low_bit_inference/optims/rms_norm_kernels/liger_rms_norm.py:443 in rms_norm_forward, code: X = X.view(-1, dim)
        view_1046: "f16[s0, 4096][4096, 1]cuda:0" = torch.ops.aten.reshape.default(add_10187, [-1, 4096])
        
         # File: /app/low_bit_inference/optims/rms_norm_kernels/liger_rms_norm.py:451 in rms_norm_forward, code: RSTD = torch.empty(n_rows, dtype=rstd_dtype, device=X.device)
        empty_123: "f32[s0][1]cuda:0" = torch.ops.aten.empty.memory_format([arg0_1], dtype = torch.float32, device = device(type='cuda', index=0), pin_memory = False)
        
         # File: /app/low_bit_inference/optims/rms_norm_kernels/liger_rms_norm.py:461 in rms_norm_forward, code: _rms_norm_forward_kernel[(n_rows,)](
        triton_kernel_wrapper_functional_proxy_61 = torch.ops.higher_order.triton_kernel_wrapper_functional(kernel_idx = 62, constant_args_idx = 61, grid = [(arg0_1, 1, 1)], tma_descriptor_metadata = {}, kwargs = {'Y_ptr': empty_122, 'X_ptr': view_1046, 'W_ptr': arg314_1, 'RSTD_ptr': empty_123}, tensors_to_clone = ['Y_ptr', 'RSTD_ptr']);  empty_122 = view_1046 = arg314_1 = empty_123 = None
        getitem_246: "f16[s0, 4096][4096, 1]cuda:0" = triton_kernel_wrapper_functional_proxy_61['Y_ptr'];  triton_kernel_wrapper_functional_proxy_61 = None
        
         # File: /app/low_bit_inference/optims/rms_norm_kernels/liger_rms_norm.py:447 in rms_norm_forward, code: Y = torch.empty((n_rows, n_cols), dtype=X.dtype, device=X.device)
        empty_124: "f16[s0, 4096][4096, 1]cuda:0" = torch.ops.aten.empty.memory_format([arg0_1, 4096], dtype = torch.float16, device = device(type='cuda', index=0), pin_memory = False)
        
         # File: /app/low_bit_inference/model.py:124 in forward, code: down_proj = self.down_proj(self.act_fn(self.gate_proj(x)) * self.up_proj(x))
        view_1049: "f16[1, s0, 4096][4096*s0, 4096, 1]cuda:0" = torch.ops.aten.reshape.default(getitem_246, [1, arg0_1, 4096])
        view_1050: "f16[s0, 4096][4096, 1]cuda:0" = torch.ops.aten.reshape.default(view_1049, [arg0_1, 4096]);  view_1049 = None
        permute_339: "f16[4096, 14336][1, 4096]cuda:0" = torch.ops.aten.permute.default(arg315_1, [1, 0]);  arg315_1 = None
        mm_214: "f16[s0, 14336][14336, 1]cuda:0" = torch.ops.aten.mm.default(view_1050, permute_339);  view_1050 = permute_339 = None
        view_1051: "f16[1, s0, 14336][14336*s0, 14336, 1]cuda:0" = torch.ops.aten.reshape.default(mm_214, [1, arg0_1, 14336]);  mm_214 = None
        convert_element_type_493: "f32[1, s0, 14336][14336*s0, 14336, 1]cuda:0" = torch.ops.prims.convert_element_type.default(view_1051, torch.float32);  view_1051 = None
        sigmoid_30: "f32[1, s0, 14336][14336*s0, 14336, 1]cuda:0" = torch.ops.aten.sigmoid.default(convert_element_type_493)
        mul_12696: "f32[1, s0, 14336][14336*s0, 14336, 1]cuda:0" = torch.ops.aten.mul.Tensor(convert_element_type_493, sigmoid_30);  convert_element_type_493 = sigmoid_30 = None
        convert_element_type_494: "f16[1, s0, 14336][14336*s0, 14336, 1]cuda:0" = torch.ops.prims.convert_element_type.default(mul_12696, torch.float16);  mul_12696 = None
        view_1053: "f16[1, s0, 4096][4096*s0, 4096, 1]cuda:0" = torch.ops.aten.reshape.default(getitem_246, [1, arg0_1, 4096]);  getitem_246 = None
        view_1054: "f16[s0, 4096][4096, 1]cuda:0" = torch.ops.aten.reshape.default(view_1053, [arg0_1, 4096]);  view_1053 = None
        permute_340: "f16[4096, 14336][1, 4096]cuda:0" = torch.ops.aten.permute.default(arg316_1, [1, 0]);  arg316_1 = None
        mm_215: "f16[s0, 14336][14336, 1]cuda:0" = torch.ops.aten.mm.default(view_1054, permute_340);  view_1054 = permute_340 = None
        view_1055: "f16[1, s0, 14336][14336*s0, 14336, 1]cuda:0" = torch.ops.aten.reshape.default(mm_215, [1, arg0_1, 14336]);  mm_215 = None
        mul_12713: "f16[1, s0, 14336][14336*s0, 14336, 1]cuda:0" = torch.ops.aten.mul.Tensor(convert_element_type_494, view_1055);  convert_element_type_494 = view_1055 = None
        view_1056: "f16[s0, 14336][14336, 1]cuda:0" = torch.ops.aten.reshape.default(mul_12713, [arg0_1, 14336]);  mul_12713 = None
        permute_341: "f16[14336, 4096][1, 14336]cuda:0" = torch.ops.aten.permute.default(arg317_1, [1, 0]);  arg317_1 = None
        mm_216: "f16[s0, 4096][4096, 1]cuda:0" = torch.ops.aten.mm.default(view_1056, permute_341);  view_1056 = permute_341 = None
        view_1057: "f16[1, s0, 4096][4096*s0, 4096, 1]cuda:0" = torch.ops.aten.reshape.default(mm_216, [1, arg0_1, 4096]);  mm_216 = None
        
         # File: /app/low_bit_inference/model.py:279 in forward, code: hidden_states = residual + hidden_states
        add_10240: "f16[1, s0, 4096][4096*s0, 4096, 1]cuda:0" = torch.ops.aten.add.Tensor(add_10187, view_1057);  add_10187 = view_1057 = None
        
         # File: /app/low_bit_inference/optims/rms_norm_kernels/liger_rms_norm.py:443 in rms_norm_forward, code: X = X.view(-1, dim)
        view_1058: "f16[s0, 4096][4096, 1]cuda:0" = torch.ops.aten.reshape.default(add_10240, [-1, 4096])
        
         # File: /app/low_bit_inference/optims/rms_norm_kernels/liger_rms_norm.py:451 in rms_norm_forward, code: RSTD = torch.empty(n_rows, dtype=rstd_dtype, device=X.device)
        empty_125: "f32[s0][1]cuda:0" = torch.ops.aten.empty.memory_format([arg0_1], dtype = torch.float32, device = device(type='cuda', index=0), pin_memory = False)
        
         # File: /app/low_bit_inference/optims/rms_norm_kernels/liger_rms_norm.py:461 in rms_norm_forward, code: _rms_norm_forward_kernel[(n_rows,)](
        triton_kernel_wrapper_functional_proxy_62 = torch.ops.higher_order.triton_kernel_wrapper_functional(kernel_idx = 63, constant_args_idx = 62, grid = [(arg0_1, 1, 1)], tma_descriptor_metadata = {}, kwargs = {'Y_ptr': empty_124, 'X_ptr': view_1058, 'W_ptr': arg318_1, 'RSTD_ptr': empty_125}, tensors_to_clone = ['Y_ptr', 'RSTD_ptr']);  empty_124 = view_1058 = arg318_1 = empty_125 = None
        getitem_248: "f16[s0, 4096][4096, 1]cuda:0" = triton_kernel_wrapper_functional_proxy_62['Y_ptr'];  triton_kernel_wrapper_functional_proxy_62 = None
        
         # File: /app/low_bit_inference/model.py:206 in forward, code: query_states = self.q_proj(hidden_states).view(hidden_shape).transpose(1, 2)
        view_1061: "f16[1, s0, 4096][4096*s0, 4096, 1]cuda:0" = torch.ops.aten.reshape.default(getitem_248, [1, arg0_1, 4096])
        view_1062: "f16[s0, 4096][4096, 1]cuda:0" = torch.ops.aten.reshape.default(view_1061, [arg0_1, 4096]);  view_1061 = None
        permute_342: "f16[4096, 4096][1, 4096]cuda:0" = torch.ops.aten.permute.default(arg319_1, [1, 0]);  arg319_1 = None
        mm_217: "f16[s0, 4096][4096, 1]cuda:0" = torch.ops.aten.mm.default(view_1062, permute_342);  view_1062 = permute_342 = None
        view_1063: "f16[1, s0, 4096][4096*s0, 4096, 1]cuda:0" = torch.ops.aten.reshape.default(mm_217, [1, arg0_1, 4096]);  mm_217 = None
        view_1064: "f16[1, s0, 32, 128][4096*s0, 4096, 128, 1]cuda:0" = torch.ops.aten.reshape.default(view_1063, [1, arg0_1, -1, 128]);  view_1063 = None
        permute_343: "f16[1, 32, s0, 128][4096*s0, 128, 4096, 1]cuda:0" = torch.ops.aten.permute.default(view_1064, [0, 2, 1, 3]);  view_1064 = None
        
         # File: /app/low_bit_inference/model.py:105 in apply_rotary_pos_emb, code: cos = cos.unsqueeze(unsqueeze_dim)
        unsqueeze_190: "f16[1, 1, s0, 128][128*s0, 128*s0, 128, 1]cuda:0" = torch.ops.aten.unsqueeze.default(convert_element_type_1, 1);  convert_element_type_1 = None
        
         # File: /app/low_bit_inference/model.py:107 in apply_rotary_pos_emb, code: q_embed = (q * cos) + (rotate_half(q) * sin)
        mul_12815: "f16[1, 32, s0, 128][4096*s0, 128, 4096, 1]cuda:0" = torch.ops.aten.mul.Tensor(permute_343, unsqueeze_190)
        
         # File: /app/low_bit_inference/model.py:81 in rotate_half, code: x2 = x[..., x.shape[-1] // 2 :]
        slice_718: "f16[1, 32, s0, 64][4096*s0, 128, 4096, 1]cuda:0" = torch.ops.aten.slice.Tensor(permute_343, 3, 64, 9223372036854775807)
        
         # File: /app/low_bit_inference/model.py:82 in rotate_half, code: return torch.cat((-x2, x1), dim=-1)
        neg_62: "f16[1, 32, s0, 64][2048*s0, 64, 2048, 1]cuda:0" = torch.ops.aten.neg.default(slice_718);  slice_718 = None
        
         # File: /app/low_bit_inference/model.py:80 in rotate_half, code: x1 = x[..., : x.shape[-1] // 2]
        slice_717: "f16[1, 32, s0, 64][4096*s0, 128, 4096, 1]cuda:0" = torch.ops.aten.slice.Tensor(permute_343, 3, 0, 64);  permute_343 = None
        
         # File: /app/low_bit_inference/model.py:82 in rotate_half, code: return torch.cat((-x2, x1), dim=-1)
        cat_62: "f16[1, 32, s0, 128][4096*s0, 128*s0, 128, 1]cuda:0" = torch.ops.aten.cat.default([neg_62, slice_717], -1);  neg_62 = slice_717 = None
        
         # File: /app/low_bit_inference/model.py:106 in apply_rotary_pos_emb, code: sin = sin.unsqueeze(unsqueeze_dim)
        unsqueeze_191: "f16[1, 1, s0, 128][128*s0, 128*s0, 128, 1]cuda:0" = torch.ops.aten.unsqueeze.default(convert_element_type_2, 1);  convert_element_type_2 = None
        
         # File: /app/low_bit_inference/model.py:107 in apply_rotary_pos_emb, code: q_embed = (q * cos) + (rotate_half(q) * sin)
        mul_12832: "f16[1, 32, s0, 128][4096*s0, 128*s0, 128, 1]cuda:0" = torch.ops.aten.mul.Tensor(cat_62, unsqueeze_191);  cat_62 = None
        add_10334: "f16[1, 32, s0, 128][4096*s0, 128, 4096, 1]cuda:0" = torch.ops.aten.add.Tensor(mul_12815, mul_12832);  mul_12815 = mul_12832 = None
        
         # File: /app/.venv/lib/python3.12/site-packages/transformers/integrations/sdpa_attention.py:39 in sdpa_attention_forward, code: query = query.contiguous()
        clone_97: "f16[1, 32, s0, 128][4096*s0, 128*s0, 128, 1]cuda:0" = torch.ops.aten.clone.default(add_10334, memory_format = torch.contiguous_format);  add_10334 = None
        
         # File: /app/low_bit_inference/optims/cache_optim.py:109 in lazy_initialization, code: self.keys = torch.zeros(
        full_default_124: "f16[1, 8, s1, 128][1024*s1, 128*s1, 128, 1]cuda:0" = torch.ops.aten.full.default([1, 8, arg322_1, 128], 0, dtype = torch.float16, layout = torch.strided, device = device(type='cuda', index=0), pin_memory = False)
        
         # File: /app/low_bit_inference/model.py:207 in forward, code: key_states = self.k_proj(hidden_states).view(hidden_shape).transpose(1, 2)
        view_1066: "f16[1, s0, 4096][4096*s0, 4096, 1]cuda:0" = torch.ops.aten.reshape.default(getitem_248, [1, arg0_1, 4096])
        view_1067: "f16[s0, 4096][4096, 1]cuda:0" = torch.ops.aten.reshape.default(view_1066, [arg0_1, 4096]);  view_1066 = None
        permute_344: "f16[4096, 1024][1, 4096]cuda:0" = torch.ops.aten.permute.default(arg320_1, [1, 0]);  arg320_1 = None
        mm_218: "f16[s0, 1024][1024, 1]cuda:0" = torch.ops.aten.mm.default(view_1067, permute_344);  view_1067 = permute_344 = None
        view_1068: "f16[1, s0, 1024][1024*s0, 1024, 1]cuda:0" = torch.ops.aten.reshape.default(mm_218, [1, arg0_1, 1024]);  mm_218 = None
        view_1069: "f16[1, s0, 8, 128][1024*s0, 1024, 128, 1]cuda:0" = torch.ops.aten.reshape.default(view_1068, [1, arg0_1, -1, 128]);  view_1068 = None
        permute_345: "f16[1, 8, s0, 128][1024*s0, 128, 1024, 1]cuda:0" = torch.ops.aten.permute.default(view_1069, [0, 2, 1, 3]);  view_1069 = None
        
         # File: /app/low_bit_inference/model.py:108 in apply_rotary_pos_emb, code: k_embed = (k * cos) + (rotate_half(k) * sin)
        mul_12840: "f16[1, 8, s0, 128][1024*s0, 128, 1024, 1]cuda:0" = torch.ops.aten.mul.Tensor(permute_345, unsqueeze_190);  unsqueeze_190 = None
        
         # File: /app/low_bit_inference/model.py:81 in rotate_half, code: x2 = x[..., x.shape[-1] // 2 :]
        slice_720: "f16[1, 8, s0, 64][1024*s0, 128, 1024, 1]cuda:0" = torch.ops.aten.slice.Tensor(permute_345, 3, 64, 9223372036854775807)
        
         # File: /app/low_bit_inference/model.py:82 in rotate_half, code: return torch.cat((-x2, x1), dim=-1)
        neg_63: "f16[1, 8, s0, 64][512*s0, 64, 512, 1]cuda:0" = torch.ops.aten.neg.default(slice_720);  slice_720 = None
        
         # File: /app/low_bit_inference/model.py:80 in rotate_half, code: x1 = x[..., : x.shape[-1] // 2]
        slice_719: "f16[1, 8, s0, 64][1024*s0, 128, 1024, 1]cuda:0" = torch.ops.aten.slice.Tensor(permute_345, 3, 0, 64);  permute_345 = None
        
         # File: /app/low_bit_inference/model.py:82 in rotate_half, code: return torch.cat((-x2, x1), dim=-1)
        cat_63: "f16[1, 8, s0, 128][1024*s0, 128*s0, 128, 1]cuda:0" = torch.ops.aten.cat.default([neg_63, slice_719], -1);  neg_63 = slice_719 = None
        
         # File: /app/low_bit_inference/model.py:108 in apply_rotary_pos_emb, code: k_embed = (k * cos) + (rotate_half(k) * sin)
        mul_12857: "f16[1, 8, s0, 128][1024*s0, 128*s0, 128, 1]cuda:0" = torch.ops.aten.mul.Tensor(cat_63, unsqueeze_191);  cat_63 = unsqueeze_191 = None
        add_10358: "f16[1, 8, s0, 128][1024*s0, 128, 1024, 1]cuda:0" = torch.ops.aten.add.Tensor(mul_12840, mul_12857);  mul_12840 = mul_12857 = None
        
         # File: /app/low_bit_inference/optims/cache_optim.py:150 in update, code: self.keys.index_copy_(2, cache_position, key_states)
        index_put_62: "f16[1, 8, s1, 128][1024*s1, 128*s1, 128, 1]cuda:0" = torch.ops.aten.index_put.default(full_default_124, [None, None, arg3_1], add_10358);  full_default_124 = add_10358 = None
        
         # File: /app/.venv/lib/python3.12/site-packages/transformers/integrations/sdpa_attention.py:15 in repeat_kv, code: return hidden_states.reshape(batch, num_key_value_heads * n_rep, slen, head_dim)
        unsqueeze_193: "f16[1, 8, 1, s1, 128][1024*s1, 128*s1, 128*s1, 128, 1]cuda:0" = torch.ops.aten.unsqueeze.default(index_put_62, 2)
        expand_160: "f16[1, 8, 4, s1, 128][1024*s1, 128*s1, 0, 128, 1]cuda:0" = torch.ops.aten.expand.default(unsqueeze_193, [1, 8, 4, arg5_1, 128]);  unsqueeze_193 = None
        clone_95: "f16[1, 8, 4, s1, 128][4096*s1, 512*s1, 128*s1, 128, 1]cuda:0" = torch.ops.aten.clone.default(expand_160, memory_format = torch.contiguous_format);  expand_160 = None
        view_1075: "f16[1, 32, s1, 128][4096*s1, 128*s1, 128, 1]cuda:0" = torch.ops.aten.reshape.default(clone_95, [1, 32, arg5_1, 128]);  clone_95 = None
        
         # File: /app/low_bit_inference/optims/cache_optim.py:114 in lazy_initialization, code: self.values = torch.zeros(
        full_default_125: "f16[1, 8, s1, 128][1024*s1, 128*s1, 128, 1]cuda:0" = torch.ops.aten.full.default([1, 8, arg322_1, 128], 0, dtype = torch.float16, layout = torch.strided, device = device(type='cuda', index=0), pin_memory = False);  arg322_1 = None
        
         # File: /app/low_bit_inference/model.py:208 in forward, code: value_states = self.v_proj(hidden_states).view(hidden_shape).transpose(1, 2)
        view_1071: "f16[1, s0, 4096][4096*s0, 4096, 1]cuda:0" = torch.ops.aten.reshape.default(getitem_248, [1, arg0_1, 4096]);  getitem_248 = None
        view_1072: "f16[s0, 4096][4096, 1]cuda:0" = torch.ops.aten.reshape.default(view_1071, [arg0_1, 4096]);  view_1071 = None
        permute_346: "f16[4096, 1024][1, 4096]cuda:0" = torch.ops.aten.permute.default(arg321_1, [1, 0]);  arg321_1 = None
        mm_219: "f16[s0, 1024][1024, 1]cuda:0" = torch.ops.aten.mm.default(view_1072, permute_346);  view_1072 = permute_346 = None
        view_1073: "f16[1, s0, 1024][1024*s0, 1024, 1]cuda:0" = torch.ops.aten.reshape.default(mm_219, [1, arg0_1, 1024]);  mm_219 = None
        view_1074: "f16[1, s0, 8, 128][1024*s0, 1024, 128, 1]cuda:0" = torch.ops.aten.reshape.default(view_1073, [1, arg0_1, -1, 128]);  view_1073 = None
        permute_347: "f16[1, 8, s0, 128][1024*s0, 128, 1024, 1]cuda:0" = torch.ops.aten.permute.default(view_1074, [0, 2, 1, 3]);  view_1074 = None
        
         # File: /app/low_bit_inference/optims/cache_optim.py:151 in update, code: self.values.index_copy_(2, cache_position, value_states)
        index_put_63: "f16[1, 8, s1, 128][1024*s1, 128*s1, 128, 1]cuda:0" = torch.ops.aten.index_put.default(full_default_125, [None, None, arg3_1], permute_347);  full_default_125 = arg3_1 = permute_347 = None
        
         # File: /app/.venv/lib/python3.12/site-packages/transformers/integrations/sdpa_attention.py:15 in repeat_kv, code: return hidden_states.reshape(batch, num_key_value_heads * n_rep, slen, head_dim)
        unsqueeze_195: "f16[1, 8, 1, s1, 128][1024*s1, 128*s1, 128*s1, 128, 1]cuda:0" = torch.ops.aten.unsqueeze.default(index_put_63, 2)
        expand_162: "f16[1, 8, 4, s1, 128][1024*s1, 128*s1, 0, 128, 1]cuda:0" = torch.ops.aten.expand.default(unsqueeze_195, [1, 8, 4, arg5_1, 128]);  unsqueeze_195 = None
        clone_96: "f16[1, 8, 4, s1, 128][4096*s1, 512*s1, 128*s1, 128, 1]cuda:0" = torch.ops.aten.clone.default(expand_162, memory_format = torch.contiguous_format);  expand_162 = None
        view_1076: "f16[1, 32, s1, 128][4096*s1, 128*s1, 128, 1]cuda:0" = torch.ops.aten.reshape.default(clone_96, [1, 32, arg5_1, 128]);  clone_96 = None
        
         # File: /app/.venv/lib/python3.12/site-packages/transformers/integrations/sdpa_attention.py:54 in sdpa_attention_forward, code: attn_output = torch.nn.functional.scaled_dot_product_attention(
        full_default_127: "f16[][]cuda:0" = torch.ops.aten.full.default([], 0.0, dtype = torch.float16, layout = torch.strided, device = device(type='cuda', index=0), pin_memory = False)
        full_default_126: "f16[][]cuda:0" = torch.ops.aten.full.default([], -inf, dtype = torch.float16, layout = torch.strided, device = device(type='cuda', index=0), pin_memory = False)
        where_31: "f16[1, 1, s0, s1][s0*s1, s0*s1, s1, 1]cuda:0" = torch.ops.aten.where.self(arg6_1, full_default_127, full_default_126);  arg6_1 = full_default_127 = full_default_126 = None
        expand_163: "f16[1, 32, s0, s1][s0*s1, 0, s1, 1]cuda:0" = torch.ops.aten.expand.default(where_31, [1, 32, arg0_1, arg5_1]);  where_31 = arg5_1 = None
        _scaled_dot_product_efficient_attention_31 = torch.ops.aten._scaled_dot_product_efficient_attention.default(clone_97, view_1075, view_1076, expand_163, False, scale = 0.08838834764831845);  clone_97 = view_1075 = view_1076 = expand_163 = None
        getitem_250: "f16[1, 32, s0, 128][4096*s0, 128, 4096, 1]cuda:0" = _scaled_dot_product_efficient_attention_31[0];  _scaled_dot_product_efficient_attention_31 = None
        
         # File: /app/low_bit_inference/optims/rms_norm_kernels/liger_rms_norm.py:447 in rms_norm_forward, code: Y = torch.empty((n_rows, n_cols), dtype=X.dtype, device=X.device)
        empty_126: "f16[s0, 4096][4096, 1]cuda:0" = torch.ops.aten.empty.memory_format([arg0_1, 4096], dtype = torch.float16, device = device(type='cuda', index=0), pin_memory = False)
        
         # File: /app/.venv/lib/python3.12/site-packages/transformers/integrations/sdpa_attention.py:63 in sdpa_attention_forward, code: attn_output = attn_output.transpose(1, 2).contiguous()
        permute_348: "f16[1, s0, 32, 128][4096*s0, 4096, 128, 1]cuda:0" = torch.ops.aten.permute.default(getitem_250, [0, 2, 1, 3]);  getitem_250 = None
        
         # File: /app/low_bit_inference/model.py:233 in forward, code: attn_output = attn_output.reshape(*input_shape, -1).contiguous()
        view_1077: "f16[1, s0, 4096][4096*s0, 4096, 1]cuda:0" = torch.ops.aten.reshape.default(permute_348, [1, arg0_1, -1]);  permute_348 = None
        
         # File: /app/low_bit_inference/model.py:234 in forward, code: attn_output = self.o_proj(attn_output)
        view_1078: "f16[s0, 4096][4096, 1]cuda:0" = torch.ops.aten.reshape.default(view_1077, [arg0_1, 4096]);  view_1077 = None
        permute_349: "f16[4096, 4096][1, 4096]cuda:0" = torch.ops.aten.permute.default(arg323_1, [1, 0]);  arg323_1 = None
        mm_220: "f16[s0, 4096][4096, 1]cuda:0" = torch.ops.aten.mm.default(view_1078, permute_349);  view_1078 = permute_349 = None
        view_1079: "f16[1, s0, 4096][4096*s0, 4096, 1]cuda:0" = torch.ops.aten.reshape.default(mm_220, [1, arg0_1, 4096]);  mm_220 = None
        
         # File: /app/low_bit_inference/model.py:273 in forward, code: hidden_states = residual + hidden_states
        add_10516: "f16[1, s0, 4096][4096*s0, 4096, 1]cuda:0" = torch.ops.aten.add.Tensor(add_10240, view_1079);  add_10240 = view_1079 = None
        
         # File: /app/low_bit_inference/optims/rms_norm_kernels/liger_rms_norm.py:443 in rms_norm_forward, code: X = X.view(-1, dim)
        view_1080: "f16[s0, 4096][4096, 1]cuda:0" = torch.ops.aten.reshape.default(add_10516, [-1, 4096])
        
         # File: /app/low_bit_inference/optims/rms_norm_kernels/liger_rms_norm.py:451 in rms_norm_forward, code: RSTD = torch.empty(n_rows, dtype=rstd_dtype, device=X.device)
        empty_127: "f32[s0][1]cuda:0" = torch.ops.aten.empty.memory_format([arg0_1], dtype = torch.float32, device = device(type='cuda', index=0), pin_memory = False)
        
         # File: /app/low_bit_inference/optims/rms_norm_kernels/liger_rms_norm.py:461 in rms_norm_forward, code: _rms_norm_forward_kernel[(n_rows,)](
        triton_kernel_wrapper_functional_proxy_63 = torch.ops.higher_order.triton_kernel_wrapper_functional(kernel_idx = 64, constant_args_idx = 63, grid = [(arg0_1, 1, 1)], tma_descriptor_metadata = {}, kwargs = {'Y_ptr': empty_126, 'X_ptr': view_1080, 'W_ptr': arg324_1, 'RSTD_ptr': empty_127}, tensors_to_clone = ['Y_ptr', 'RSTD_ptr']);  empty_126 = view_1080 = arg324_1 = empty_127 = None
        getitem_254: "f16[s0, 4096][4096, 1]cuda:0" = triton_kernel_wrapper_functional_proxy_63['Y_ptr'];  triton_kernel_wrapper_functional_proxy_63 = None
        
         # File: /app/low_bit_inference/optims/rms_norm_kernels/liger_rms_norm.py:447 in rms_norm_forward, code: Y = torch.empty((n_rows, n_cols), dtype=X.dtype, device=X.device)
        empty_128: "f16[s0, 4096][4096, 1]cuda:0" = torch.ops.aten.empty.memory_format([arg0_1, 4096], dtype = torch.float16, device = device(type='cuda', index=0), pin_memory = False)
        
         # File: /app/low_bit_inference/model.py:124 in forward, code: down_proj = self.down_proj(self.act_fn(self.gate_proj(x)) * self.up_proj(x))
        view_1083: "f16[1, s0, 4096][4096*s0, 4096, 1]cuda:0" = torch.ops.aten.reshape.default(getitem_254, [1, arg0_1, 4096])
        view_1084: "f16[s0, 4096][4096, 1]cuda:0" = torch.ops.aten.reshape.default(view_1083, [arg0_1, 4096]);  view_1083 = None
        permute_350: "f16[4096, 14336][1, 4096]cuda:0" = torch.ops.aten.permute.default(arg325_1, [1, 0]);  arg325_1 = None
        mm_221: "f16[s0, 14336][14336, 1]cuda:0" = torch.ops.aten.mm.default(view_1084, permute_350);  view_1084 = permute_350 = None
        view_1085: "f16[1, s0, 14336][14336*s0, 14336, 1]cuda:0" = torch.ops.aten.reshape.default(mm_221, [1, arg0_1, 14336]);  mm_221 = None
        convert_element_type_509: "f32[1, s0, 14336][14336*s0, 14336, 1]cuda:0" = torch.ops.prims.convert_element_type.default(view_1085, torch.float32);  view_1085 = None
        sigmoid_31: "f32[1, s0, 14336][14336*s0, 14336, 1]cuda:0" = torch.ops.aten.sigmoid.default(convert_element_type_509)
        mul_13105: "f32[1, s0, 14336][14336*s0, 14336, 1]cuda:0" = torch.ops.aten.mul.Tensor(convert_element_type_509, sigmoid_31);  convert_element_type_509 = sigmoid_31 = None
        convert_element_type_510: "f16[1, s0, 14336][14336*s0, 14336, 1]cuda:0" = torch.ops.prims.convert_element_type.default(mul_13105, torch.float16);  mul_13105 = None
        view_1087: "f16[1, s0, 4096][4096*s0, 4096, 1]cuda:0" = torch.ops.aten.reshape.default(getitem_254, [1, arg0_1, 4096]);  getitem_254 = None
        view_1088: "f16[s0, 4096][4096, 1]cuda:0" = torch.ops.aten.reshape.default(view_1087, [arg0_1, 4096]);  view_1087 = None
        permute_351: "f16[4096, 14336][1, 4096]cuda:0" = torch.ops.aten.permute.default(arg326_1, [1, 0]);  arg326_1 = None
        mm_222: "f16[s0, 14336][14336, 1]cuda:0" = torch.ops.aten.mm.default(view_1088, permute_351);  view_1088 = permute_351 = None
        view_1089: "f16[1, s0, 14336][14336*s0, 14336, 1]cuda:0" = torch.ops.aten.reshape.default(mm_222, [1, arg0_1, 14336]);  mm_222 = None
        mul_13122: "f16[1, s0, 14336][14336*s0, 14336, 1]cuda:0" = torch.ops.aten.mul.Tensor(convert_element_type_510, view_1089);  convert_element_type_510 = view_1089 = None
        view_1090: "f16[s0, 14336][14336, 1]cuda:0" = torch.ops.aten.reshape.default(mul_13122, [arg0_1, 14336]);  mul_13122 = None
        permute_352: "f16[14336, 4096][1, 14336]cuda:0" = torch.ops.aten.permute.default(arg327_1, [1, 0]);  arg327_1 = None
        mm_223: "f16[s0, 4096][4096, 1]cuda:0" = torch.ops.aten.mm.default(view_1090, permute_352);  view_1090 = permute_352 = None
        view_1091: "f16[1, s0, 4096][4096*s0, 4096, 1]cuda:0" = torch.ops.aten.reshape.default(mm_223, [1, arg0_1, 4096]);  mm_223 = None
        
         # File: /app/low_bit_inference/model.py:279 in forward, code: hidden_states = residual + hidden_states
        add_10569: "f16[1, s0, 4096][4096*s0, 4096, 1]cuda:0" = torch.ops.aten.add.Tensor(add_10516, view_1091);  add_10516 = view_1091 = None
        
         # File: /app/low_bit_inference/optims/rms_norm_kernels/liger_rms_norm.py:443 in rms_norm_forward, code: X = X.view(-1, dim)
        view_1092: "f16[s0, 4096][4096, 1]cuda:0" = torch.ops.aten.reshape.default(add_10569, [-1, 4096]);  add_10569 = None
        
         # File: /app/low_bit_inference/optims/rms_norm_kernels/liger_rms_norm.py:451 in rms_norm_forward, code: RSTD = torch.empty(n_rows, dtype=rstd_dtype, device=X.device)
        empty_129: "f32[s0][1]cuda:0" = torch.ops.aten.empty.memory_format([arg0_1], dtype = torch.float32, device = device(type='cuda', index=0), pin_memory = False)
        
         # File: /app/low_bit_inference/optims/rms_norm_kernels/liger_rms_norm.py:461 in rms_norm_forward, code: _rms_norm_forward_kernel[(n_rows,)](
        triton_kernel_wrapper_functional_proxy_64 = torch.ops.higher_order.triton_kernel_wrapper_functional(kernel_idx = 65, constant_args_idx = 64, grid = [(arg0_1, 1, 1)], tma_descriptor_metadata = {}, kwargs = {'Y_ptr': empty_128, 'X_ptr': view_1092, 'W_ptr': arg328_1, 'RSTD_ptr': empty_129}, tensors_to_clone = ['Y_ptr', 'RSTD_ptr']);  empty_128 = view_1092 = arg328_1 = empty_129 = None
        getitem_256: "f16[s0, 4096][4096, 1]cuda:0" = triton_kernel_wrapper_functional_proxy_64['Y_ptr'];  triton_kernel_wrapper_functional_proxy_64 = None
        
         # File: /app/low_bit_inference/model.py:453 in forward, code: logits = self.lm_head(hidden_states[:, slice_indices, :])
        view_1095: "f16[1, s0, 4096][4096*s0, 4096, 1]cuda:0" = torch.ops.aten.reshape.default(getitem_256, [1, arg0_1, 4096]);  getitem_256 = arg0_1 = None
        slice_744: "f16[1, 1, 4096][4096*s0, 4096, 1]cuda:0" = torch.ops.aten.slice.Tensor(view_1095, 1, -1, 9223372036854775807);  view_1095 = None
        view_1096: "f16[1, 4096][4096*s0, 1]cuda:0" = torch.ops.aten.reshape.default(slice_744, [1, 4096]);  slice_744 = None
        convert_element_type_515: "f32[1, 4096][4096*s0, 1]cuda:0" = torch.ops.prims.convert_element_type.default(view_1096, torch.float32);  view_1096 = None
        unsqueeze_196: "f32[1, 4096, 1][4096*s0, 1, 1]cuda:0" = torch.ops.aten.unsqueeze.default(convert_element_type_515, 2);  convert_element_type_515 = None
        permute_353: "f16[4096, 128256][1, 4096]cuda:0" = torch.ops.aten.permute.default(arg330_1, [1, 0]);  arg330_1 = None
        convert_element_type_516: "f32[4096, 128256][1, 4096]cuda:0" = torch.ops.prims.convert_element_type.default(permute_353, torch.float32);  permute_353 = None
        unsqueeze_197: "f32[1, 4096, 128256][4096, 1, 4096]cuda:0" = torch.ops.aten.unsqueeze.default(convert_element_type_516, 0);  convert_element_type_516 = None
        mul_13166: "f32[1, 4096, 128256][4096, 1, 4096]cuda:0" = torch.ops.aten.mul.Tensor(unsqueeze_196, unsqueeze_197);  unsqueeze_196 = unsqueeze_197 = None
        sum_1: "f32[1, 128256][128256, 1]cuda:0" = torch.ops.aten.sum.dim_IntList(mul_13166, [1]);  mul_13166 = None
        convert_element_type_517: "f16[1, 128256][128256, 1]cuda:0" = torch.ops.prims.convert_element_type.default(sum_1, torch.float16);  sum_1 = None
        view_1097: "f16[1, 1, 128256][128256, 128256, 1]cuda:0" = torch.ops.aten.reshape.default(convert_element_type_517, [1, 1, 128256]);  convert_element_type_517 = None
        return (index_put_1, index_put, index_put_3, index_put_2, index_put_5, index_put_4, index_put_7, index_put_6, index_put_9, index_put_8, index_put_11, index_put_10, index_put_13, index_put_12, index_put_15, index_put_14, index_put_17, index_put_16, index_put_19, index_put_18, index_put_21, index_put_20, index_put_23, index_put_22, index_put_25, index_put_24, index_put_27, index_put_26, index_put_29, index_put_28, index_put_31, index_put_30, index_put_33, index_put_32, index_put_35, index_put_34, index_put_37, index_put_36, index_put_39, index_put_38, index_put_41, index_put_40, index_put_43, index_put_42, index_put_45, index_put_44, index_put_47, index_put_46, index_put_49, index_put_48, index_put_51, index_put_50, index_put_53, index_put_52, index_put_55, index_put_54, index_put_57, index_put_56, index_put_59, index_put_58, index_put_61, index_put_60, index_put_63, index_put_62, view_1097)
        