class <lambda>(torch.nn.Module):
    def forward(self, arg0_1: "i64[1, 1][1, 1]cuda:0", arg1_1: "f16[128256, 4096][4096, 1]cuda:0", arg2_1: "i64[1][1]cuda:0", arg3_1: "i64[1, 1][1, 1]cuda:0", arg4_1: "b8[1, 1, 1, 2048][2048, 2048, 2048, 1]cuda:0", arg5_1: "f32[64][1]cuda:0", arg6_1: "f16[4096][1]cuda:0", arg7_1: "f16[4096, 4096][4096, 1]cuda:0", arg8_1: "f16[1024, 4096][4096, 1]cuda:0", arg9_1: "f16[1024, 4096][4096, 1]cuda:0", arg10_1: "f16[1, 8, 2048, 128][2097152, 262144, 128, 1]cuda:0", arg11_1: "f16[1, 8, 2048, 128][2097152, 262144, 128, 1]cuda:0", arg12_1: "f16[4096, 4096][4096, 1]cuda:0", arg13_1: "f16[4096][1]cuda:0", arg14_1: "f16[14336, 4096][4096, 1]cuda:0", arg15_1: "f16[14336, 4096][4096, 1]cuda:0", arg16_1: "f16[4096, 14336][14336, 1]cuda:0", arg17_1: "f16[4096][1]cuda:0", arg18_1: "f16[4096, 4096][4096, 1]cuda:0", arg19_1: "f16[1024, 4096][4096, 1]cuda:0", arg20_1: "f16[1024, 4096][4096, 1]cuda:0", arg21_1: "f16[1, 8, 2048, 128][2097152, 262144, 128, 1]cuda:0", arg22_1: "f16[1, 8, 2048, 128][2097152, 262144, 128, 1]cuda:0", arg23_1: "f16[4096, 4096][4096, 1]cuda:0", arg24_1: "f16[4096][1]cuda:0", arg25_1: "f16[14336, 4096][4096, 1]cuda:0", arg26_1: "f16[14336, 4096][4096, 1]cuda:0", arg27_1: "f16[4096, 14336][14336, 1]cuda:0", arg28_1: "f16[4096][1]cuda:0", arg29_1: "f16[4096, 4096][4096, 1]cuda:0", arg30_1: "f16[1024, 4096][4096, 1]cuda:0", arg31_1: "f16[1024, 4096][4096, 1]cuda:0", arg32_1: "f16[1, 8, 2048, 128][2097152, 262144, 128, 1]cuda:0", arg33_1: "f16[1, 8, 2048, 128][2097152, 262144, 128, 1]cuda:0", arg34_1: "f16[4096, 4096][4096, 1]cuda:0", arg35_1: "f16[4096][1]cuda:0", arg36_1: "f16[14336, 4096][4096, 1]cuda:0", arg37_1: "f16[14336, 4096][4096, 1]cuda:0", arg38_1: "f16[4096, 14336][14336, 1]cuda:0", arg39_1: "f16[4096][1]cuda:0", arg40_1: "f16[4096, 4096][4096, 1]cuda:0", arg41_1: "f16[1024, 4096][4096, 1]cuda:0", arg42_1: "f16[1024, 4096][4096, 1]cuda:0", arg43_1: "f16[1, 8, 2048, 128][2097152, 262144, 128, 1]cuda:0", arg44_1: "f16[1, 8, 2048, 128][2097152, 262144, 128, 1]cuda:0", arg45_1: "f16[4096, 4096][4096, 1]cuda:0", arg46_1: "f16[4096][1]cuda:0", arg47_1: "f16[14336, 4096][4096, 1]cuda:0", arg48_1: "f16[14336, 4096][4096, 1]cuda:0", arg49_1: "f16[4096, 14336][14336, 1]cuda:0", arg50_1: "f16[4096][1]cuda:0", arg51_1: "f16[4096, 4096][4096, 1]cuda:0", arg52_1: "f16[1024, 4096][4096, 1]cuda:0", arg53_1: "f16[1024, 4096][4096, 1]cuda:0", arg54_1: "f16[1, 8, 2048, 128][2097152, 262144, 128, 1]cuda:0", arg55_1: "f16[1, 8, 2048, 128][2097152, 262144, 128, 1]cuda:0", arg56_1: "f16[4096, 4096][4096, 1]cuda:0", arg57_1: "f16[4096][1]cuda:0", arg58_1: "f16[14336, 4096][4096, 1]cuda:0", arg59_1: "f16[14336, 4096][4096, 1]cuda:0", arg60_1: "f16[4096, 14336][14336, 1]cuda:0", arg61_1: "f16[4096][1]cuda:0", arg62_1: "f16[4096, 4096][4096, 1]cuda:0", arg63_1: "f16[1024, 4096][4096, 1]cuda:0", arg64_1: "f16[1024, 4096][4096, 1]cuda:0", arg65_1: "f16[1, 8, 2048, 128][2097152, 262144, 128, 1]cuda:0", arg66_1: "f16[1, 8, 2048, 128][2097152, 262144, 128, 1]cuda:0", arg67_1: "f16[4096, 4096][4096, 1]cuda:0", arg68_1: "f16[4096][1]cuda:0", arg69_1: "f16[14336, 4096][4096, 1]cuda:0", arg70_1: "f16[14336, 4096][4096, 1]cuda:0", arg71_1: "f16[4096, 14336][14336, 1]cuda:0", arg72_1: "f16[4096][1]cuda:0", arg73_1: "f16[4096, 4096][4096, 1]cuda:0", arg74_1: "f16[1024, 4096][4096, 1]cuda:0", arg75_1: "f16[1024, 4096][4096, 1]cuda:0", arg76_1: "f16[1, 8, 2048, 128][2097152, 262144, 128, 1]cuda:0", arg77_1: "f16[1, 8, 2048, 128][2097152, 262144, 128, 1]cuda:0", arg78_1: "f16[4096, 4096][4096, 1]cuda:0", arg79_1: "f16[4096][1]cuda:0", arg80_1: "f16[14336, 4096][4096, 1]cuda:0", arg81_1: "f16[14336, 4096][4096, 1]cuda:0", arg82_1: "f16[4096, 14336][14336, 1]cuda:0", arg83_1: "f16[4096][1]cuda:0", arg84_1: "f16[4096, 4096][4096, 1]cuda:0", arg85_1: "f16[1024, 4096][4096, 1]cuda:0", arg86_1: "f16[1024, 4096][4096, 1]cuda:0", arg87_1: "f16[1, 8, 2048, 128][2097152, 262144, 128, 1]cuda:0", arg88_1: "f16[1, 8, 2048, 128][2097152, 262144, 128, 1]cuda:0", arg89_1: "f16[4096, 4096][4096, 1]cuda:0", arg90_1: "f16[4096][1]cuda:0", arg91_1: "f16[14336, 4096][4096, 1]cuda:0", arg92_1: "f16[14336, 4096][4096, 1]cuda:0", arg93_1: "f16[4096, 14336][14336, 1]cuda:0", arg94_1: "f16[4096][1]cuda:0", arg95_1: "f16[4096, 4096][4096, 1]cuda:0", arg96_1: "f16[1024, 4096][4096, 1]cuda:0", arg97_1: "f16[1024, 4096][4096, 1]cuda:0", arg98_1: "f16[1, 8, 2048, 128][2097152, 262144, 128, 1]cuda:0", arg99_1: "f16[1, 8, 2048, 128][2097152, 262144, 128, 1]cuda:0", arg100_1: "f16[4096, 4096][4096, 1]cuda:0", arg101_1: "f16[4096][1]cuda:0", arg102_1: "f16[14336, 4096][4096, 1]cuda:0", arg103_1: "f16[14336, 4096][4096, 1]cuda:0", arg104_1: "f16[4096, 14336][14336, 1]cuda:0", arg105_1: "f16[4096][1]cuda:0", arg106_1: "f16[4096, 4096][4096, 1]cuda:0", arg107_1: "f16[1024, 4096][4096, 1]cuda:0", arg108_1: "f16[1024, 4096][4096, 1]cuda:0", arg109_1: "f16[1, 8, 2048, 128][2097152, 262144, 128, 1]cuda:0", arg110_1: "f16[1, 8, 2048, 128][2097152, 262144, 128, 1]cuda:0", arg111_1: "f16[4096, 4096][4096, 1]cuda:0", arg112_1: "f16[4096][1]cuda:0", arg113_1: "f16[14336, 4096][4096, 1]cuda:0", arg114_1: "f16[14336, 4096][4096, 1]cuda:0", arg115_1: "f16[4096, 14336][14336, 1]cuda:0", arg116_1: "f16[4096][1]cuda:0", arg117_1: "f16[4096, 4096][4096, 1]cuda:0", arg118_1: "f16[1024, 4096][4096, 1]cuda:0", arg119_1: "f16[1024, 4096][4096, 1]cuda:0", arg120_1: "f16[1, 8, 2048, 128][2097152, 262144, 128, 1]cuda:0", arg121_1: "f16[1, 8, 2048, 128][2097152, 262144, 128, 1]cuda:0", arg122_1: "f16[4096, 4096][4096, 1]cuda:0", arg123_1: "f16[4096][1]cuda:0", arg124_1: "f16[14336, 4096][4096, 1]cuda:0", arg125_1: "f16[14336, 4096][4096, 1]cuda:0", arg126_1: "f16[4096, 14336][14336, 1]cuda:0", arg127_1: "f16[4096][1]cuda:0", arg128_1: "f16[4096, 4096][4096, 1]cuda:0", arg129_1: "f16[1024, 4096][4096, 1]cuda:0", arg130_1: "f16[1024, 4096][4096, 1]cuda:0", arg131_1: "f16[1, 8, 2048, 128][2097152, 262144, 128, 1]cuda:0", arg132_1: "f16[1, 8, 2048, 128][2097152, 262144, 128, 1]cuda:0", arg133_1: "f16[4096, 4096][4096, 1]cuda:0", arg134_1: "f16[4096][1]cuda:0", arg135_1: "f16[14336, 4096][4096, 1]cuda:0", arg136_1: "f16[14336, 4096][4096, 1]cuda:0", arg137_1: "f16[4096, 14336][14336, 1]cuda:0", arg138_1: "f16[4096][1]cuda:0", arg139_1: "f16[4096, 4096][4096, 1]cuda:0", arg140_1: "f16[1024, 4096][4096, 1]cuda:0", arg141_1: "f16[1024, 4096][4096, 1]cuda:0", arg142_1: "f16[1, 8, 2048, 128][2097152, 262144, 128, 1]cuda:0", arg143_1: "f16[1, 8, 2048, 128][2097152, 262144, 128, 1]cuda:0", arg144_1: "f16[4096, 4096][4096, 1]cuda:0", arg145_1: "f16[4096][1]cuda:0", arg146_1: "f16[14336, 4096][4096, 1]cuda:0", arg147_1: "f16[14336, 4096][4096, 1]cuda:0", arg148_1: "f16[4096, 14336][14336, 1]cuda:0", arg149_1: "f16[4096][1]cuda:0", arg150_1: "f16[4096, 4096][4096, 1]cuda:0", arg151_1: "f16[1024, 4096][4096, 1]cuda:0", arg152_1: "f16[1024, 4096][4096, 1]cuda:0", arg153_1: "f16[1, 8, 2048, 128][2097152, 262144, 128, 1]cuda:0", arg154_1: "f16[1, 8, 2048, 128][2097152, 262144, 128, 1]cuda:0", arg155_1: "f16[4096, 4096][4096, 1]cuda:0", arg156_1: "f16[4096][1]cuda:0", arg157_1: "f16[14336, 4096][4096, 1]cuda:0", arg158_1: "f16[14336, 4096][4096, 1]cuda:0", arg159_1: "f16[4096, 14336][14336, 1]cuda:0", arg160_1: "f16[4096][1]cuda:0", arg161_1: "f16[4096, 4096][4096, 1]cuda:0", arg162_1: "f16[1024, 4096][4096, 1]cuda:0", arg163_1: "f16[1024, 4096][4096, 1]cuda:0", arg164_1: "f16[1, 8, 2048, 128][2097152, 262144, 128, 1]cuda:0", arg165_1: "f16[1, 8, 2048, 128][2097152, 262144, 128, 1]cuda:0", arg166_1: "f16[4096, 4096][4096, 1]cuda:0", arg167_1: "f16[4096][1]cuda:0", arg168_1: "f16[14336, 4096][4096, 1]cuda:0", arg169_1: "f16[14336, 4096][4096, 1]cuda:0", arg170_1: "f16[4096, 14336][14336, 1]cuda:0", arg171_1: "f16[4096][1]cuda:0", arg172_1: "f16[4096, 4096][4096, 1]cuda:0", arg173_1: "f16[1024, 4096][4096, 1]cuda:0", arg174_1: "f16[1024, 4096][4096, 1]cuda:0", arg175_1: "f16[1, 8, 2048, 128][2097152, 262144, 128, 1]cuda:0", arg176_1: "f16[1, 8, 2048, 128][2097152, 262144, 128, 1]cuda:0", arg177_1: "f16[4096, 4096][4096, 1]cuda:0", arg178_1: "f16[4096][1]cuda:0", arg179_1: "f16[14336, 4096][4096, 1]cuda:0", arg180_1: "f16[14336, 4096][4096, 1]cuda:0", arg181_1: "f16[4096, 14336][14336, 1]cuda:0", arg182_1: "f16[4096][1]cuda:0", arg183_1: "f16[4096, 4096][4096, 1]cuda:0", arg184_1: "f16[1024, 4096][4096, 1]cuda:0", arg185_1: "f16[1024, 4096][4096, 1]cuda:0", arg186_1: "f16[1, 8, 2048, 128][2097152, 262144, 128, 1]cuda:0", arg187_1: "f16[1, 8, 2048, 128][2097152, 262144, 128, 1]cuda:0", arg188_1: "f16[4096, 4096][4096, 1]cuda:0", arg189_1: "f16[4096][1]cuda:0", arg190_1: "f16[14336, 4096][4096, 1]cuda:0", arg191_1: "f16[14336, 4096][4096, 1]cuda:0", arg192_1: "f16[4096, 14336][14336, 1]cuda:0", arg193_1: "f16[4096][1]cuda:0", arg194_1: "f16[4096, 4096][4096, 1]cuda:0", arg195_1: "f16[1024, 4096][4096, 1]cuda:0", arg196_1: "f16[1024, 4096][4096, 1]cuda:0", arg197_1: "f16[1, 8, 2048, 128][2097152, 262144, 128, 1]cuda:0", arg198_1: "f16[1, 8, 2048, 128][2097152, 262144, 128, 1]cuda:0", arg199_1: "f16[4096, 4096][4096, 1]cuda:0", arg200_1: "f16[4096][1]cuda:0", arg201_1: "f16[14336, 4096][4096, 1]cuda:0", arg202_1: "f16[14336, 4096][4096, 1]cuda:0", arg203_1: "f16[4096, 14336][14336, 1]cuda:0", arg204_1: "f16[4096][1]cuda:0", arg205_1: "f16[4096, 4096][4096, 1]cuda:0", arg206_1: "f16[1024, 4096][4096, 1]cuda:0", arg207_1: "f16[1024, 4096][4096, 1]cuda:0", arg208_1: "f16[1, 8, 2048, 128][2097152, 262144, 128, 1]cuda:0", arg209_1: "f16[1, 8, 2048, 128][2097152, 262144, 128, 1]cuda:0", arg210_1: "f16[4096, 4096][4096, 1]cuda:0", arg211_1: "f16[4096][1]cuda:0", arg212_1: "f16[14336, 4096][4096, 1]cuda:0", arg213_1: "f16[14336, 4096][4096, 1]cuda:0", arg214_1: "f16[4096, 14336][14336, 1]cuda:0", arg215_1: "f16[4096][1]cuda:0", arg216_1: "f16[4096, 4096][4096, 1]cuda:0", arg217_1: "f16[1024, 4096][4096, 1]cuda:0", arg218_1: "f16[1024, 4096][4096, 1]cuda:0", arg219_1: "f16[1, 8, 2048, 128][2097152, 262144, 128, 1]cuda:0", arg220_1: "f16[1, 8, 2048, 128][2097152, 262144, 128, 1]cuda:0", arg221_1: "f16[4096, 4096][4096, 1]cuda:0", arg222_1: "f16[4096][1]cuda:0", arg223_1: "f16[14336, 4096][4096, 1]cuda:0", arg224_1: "f16[14336, 4096][4096, 1]cuda:0", arg225_1: "f16[4096, 14336][14336, 1]cuda:0", arg226_1: "f16[4096][1]cuda:0", arg227_1: "f16[4096, 4096][4096, 1]cuda:0", arg228_1: "f16[1024, 4096][4096, 1]cuda:0", arg229_1: "f16[1024, 4096][4096, 1]cuda:0", arg230_1: "f16[1, 8, 2048, 128][2097152, 262144, 128, 1]cuda:0", arg231_1: "f16[1, 8, 2048, 128][2097152, 262144, 128, 1]cuda:0", arg232_1: "f16[4096, 4096][4096, 1]cuda:0", arg233_1: "f16[4096][1]cuda:0", arg234_1: "f16[14336, 4096][4096, 1]cuda:0", arg235_1: "f16[14336, 4096][4096, 1]cuda:0", arg236_1: "f16[4096, 14336][14336, 1]cuda:0", arg237_1: "f16[4096][1]cuda:0", arg238_1: "f16[4096, 4096][4096, 1]cuda:0", arg239_1: "f16[1024, 4096][4096, 1]cuda:0", arg240_1: "f16[1024, 4096][4096, 1]cuda:0", arg241_1: "f16[1, 8, 2048, 128][2097152, 262144, 128, 1]cuda:0", arg242_1: "f16[1, 8, 2048, 128][2097152, 262144, 128, 1]cuda:0", arg243_1: "f16[4096, 4096][4096, 1]cuda:0", arg244_1: "f16[4096][1]cuda:0", arg245_1: "f16[14336, 4096][4096, 1]cuda:0", arg246_1: "f16[14336, 4096][4096, 1]cuda:0", arg247_1: "f16[4096, 14336][14336, 1]cuda:0", arg248_1: "f16[4096][1]cuda:0", arg249_1: "f16[4096, 4096][4096, 1]cuda:0", arg250_1: "f16[1024, 4096][4096, 1]cuda:0", arg251_1: "f16[1024, 4096][4096, 1]cuda:0", arg252_1: "f16[1, 8, 2048, 128][2097152, 262144, 128, 1]cuda:0", arg253_1: "f16[1, 8, 2048, 128][2097152, 262144, 128, 1]cuda:0", arg254_1: "f16[4096, 4096][4096, 1]cuda:0", arg255_1: "f16[4096][1]cuda:0", arg256_1: "f16[14336, 4096][4096, 1]cuda:0", arg257_1: "f16[14336, 4096][4096, 1]cuda:0", arg258_1: "f16[4096, 14336][14336, 1]cuda:0", arg259_1: "f16[4096][1]cuda:0", arg260_1: "f16[4096, 4096][4096, 1]cuda:0", arg261_1: "f16[1024, 4096][4096, 1]cuda:0", arg262_1: "f16[1024, 4096][4096, 1]cuda:0", arg263_1: "f16[1, 8, 2048, 128][2097152, 262144, 128, 1]cuda:0", arg264_1: "f16[1, 8, 2048, 128][2097152, 262144, 128, 1]cuda:0", arg265_1: "f16[4096, 4096][4096, 1]cuda:0", arg266_1: "f16[4096][1]cuda:0", arg267_1: "f16[14336, 4096][4096, 1]cuda:0", arg268_1: "f16[14336, 4096][4096, 1]cuda:0", arg269_1: "f16[4096, 14336][14336, 1]cuda:0", arg270_1: "f16[4096][1]cuda:0", arg271_1: "f16[4096, 4096][4096, 1]cuda:0", arg272_1: "f16[1024, 4096][4096, 1]cuda:0", arg273_1: "f16[1024, 4096][4096, 1]cuda:0", arg274_1: "f16[1, 8, 2048, 128][2097152, 262144, 128, 1]cuda:0", arg275_1: "f16[1, 8, 2048, 128][2097152, 262144, 128, 1]cuda:0", arg276_1: "f16[4096, 4096][4096, 1]cuda:0", arg277_1: "f16[4096][1]cuda:0", arg278_1: "f16[14336, 4096][4096, 1]cuda:0", arg279_1: "f16[14336, 4096][4096, 1]cuda:0", arg280_1: "f16[4096, 14336][14336, 1]cuda:0", arg281_1: "f16[4096][1]cuda:0", arg282_1: "f16[4096, 4096][4096, 1]cuda:0", arg283_1: "f16[1024, 4096][4096, 1]cuda:0", arg284_1: "f16[1024, 4096][4096, 1]cuda:0", arg285_1: "f16[1, 8, 2048, 128][2097152, 262144, 128, 1]cuda:0", arg286_1: "f16[1, 8, 2048, 128][2097152, 262144, 128, 1]cuda:0", arg287_1: "f16[4096, 4096][4096, 1]cuda:0", arg288_1: "f16[4096][1]cuda:0", arg289_1: "f16[14336, 4096][4096, 1]cuda:0", arg290_1: "f16[14336, 4096][4096, 1]cuda:0", arg291_1: "f16[4096, 14336][14336, 1]cuda:0", arg292_1: "f16[4096][1]cuda:0", arg293_1: "f16[4096, 4096][4096, 1]cuda:0", arg294_1: "f16[1024, 4096][4096, 1]cuda:0", arg295_1: "f16[1024, 4096][4096, 1]cuda:0", arg296_1: "f16[1, 8, 2048, 128][2097152, 262144, 128, 1]cuda:0", arg297_1: "f16[1, 8, 2048, 128][2097152, 262144, 128, 1]cuda:0", arg298_1: "f16[4096, 4096][4096, 1]cuda:0", arg299_1: "f16[4096][1]cuda:0", arg300_1: "f16[14336, 4096][4096, 1]cuda:0", arg301_1: "f16[14336, 4096][4096, 1]cuda:0", arg302_1: "f16[4096, 14336][14336, 1]cuda:0", arg303_1: "f16[4096][1]cuda:0", arg304_1: "f16[4096, 4096][4096, 1]cuda:0", arg305_1: "f16[1024, 4096][4096, 1]cuda:0", arg306_1: "f16[1024, 4096][4096, 1]cuda:0", arg307_1: "f16[1, 8, 2048, 128][2097152, 262144, 128, 1]cuda:0", arg308_1: "f16[1, 8, 2048, 128][2097152, 262144, 128, 1]cuda:0", arg309_1: "f16[4096, 4096][4096, 1]cuda:0", arg310_1: "f16[4096][1]cuda:0", arg311_1: "f16[14336, 4096][4096, 1]cuda:0", arg312_1: "f16[14336, 4096][4096, 1]cuda:0", arg313_1: "f16[4096, 14336][14336, 1]cuda:0", arg314_1: "f16[4096][1]cuda:0", arg315_1: "f16[4096, 4096][4096, 1]cuda:0", arg316_1: "f16[1024, 4096][4096, 1]cuda:0", arg317_1: "f16[1024, 4096][4096, 1]cuda:0", arg318_1: "f16[1, 8, 2048, 128][2097152, 262144, 128, 1]cuda:0", arg319_1: "f16[1, 8, 2048, 128][2097152, 262144, 128, 1]cuda:0", arg320_1: "f16[4096, 4096][4096, 1]cuda:0", arg321_1: "f16[4096][1]cuda:0", arg322_1: "f16[14336, 4096][4096, 1]cuda:0", arg323_1: "f16[14336, 4096][4096, 1]cuda:0", arg324_1: "f16[4096, 14336][14336, 1]cuda:0", arg325_1: "f16[4096][1]cuda:0", arg326_1: "f16[4096, 4096][4096, 1]cuda:0", arg327_1: "f16[1024, 4096][4096, 1]cuda:0", arg328_1: "f16[1024, 4096][4096, 1]cuda:0", arg329_1: "f16[1, 8, 2048, 128][2097152, 262144, 128, 1]cuda:0", arg330_1: "f16[1, 8, 2048, 128][2097152, 262144, 128, 1]cuda:0", arg331_1: "f16[4096, 4096][4096, 1]cuda:0", arg332_1: "f16[4096][1]cuda:0", arg333_1: "f16[14336, 4096][4096, 1]cuda:0", arg334_1: "f16[14336, 4096][4096, 1]cuda:0", arg335_1: "f16[4096, 14336][14336, 1]cuda:0", arg336_1: "f16[4096][1]cuda:0", arg337_1: "f16[4096, 4096][4096, 1]cuda:0", arg338_1: "f16[1024, 4096][4096, 1]cuda:0", arg339_1: "f16[1024, 4096][4096, 1]cuda:0", arg340_1: "f16[1, 8, 2048, 128][2097152, 262144, 128, 1]cuda:0", arg341_1: "f16[1, 8, 2048, 128][2097152, 262144, 128, 1]cuda:0", arg342_1: "f16[4096, 4096][4096, 1]cuda:0", arg343_1: "f16[4096][1]cuda:0", arg344_1: "f16[14336, 4096][4096, 1]cuda:0", arg345_1: "f16[14336, 4096][4096, 1]cuda:0", arg346_1: "f16[4096, 14336][14336, 1]cuda:0", arg347_1: "f16[4096][1]cuda:0", arg348_1: "f16[4096, 4096][4096, 1]cuda:0", arg349_1: "f16[1024, 4096][4096, 1]cuda:0", arg350_1: "f16[1024, 4096][4096, 1]cuda:0", arg351_1: "f16[1, 8, 2048, 128][2097152, 262144, 128, 1]cuda:0", arg352_1: "f16[1, 8, 2048, 128][2097152, 262144, 128, 1]cuda:0", arg353_1: "f16[4096, 4096][4096, 1]cuda:0", arg354_1: "f16[4096][1]cuda:0", arg355_1: "f16[14336, 4096][4096, 1]cuda:0", arg356_1: "f16[14336, 4096][4096, 1]cuda:0", arg357_1: "f16[4096, 14336][14336, 1]cuda:0", arg358_1: "f16[4096][1]cuda:0", arg359_1: "f16[128256, 4096][4096, 1]cuda:0"):
         # File: /app/low_bit_inference/optims/rms_norm_kernels/liger_rms_norm.py:447 in rms_norm_forward, code: Y = torch.empty((n_rows, n_cols), dtype=X.dtype, device=X.device)
        empty: "f16[1, 4096][4096, 1]cuda:0" = torch.ops.aten.empty.memory_format([1, 4096], dtype = torch.float16, device = device(type='cuda', index=0), pin_memory = False)
        
         # File: /app/low_bit_inference/model.py:346 in forward, code: inputs_embeds: torch.Tensor = self.embed_tokens(input_ids)
        embedding: "f16[1, 1, 4096][4096, 4096, 1]cuda:0" = torch.ops.aten.embedding.default(arg1_1, arg0_1, 128004);  arg1_1 = arg0_1 = None
        
         # File: /app/low_bit_inference/optims/rms_norm_kernels/liger_rms_norm.py:443 in rms_norm_forward, code: X = X.view(-1, dim)
        view_4: "f16[1, 4096][4096, 1]cuda:0" = torch.ops.aten.reshape.default(embedding, [-1, 4096])
        
         # File: /app/low_bit_inference/optims/rms_norm_kernels/liger_rms_norm.py:451 in rms_norm_forward, code: RSTD = torch.empty(n_rows, dtype=rstd_dtype, device=X.device)
        empty_1: "f32[1][1]cuda:0" = torch.ops.aten.empty.memory_format([1], dtype = torch.float32, device = device(type='cuda', index=0), pin_memory = False)
        
         # File: /app/low_bit_inference/optims/rms_norm_kernels/liger_rms_norm.py:461 in rms_norm_forward, code: _rms_norm_forward_kernel[(n_rows,)](
        triton_kernel_wrapper_functional_proxy = torch.ops.higher_order.triton_kernel_wrapper_functional(kernel_idx = 196, constant_args_idx = 195, grid = [(1, 1, 1)], tma_descriptor_metadata = {}, kwargs = {'Y_ptr': empty, 'X_ptr': view_4, 'W_ptr': arg6_1, 'RSTD_ptr': empty_1}, tensors_to_clone = ['Y_ptr', 'RSTD_ptr']);  empty = view_4 = arg6_1 = empty_1 = None
        getitem: "f16[1, 4096][4096, 1]cuda:0" = triton_kernel_wrapper_functional_proxy['Y_ptr'];  triton_kernel_wrapper_functional_proxy = None
        
         # File: /app/low_bit_inference/model.py:206 in forward, code: query_states = self.q_proj(hidden_states).view(hidden_shape).transpose(1, 2)
        convert_element_type_3: "f32[1, 4096][4096, 1]cuda:0" = torch.ops.prims.convert_element_type.default(getitem, torch.float32)
        unsqueeze_6: "f32[1, 4096, 1][4096, 1, 1]cuda:0" = torch.ops.aten.unsqueeze.default(convert_element_type_3, 2);  convert_element_type_3 = None
        permute_1: "f16[4096, 4096][1, 4096]cuda:0" = torch.ops.aten.permute.default(arg7_1, [1, 0]);  arg7_1 = None
        convert_element_type_4: "f32[4096, 4096][1, 4096]cuda:0" = torch.ops.prims.convert_element_type.default(permute_1, torch.float32);  permute_1 = None
        unsqueeze_7: "f32[1, 4096, 4096][4096, 1, 4096]cuda:0" = torch.ops.aten.unsqueeze.default(convert_element_type_4, 0);  convert_element_type_4 = None
        mul_3: "f32[1, 4096, 4096][4096, 1, 4096]cuda:0" = torch.ops.aten.mul.Tensor(unsqueeze_6, unsqueeze_7);  unsqueeze_6 = unsqueeze_7 = None
        sum_2: "f32[1, 4096][4096, 1]cuda:0" = torch.ops.aten.sum.dim_IntList(mul_3, [1]);  mul_3 = None
        convert_element_type_5: "f16[1, 4096][4096, 1]cuda:0" = torch.ops.prims.convert_element_type.default(sum_2, torch.float16);  sum_2 = None
        view_9: "f16[1, 1, 4096][4096, 4096, 1]cuda:0" = torch.ops.aten.reshape.default(convert_element_type_5, [1, 1, 4096]);  convert_element_type_5 = None
        view_10: "f16[1, 1, 32, 128][4096, 4096, 128, 1]cuda:0" = torch.ops.aten.reshape.default(view_9, [1, 1, -1, 128]);  view_9 = None
        permute_2: "f16[1, 32, 1, 128][4096, 128, 4096, 1]cuda:0" = torch.ops.aten.permute.default(view_10, [0, 2, 1, 3]);  view_10 = None
        
         # File: /app/low_bit_inference/model.py:65 in forward, code: inv_freq_expanded = self.inv_freq[None, :, None].float().expand(position_ids.shape[0], -1, 1).to(x.device)
        unsqueeze: "f32[1, 64][64, 1]cuda:0" = torch.ops.aten.unsqueeze.default(arg5_1, 0);  arg5_1 = None
        unsqueeze_1: "f32[1, 64, 1][64, 1, 1]cuda:0" = torch.ops.aten.unsqueeze.default(unsqueeze, 2);  unsqueeze = None
        expand: "f32[1, 64, 1][64, 1, 1]cuda:0" = torch.ops.aten.expand.default(unsqueeze_1, [1, -1, 1]);  unsqueeze_1 = None
        
         # File: /app/low_bit_inference/model.py:70 in forward, code: freqs = (inv_freq_expanded.float() @ position_ids_expanded.float()).transpose(1, 2)
        expand_1: "f32[1, 64, 1][64, 1, 1]cuda:0" = torch.ops.aten.expand.default(expand, [1, 64, 1]);  expand = None
        unsqueeze_3: "f32[1, 64, 1, 1][64, 1, 1, 1]cuda:0" = torch.ops.aten.unsqueeze.default(expand_1, -1);  expand_1 = None
        
         # File: /app/low_bit_inference/model.py:66 in forward, code: position_ids_expanded = position_ids[:, None, :].float()
        unsqueeze_2: "i64[1, 1, 1][1, 1, 1]cuda:0" = torch.ops.aten.unsqueeze.default(arg3_1, 1);  arg3_1 = None
        convert_element_type: "f32[1, 1, 1][1, 1, 1]cuda:0" = torch.ops.prims.convert_element_type.default(unsqueeze_2, torch.float32);  unsqueeze_2 = None
        
         # File: /app/low_bit_inference/model.py:70 in forward, code: freqs = (inv_freq_expanded.float() @ position_ids_expanded.float()).transpose(1, 2)
        expand_2: "f32[1, 1, 1][1, 1, 1]cuda:0" = torch.ops.aten.expand.default(convert_element_type, [1, 1, 1]);  convert_element_type = None
        unsqueeze_4: "f32[1, 1, 1, 1][1, 1, 1, 1]cuda:0" = torch.ops.aten.unsqueeze.default(expand_2, 1);  expand_2 = None
        mul: "f32[1, 64, 1, 1][64, 1, 1, 1]cuda:0" = torch.ops.aten.mul.Tensor(unsqueeze_3, unsqueeze_4);  unsqueeze_3 = unsqueeze_4 = None
        sum_1: "f32[1, 64, 1][64, 1, 1]cuda:0" = torch.ops.aten.sum.dim_IntList(mul, [2]);  mul = None
        permute: "f32[1, 1, 64][64, 1, 1]cuda:0" = torch.ops.aten.permute.default(sum_1, [0, 2, 1]);  sum_1 = None
        
         # File: /app/low_bit_inference/model.py:71 in forward, code: emb = torch.cat((freqs, freqs), dim=-1)
        unsqueeze_5: "f32[1, 1, 1, 64][64, 1, 64, 1]cuda:0" = torch.ops.aten.unsqueeze.default(permute, 2);  permute = None
        expand_3: "f32[1, 1, 2, 64][64, 1, 0, 1]cuda:0" = torch.ops.aten.expand.default(unsqueeze_5, [1, 1, 2, 64]);  unsqueeze_5 = None
        clone: "f32[1, 1, 2, 64][128, 128, 64, 1]cuda:0" = torch.ops.aten.clone.default(expand_3, memory_format = torch.contiguous_format);  expand_3 = None
        view_3: "f32[1, 1, 128][128, 128, 1]cuda:0" = torch.ops.aten.reshape.default(clone, [1, 1, 128]);  clone = None
        
         # File: /app/low_bit_inference/model.py:72 in forward, code: cos = emb.cos() * self.attention_scaling
        cos: "f32[1, 1, 128][128, 128, 1]cuda:0" = torch.ops.aten.cos.default(view_3)
        mul_1: "f32[1, 1, 128][128, 128, 1]cuda:0" = torch.ops.aten.mul.Tensor(cos, 1.0);  cos = None
        
         # File: /app/low_bit_inference/model.py:75 in forward, code: return cos.to(dtype=x.dtype), sin.to(dtype=x.dtype)
        convert_element_type_1: "f16[1, 1, 128][128, 128, 1]cuda:0" = torch.ops.prims.convert_element_type.default(mul_1, torch.float16);  mul_1 = None
        
         # File: /app/low_bit_inference/model.py:105 in apply_rotary_pos_emb, code: cos = cos.unsqueeze(unsqueeze_dim)
        unsqueeze_12: "f16[1, 1, 1, 128][128, 128, 128, 1]cuda:0" = torch.ops.aten.unsqueeze.default(convert_element_type_1, 1)
        
         # File: /app/low_bit_inference/model.py:107 in apply_rotary_pos_emb, code: q_embed = (q * cos) + (rotate_half(q) * sin)
        mul_6: "f16[1, 32, 1, 128][4096, 128, 4096, 1]cuda:0" = torch.ops.aten.mul.Tensor(permute_2, unsqueeze_12)
        
         # File: /app/low_bit_inference/model.py:81 in rotate_half, code: x2 = x[..., x.shape[-1] // 2 :]
        slice_5: "f16[1, 32, 1, 64][4096, 128, 4096, 1]cuda:0" = torch.ops.aten.slice.Tensor(permute_2, 3, 64, 9223372036854775807)
        
         # File: /app/low_bit_inference/model.py:82 in rotate_half, code: return torch.cat((-x2, x1), dim=-1)
        neg: "f16[1, 32, 1, 64][2048, 64, 64, 1]cuda:0" = torch.ops.aten.neg.default(slice_5);  slice_5 = None
        
         # File: /app/low_bit_inference/model.py:80 in rotate_half, code: x1 = x[..., : x.shape[-1] // 2]
        slice_4: "f16[1, 32, 1, 64][4096, 128, 4096, 1]cuda:0" = torch.ops.aten.slice.Tensor(permute_2, 3, 0, 64);  permute_2 = None
        
         # File: /app/low_bit_inference/model.py:82 in rotate_half, code: return torch.cat((-x2, x1), dim=-1)
        cat: "f16[1, 32, 1, 128][4096, 128, 128, 1]cuda:0" = torch.ops.aten.cat.default([neg, slice_4], -1);  neg = slice_4 = None
        
         # File: /app/low_bit_inference/model.py:73 in forward, code: sin = emb.sin() * self.attention_scaling
        sin: "f32[1, 1, 128][128, 128, 1]cuda:0" = torch.ops.aten.sin.default(view_3);  view_3 = None
        mul_2: "f32[1, 1, 128][128, 128, 1]cuda:0" = torch.ops.aten.mul.Tensor(sin, 1.0);  sin = None
        
         # File: /app/low_bit_inference/model.py:75 in forward, code: return cos.to(dtype=x.dtype), sin.to(dtype=x.dtype)
        convert_element_type_2: "f16[1, 1, 128][128, 128, 1]cuda:0" = torch.ops.prims.convert_element_type.default(mul_2, torch.float16);  mul_2 = None
        
         # File: /app/low_bit_inference/model.py:106 in apply_rotary_pos_emb, code: sin = sin.unsqueeze(unsqueeze_dim)
        unsqueeze_13: "f16[1, 1, 1, 128][128, 128, 128, 1]cuda:0" = torch.ops.aten.unsqueeze.default(convert_element_type_2, 1)
        
         # File: /app/low_bit_inference/model.py:107 in apply_rotary_pos_emb, code: q_embed = (q * cos) + (rotate_half(q) * sin)
        mul_7: "f16[1, 32, 1, 128][4096, 128, 128, 1]cuda:0" = torch.ops.aten.mul.Tensor(cat, unsqueeze_13);  cat = None
        add: "f16[1, 32, 1, 128][4096, 128, 128, 1]cuda:0" = torch.ops.aten.add.Tensor(mul_6, mul_7);  mul_6 = mul_7 = None
        
         # File: /app/low_bit_inference/model.py:207 in forward, code: key_states = self.k_proj(hidden_states).view(hidden_shape).transpose(1, 2)
        convert_element_type_6: "f32[1, 4096][4096, 1]cuda:0" = torch.ops.prims.convert_element_type.default(getitem, torch.float32)
        unsqueeze_8: "f32[1, 4096, 1][4096, 1, 1]cuda:0" = torch.ops.aten.unsqueeze.default(convert_element_type_6, 2);  convert_element_type_6 = None
        permute_3: "f16[4096, 1024][1, 4096]cuda:0" = torch.ops.aten.permute.default(arg8_1, [1, 0]);  arg8_1 = None
        convert_element_type_7: "f32[4096, 1024][1, 4096]cuda:0" = torch.ops.prims.convert_element_type.default(permute_3, torch.float32);  permute_3 = None
        unsqueeze_9: "f32[1, 4096, 1024][4096, 1, 4096]cuda:0" = torch.ops.aten.unsqueeze.default(convert_element_type_7, 0);  convert_element_type_7 = None
        mul_4: "f32[1, 4096, 1024][4096, 1, 4096]cuda:0" = torch.ops.aten.mul.Tensor(unsqueeze_8, unsqueeze_9);  unsqueeze_8 = unsqueeze_9 = None
        sum_3: "f32[1, 1024][1024, 1]cuda:0" = torch.ops.aten.sum.dim_IntList(mul_4, [1]);  mul_4 = None
        convert_element_type_8: "f16[1, 1024][1024, 1]cuda:0" = torch.ops.prims.convert_element_type.default(sum_3, torch.float16);  sum_3 = None
        view_14: "f16[1, 1, 1024][1024, 1024, 1]cuda:0" = torch.ops.aten.reshape.default(convert_element_type_8, [1, 1, 1024]);  convert_element_type_8 = None
        view_15: "f16[1, 1, 8, 128][1024, 1024, 128, 1]cuda:0" = torch.ops.aten.reshape.default(view_14, [1, 1, -1, 128]);  view_14 = None
        permute_4: "f16[1, 8, 1, 128][1024, 128, 1024, 1]cuda:0" = torch.ops.aten.permute.default(view_15, [0, 2, 1, 3]);  view_15 = None
        
         # File: /app/low_bit_inference/model.py:108 in apply_rotary_pos_emb, code: k_embed = (k * cos) + (rotate_half(k) * sin)
        mul_8: "f16[1, 8, 1, 128][1024, 128, 1024, 1]cuda:0" = torch.ops.aten.mul.Tensor(permute_4, unsqueeze_12);  unsqueeze_12 = None
        
         # File: /app/low_bit_inference/model.py:81 in rotate_half, code: x2 = x[..., x.shape[-1] // 2 :]
        slice_7: "f16[1, 8, 1, 64][1024, 128, 1024, 1]cuda:0" = torch.ops.aten.slice.Tensor(permute_4, 3, 64, 9223372036854775807)
        
         # File: /app/low_bit_inference/model.py:82 in rotate_half, code: return torch.cat((-x2, x1), dim=-1)
        neg_1: "f16[1, 8, 1, 64][512, 64, 64, 1]cuda:0" = torch.ops.aten.neg.default(slice_7);  slice_7 = None
        
         # File: /app/low_bit_inference/model.py:80 in rotate_half, code: x1 = x[..., : x.shape[-1] // 2]
        slice_6: "f16[1, 8, 1, 64][1024, 128, 1024, 1]cuda:0" = torch.ops.aten.slice.Tensor(permute_4, 3, 0, 64);  permute_4 = None
        
         # File: /app/low_bit_inference/model.py:82 in rotate_half, code: return torch.cat((-x2, x1), dim=-1)
        cat_1: "f16[1, 8, 1, 128][1024, 128, 128, 1]cuda:0" = torch.ops.aten.cat.default([neg_1, slice_6], -1);  neg_1 = slice_6 = None
        
         # File: /app/low_bit_inference/model.py:108 in apply_rotary_pos_emb, code: k_embed = (k * cos) + (rotate_half(k) * sin)
        mul_9: "f16[1, 8, 1, 128][1024, 128, 128, 1]cuda:0" = torch.ops.aten.mul.Tensor(cat_1, unsqueeze_13);  cat_1 = unsqueeze_13 = None
        add_1: "f16[1, 8, 1, 128][1024, 128, 128, 1]cuda:0" = torch.ops.aten.add.Tensor(mul_8, mul_9);  mul_8 = mul_9 = None
        
         # File: /app/low_bit_inference/optims/cache_optim.py:156 in update, code: self.keys.index_copy_(2, cache_position, key_states)
        index_put: "f16[1, 8, 2048, 128][2097152, 262144, 128, 1]cuda:0" = torch.ops.aten.index_put.default(arg10_1, [None, None, arg2_1], add_1);  add_1 = None
        
         # File: /app/.venv/lib/python3.12/site-packages/transformers/integrations/sdpa_attention.py:15 in repeat_kv, code: return hidden_states.reshape(batch, num_key_value_heads * n_rep, slen, head_dim)
        unsqueeze_15: "f16[1, 8, 1, 2048, 128][2097152, 262144, 262144, 128, 1]cuda:0" = torch.ops.aten.unsqueeze.default(index_put, 2)
        expand_5: "f16[1, 8, 4, 2048, 128][2097152, 262144, 0, 128, 1]cuda:0" = torch.ops.aten.expand.default(unsqueeze_15, [1, 8, 4, 2048, 128]);  unsqueeze_15 = None
        clone_2: "f16[1, 8, 4, 2048, 128][8388608, 1048576, 262144, 128, 1]cuda:0" = torch.ops.aten.clone.default(expand_5, memory_format = torch.contiguous_format);  expand_5 = None
        view_21: "f16[1, 32, 2048, 128][8388608, 262144, 128, 1]cuda:0" = torch.ops.aten.reshape.default(clone_2, [1, 32, 2048, 128]);  clone_2 = None
        
         # File: /app/low_bit_inference/model.py:208 in forward, code: value_states = self.v_proj(hidden_states).view(hidden_shape).transpose(1, 2)
        convert_element_type_9: "f32[1, 4096][4096, 1]cuda:0" = torch.ops.prims.convert_element_type.default(getitem, torch.float32);  getitem = None
        unsqueeze_10: "f32[1, 4096, 1][4096, 1, 1]cuda:0" = torch.ops.aten.unsqueeze.default(convert_element_type_9, 2);  convert_element_type_9 = None
        permute_5: "f16[4096, 1024][1, 4096]cuda:0" = torch.ops.aten.permute.default(arg9_1, [1, 0]);  arg9_1 = None
        convert_element_type_10: "f32[4096, 1024][1, 4096]cuda:0" = torch.ops.prims.convert_element_type.default(permute_5, torch.float32);  permute_5 = None
        unsqueeze_11: "f32[1, 4096, 1024][4096, 1, 4096]cuda:0" = torch.ops.aten.unsqueeze.default(convert_element_type_10, 0);  convert_element_type_10 = None
        mul_5: "f32[1, 4096, 1024][4096, 1, 4096]cuda:0" = torch.ops.aten.mul.Tensor(unsqueeze_10, unsqueeze_11);  unsqueeze_10 = unsqueeze_11 = None
        sum_4: "f32[1, 1024][1024, 1]cuda:0" = torch.ops.aten.sum.dim_IntList(mul_5, [1]);  mul_5 = None
        convert_element_type_11: "f16[1, 1024][1024, 1]cuda:0" = torch.ops.prims.convert_element_type.default(sum_4, torch.float16);  sum_4 = None
        view_19: "f16[1, 1, 1024][1024, 1024, 1]cuda:0" = torch.ops.aten.reshape.default(convert_element_type_11, [1, 1, 1024]);  convert_element_type_11 = None
        view_20: "f16[1, 1, 8, 128][1024, 1024, 128, 1]cuda:0" = torch.ops.aten.reshape.default(view_19, [1, 1, -1, 128]);  view_19 = None
        permute_6: "f16[1, 8, 1, 128][1024, 128, 1024, 1]cuda:0" = torch.ops.aten.permute.default(view_20, [0, 2, 1, 3]);  view_20 = None
        
         # File: /app/low_bit_inference/optims/cache_optim.py:157 in update, code: self.values.index_copy_(2, cache_position, value_states)
        index_put_1: "f16[1, 8, 2048, 128][2097152, 262144, 128, 1]cuda:0" = torch.ops.aten.index_put.default(arg11_1, [None, None, arg2_1], permute_6);  permute_6 = None
        
         # File: /app/.venv/lib/python3.12/site-packages/transformers/integrations/sdpa_attention.py:15 in repeat_kv, code: return hidden_states.reshape(batch, num_key_value_heads * n_rep, slen, head_dim)
        unsqueeze_17: "f16[1, 8, 1, 2048, 128][2097152, 262144, 262144, 128, 1]cuda:0" = torch.ops.aten.unsqueeze.default(index_put_1, 2)
        expand_7: "f16[1, 8, 4, 2048, 128][2097152, 262144, 0, 128, 1]cuda:0" = torch.ops.aten.expand.default(unsqueeze_17, [1, 8, 4, 2048, 128]);  unsqueeze_17 = None
        clone_3: "f16[1, 8, 4, 2048, 128][8388608, 1048576, 262144, 128, 1]cuda:0" = torch.ops.aten.clone.default(expand_7, memory_format = torch.contiguous_format);  expand_7 = None
        view_22: "f16[1, 32, 2048, 128][8388608, 262144, 128, 1]cuda:0" = torch.ops.aten.reshape.default(clone_3, [1, 32, 2048, 128]);  clone_3 = None
        
         # File: /app/.venv/lib/python3.12/site-packages/transformers/integrations/sdpa_attention.py:54 in sdpa_attention_forward, code: attn_output = torch.nn.functional.scaled_dot_product_attention(
        full_default_1: "f16[][]cuda:0" = torch.ops.aten.full.default([], 0.0, dtype = torch.float16, layout = torch.strided, device = device(type='cuda', index=0), pin_memory = False)
        full_default: "f16[][]cuda:0" = torch.ops.aten.full.default([], -inf, dtype = torch.float16, layout = torch.strided, device = device(type='cuda', index=0), pin_memory = False)
        where: "f16[1, 1, 1, 2048][2048, 2048, 2048, 1]cuda:0" = torch.ops.aten.where.self(arg4_1, full_default_1, full_default);  full_default_1 = full_default = None
        expand_8: "f16[1, 32, 1, 2048][2048, 0, 2048, 1]cuda:0" = torch.ops.aten.expand.default(where, [1, 32, 1, 2048]);  where = None
        _scaled_dot_product_efficient_attention = torch.ops.aten._scaled_dot_product_efficient_attention.default(add, view_21, view_22, expand_8, False, scale = 0.08838834764831845);  add = view_21 = view_22 = expand_8 = None
        getitem_2: "f16[1, 32, 1, 128][4096, 128, 4096, 1]cuda:0" = _scaled_dot_product_efficient_attention[0];  _scaled_dot_product_efficient_attention = None
        
         # File: /app/low_bit_inference/optims/rms_norm_kernels/liger_rms_norm.py:447 in rms_norm_forward, code: Y = torch.empty((n_rows, n_cols), dtype=X.dtype, device=X.device)
        empty_2: "f16[1, 4096][4096, 1]cuda:0" = torch.ops.aten.empty.memory_format([1, 4096], dtype = torch.float16, device = device(type='cuda', index=0), pin_memory = False)
        
         # File: /app/.venv/lib/python3.12/site-packages/transformers/integrations/sdpa_attention.py:63 in sdpa_attention_forward, code: attn_output = attn_output.transpose(1, 2).contiguous()
        permute_7: "f16[1, 1, 32, 128][4096, 4096, 128, 1]cuda:0" = torch.ops.aten.permute.default(getitem_2, [0, 2, 1, 3]);  getitem_2 = None
        
         # File: /app/low_bit_inference/model.py:233 in forward, code: attn_output = attn_output.reshape(*input_shape, -1).contiguous()
        view_23: "f16[1, 1, 4096][4096, 4096, 1]cuda:0" = torch.ops.aten.reshape.default(permute_7, [1, 1, -1]);  permute_7 = None
        
         # File: /app/low_bit_inference/model.py:234 in forward, code: attn_output = self.o_proj(attn_output)
        view_24: "f16[1, 4096][4096, 1]cuda:0" = torch.ops.aten.reshape.default(view_23, [1, 4096]);  view_23 = None
        convert_element_type_12: "f32[1, 4096][4096, 1]cuda:0" = torch.ops.prims.convert_element_type.default(view_24, torch.float32);  view_24 = None
        unsqueeze_18: "f32[1, 4096, 1][4096, 1, 1]cuda:0" = torch.ops.aten.unsqueeze.default(convert_element_type_12, 2);  convert_element_type_12 = None
        permute_8: "f16[4096, 4096][1, 4096]cuda:0" = torch.ops.aten.permute.default(arg12_1, [1, 0]);  arg12_1 = None
        convert_element_type_13: "f32[4096, 4096][1, 4096]cuda:0" = torch.ops.prims.convert_element_type.default(permute_8, torch.float32);  permute_8 = None
        unsqueeze_19: "f32[1, 4096, 4096][4096, 1, 4096]cuda:0" = torch.ops.aten.unsqueeze.default(convert_element_type_13, 0);  convert_element_type_13 = None
        mul_10: "f32[1, 4096, 4096][4096, 1, 4096]cuda:0" = torch.ops.aten.mul.Tensor(unsqueeze_18, unsqueeze_19);  unsqueeze_18 = unsqueeze_19 = None
        sum_5: "f32[1, 4096][4096, 1]cuda:0" = torch.ops.aten.sum.dim_IntList(mul_10, [1]);  mul_10 = None
        convert_element_type_14: "f16[1, 4096][4096, 1]cuda:0" = torch.ops.prims.convert_element_type.default(sum_5, torch.float16);  sum_5 = None
        view_25: "f16[1, 1, 4096][4096, 4096, 1]cuda:0" = torch.ops.aten.reshape.default(convert_element_type_14, [1, 1, 4096]);  convert_element_type_14 = None
        
         # File: /app/low_bit_inference/model.py:273 in forward, code: hidden_states = residual + hidden_states
        add_2: "f16[1, 1, 4096][4096, 4096, 1]cuda:0" = torch.ops.aten.add.Tensor(embedding, view_25);  embedding = view_25 = None
        
         # File: /app/low_bit_inference/optims/rms_norm_kernels/liger_rms_norm.py:443 in rms_norm_forward, code: X = X.view(-1, dim)
        view_26: "f16[1, 4096][4096, 1]cuda:0" = torch.ops.aten.reshape.default(add_2, [-1, 4096])
        
         # File: /app/low_bit_inference/optims/rms_norm_kernels/liger_rms_norm.py:451 in rms_norm_forward, code: RSTD = torch.empty(n_rows, dtype=rstd_dtype, device=X.device)
        empty_3: "f32[1][1]cuda:0" = torch.ops.aten.empty.memory_format([1], dtype = torch.float32, device = device(type='cuda', index=0), pin_memory = False)
        
         # File: /app/low_bit_inference/optims/rms_norm_kernels/liger_rms_norm.py:461 in rms_norm_forward, code: _rms_norm_forward_kernel[(n_rows,)](
        triton_kernel_wrapper_functional_proxy_1 = torch.ops.higher_order.triton_kernel_wrapper_functional(kernel_idx = 197, constant_args_idx = 196, grid = [(1, 1, 1)], tma_descriptor_metadata = {}, kwargs = {'Y_ptr': empty_2, 'X_ptr': view_26, 'W_ptr': arg13_1, 'RSTD_ptr': empty_3}, tensors_to_clone = ['Y_ptr', 'RSTD_ptr']);  empty_2 = view_26 = arg13_1 = empty_3 = None
        getitem_6: "f16[1, 4096][4096, 1]cuda:0" = triton_kernel_wrapper_functional_proxy_1['Y_ptr'];  triton_kernel_wrapper_functional_proxy_1 = None
        
         # File: /app/low_bit_inference/optims/rms_norm_kernels/liger_rms_norm.py:447 in rms_norm_forward, code: Y = torch.empty((n_rows, n_cols), dtype=X.dtype, device=X.device)
        empty_4: "f16[1, 4096][4096, 1]cuda:0" = torch.ops.aten.empty.memory_format([1, 4096], dtype = torch.float16, device = device(type='cuda', index=0), pin_memory = False)
        
         # File: /app/low_bit_inference/model.py:124 in forward, code: down_proj = self.down_proj(self.act_fn(self.gate_proj(x)) * self.up_proj(x))
        convert_element_type_15: "f32[1, 4096][4096, 1]cuda:0" = torch.ops.prims.convert_element_type.default(getitem_6, torch.float32)
        unsqueeze_20: "f32[1, 4096, 1][4096, 1, 1]cuda:0" = torch.ops.aten.unsqueeze.default(convert_element_type_15, 2);  convert_element_type_15 = None
        permute_9: "f16[4096, 14336][1, 4096]cuda:0" = torch.ops.aten.permute.default(arg14_1, [1, 0]);  arg14_1 = None
        convert_element_type_16: "f32[4096, 14336][1, 4096]cuda:0" = torch.ops.prims.convert_element_type.default(permute_9, torch.float32);  permute_9 = None
        unsqueeze_21: "f32[1, 4096, 14336][4096, 1, 4096]cuda:0" = torch.ops.aten.unsqueeze.default(convert_element_type_16, 0);  convert_element_type_16 = None
        mul_11: "f32[1, 4096, 14336][4096, 1, 4096]cuda:0" = torch.ops.aten.mul.Tensor(unsqueeze_20, unsqueeze_21);  unsqueeze_20 = unsqueeze_21 = None
        sum_6: "f32[1, 14336][14336, 1]cuda:0" = torch.ops.aten.sum.dim_IntList(mul_11, [1]);  mul_11 = None
        convert_element_type_17: "f16[1, 14336][14336, 1]cuda:0" = torch.ops.prims.convert_element_type.default(sum_6, torch.float16);  sum_6 = None
        view_31: "f16[1, 1, 14336][14336, 14336, 1]cuda:0" = torch.ops.aten.reshape.default(convert_element_type_17, [1, 1, 14336]);  convert_element_type_17 = None
        convert_element_type_18: "f32[1, 1, 14336][14336, 14336, 1]cuda:0" = torch.ops.prims.convert_element_type.default(view_31, torch.float32);  view_31 = None
        sigmoid: "f32[1, 1, 14336][14336, 14336, 1]cuda:0" = torch.ops.aten.sigmoid.default(convert_element_type_18)
        mul_12: "f32[1, 1, 14336][14336, 14336, 1]cuda:0" = torch.ops.aten.mul.Tensor(convert_element_type_18, sigmoid);  convert_element_type_18 = sigmoid = None
        convert_element_type_19: "f16[1, 1, 14336][14336, 14336, 1]cuda:0" = torch.ops.prims.convert_element_type.default(mul_12, torch.float16);  mul_12 = None
        convert_element_type_20: "f32[1, 4096][4096, 1]cuda:0" = torch.ops.prims.convert_element_type.default(getitem_6, torch.float32);  getitem_6 = None
        unsqueeze_22: "f32[1, 4096, 1][4096, 1, 1]cuda:0" = torch.ops.aten.unsqueeze.default(convert_element_type_20, 2);  convert_element_type_20 = None
        permute_10: "f16[4096, 14336][1, 4096]cuda:0" = torch.ops.aten.permute.default(arg15_1, [1, 0]);  arg15_1 = None
        convert_element_type_21: "f32[4096, 14336][1, 4096]cuda:0" = torch.ops.prims.convert_element_type.default(permute_10, torch.float32);  permute_10 = None
        unsqueeze_23: "f32[1, 4096, 14336][4096, 1, 4096]cuda:0" = torch.ops.aten.unsqueeze.default(convert_element_type_21, 0);  convert_element_type_21 = None
        mul_13: "f32[1, 4096, 14336][4096, 1, 4096]cuda:0" = torch.ops.aten.mul.Tensor(unsqueeze_22, unsqueeze_23);  unsqueeze_22 = unsqueeze_23 = None
        sum_7: "f32[1, 14336][14336, 1]cuda:0" = torch.ops.aten.sum.dim_IntList(mul_13, [1]);  mul_13 = None
        convert_element_type_22: "f16[1, 14336][14336, 1]cuda:0" = torch.ops.prims.convert_element_type.default(sum_7, torch.float16);  sum_7 = None
        view_35: "f16[1, 1, 14336][14336, 14336, 1]cuda:0" = torch.ops.aten.reshape.default(convert_element_type_22, [1, 1, 14336]);  convert_element_type_22 = None
        mul_14: "f16[1, 1, 14336][14336, 14336, 1]cuda:0" = torch.ops.aten.mul.Tensor(convert_element_type_19, view_35);  convert_element_type_19 = view_35 = None
        view_36: "f16[1, 14336][14336, 1]cuda:0" = torch.ops.aten.reshape.default(mul_14, [1, 14336]);  mul_14 = None
        convert_element_type_23: "f32[1, 14336][14336, 1]cuda:0" = torch.ops.prims.convert_element_type.default(view_36, torch.float32);  view_36 = None
        unsqueeze_24: "f32[1, 14336, 1][14336, 1, 1]cuda:0" = torch.ops.aten.unsqueeze.default(convert_element_type_23, 2);  convert_element_type_23 = None
        permute_11: "f16[14336, 4096][1, 14336]cuda:0" = torch.ops.aten.permute.default(arg16_1, [1, 0]);  arg16_1 = None
        convert_element_type_24: "f32[14336, 4096][1, 14336]cuda:0" = torch.ops.prims.convert_element_type.default(permute_11, torch.float32);  permute_11 = None
        unsqueeze_25: "f32[1, 14336, 4096][14336, 1, 14336]cuda:0" = torch.ops.aten.unsqueeze.default(convert_element_type_24, 0);  convert_element_type_24 = None
        mul_15: "f32[1, 14336, 4096][14336, 1, 14336]cuda:0" = torch.ops.aten.mul.Tensor(unsqueeze_24, unsqueeze_25);  unsqueeze_24 = unsqueeze_25 = None
        sum_8: "f32[1, 4096][4096, 1]cuda:0" = torch.ops.aten.sum.dim_IntList(mul_15, [1]);  mul_15 = None
        convert_element_type_25: "f16[1, 4096][4096, 1]cuda:0" = torch.ops.prims.convert_element_type.default(sum_8, torch.float16);  sum_8 = None
        view_37: "f16[1, 1, 4096][4096, 4096, 1]cuda:0" = torch.ops.aten.reshape.default(convert_element_type_25, [1, 1, 4096]);  convert_element_type_25 = None
        
         # File: /app/low_bit_inference/model.py:279 in forward, code: hidden_states = residual + hidden_states
        add_3: "f16[1, 1, 4096][4096, 4096, 1]cuda:0" = torch.ops.aten.add.Tensor(add_2, view_37);  add_2 = view_37 = None
        
         # File: /app/low_bit_inference/optims/rms_norm_kernels/liger_rms_norm.py:443 in rms_norm_forward, code: X = X.view(-1, dim)
        view_38: "f16[1, 4096][4096, 1]cuda:0" = torch.ops.aten.reshape.default(add_3, [-1, 4096])
        
         # File: /app/low_bit_inference/optims/rms_norm_kernels/liger_rms_norm.py:451 in rms_norm_forward, code: RSTD = torch.empty(n_rows, dtype=rstd_dtype, device=X.device)
        empty_5: "f32[1][1]cuda:0" = torch.ops.aten.empty.memory_format([1], dtype = torch.float32, device = device(type='cuda', index=0), pin_memory = False)
        
         # File: /app/low_bit_inference/optims/rms_norm_kernels/liger_rms_norm.py:461 in rms_norm_forward, code: _rms_norm_forward_kernel[(n_rows,)](
        triton_kernel_wrapper_functional_proxy_2 = torch.ops.higher_order.triton_kernel_wrapper_functional(kernel_idx = 198, constant_args_idx = 197, grid = [(1, 1, 1)], tma_descriptor_metadata = {}, kwargs = {'Y_ptr': empty_4, 'X_ptr': view_38, 'W_ptr': arg17_1, 'RSTD_ptr': empty_5}, tensors_to_clone = ['Y_ptr', 'RSTD_ptr']);  empty_4 = view_38 = arg17_1 = empty_5 = None
        getitem_8: "f16[1, 4096][4096, 1]cuda:0" = triton_kernel_wrapper_functional_proxy_2['Y_ptr'];  triton_kernel_wrapper_functional_proxy_2 = None
        
         # File: /app/low_bit_inference/model.py:206 in forward, code: query_states = self.q_proj(hidden_states).view(hidden_shape).transpose(1, 2)
        convert_element_type_26: "f32[1, 4096][4096, 1]cuda:0" = torch.ops.prims.convert_element_type.default(getitem_8, torch.float32)
        unsqueeze_26: "f32[1, 4096, 1][4096, 1, 1]cuda:0" = torch.ops.aten.unsqueeze.default(convert_element_type_26, 2);  convert_element_type_26 = None
        permute_12: "f16[4096, 4096][1, 4096]cuda:0" = torch.ops.aten.permute.default(arg18_1, [1, 0]);  arg18_1 = None
        convert_element_type_27: "f32[4096, 4096][1, 4096]cuda:0" = torch.ops.prims.convert_element_type.default(permute_12, torch.float32);  permute_12 = None
        unsqueeze_27: "f32[1, 4096, 4096][4096, 1, 4096]cuda:0" = torch.ops.aten.unsqueeze.default(convert_element_type_27, 0);  convert_element_type_27 = None
        mul_16: "f32[1, 4096, 4096][4096, 1, 4096]cuda:0" = torch.ops.aten.mul.Tensor(unsqueeze_26, unsqueeze_27);  unsqueeze_26 = unsqueeze_27 = None
        sum_9: "f32[1, 4096][4096, 1]cuda:0" = torch.ops.aten.sum.dim_IntList(mul_16, [1]);  mul_16 = None
        convert_element_type_28: "f16[1, 4096][4096, 1]cuda:0" = torch.ops.prims.convert_element_type.default(sum_9, torch.float16);  sum_9 = None
        view_43: "f16[1, 1, 4096][4096, 4096, 1]cuda:0" = torch.ops.aten.reshape.default(convert_element_type_28, [1, 1, 4096]);  convert_element_type_28 = None
        view_44: "f16[1, 1, 32, 128][4096, 4096, 128, 1]cuda:0" = torch.ops.aten.reshape.default(view_43, [1, 1, -1, 128]);  view_43 = None
        permute_13: "f16[1, 32, 1, 128][4096, 128, 4096, 1]cuda:0" = torch.ops.aten.permute.default(view_44, [0, 2, 1, 3]);  view_44 = None
        
         # File: /app/low_bit_inference/model.py:105 in apply_rotary_pos_emb, code: cos = cos.unsqueeze(unsqueeze_dim)
        unsqueeze_32: "f16[1, 1, 1, 128][128, 128, 128, 1]cuda:0" = torch.ops.aten.unsqueeze.default(convert_element_type_1, 1)
        
         # File: /app/low_bit_inference/model.py:107 in apply_rotary_pos_emb, code: q_embed = (q * cos) + (rotate_half(q) * sin)
        mul_19: "f16[1, 32, 1, 128][4096, 128, 4096, 1]cuda:0" = torch.ops.aten.mul.Tensor(permute_13, unsqueeze_32)
        
         # File: /app/low_bit_inference/model.py:81 in rotate_half, code: x2 = x[..., x.shape[-1] // 2 :]
        slice_28: "f16[1, 32, 1, 64][4096, 128, 4096, 1]cuda:0" = torch.ops.aten.slice.Tensor(permute_13, 3, 64, 9223372036854775807)
        
         # File: /app/low_bit_inference/model.py:82 in rotate_half, code: return torch.cat((-x2, x1), dim=-1)
        neg_2: "f16[1, 32, 1, 64][2048, 64, 64, 1]cuda:0" = torch.ops.aten.neg.default(slice_28);  slice_28 = None
        
         # File: /app/low_bit_inference/model.py:80 in rotate_half, code: x1 = x[..., : x.shape[-1] // 2]
        slice_27: "f16[1, 32, 1, 64][4096, 128, 4096, 1]cuda:0" = torch.ops.aten.slice.Tensor(permute_13, 3, 0, 64);  permute_13 = None
        
         # File: /app/low_bit_inference/model.py:82 in rotate_half, code: return torch.cat((-x2, x1), dim=-1)
        cat_2: "f16[1, 32, 1, 128][4096, 128, 128, 1]cuda:0" = torch.ops.aten.cat.default([neg_2, slice_27], -1);  neg_2 = slice_27 = None
        
         # File: /app/low_bit_inference/model.py:106 in apply_rotary_pos_emb, code: sin = sin.unsqueeze(unsqueeze_dim)
        unsqueeze_33: "f16[1, 1, 1, 128][128, 128, 128, 1]cuda:0" = torch.ops.aten.unsqueeze.default(convert_element_type_2, 1)
        
         # File: /app/low_bit_inference/model.py:107 in apply_rotary_pos_emb, code: q_embed = (q * cos) + (rotate_half(q) * sin)
        mul_20: "f16[1, 32, 1, 128][4096, 128, 128, 1]cuda:0" = torch.ops.aten.mul.Tensor(cat_2, unsqueeze_33);  cat_2 = None
        add_4: "f16[1, 32, 1, 128][4096, 128, 128, 1]cuda:0" = torch.ops.aten.add.Tensor(mul_19, mul_20);  mul_19 = mul_20 = None
        
         # File: /app/low_bit_inference/model.py:207 in forward, code: key_states = self.k_proj(hidden_states).view(hidden_shape).transpose(1, 2)
        convert_element_type_29: "f32[1, 4096][4096, 1]cuda:0" = torch.ops.prims.convert_element_type.default(getitem_8, torch.float32)
        unsqueeze_28: "f32[1, 4096, 1][4096, 1, 1]cuda:0" = torch.ops.aten.unsqueeze.default(convert_element_type_29, 2);  convert_element_type_29 = None
        permute_14: "f16[4096, 1024][1, 4096]cuda:0" = torch.ops.aten.permute.default(arg19_1, [1, 0]);  arg19_1 = None
        convert_element_type_30: "f32[4096, 1024][1, 4096]cuda:0" = torch.ops.prims.convert_element_type.default(permute_14, torch.float32);  permute_14 = None
        unsqueeze_29: "f32[1, 4096, 1024][4096, 1, 4096]cuda:0" = torch.ops.aten.unsqueeze.default(convert_element_type_30, 0);  convert_element_type_30 = None
        mul_17: "f32[1, 4096, 1024][4096, 1, 4096]cuda:0" = torch.ops.aten.mul.Tensor(unsqueeze_28, unsqueeze_29);  unsqueeze_28 = unsqueeze_29 = None
        sum_10: "f32[1, 1024][1024, 1]cuda:0" = torch.ops.aten.sum.dim_IntList(mul_17, [1]);  mul_17 = None
        convert_element_type_31: "f16[1, 1024][1024, 1]cuda:0" = torch.ops.prims.convert_element_type.default(sum_10, torch.float16);  sum_10 = None
        view_48: "f16[1, 1, 1024][1024, 1024, 1]cuda:0" = torch.ops.aten.reshape.default(convert_element_type_31, [1, 1, 1024]);  convert_element_type_31 = None
        view_49: "f16[1, 1, 8, 128][1024, 1024, 128, 1]cuda:0" = torch.ops.aten.reshape.default(view_48, [1, 1, -1, 128]);  view_48 = None
        permute_15: "f16[1, 8, 1, 128][1024, 128, 1024, 1]cuda:0" = torch.ops.aten.permute.default(view_49, [0, 2, 1, 3]);  view_49 = None
        
         # File: /app/low_bit_inference/model.py:108 in apply_rotary_pos_emb, code: k_embed = (k * cos) + (rotate_half(k) * sin)
        mul_21: "f16[1, 8, 1, 128][1024, 128, 1024, 1]cuda:0" = torch.ops.aten.mul.Tensor(permute_15, unsqueeze_32);  unsqueeze_32 = None
        
         # File: /app/low_bit_inference/model.py:81 in rotate_half, code: x2 = x[..., x.shape[-1] // 2 :]
        slice_30: "f16[1, 8, 1, 64][1024, 128, 1024, 1]cuda:0" = torch.ops.aten.slice.Tensor(permute_15, 3, 64, 9223372036854775807)
        
         # File: /app/low_bit_inference/model.py:82 in rotate_half, code: return torch.cat((-x2, x1), dim=-1)
        neg_3: "f16[1, 8, 1, 64][512, 64, 64, 1]cuda:0" = torch.ops.aten.neg.default(slice_30);  slice_30 = None
        
         # File: /app/low_bit_inference/model.py:80 in rotate_half, code: x1 = x[..., : x.shape[-1] // 2]
        slice_29: "f16[1, 8, 1, 64][1024, 128, 1024, 1]cuda:0" = torch.ops.aten.slice.Tensor(permute_15, 3, 0, 64);  permute_15 = None
        
         # File: /app/low_bit_inference/model.py:82 in rotate_half, code: return torch.cat((-x2, x1), dim=-1)
        cat_3: "f16[1, 8, 1, 128][1024, 128, 128, 1]cuda:0" = torch.ops.aten.cat.default([neg_3, slice_29], -1);  neg_3 = slice_29 = None
        
         # File: /app/low_bit_inference/model.py:108 in apply_rotary_pos_emb, code: k_embed = (k * cos) + (rotate_half(k) * sin)
        mul_22: "f16[1, 8, 1, 128][1024, 128, 128, 1]cuda:0" = torch.ops.aten.mul.Tensor(cat_3, unsqueeze_33);  cat_3 = unsqueeze_33 = None
        add_5: "f16[1, 8, 1, 128][1024, 128, 128, 1]cuda:0" = torch.ops.aten.add.Tensor(mul_21, mul_22);  mul_21 = mul_22 = None
        
         # File: /app/low_bit_inference/optims/cache_optim.py:156 in update, code: self.keys.index_copy_(2, cache_position, key_states)
        index_put_2: "f16[1, 8, 2048, 128][2097152, 262144, 128, 1]cuda:0" = torch.ops.aten.index_put.default(arg21_1, [None, None, arg2_1], add_5);  add_5 = None
        
         # File: /app/.venv/lib/python3.12/site-packages/transformers/integrations/sdpa_attention.py:15 in repeat_kv, code: return hidden_states.reshape(batch, num_key_value_heads * n_rep, slen, head_dim)
        unsqueeze_35: "f16[1, 8, 1, 2048, 128][2097152, 262144, 262144, 128, 1]cuda:0" = torch.ops.aten.unsqueeze.default(index_put_2, 2)
        expand_10: "f16[1, 8, 4, 2048, 128][2097152, 262144, 0, 128, 1]cuda:0" = torch.ops.aten.expand.default(unsqueeze_35, [1, 8, 4, 2048, 128]);  unsqueeze_35 = None
        clone_4: "f16[1, 8, 4, 2048, 128][8388608, 1048576, 262144, 128, 1]cuda:0" = torch.ops.aten.clone.default(expand_10, memory_format = torch.contiguous_format);  expand_10 = None
        view_55: "f16[1, 32, 2048, 128][8388608, 262144, 128, 1]cuda:0" = torch.ops.aten.reshape.default(clone_4, [1, 32, 2048, 128]);  clone_4 = None
        
         # File: /app/low_bit_inference/model.py:208 in forward, code: value_states = self.v_proj(hidden_states).view(hidden_shape).transpose(1, 2)
        convert_element_type_32: "f32[1, 4096][4096, 1]cuda:0" = torch.ops.prims.convert_element_type.default(getitem_8, torch.float32);  getitem_8 = None
        unsqueeze_30: "f32[1, 4096, 1][4096, 1, 1]cuda:0" = torch.ops.aten.unsqueeze.default(convert_element_type_32, 2);  convert_element_type_32 = None
        permute_16: "f16[4096, 1024][1, 4096]cuda:0" = torch.ops.aten.permute.default(arg20_1, [1, 0]);  arg20_1 = None
        convert_element_type_33: "f32[4096, 1024][1, 4096]cuda:0" = torch.ops.prims.convert_element_type.default(permute_16, torch.float32);  permute_16 = None
        unsqueeze_31: "f32[1, 4096, 1024][4096, 1, 4096]cuda:0" = torch.ops.aten.unsqueeze.default(convert_element_type_33, 0);  convert_element_type_33 = None
        mul_18: "f32[1, 4096, 1024][4096, 1, 4096]cuda:0" = torch.ops.aten.mul.Tensor(unsqueeze_30, unsqueeze_31);  unsqueeze_30 = unsqueeze_31 = None
        sum_11: "f32[1, 1024][1024, 1]cuda:0" = torch.ops.aten.sum.dim_IntList(mul_18, [1]);  mul_18 = None
        convert_element_type_34: "f16[1, 1024][1024, 1]cuda:0" = torch.ops.prims.convert_element_type.default(sum_11, torch.float16);  sum_11 = None
        view_53: "f16[1, 1, 1024][1024, 1024, 1]cuda:0" = torch.ops.aten.reshape.default(convert_element_type_34, [1, 1, 1024]);  convert_element_type_34 = None
        view_54: "f16[1, 1, 8, 128][1024, 1024, 128, 1]cuda:0" = torch.ops.aten.reshape.default(view_53, [1, 1, -1, 128]);  view_53 = None
        permute_17: "f16[1, 8, 1, 128][1024, 128, 1024, 1]cuda:0" = torch.ops.aten.permute.default(view_54, [0, 2, 1, 3]);  view_54 = None
        
         # File: /app/low_bit_inference/optims/cache_optim.py:157 in update, code: self.values.index_copy_(2, cache_position, value_states)
        index_put_3: "f16[1, 8, 2048, 128][2097152, 262144, 128, 1]cuda:0" = torch.ops.aten.index_put.default(arg22_1, [None, None, arg2_1], permute_17);  permute_17 = None
        
         # File: /app/.venv/lib/python3.12/site-packages/transformers/integrations/sdpa_attention.py:15 in repeat_kv, code: return hidden_states.reshape(batch, num_key_value_heads * n_rep, slen, head_dim)
        unsqueeze_37: "f16[1, 8, 1, 2048, 128][2097152, 262144, 262144, 128, 1]cuda:0" = torch.ops.aten.unsqueeze.default(index_put_3, 2)
        expand_12: "f16[1, 8, 4, 2048, 128][2097152, 262144, 0, 128, 1]cuda:0" = torch.ops.aten.expand.default(unsqueeze_37, [1, 8, 4, 2048, 128]);  unsqueeze_37 = None
        clone_5: "f16[1, 8, 4, 2048, 128][8388608, 1048576, 262144, 128, 1]cuda:0" = torch.ops.aten.clone.default(expand_12, memory_format = torch.contiguous_format);  expand_12 = None
        view_56: "f16[1, 32, 2048, 128][8388608, 262144, 128, 1]cuda:0" = torch.ops.aten.reshape.default(clone_5, [1, 32, 2048, 128]);  clone_5 = None
        
         # File: /app/.venv/lib/python3.12/site-packages/transformers/integrations/sdpa_attention.py:54 in sdpa_attention_forward, code: attn_output = torch.nn.functional.scaled_dot_product_attention(
        full_default_3: "f16[][]cuda:0" = torch.ops.aten.full.default([], 0.0, dtype = torch.float16, layout = torch.strided, device = device(type='cuda', index=0), pin_memory = False)
        full_default_2: "f16[][]cuda:0" = torch.ops.aten.full.default([], -inf, dtype = torch.float16, layout = torch.strided, device = device(type='cuda', index=0), pin_memory = False)
        where_1: "f16[1, 1, 1, 2048][2048, 2048, 2048, 1]cuda:0" = torch.ops.aten.where.self(arg4_1, full_default_3, full_default_2);  full_default_3 = full_default_2 = None
        expand_13: "f16[1, 32, 1, 2048][2048, 0, 2048, 1]cuda:0" = torch.ops.aten.expand.default(where_1, [1, 32, 1, 2048]);  where_1 = None
        _scaled_dot_product_efficient_attention_1 = torch.ops.aten._scaled_dot_product_efficient_attention.default(add_4, view_55, view_56, expand_13, False, scale = 0.08838834764831845);  add_4 = view_55 = view_56 = expand_13 = None
        getitem_10: "f16[1, 32, 1, 128][4096, 128, 4096, 1]cuda:0" = _scaled_dot_product_efficient_attention_1[0];  _scaled_dot_product_efficient_attention_1 = None
        
         # File: /app/low_bit_inference/optims/rms_norm_kernels/liger_rms_norm.py:447 in rms_norm_forward, code: Y = torch.empty((n_rows, n_cols), dtype=X.dtype, device=X.device)
        empty_6: "f16[1, 4096][4096, 1]cuda:0" = torch.ops.aten.empty.memory_format([1, 4096], dtype = torch.float16, device = device(type='cuda', index=0), pin_memory = False)
        
         # File: /app/.venv/lib/python3.12/site-packages/transformers/integrations/sdpa_attention.py:63 in sdpa_attention_forward, code: attn_output = attn_output.transpose(1, 2).contiguous()
        permute_18: "f16[1, 1, 32, 128][4096, 4096, 128, 1]cuda:0" = torch.ops.aten.permute.default(getitem_10, [0, 2, 1, 3]);  getitem_10 = None
        
         # File: /app/low_bit_inference/model.py:233 in forward, code: attn_output = attn_output.reshape(*input_shape, -1).contiguous()
        view_57: "f16[1, 1, 4096][4096, 4096, 1]cuda:0" = torch.ops.aten.reshape.default(permute_18, [1, 1, -1]);  permute_18 = None
        
         # File: /app/low_bit_inference/model.py:234 in forward, code: attn_output = self.o_proj(attn_output)
        view_58: "f16[1, 4096][4096, 1]cuda:0" = torch.ops.aten.reshape.default(view_57, [1, 4096]);  view_57 = None
        convert_element_type_35: "f32[1, 4096][4096, 1]cuda:0" = torch.ops.prims.convert_element_type.default(view_58, torch.float32);  view_58 = None
        unsqueeze_38: "f32[1, 4096, 1][4096, 1, 1]cuda:0" = torch.ops.aten.unsqueeze.default(convert_element_type_35, 2);  convert_element_type_35 = None
        permute_19: "f16[4096, 4096][1, 4096]cuda:0" = torch.ops.aten.permute.default(arg23_1, [1, 0]);  arg23_1 = None
        convert_element_type_36: "f32[4096, 4096][1, 4096]cuda:0" = torch.ops.prims.convert_element_type.default(permute_19, torch.float32);  permute_19 = None
        unsqueeze_39: "f32[1, 4096, 4096][4096, 1, 4096]cuda:0" = torch.ops.aten.unsqueeze.default(convert_element_type_36, 0);  convert_element_type_36 = None
        mul_23: "f32[1, 4096, 4096][4096, 1, 4096]cuda:0" = torch.ops.aten.mul.Tensor(unsqueeze_38, unsqueeze_39);  unsqueeze_38 = unsqueeze_39 = None
        sum_12: "f32[1, 4096][4096, 1]cuda:0" = torch.ops.aten.sum.dim_IntList(mul_23, [1]);  mul_23 = None
        convert_element_type_37: "f16[1, 4096][4096, 1]cuda:0" = torch.ops.prims.convert_element_type.default(sum_12, torch.float16);  sum_12 = None
        view_59: "f16[1, 1, 4096][4096, 4096, 1]cuda:0" = torch.ops.aten.reshape.default(convert_element_type_37, [1, 1, 4096]);  convert_element_type_37 = None
        
         # File: /app/low_bit_inference/model.py:273 in forward, code: hidden_states = residual + hidden_states
        add_6: "f16[1, 1, 4096][4096, 4096, 1]cuda:0" = torch.ops.aten.add.Tensor(add_3, view_59);  add_3 = view_59 = None
        
         # File: /app/low_bit_inference/optims/rms_norm_kernels/liger_rms_norm.py:443 in rms_norm_forward, code: X = X.view(-1, dim)
        view_60: "f16[1, 4096][4096, 1]cuda:0" = torch.ops.aten.reshape.default(add_6, [-1, 4096])
        
         # File: /app/low_bit_inference/optims/rms_norm_kernels/liger_rms_norm.py:451 in rms_norm_forward, code: RSTD = torch.empty(n_rows, dtype=rstd_dtype, device=X.device)
        empty_7: "f32[1][1]cuda:0" = torch.ops.aten.empty.memory_format([1], dtype = torch.float32, device = device(type='cuda', index=0), pin_memory = False)
        
         # File: /app/low_bit_inference/optims/rms_norm_kernels/liger_rms_norm.py:461 in rms_norm_forward, code: _rms_norm_forward_kernel[(n_rows,)](
        triton_kernel_wrapper_functional_proxy_3 = torch.ops.higher_order.triton_kernel_wrapper_functional(kernel_idx = 199, constant_args_idx = 198, grid = [(1, 1, 1)], tma_descriptor_metadata = {}, kwargs = {'Y_ptr': empty_6, 'X_ptr': view_60, 'W_ptr': arg24_1, 'RSTD_ptr': empty_7}, tensors_to_clone = ['Y_ptr', 'RSTD_ptr']);  empty_6 = view_60 = arg24_1 = empty_7 = None
        getitem_14: "f16[1, 4096][4096, 1]cuda:0" = triton_kernel_wrapper_functional_proxy_3['Y_ptr'];  triton_kernel_wrapper_functional_proxy_3 = None
        
         # File: /app/low_bit_inference/optims/rms_norm_kernels/liger_rms_norm.py:447 in rms_norm_forward, code: Y = torch.empty((n_rows, n_cols), dtype=X.dtype, device=X.device)
        empty_8: "f16[1, 4096][4096, 1]cuda:0" = torch.ops.aten.empty.memory_format([1, 4096], dtype = torch.float16, device = device(type='cuda', index=0), pin_memory = False)
        
         # File: /app/low_bit_inference/model.py:124 in forward, code: down_proj = self.down_proj(self.act_fn(self.gate_proj(x)) * self.up_proj(x))
        convert_element_type_38: "f32[1, 4096][4096, 1]cuda:0" = torch.ops.prims.convert_element_type.default(getitem_14, torch.float32)
        unsqueeze_40: "f32[1, 4096, 1][4096, 1, 1]cuda:0" = torch.ops.aten.unsqueeze.default(convert_element_type_38, 2);  convert_element_type_38 = None
        permute_20: "f16[4096, 14336][1, 4096]cuda:0" = torch.ops.aten.permute.default(arg25_1, [1, 0]);  arg25_1 = None
        convert_element_type_39: "f32[4096, 14336][1, 4096]cuda:0" = torch.ops.prims.convert_element_type.default(permute_20, torch.float32);  permute_20 = None
        unsqueeze_41: "f32[1, 4096, 14336][4096, 1, 4096]cuda:0" = torch.ops.aten.unsqueeze.default(convert_element_type_39, 0);  convert_element_type_39 = None
        mul_24: "f32[1, 4096, 14336][4096, 1, 4096]cuda:0" = torch.ops.aten.mul.Tensor(unsqueeze_40, unsqueeze_41);  unsqueeze_40 = unsqueeze_41 = None
        sum_13: "f32[1, 14336][14336, 1]cuda:0" = torch.ops.aten.sum.dim_IntList(mul_24, [1]);  mul_24 = None
        convert_element_type_40: "f16[1, 14336][14336, 1]cuda:0" = torch.ops.prims.convert_element_type.default(sum_13, torch.float16);  sum_13 = None
        view_65: "f16[1, 1, 14336][14336, 14336, 1]cuda:0" = torch.ops.aten.reshape.default(convert_element_type_40, [1, 1, 14336]);  convert_element_type_40 = None
        convert_element_type_41: "f32[1, 1, 14336][14336, 14336, 1]cuda:0" = torch.ops.prims.convert_element_type.default(view_65, torch.float32);  view_65 = None
        sigmoid_1: "f32[1, 1, 14336][14336, 14336, 1]cuda:0" = torch.ops.aten.sigmoid.default(convert_element_type_41)
        mul_25: "f32[1, 1, 14336][14336, 14336, 1]cuda:0" = torch.ops.aten.mul.Tensor(convert_element_type_41, sigmoid_1);  convert_element_type_41 = sigmoid_1 = None
        convert_element_type_42: "f16[1, 1, 14336][14336, 14336, 1]cuda:0" = torch.ops.prims.convert_element_type.default(mul_25, torch.float16);  mul_25 = None
        convert_element_type_43: "f32[1, 4096][4096, 1]cuda:0" = torch.ops.prims.convert_element_type.default(getitem_14, torch.float32);  getitem_14 = None
        unsqueeze_42: "f32[1, 4096, 1][4096, 1, 1]cuda:0" = torch.ops.aten.unsqueeze.default(convert_element_type_43, 2);  convert_element_type_43 = None
        permute_21: "f16[4096, 14336][1, 4096]cuda:0" = torch.ops.aten.permute.default(arg26_1, [1, 0]);  arg26_1 = None
        convert_element_type_44: "f32[4096, 14336][1, 4096]cuda:0" = torch.ops.prims.convert_element_type.default(permute_21, torch.float32);  permute_21 = None
        unsqueeze_43: "f32[1, 4096, 14336][4096, 1, 4096]cuda:0" = torch.ops.aten.unsqueeze.default(convert_element_type_44, 0);  convert_element_type_44 = None
        mul_26: "f32[1, 4096, 14336][4096, 1, 4096]cuda:0" = torch.ops.aten.mul.Tensor(unsqueeze_42, unsqueeze_43);  unsqueeze_42 = unsqueeze_43 = None
        sum_14: "f32[1, 14336][14336, 1]cuda:0" = torch.ops.aten.sum.dim_IntList(mul_26, [1]);  mul_26 = None
        convert_element_type_45: "f16[1, 14336][14336, 1]cuda:0" = torch.ops.prims.convert_element_type.default(sum_14, torch.float16);  sum_14 = None
        view_69: "f16[1, 1, 14336][14336, 14336, 1]cuda:0" = torch.ops.aten.reshape.default(convert_element_type_45, [1, 1, 14336]);  convert_element_type_45 = None
        mul_27: "f16[1, 1, 14336][14336, 14336, 1]cuda:0" = torch.ops.aten.mul.Tensor(convert_element_type_42, view_69);  convert_element_type_42 = view_69 = None
        view_70: "f16[1, 14336][14336, 1]cuda:0" = torch.ops.aten.reshape.default(mul_27, [1, 14336]);  mul_27 = None
        convert_element_type_46: "f32[1, 14336][14336, 1]cuda:0" = torch.ops.prims.convert_element_type.default(view_70, torch.float32);  view_70 = None
        unsqueeze_44: "f32[1, 14336, 1][14336, 1, 1]cuda:0" = torch.ops.aten.unsqueeze.default(convert_element_type_46, 2);  convert_element_type_46 = None
        permute_22: "f16[14336, 4096][1, 14336]cuda:0" = torch.ops.aten.permute.default(arg27_1, [1, 0]);  arg27_1 = None
        convert_element_type_47: "f32[14336, 4096][1, 14336]cuda:0" = torch.ops.prims.convert_element_type.default(permute_22, torch.float32);  permute_22 = None
        unsqueeze_45: "f32[1, 14336, 4096][14336, 1, 14336]cuda:0" = torch.ops.aten.unsqueeze.default(convert_element_type_47, 0);  convert_element_type_47 = None
        mul_28: "f32[1, 14336, 4096][14336, 1, 14336]cuda:0" = torch.ops.aten.mul.Tensor(unsqueeze_44, unsqueeze_45);  unsqueeze_44 = unsqueeze_45 = None
        sum_15: "f32[1, 4096][4096, 1]cuda:0" = torch.ops.aten.sum.dim_IntList(mul_28, [1]);  mul_28 = None
        convert_element_type_48: "f16[1, 4096][4096, 1]cuda:0" = torch.ops.prims.convert_element_type.default(sum_15, torch.float16);  sum_15 = None
        view_71: "f16[1, 1, 4096][4096, 4096, 1]cuda:0" = torch.ops.aten.reshape.default(convert_element_type_48, [1, 1, 4096]);  convert_element_type_48 = None
        
         # File: /app/low_bit_inference/model.py:279 in forward, code: hidden_states = residual + hidden_states
        add_7: "f16[1, 1, 4096][4096, 4096, 1]cuda:0" = torch.ops.aten.add.Tensor(add_6, view_71);  add_6 = view_71 = None
        
         # File: /app/low_bit_inference/optims/rms_norm_kernels/liger_rms_norm.py:443 in rms_norm_forward, code: X = X.view(-1, dim)
        view_72: "f16[1, 4096][4096, 1]cuda:0" = torch.ops.aten.reshape.default(add_7, [-1, 4096])
        
         # File: /app/low_bit_inference/optims/rms_norm_kernels/liger_rms_norm.py:451 in rms_norm_forward, code: RSTD = torch.empty(n_rows, dtype=rstd_dtype, device=X.device)
        empty_9: "f32[1][1]cuda:0" = torch.ops.aten.empty.memory_format([1], dtype = torch.float32, device = device(type='cuda', index=0), pin_memory = False)
        
         # File: /app/low_bit_inference/optims/rms_norm_kernels/liger_rms_norm.py:461 in rms_norm_forward, code: _rms_norm_forward_kernel[(n_rows,)](
        triton_kernel_wrapper_functional_proxy_4 = torch.ops.higher_order.triton_kernel_wrapper_functional(kernel_idx = 200, constant_args_idx = 199, grid = [(1, 1, 1)], tma_descriptor_metadata = {}, kwargs = {'Y_ptr': empty_8, 'X_ptr': view_72, 'W_ptr': arg28_1, 'RSTD_ptr': empty_9}, tensors_to_clone = ['Y_ptr', 'RSTD_ptr']);  empty_8 = view_72 = arg28_1 = empty_9 = None
        getitem_16: "f16[1, 4096][4096, 1]cuda:0" = triton_kernel_wrapper_functional_proxy_4['Y_ptr'];  triton_kernel_wrapper_functional_proxy_4 = None
        
         # File: /app/low_bit_inference/model.py:206 in forward, code: query_states = self.q_proj(hidden_states).view(hidden_shape).transpose(1, 2)
        convert_element_type_49: "f32[1, 4096][4096, 1]cuda:0" = torch.ops.prims.convert_element_type.default(getitem_16, torch.float32)
        unsqueeze_46: "f32[1, 4096, 1][4096, 1, 1]cuda:0" = torch.ops.aten.unsqueeze.default(convert_element_type_49, 2);  convert_element_type_49 = None
        permute_23: "f16[4096, 4096][1, 4096]cuda:0" = torch.ops.aten.permute.default(arg29_1, [1, 0]);  arg29_1 = None
        convert_element_type_50: "f32[4096, 4096][1, 4096]cuda:0" = torch.ops.prims.convert_element_type.default(permute_23, torch.float32);  permute_23 = None
        unsqueeze_47: "f32[1, 4096, 4096][4096, 1, 4096]cuda:0" = torch.ops.aten.unsqueeze.default(convert_element_type_50, 0);  convert_element_type_50 = None
        mul_29: "f32[1, 4096, 4096][4096, 1, 4096]cuda:0" = torch.ops.aten.mul.Tensor(unsqueeze_46, unsqueeze_47);  unsqueeze_46 = unsqueeze_47 = None
        sum_16: "f32[1, 4096][4096, 1]cuda:0" = torch.ops.aten.sum.dim_IntList(mul_29, [1]);  mul_29 = None
        convert_element_type_51: "f16[1, 4096][4096, 1]cuda:0" = torch.ops.prims.convert_element_type.default(sum_16, torch.float16);  sum_16 = None
        view_77: "f16[1, 1, 4096][4096, 4096, 1]cuda:0" = torch.ops.aten.reshape.default(convert_element_type_51, [1, 1, 4096]);  convert_element_type_51 = None
        view_78: "f16[1, 1, 32, 128][4096, 4096, 128, 1]cuda:0" = torch.ops.aten.reshape.default(view_77, [1, 1, -1, 128]);  view_77 = None
        permute_24: "f16[1, 32, 1, 128][4096, 128, 4096, 1]cuda:0" = torch.ops.aten.permute.default(view_78, [0, 2, 1, 3]);  view_78 = None
        
         # File: /app/low_bit_inference/model.py:105 in apply_rotary_pos_emb, code: cos = cos.unsqueeze(unsqueeze_dim)
        unsqueeze_52: "f16[1, 1, 1, 128][128, 128, 128, 1]cuda:0" = torch.ops.aten.unsqueeze.default(convert_element_type_1, 1)
        
         # File: /app/low_bit_inference/model.py:107 in apply_rotary_pos_emb, code: q_embed = (q * cos) + (rotate_half(q) * sin)
        mul_32: "f16[1, 32, 1, 128][4096, 128, 4096, 1]cuda:0" = torch.ops.aten.mul.Tensor(permute_24, unsqueeze_52)
        
         # File: /app/low_bit_inference/model.py:81 in rotate_half, code: x2 = x[..., x.shape[-1] // 2 :]
        slice_51: "f16[1, 32, 1, 64][4096, 128, 4096, 1]cuda:0" = torch.ops.aten.slice.Tensor(permute_24, 3, 64, 9223372036854775807)
        
         # File: /app/low_bit_inference/model.py:82 in rotate_half, code: return torch.cat((-x2, x1), dim=-1)
        neg_4: "f16[1, 32, 1, 64][2048, 64, 64, 1]cuda:0" = torch.ops.aten.neg.default(slice_51);  slice_51 = None
        
         # File: /app/low_bit_inference/model.py:80 in rotate_half, code: x1 = x[..., : x.shape[-1] // 2]
        slice_50: "f16[1, 32, 1, 64][4096, 128, 4096, 1]cuda:0" = torch.ops.aten.slice.Tensor(permute_24, 3, 0, 64);  permute_24 = None
        
         # File: /app/low_bit_inference/model.py:82 in rotate_half, code: return torch.cat((-x2, x1), dim=-1)
        cat_4: "f16[1, 32, 1, 128][4096, 128, 128, 1]cuda:0" = torch.ops.aten.cat.default([neg_4, slice_50], -1);  neg_4 = slice_50 = None
        
         # File: /app/low_bit_inference/model.py:106 in apply_rotary_pos_emb, code: sin = sin.unsqueeze(unsqueeze_dim)
        unsqueeze_53: "f16[1, 1, 1, 128][128, 128, 128, 1]cuda:0" = torch.ops.aten.unsqueeze.default(convert_element_type_2, 1)
        
         # File: /app/low_bit_inference/model.py:107 in apply_rotary_pos_emb, code: q_embed = (q * cos) + (rotate_half(q) * sin)
        mul_33: "f16[1, 32, 1, 128][4096, 128, 128, 1]cuda:0" = torch.ops.aten.mul.Tensor(cat_4, unsqueeze_53);  cat_4 = None
        add_8: "f16[1, 32, 1, 128][4096, 128, 128, 1]cuda:0" = torch.ops.aten.add.Tensor(mul_32, mul_33);  mul_32 = mul_33 = None
        
         # File: /app/low_bit_inference/model.py:207 in forward, code: key_states = self.k_proj(hidden_states).view(hidden_shape).transpose(1, 2)
        convert_element_type_52: "f32[1, 4096][4096, 1]cuda:0" = torch.ops.prims.convert_element_type.default(getitem_16, torch.float32)
        unsqueeze_48: "f32[1, 4096, 1][4096, 1, 1]cuda:0" = torch.ops.aten.unsqueeze.default(convert_element_type_52, 2);  convert_element_type_52 = None
        permute_25: "f16[4096, 1024][1, 4096]cuda:0" = torch.ops.aten.permute.default(arg30_1, [1, 0]);  arg30_1 = None
        convert_element_type_53: "f32[4096, 1024][1, 4096]cuda:0" = torch.ops.prims.convert_element_type.default(permute_25, torch.float32);  permute_25 = None
        unsqueeze_49: "f32[1, 4096, 1024][4096, 1, 4096]cuda:0" = torch.ops.aten.unsqueeze.default(convert_element_type_53, 0);  convert_element_type_53 = None
        mul_30: "f32[1, 4096, 1024][4096, 1, 4096]cuda:0" = torch.ops.aten.mul.Tensor(unsqueeze_48, unsqueeze_49);  unsqueeze_48 = unsqueeze_49 = None
        sum_17: "f32[1, 1024][1024, 1]cuda:0" = torch.ops.aten.sum.dim_IntList(mul_30, [1]);  mul_30 = None
        convert_element_type_54: "f16[1, 1024][1024, 1]cuda:0" = torch.ops.prims.convert_element_type.default(sum_17, torch.float16);  sum_17 = None
        view_82: "f16[1, 1, 1024][1024, 1024, 1]cuda:0" = torch.ops.aten.reshape.default(convert_element_type_54, [1, 1, 1024]);  convert_element_type_54 = None
        view_83: "f16[1, 1, 8, 128][1024, 1024, 128, 1]cuda:0" = torch.ops.aten.reshape.default(view_82, [1, 1, -1, 128]);  view_82 = None
        permute_26: "f16[1, 8, 1, 128][1024, 128, 1024, 1]cuda:0" = torch.ops.aten.permute.default(view_83, [0, 2, 1, 3]);  view_83 = None
        
         # File: /app/low_bit_inference/model.py:108 in apply_rotary_pos_emb, code: k_embed = (k * cos) + (rotate_half(k) * sin)
        mul_34: "f16[1, 8, 1, 128][1024, 128, 1024, 1]cuda:0" = torch.ops.aten.mul.Tensor(permute_26, unsqueeze_52);  unsqueeze_52 = None
        
         # File: /app/low_bit_inference/model.py:81 in rotate_half, code: x2 = x[..., x.shape[-1] // 2 :]
        slice_53: "f16[1, 8, 1, 64][1024, 128, 1024, 1]cuda:0" = torch.ops.aten.slice.Tensor(permute_26, 3, 64, 9223372036854775807)
        
         # File: /app/low_bit_inference/model.py:82 in rotate_half, code: return torch.cat((-x2, x1), dim=-1)
        neg_5: "f16[1, 8, 1, 64][512, 64, 64, 1]cuda:0" = torch.ops.aten.neg.default(slice_53);  slice_53 = None
        
         # File: /app/low_bit_inference/model.py:80 in rotate_half, code: x1 = x[..., : x.shape[-1] // 2]
        slice_52: "f16[1, 8, 1, 64][1024, 128, 1024, 1]cuda:0" = torch.ops.aten.slice.Tensor(permute_26, 3, 0, 64);  permute_26 = None
        
         # File: /app/low_bit_inference/model.py:82 in rotate_half, code: return torch.cat((-x2, x1), dim=-1)
        cat_5: "f16[1, 8, 1, 128][1024, 128, 128, 1]cuda:0" = torch.ops.aten.cat.default([neg_5, slice_52], -1);  neg_5 = slice_52 = None
        
         # File: /app/low_bit_inference/model.py:108 in apply_rotary_pos_emb, code: k_embed = (k * cos) + (rotate_half(k) * sin)
        mul_35: "f16[1, 8, 1, 128][1024, 128, 128, 1]cuda:0" = torch.ops.aten.mul.Tensor(cat_5, unsqueeze_53);  cat_5 = unsqueeze_53 = None
        add_9: "f16[1, 8, 1, 128][1024, 128, 128, 1]cuda:0" = torch.ops.aten.add.Tensor(mul_34, mul_35);  mul_34 = mul_35 = None
        
         # File: /app/low_bit_inference/optims/cache_optim.py:156 in update, code: self.keys.index_copy_(2, cache_position, key_states)
        index_put_4: "f16[1, 8, 2048, 128][2097152, 262144, 128, 1]cuda:0" = torch.ops.aten.index_put.default(arg32_1, [None, None, arg2_1], add_9);  add_9 = None
        
         # File: /app/.venv/lib/python3.12/site-packages/transformers/integrations/sdpa_attention.py:15 in repeat_kv, code: return hidden_states.reshape(batch, num_key_value_heads * n_rep, slen, head_dim)
        unsqueeze_55: "f16[1, 8, 1, 2048, 128][2097152, 262144, 262144, 128, 1]cuda:0" = torch.ops.aten.unsqueeze.default(index_put_4, 2)
        expand_15: "f16[1, 8, 4, 2048, 128][2097152, 262144, 0, 128, 1]cuda:0" = torch.ops.aten.expand.default(unsqueeze_55, [1, 8, 4, 2048, 128]);  unsqueeze_55 = None
        clone_6: "f16[1, 8, 4, 2048, 128][8388608, 1048576, 262144, 128, 1]cuda:0" = torch.ops.aten.clone.default(expand_15, memory_format = torch.contiguous_format);  expand_15 = None
        view_89: "f16[1, 32, 2048, 128][8388608, 262144, 128, 1]cuda:0" = torch.ops.aten.reshape.default(clone_6, [1, 32, 2048, 128]);  clone_6 = None
        
         # File: /app/low_bit_inference/model.py:208 in forward, code: value_states = self.v_proj(hidden_states).view(hidden_shape).transpose(1, 2)
        convert_element_type_55: "f32[1, 4096][4096, 1]cuda:0" = torch.ops.prims.convert_element_type.default(getitem_16, torch.float32);  getitem_16 = None
        unsqueeze_50: "f32[1, 4096, 1][4096, 1, 1]cuda:0" = torch.ops.aten.unsqueeze.default(convert_element_type_55, 2);  convert_element_type_55 = None
        permute_27: "f16[4096, 1024][1, 4096]cuda:0" = torch.ops.aten.permute.default(arg31_1, [1, 0]);  arg31_1 = None
        convert_element_type_56: "f32[4096, 1024][1, 4096]cuda:0" = torch.ops.prims.convert_element_type.default(permute_27, torch.float32);  permute_27 = None
        unsqueeze_51: "f32[1, 4096, 1024][4096, 1, 4096]cuda:0" = torch.ops.aten.unsqueeze.default(convert_element_type_56, 0);  convert_element_type_56 = None
        mul_31: "f32[1, 4096, 1024][4096, 1, 4096]cuda:0" = torch.ops.aten.mul.Tensor(unsqueeze_50, unsqueeze_51);  unsqueeze_50 = unsqueeze_51 = None
        sum_18: "f32[1, 1024][1024, 1]cuda:0" = torch.ops.aten.sum.dim_IntList(mul_31, [1]);  mul_31 = None
        convert_element_type_57: "f16[1, 1024][1024, 1]cuda:0" = torch.ops.prims.convert_element_type.default(sum_18, torch.float16);  sum_18 = None
        view_87: "f16[1, 1, 1024][1024, 1024, 1]cuda:0" = torch.ops.aten.reshape.default(convert_element_type_57, [1, 1, 1024]);  convert_element_type_57 = None
        view_88: "f16[1, 1, 8, 128][1024, 1024, 128, 1]cuda:0" = torch.ops.aten.reshape.default(view_87, [1, 1, -1, 128]);  view_87 = None
        permute_28: "f16[1, 8, 1, 128][1024, 128, 1024, 1]cuda:0" = torch.ops.aten.permute.default(view_88, [0, 2, 1, 3]);  view_88 = None
        
         # File: /app/low_bit_inference/optims/cache_optim.py:157 in update, code: self.values.index_copy_(2, cache_position, value_states)
        index_put_5: "f16[1, 8, 2048, 128][2097152, 262144, 128, 1]cuda:0" = torch.ops.aten.index_put.default(arg33_1, [None, None, arg2_1], permute_28);  permute_28 = None
        
         # File: /app/.venv/lib/python3.12/site-packages/transformers/integrations/sdpa_attention.py:15 in repeat_kv, code: return hidden_states.reshape(batch, num_key_value_heads * n_rep, slen, head_dim)
        unsqueeze_57: "f16[1, 8, 1, 2048, 128][2097152, 262144, 262144, 128, 1]cuda:0" = torch.ops.aten.unsqueeze.default(index_put_5, 2)
        expand_17: "f16[1, 8, 4, 2048, 128][2097152, 262144, 0, 128, 1]cuda:0" = torch.ops.aten.expand.default(unsqueeze_57, [1, 8, 4, 2048, 128]);  unsqueeze_57 = None
        clone_7: "f16[1, 8, 4, 2048, 128][8388608, 1048576, 262144, 128, 1]cuda:0" = torch.ops.aten.clone.default(expand_17, memory_format = torch.contiguous_format);  expand_17 = None
        view_90: "f16[1, 32, 2048, 128][8388608, 262144, 128, 1]cuda:0" = torch.ops.aten.reshape.default(clone_7, [1, 32, 2048, 128]);  clone_7 = None
        
         # File: /app/.venv/lib/python3.12/site-packages/transformers/integrations/sdpa_attention.py:54 in sdpa_attention_forward, code: attn_output = torch.nn.functional.scaled_dot_product_attention(
        full_default_5: "f16[][]cuda:0" = torch.ops.aten.full.default([], 0.0, dtype = torch.float16, layout = torch.strided, device = device(type='cuda', index=0), pin_memory = False)
        full_default_4: "f16[][]cuda:0" = torch.ops.aten.full.default([], -inf, dtype = torch.float16, layout = torch.strided, device = device(type='cuda', index=0), pin_memory = False)
        where_2: "f16[1, 1, 1, 2048][2048, 2048, 2048, 1]cuda:0" = torch.ops.aten.where.self(arg4_1, full_default_5, full_default_4);  full_default_5 = full_default_4 = None
        expand_18: "f16[1, 32, 1, 2048][2048, 0, 2048, 1]cuda:0" = torch.ops.aten.expand.default(where_2, [1, 32, 1, 2048]);  where_2 = None
        _scaled_dot_product_efficient_attention_2 = torch.ops.aten._scaled_dot_product_efficient_attention.default(add_8, view_89, view_90, expand_18, False, scale = 0.08838834764831845);  add_8 = view_89 = view_90 = expand_18 = None
        getitem_18: "f16[1, 32, 1, 128][4096, 128, 4096, 1]cuda:0" = _scaled_dot_product_efficient_attention_2[0];  _scaled_dot_product_efficient_attention_2 = None
        
         # File: /app/low_bit_inference/optims/rms_norm_kernels/liger_rms_norm.py:447 in rms_norm_forward, code: Y = torch.empty((n_rows, n_cols), dtype=X.dtype, device=X.device)
        empty_10: "f16[1, 4096][4096, 1]cuda:0" = torch.ops.aten.empty.memory_format([1, 4096], dtype = torch.float16, device = device(type='cuda', index=0), pin_memory = False)
        
         # File: /app/.venv/lib/python3.12/site-packages/transformers/integrations/sdpa_attention.py:63 in sdpa_attention_forward, code: attn_output = attn_output.transpose(1, 2).contiguous()
        permute_29: "f16[1, 1, 32, 128][4096, 4096, 128, 1]cuda:0" = torch.ops.aten.permute.default(getitem_18, [0, 2, 1, 3]);  getitem_18 = None
        
         # File: /app/low_bit_inference/model.py:233 in forward, code: attn_output = attn_output.reshape(*input_shape, -1).contiguous()
        view_91: "f16[1, 1, 4096][4096, 4096, 1]cuda:0" = torch.ops.aten.reshape.default(permute_29, [1, 1, -1]);  permute_29 = None
        
         # File: /app/low_bit_inference/model.py:234 in forward, code: attn_output = self.o_proj(attn_output)
        view_92: "f16[1, 4096][4096, 1]cuda:0" = torch.ops.aten.reshape.default(view_91, [1, 4096]);  view_91 = None
        convert_element_type_58: "f32[1, 4096][4096, 1]cuda:0" = torch.ops.prims.convert_element_type.default(view_92, torch.float32);  view_92 = None
        unsqueeze_58: "f32[1, 4096, 1][4096, 1, 1]cuda:0" = torch.ops.aten.unsqueeze.default(convert_element_type_58, 2);  convert_element_type_58 = None
        permute_30: "f16[4096, 4096][1, 4096]cuda:0" = torch.ops.aten.permute.default(arg34_1, [1, 0]);  arg34_1 = None
        convert_element_type_59: "f32[4096, 4096][1, 4096]cuda:0" = torch.ops.prims.convert_element_type.default(permute_30, torch.float32);  permute_30 = None
        unsqueeze_59: "f32[1, 4096, 4096][4096, 1, 4096]cuda:0" = torch.ops.aten.unsqueeze.default(convert_element_type_59, 0);  convert_element_type_59 = None
        mul_36: "f32[1, 4096, 4096][4096, 1, 4096]cuda:0" = torch.ops.aten.mul.Tensor(unsqueeze_58, unsqueeze_59);  unsqueeze_58 = unsqueeze_59 = None
        sum_19: "f32[1, 4096][4096, 1]cuda:0" = torch.ops.aten.sum.dim_IntList(mul_36, [1]);  mul_36 = None
        convert_element_type_60: "f16[1, 4096][4096, 1]cuda:0" = torch.ops.prims.convert_element_type.default(sum_19, torch.float16);  sum_19 = None
        view_93: "f16[1, 1, 4096][4096, 4096, 1]cuda:0" = torch.ops.aten.reshape.default(convert_element_type_60, [1, 1, 4096]);  convert_element_type_60 = None
        
         # File: /app/low_bit_inference/model.py:273 in forward, code: hidden_states = residual + hidden_states
        add_10: "f16[1, 1, 4096][4096, 4096, 1]cuda:0" = torch.ops.aten.add.Tensor(add_7, view_93);  add_7 = view_93 = None
        
         # File: /app/low_bit_inference/optims/rms_norm_kernels/liger_rms_norm.py:443 in rms_norm_forward, code: X = X.view(-1, dim)
        view_94: "f16[1, 4096][4096, 1]cuda:0" = torch.ops.aten.reshape.default(add_10, [-1, 4096])
        
         # File: /app/low_bit_inference/optims/rms_norm_kernels/liger_rms_norm.py:451 in rms_norm_forward, code: RSTD = torch.empty(n_rows, dtype=rstd_dtype, device=X.device)
        empty_11: "f32[1][1]cuda:0" = torch.ops.aten.empty.memory_format([1], dtype = torch.float32, device = device(type='cuda', index=0), pin_memory = False)
        
         # File: /app/low_bit_inference/optims/rms_norm_kernels/liger_rms_norm.py:461 in rms_norm_forward, code: _rms_norm_forward_kernel[(n_rows,)](
        triton_kernel_wrapper_functional_proxy_5 = torch.ops.higher_order.triton_kernel_wrapper_functional(kernel_idx = 201, constant_args_idx = 200, grid = [(1, 1, 1)], tma_descriptor_metadata = {}, kwargs = {'Y_ptr': empty_10, 'X_ptr': view_94, 'W_ptr': arg35_1, 'RSTD_ptr': empty_11}, tensors_to_clone = ['Y_ptr', 'RSTD_ptr']);  empty_10 = view_94 = arg35_1 = empty_11 = None
        getitem_22: "f16[1, 4096][4096, 1]cuda:0" = triton_kernel_wrapper_functional_proxy_5['Y_ptr'];  triton_kernel_wrapper_functional_proxy_5 = None
        
         # File: /app/low_bit_inference/optims/rms_norm_kernels/liger_rms_norm.py:447 in rms_norm_forward, code: Y = torch.empty((n_rows, n_cols), dtype=X.dtype, device=X.device)
        empty_12: "f16[1, 4096][4096, 1]cuda:0" = torch.ops.aten.empty.memory_format([1, 4096], dtype = torch.float16, device = device(type='cuda', index=0), pin_memory = False)
        
         # File: /app/low_bit_inference/model.py:124 in forward, code: down_proj = self.down_proj(self.act_fn(self.gate_proj(x)) * self.up_proj(x))
        convert_element_type_61: "f32[1, 4096][4096, 1]cuda:0" = torch.ops.prims.convert_element_type.default(getitem_22, torch.float32)
        unsqueeze_60: "f32[1, 4096, 1][4096, 1, 1]cuda:0" = torch.ops.aten.unsqueeze.default(convert_element_type_61, 2);  convert_element_type_61 = None
        permute_31: "f16[4096, 14336][1, 4096]cuda:0" = torch.ops.aten.permute.default(arg36_1, [1, 0]);  arg36_1 = None
        convert_element_type_62: "f32[4096, 14336][1, 4096]cuda:0" = torch.ops.prims.convert_element_type.default(permute_31, torch.float32);  permute_31 = None
        unsqueeze_61: "f32[1, 4096, 14336][4096, 1, 4096]cuda:0" = torch.ops.aten.unsqueeze.default(convert_element_type_62, 0);  convert_element_type_62 = None
        mul_37: "f32[1, 4096, 14336][4096, 1, 4096]cuda:0" = torch.ops.aten.mul.Tensor(unsqueeze_60, unsqueeze_61);  unsqueeze_60 = unsqueeze_61 = None
        sum_20: "f32[1, 14336][14336, 1]cuda:0" = torch.ops.aten.sum.dim_IntList(mul_37, [1]);  mul_37 = None
        convert_element_type_63: "f16[1, 14336][14336, 1]cuda:0" = torch.ops.prims.convert_element_type.default(sum_20, torch.float16);  sum_20 = None
        view_99: "f16[1, 1, 14336][14336, 14336, 1]cuda:0" = torch.ops.aten.reshape.default(convert_element_type_63, [1, 1, 14336]);  convert_element_type_63 = None
        convert_element_type_64: "f32[1, 1, 14336][14336, 14336, 1]cuda:0" = torch.ops.prims.convert_element_type.default(view_99, torch.float32);  view_99 = None
        sigmoid_2: "f32[1, 1, 14336][14336, 14336, 1]cuda:0" = torch.ops.aten.sigmoid.default(convert_element_type_64)
        mul_38: "f32[1, 1, 14336][14336, 14336, 1]cuda:0" = torch.ops.aten.mul.Tensor(convert_element_type_64, sigmoid_2);  convert_element_type_64 = sigmoid_2 = None
        convert_element_type_65: "f16[1, 1, 14336][14336, 14336, 1]cuda:0" = torch.ops.prims.convert_element_type.default(mul_38, torch.float16);  mul_38 = None
        convert_element_type_66: "f32[1, 4096][4096, 1]cuda:0" = torch.ops.prims.convert_element_type.default(getitem_22, torch.float32);  getitem_22 = None
        unsqueeze_62: "f32[1, 4096, 1][4096, 1, 1]cuda:0" = torch.ops.aten.unsqueeze.default(convert_element_type_66, 2);  convert_element_type_66 = None
        permute_32: "f16[4096, 14336][1, 4096]cuda:0" = torch.ops.aten.permute.default(arg37_1, [1, 0]);  arg37_1 = None
        convert_element_type_67: "f32[4096, 14336][1, 4096]cuda:0" = torch.ops.prims.convert_element_type.default(permute_32, torch.float32);  permute_32 = None
        unsqueeze_63: "f32[1, 4096, 14336][4096, 1, 4096]cuda:0" = torch.ops.aten.unsqueeze.default(convert_element_type_67, 0);  convert_element_type_67 = None
        mul_39: "f32[1, 4096, 14336][4096, 1, 4096]cuda:0" = torch.ops.aten.mul.Tensor(unsqueeze_62, unsqueeze_63);  unsqueeze_62 = unsqueeze_63 = None
        sum_21: "f32[1, 14336][14336, 1]cuda:0" = torch.ops.aten.sum.dim_IntList(mul_39, [1]);  mul_39 = None
        convert_element_type_68: "f16[1, 14336][14336, 1]cuda:0" = torch.ops.prims.convert_element_type.default(sum_21, torch.float16);  sum_21 = None
        view_103: "f16[1, 1, 14336][14336, 14336, 1]cuda:0" = torch.ops.aten.reshape.default(convert_element_type_68, [1, 1, 14336]);  convert_element_type_68 = None
        mul_40: "f16[1, 1, 14336][14336, 14336, 1]cuda:0" = torch.ops.aten.mul.Tensor(convert_element_type_65, view_103);  convert_element_type_65 = view_103 = None
        view_104: "f16[1, 14336][14336, 1]cuda:0" = torch.ops.aten.reshape.default(mul_40, [1, 14336]);  mul_40 = None
        convert_element_type_69: "f32[1, 14336][14336, 1]cuda:0" = torch.ops.prims.convert_element_type.default(view_104, torch.float32);  view_104 = None
        unsqueeze_64: "f32[1, 14336, 1][14336, 1, 1]cuda:0" = torch.ops.aten.unsqueeze.default(convert_element_type_69, 2);  convert_element_type_69 = None
        permute_33: "f16[14336, 4096][1, 14336]cuda:0" = torch.ops.aten.permute.default(arg38_1, [1, 0]);  arg38_1 = None
        convert_element_type_70: "f32[14336, 4096][1, 14336]cuda:0" = torch.ops.prims.convert_element_type.default(permute_33, torch.float32);  permute_33 = None
        unsqueeze_65: "f32[1, 14336, 4096][14336, 1, 14336]cuda:0" = torch.ops.aten.unsqueeze.default(convert_element_type_70, 0);  convert_element_type_70 = None
        mul_41: "f32[1, 14336, 4096][14336, 1, 14336]cuda:0" = torch.ops.aten.mul.Tensor(unsqueeze_64, unsqueeze_65);  unsqueeze_64 = unsqueeze_65 = None
        sum_22: "f32[1, 4096][4096, 1]cuda:0" = torch.ops.aten.sum.dim_IntList(mul_41, [1]);  mul_41 = None
        convert_element_type_71: "f16[1, 4096][4096, 1]cuda:0" = torch.ops.prims.convert_element_type.default(sum_22, torch.float16);  sum_22 = None
        view_105: "f16[1, 1, 4096][4096, 4096, 1]cuda:0" = torch.ops.aten.reshape.default(convert_element_type_71, [1, 1, 4096]);  convert_element_type_71 = None
        
         # File: /app/low_bit_inference/model.py:279 in forward, code: hidden_states = residual + hidden_states
        add_11: "f16[1, 1, 4096][4096, 4096, 1]cuda:0" = torch.ops.aten.add.Tensor(add_10, view_105);  add_10 = view_105 = None
        
         # File: /app/low_bit_inference/optims/rms_norm_kernels/liger_rms_norm.py:443 in rms_norm_forward, code: X = X.view(-1, dim)
        view_106: "f16[1, 4096][4096, 1]cuda:0" = torch.ops.aten.reshape.default(add_11, [-1, 4096])
        
         # File: /app/low_bit_inference/optims/rms_norm_kernels/liger_rms_norm.py:451 in rms_norm_forward, code: RSTD = torch.empty(n_rows, dtype=rstd_dtype, device=X.device)
        empty_13: "f32[1][1]cuda:0" = torch.ops.aten.empty.memory_format([1], dtype = torch.float32, device = device(type='cuda', index=0), pin_memory = False)
        
         # File: /app/low_bit_inference/optims/rms_norm_kernels/liger_rms_norm.py:461 in rms_norm_forward, code: _rms_norm_forward_kernel[(n_rows,)](
        triton_kernel_wrapper_functional_proxy_6 = torch.ops.higher_order.triton_kernel_wrapper_functional(kernel_idx = 202, constant_args_idx = 201, grid = [(1, 1, 1)], tma_descriptor_metadata = {}, kwargs = {'Y_ptr': empty_12, 'X_ptr': view_106, 'W_ptr': arg39_1, 'RSTD_ptr': empty_13}, tensors_to_clone = ['Y_ptr', 'RSTD_ptr']);  empty_12 = view_106 = arg39_1 = empty_13 = None
        getitem_24: "f16[1, 4096][4096, 1]cuda:0" = triton_kernel_wrapper_functional_proxy_6['Y_ptr'];  triton_kernel_wrapper_functional_proxy_6 = None
        
         # File: /app/low_bit_inference/model.py:206 in forward, code: query_states = self.q_proj(hidden_states).view(hidden_shape).transpose(1, 2)
        convert_element_type_72: "f32[1, 4096][4096, 1]cuda:0" = torch.ops.prims.convert_element_type.default(getitem_24, torch.float32)
        unsqueeze_66: "f32[1, 4096, 1][4096, 1, 1]cuda:0" = torch.ops.aten.unsqueeze.default(convert_element_type_72, 2);  convert_element_type_72 = None
        permute_34: "f16[4096, 4096][1, 4096]cuda:0" = torch.ops.aten.permute.default(arg40_1, [1, 0]);  arg40_1 = None
        convert_element_type_73: "f32[4096, 4096][1, 4096]cuda:0" = torch.ops.prims.convert_element_type.default(permute_34, torch.float32);  permute_34 = None
        unsqueeze_67: "f32[1, 4096, 4096][4096, 1, 4096]cuda:0" = torch.ops.aten.unsqueeze.default(convert_element_type_73, 0);  convert_element_type_73 = None
        mul_42: "f32[1, 4096, 4096][4096, 1, 4096]cuda:0" = torch.ops.aten.mul.Tensor(unsqueeze_66, unsqueeze_67);  unsqueeze_66 = unsqueeze_67 = None
        sum_23: "f32[1, 4096][4096, 1]cuda:0" = torch.ops.aten.sum.dim_IntList(mul_42, [1]);  mul_42 = None
        convert_element_type_74: "f16[1, 4096][4096, 1]cuda:0" = torch.ops.prims.convert_element_type.default(sum_23, torch.float16);  sum_23 = None
        view_111: "f16[1, 1, 4096][4096, 4096, 1]cuda:0" = torch.ops.aten.reshape.default(convert_element_type_74, [1, 1, 4096]);  convert_element_type_74 = None
        view_112: "f16[1, 1, 32, 128][4096, 4096, 128, 1]cuda:0" = torch.ops.aten.reshape.default(view_111, [1, 1, -1, 128]);  view_111 = None
        permute_35: "f16[1, 32, 1, 128][4096, 128, 4096, 1]cuda:0" = torch.ops.aten.permute.default(view_112, [0, 2, 1, 3]);  view_112 = None
        
         # File: /app/low_bit_inference/model.py:105 in apply_rotary_pos_emb, code: cos = cos.unsqueeze(unsqueeze_dim)
        unsqueeze_72: "f16[1, 1, 1, 128][128, 128, 128, 1]cuda:0" = torch.ops.aten.unsqueeze.default(convert_element_type_1, 1)
        
         # File: /app/low_bit_inference/model.py:107 in apply_rotary_pos_emb, code: q_embed = (q * cos) + (rotate_half(q) * sin)
        mul_45: "f16[1, 32, 1, 128][4096, 128, 4096, 1]cuda:0" = torch.ops.aten.mul.Tensor(permute_35, unsqueeze_72)
        
         # File: /app/low_bit_inference/model.py:81 in rotate_half, code: x2 = x[..., x.shape[-1] // 2 :]
        slice_74: "f16[1, 32, 1, 64][4096, 128, 4096, 1]cuda:0" = torch.ops.aten.slice.Tensor(permute_35, 3, 64, 9223372036854775807)
        
         # File: /app/low_bit_inference/model.py:82 in rotate_half, code: return torch.cat((-x2, x1), dim=-1)
        neg_6: "f16[1, 32, 1, 64][2048, 64, 64, 1]cuda:0" = torch.ops.aten.neg.default(slice_74);  slice_74 = None
        
         # File: /app/low_bit_inference/model.py:80 in rotate_half, code: x1 = x[..., : x.shape[-1] // 2]
        slice_73: "f16[1, 32, 1, 64][4096, 128, 4096, 1]cuda:0" = torch.ops.aten.slice.Tensor(permute_35, 3, 0, 64);  permute_35 = None
        
         # File: /app/low_bit_inference/model.py:82 in rotate_half, code: return torch.cat((-x2, x1), dim=-1)
        cat_6: "f16[1, 32, 1, 128][4096, 128, 128, 1]cuda:0" = torch.ops.aten.cat.default([neg_6, slice_73], -1);  neg_6 = slice_73 = None
        
         # File: /app/low_bit_inference/model.py:106 in apply_rotary_pos_emb, code: sin = sin.unsqueeze(unsqueeze_dim)
        unsqueeze_73: "f16[1, 1, 1, 128][128, 128, 128, 1]cuda:0" = torch.ops.aten.unsqueeze.default(convert_element_type_2, 1)
        
         # File: /app/low_bit_inference/model.py:107 in apply_rotary_pos_emb, code: q_embed = (q * cos) + (rotate_half(q) * sin)
        mul_46: "f16[1, 32, 1, 128][4096, 128, 128, 1]cuda:0" = torch.ops.aten.mul.Tensor(cat_6, unsqueeze_73);  cat_6 = None
        add_12: "f16[1, 32, 1, 128][4096, 128, 128, 1]cuda:0" = torch.ops.aten.add.Tensor(mul_45, mul_46);  mul_45 = mul_46 = None
        
         # File: /app/low_bit_inference/model.py:207 in forward, code: key_states = self.k_proj(hidden_states).view(hidden_shape).transpose(1, 2)
        convert_element_type_75: "f32[1, 4096][4096, 1]cuda:0" = torch.ops.prims.convert_element_type.default(getitem_24, torch.float32)
        unsqueeze_68: "f32[1, 4096, 1][4096, 1, 1]cuda:0" = torch.ops.aten.unsqueeze.default(convert_element_type_75, 2);  convert_element_type_75 = None
        permute_36: "f16[4096, 1024][1, 4096]cuda:0" = torch.ops.aten.permute.default(arg41_1, [1, 0]);  arg41_1 = None
        convert_element_type_76: "f32[4096, 1024][1, 4096]cuda:0" = torch.ops.prims.convert_element_type.default(permute_36, torch.float32);  permute_36 = None
        unsqueeze_69: "f32[1, 4096, 1024][4096, 1, 4096]cuda:0" = torch.ops.aten.unsqueeze.default(convert_element_type_76, 0);  convert_element_type_76 = None
        mul_43: "f32[1, 4096, 1024][4096, 1, 4096]cuda:0" = torch.ops.aten.mul.Tensor(unsqueeze_68, unsqueeze_69);  unsqueeze_68 = unsqueeze_69 = None
        sum_24: "f32[1, 1024][1024, 1]cuda:0" = torch.ops.aten.sum.dim_IntList(mul_43, [1]);  mul_43 = None
        convert_element_type_77: "f16[1, 1024][1024, 1]cuda:0" = torch.ops.prims.convert_element_type.default(sum_24, torch.float16);  sum_24 = None
        view_116: "f16[1, 1, 1024][1024, 1024, 1]cuda:0" = torch.ops.aten.reshape.default(convert_element_type_77, [1, 1, 1024]);  convert_element_type_77 = None
        view_117: "f16[1, 1, 8, 128][1024, 1024, 128, 1]cuda:0" = torch.ops.aten.reshape.default(view_116, [1, 1, -1, 128]);  view_116 = None
        permute_37: "f16[1, 8, 1, 128][1024, 128, 1024, 1]cuda:0" = torch.ops.aten.permute.default(view_117, [0, 2, 1, 3]);  view_117 = None
        
         # File: /app/low_bit_inference/model.py:108 in apply_rotary_pos_emb, code: k_embed = (k * cos) + (rotate_half(k) * sin)
        mul_47: "f16[1, 8, 1, 128][1024, 128, 1024, 1]cuda:0" = torch.ops.aten.mul.Tensor(permute_37, unsqueeze_72);  unsqueeze_72 = None
        
         # File: /app/low_bit_inference/model.py:81 in rotate_half, code: x2 = x[..., x.shape[-1] // 2 :]
        slice_76: "f16[1, 8, 1, 64][1024, 128, 1024, 1]cuda:0" = torch.ops.aten.slice.Tensor(permute_37, 3, 64, 9223372036854775807)
        
         # File: /app/low_bit_inference/model.py:82 in rotate_half, code: return torch.cat((-x2, x1), dim=-1)
        neg_7: "f16[1, 8, 1, 64][512, 64, 64, 1]cuda:0" = torch.ops.aten.neg.default(slice_76);  slice_76 = None
        
         # File: /app/low_bit_inference/model.py:80 in rotate_half, code: x1 = x[..., : x.shape[-1] // 2]
        slice_75: "f16[1, 8, 1, 64][1024, 128, 1024, 1]cuda:0" = torch.ops.aten.slice.Tensor(permute_37, 3, 0, 64);  permute_37 = None
        
         # File: /app/low_bit_inference/model.py:82 in rotate_half, code: return torch.cat((-x2, x1), dim=-1)
        cat_7: "f16[1, 8, 1, 128][1024, 128, 128, 1]cuda:0" = torch.ops.aten.cat.default([neg_7, slice_75], -1);  neg_7 = slice_75 = None
        
         # File: /app/low_bit_inference/model.py:108 in apply_rotary_pos_emb, code: k_embed = (k * cos) + (rotate_half(k) * sin)
        mul_48: "f16[1, 8, 1, 128][1024, 128, 128, 1]cuda:0" = torch.ops.aten.mul.Tensor(cat_7, unsqueeze_73);  cat_7 = unsqueeze_73 = None
        add_13: "f16[1, 8, 1, 128][1024, 128, 128, 1]cuda:0" = torch.ops.aten.add.Tensor(mul_47, mul_48);  mul_47 = mul_48 = None
        
         # File: /app/low_bit_inference/optims/cache_optim.py:156 in update, code: self.keys.index_copy_(2, cache_position, key_states)
        index_put_6: "f16[1, 8, 2048, 128][2097152, 262144, 128, 1]cuda:0" = torch.ops.aten.index_put.default(arg43_1, [None, None, arg2_1], add_13);  add_13 = None
        
         # File: /app/.venv/lib/python3.12/site-packages/transformers/integrations/sdpa_attention.py:15 in repeat_kv, code: return hidden_states.reshape(batch, num_key_value_heads * n_rep, slen, head_dim)
        unsqueeze_75: "f16[1, 8, 1, 2048, 128][2097152, 262144, 262144, 128, 1]cuda:0" = torch.ops.aten.unsqueeze.default(index_put_6, 2)
        expand_20: "f16[1, 8, 4, 2048, 128][2097152, 262144, 0, 128, 1]cuda:0" = torch.ops.aten.expand.default(unsqueeze_75, [1, 8, 4, 2048, 128]);  unsqueeze_75 = None
        clone_8: "f16[1, 8, 4, 2048, 128][8388608, 1048576, 262144, 128, 1]cuda:0" = torch.ops.aten.clone.default(expand_20, memory_format = torch.contiguous_format);  expand_20 = None
        view_123: "f16[1, 32, 2048, 128][8388608, 262144, 128, 1]cuda:0" = torch.ops.aten.reshape.default(clone_8, [1, 32, 2048, 128]);  clone_8 = None
        
         # File: /app/low_bit_inference/model.py:208 in forward, code: value_states = self.v_proj(hidden_states).view(hidden_shape).transpose(1, 2)
        convert_element_type_78: "f32[1, 4096][4096, 1]cuda:0" = torch.ops.prims.convert_element_type.default(getitem_24, torch.float32);  getitem_24 = None
        unsqueeze_70: "f32[1, 4096, 1][4096, 1, 1]cuda:0" = torch.ops.aten.unsqueeze.default(convert_element_type_78, 2);  convert_element_type_78 = None
        permute_38: "f16[4096, 1024][1, 4096]cuda:0" = torch.ops.aten.permute.default(arg42_1, [1, 0]);  arg42_1 = None
        convert_element_type_79: "f32[4096, 1024][1, 4096]cuda:0" = torch.ops.prims.convert_element_type.default(permute_38, torch.float32);  permute_38 = None
        unsqueeze_71: "f32[1, 4096, 1024][4096, 1, 4096]cuda:0" = torch.ops.aten.unsqueeze.default(convert_element_type_79, 0);  convert_element_type_79 = None
        mul_44: "f32[1, 4096, 1024][4096, 1, 4096]cuda:0" = torch.ops.aten.mul.Tensor(unsqueeze_70, unsqueeze_71);  unsqueeze_70 = unsqueeze_71 = None
        sum_25: "f32[1, 1024][1024, 1]cuda:0" = torch.ops.aten.sum.dim_IntList(mul_44, [1]);  mul_44 = None
        convert_element_type_80: "f16[1, 1024][1024, 1]cuda:0" = torch.ops.prims.convert_element_type.default(sum_25, torch.float16);  sum_25 = None
        view_121: "f16[1, 1, 1024][1024, 1024, 1]cuda:0" = torch.ops.aten.reshape.default(convert_element_type_80, [1, 1, 1024]);  convert_element_type_80 = None
        view_122: "f16[1, 1, 8, 128][1024, 1024, 128, 1]cuda:0" = torch.ops.aten.reshape.default(view_121, [1, 1, -1, 128]);  view_121 = None
        permute_39: "f16[1, 8, 1, 128][1024, 128, 1024, 1]cuda:0" = torch.ops.aten.permute.default(view_122, [0, 2, 1, 3]);  view_122 = None
        
         # File: /app/low_bit_inference/optims/cache_optim.py:157 in update, code: self.values.index_copy_(2, cache_position, value_states)
        index_put_7: "f16[1, 8, 2048, 128][2097152, 262144, 128, 1]cuda:0" = torch.ops.aten.index_put.default(arg44_1, [None, None, arg2_1], permute_39);  permute_39 = None
        
         # File: /app/.venv/lib/python3.12/site-packages/transformers/integrations/sdpa_attention.py:15 in repeat_kv, code: return hidden_states.reshape(batch, num_key_value_heads * n_rep, slen, head_dim)
        unsqueeze_77: "f16[1, 8, 1, 2048, 128][2097152, 262144, 262144, 128, 1]cuda:0" = torch.ops.aten.unsqueeze.default(index_put_7, 2)
        expand_22: "f16[1, 8, 4, 2048, 128][2097152, 262144, 0, 128, 1]cuda:0" = torch.ops.aten.expand.default(unsqueeze_77, [1, 8, 4, 2048, 128]);  unsqueeze_77 = None
        clone_9: "f16[1, 8, 4, 2048, 128][8388608, 1048576, 262144, 128, 1]cuda:0" = torch.ops.aten.clone.default(expand_22, memory_format = torch.contiguous_format);  expand_22 = None
        view_124: "f16[1, 32, 2048, 128][8388608, 262144, 128, 1]cuda:0" = torch.ops.aten.reshape.default(clone_9, [1, 32, 2048, 128]);  clone_9 = None
        
         # File: /app/.venv/lib/python3.12/site-packages/transformers/integrations/sdpa_attention.py:54 in sdpa_attention_forward, code: attn_output = torch.nn.functional.scaled_dot_product_attention(
        full_default_7: "f16[][]cuda:0" = torch.ops.aten.full.default([], 0.0, dtype = torch.float16, layout = torch.strided, device = device(type='cuda', index=0), pin_memory = False)
        full_default_6: "f16[][]cuda:0" = torch.ops.aten.full.default([], -inf, dtype = torch.float16, layout = torch.strided, device = device(type='cuda', index=0), pin_memory = False)
        where_3: "f16[1, 1, 1, 2048][2048, 2048, 2048, 1]cuda:0" = torch.ops.aten.where.self(arg4_1, full_default_7, full_default_6);  full_default_7 = full_default_6 = None
        expand_23: "f16[1, 32, 1, 2048][2048, 0, 2048, 1]cuda:0" = torch.ops.aten.expand.default(where_3, [1, 32, 1, 2048]);  where_3 = None
        _scaled_dot_product_efficient_attention_3 = torch.ops.aten._scaled_dot_product_efficient_attention.default(add_12, view_123, view_124, expand_23, False, scale = 0.08838834764831845);  add_12 = view_123 = view_124 = expand_23 = None
        getitem_26: "f16[1, 32, 1, 128][4096, 128, 4096, 1]cuda:0" = _scaled_dot_product_efficient_attention_3[0];  _scaled_dot_product_efficient_attention_3 = None
        
         # File: /app/low_bit_inference/optims/rms_norm_kernels/liger_rms_norm.py:447 in rms_norm_forward, code: Y = torch.empty((n_rows, n_cols), dtype=X.dtype, device=X.device)
        empty_14: "f16[1, 4096][4096, 1]cuda:0" = torch.ops.aten.empty.memory_format([1, 4096], dtype = torch.float16, device = device(type='cuda', index=0), pin_memory = False)
        
         # File: /app/.venv/lib/python3.12/site-packages/transformers/integrations/sdpa_attention.py:63 in sdpa_attention_forward, code: attn_output = attn_output.transpose(1, 2).contiguous()
        permute_40: "f16[1, 1, 32, 128][4096, 4096, 128, 1]cuda:0" = torch.ops.aten.permute.default(getitem_26, [0, 2, 1, 3]);  getitem_26 = None
        
         # File: /app/low_bit_inference/model.py:233 in forward, code: attn_output = attn_output.reshape(*input_shape, -1).contiguous()
        view_125: "f16[1, 1, 4096][4096, 4096, 1]cuda:0" = torch.ops.aten.reshape.default(permute_40, [1, 1, -1]);  permute_40 = None
        
         # File: /app/low_bit_inference/model.py:234 in forward, code: attn_output = self.o_proj(attn_output)
        view_126: "f16[1, 4096][4096, 1]cuda:0" = torch.ops.aten.reshape.default(view_125, [1, 4096]);  view_125 = None
        convert_element_type_81: "f32[1, 4096][4096, 1]cuda:0" = torch.ops.prims.convert_element_type.default(view_126, torch.float32);  view_126 = None
        unsqueeze_78: "f32[1, 4096, 1][4096, 1, 1]cuda:0" = torch.ops.aten.unsqueeze.default(convert_element_type_81, 2);  convert_element_type_81 = None
        permute_41: "f16[4096, 4096][1, 4096]cuda:0" = torch.ops.aten.permute.default(arg45_1, [1, 0]);  arg45_1 = None
        convert_element_type_82: "f32[4096, 4096][1, 4096]cuda:0" = torch.ops.prims.convert_element_type.default(permute_41, torch.float32);  permute_41 = None
        unsqueeze_79: "f32[1, 4096, 4096][4096, 1, 4096]cuda:0" = torch.ops.aten.unsqueeze.default(convert_element_type_82, 0);  convert_element_type_82 = None
        mul_49: "f32[1, 4096, 4096][4096, 1, 4096]cuda:0" = torch.ops.aten.mul.Tensor(unsqueeze_78, unsqueeze_79);  unsqueeze_78 = unsqueeze_79 = None
        sum_26: "f32[1, 4096][4096, 1]cuda:0" = torch.ops.aten.sum.dim_IntList(mul_49, [1]);  mul_49 = None
        convert_element_type_83: "f16[1, 4096][4096, 1]cuda:0" = torch.ops.prims.convert_element_type.default(sum_26, torch.float16);  sum_26 = None
        view_127: "f16[1, 1, 4096][4096, 4096, 1]cuda:0" = torch.ops.aten.reshape.default(convert_element_type_83, [1, 1, 4096]);  convert_element_type_83 = None
        
         # File: /app/low_bit_inference/model.py:273 in forward, code: hidden_states = residual + hidden_states
        add_14: "f16[1, 1, 4096][4096, 4096, 1]cuda:0" = torch.ops.aten.add.Tensor(add_11, view_127);  add_11 = view_127 = None
        
         # File: /app/low_bit_inference/optims/rms_norm_kernels/liger_rms_norm.py:443 in rms_norm_forward, code: X = X.view(-1, dim)
        view_128: "f16[1, 4096][4096, 1]cuda:0" = torch.ops.aten.reshape.default(add_14, [-1, 4096])
        
         # File: /app/low_bit_inference/optims/rms_norm_kernels/liger_rms_norm.py:451 in rms_norm_forward, code: RSTD = torch.empty(n_rows, dtype=rstd_dtype, device=X.device)
        empty_15: "f32[1][1]cuda:0" = torch.ops.aten.empty.memory_format([1], dtype = torch.float32, device = device(type='cuda', index=0), pin_memory = False)
        
         # File: /app/low_bit_inference/optims/rms_norm_kernels/liger_rms_norm.py:461 in rms_norm_forward, code: _rms_norm_forward_kernel[(n_rows,)](
        triton_kernel_wrapper_functional_proxy_7 = torch.ops.higher_order.triton_kernel_wrapper_functional(kernel_idx = 203, constant_args_idx = 202, grid = [(1, 1, 1)], tma_descriptor_metadata = {}, kwargs = {'Y_ptr': empty_14, 'X_ptr': view_128, 'W_ptr': arg46_1, 'RSTD_ptr': empty_15}, tensors_to_clone = ['Y_ptr', 'RSTD_ptr']);  empty_14 = view_128 = arg46_1 = empty_15 = None
        getitem_30: "f16[1, 4096][4096, 1]cuda:0" = triton_kernel_wrapper_functional_proxy_7['Y_ptr'];  triton_kernel_wrapper_functional_proxy_7 = None
        
         # File: /app/low_bit_inference/optims/rms_norm_kernels/liger_rms_norm.py:447 in rms_norm_forward, code: Y = torch.empty((n_rows, n_cols), dtype=X.dtype, device=X.device)
        empty_16: "f16[1, 4096][4096, 1]cuda:0" = torch.ops.aten.empty.memory_format([1, 4096], dtype = torch.float16, device = device(type='cuda', index=0), pin_memory = False)
        
         # File: /app/low_bit_inference/model.py:124 in forward, code: down_proj = self.down_proj(self.act_fn(self.gate_proj(x)) * self.up_proj(x))
        convert_element_type_84: "f32[1, 4096][4096, 1]cuda:0" = torch.ops.prims.convert_element_type.default(getitem_30, torch.float32)
        unsqueeze_80: "f32[1, 4096, 1][4096, 1, 1]cuda:0" = torch.ops.aten.unsqueeze.default(convert_element_type_84, 2);  convert_element_type_84 = None
        permute_42: "f16[4096, 14336][1, 4096]cuda:0" = torch.ops.aten.permute.default(arg47_1, [1, 0]);  arg47_1 = None
        convert_element_type_85: "f32[4096, 14336][1, 4096]cuda:0" = torch.ops.prims.convert_element_type.default(permute_42, torch.float32);  permute_42 = None
        unsqueeze_81: "f32[1, 4096, 14336][4096, 1, 4096]cuda:0" = torch.ops.aten.unsqueeze.default(convert_element_type_85, 0);  convert_element_type_85 = None
        mul_50: "f32[1, 4096, 14336][4096, 1, 4096]cuda:0" = torch.ops.aten.mul.Tensor(unsqueeze_80, unsqueeze_81);  unsqueeze_80 = unsqueeze_81 = None
        sum_27: "f32[1, 14336][14336, 1]cuda:0" = torch.ops.aten.sum.dim_IntList(mul_50, [1]);  mul_50 = None
        convert_element_type_86: "f16[1, 14336][14336, 1]cuda:0" = torch.ops.prims.convert_element_type.default(sum_27, torch.float16);  sum_27 = None
        view_133: "f16[1, 1, 14336][14336, 14336, 1]cuda:0" = torch.ops.aten.reshape.default(convert_element_type_86, [1, 1, 14336]);  convert_element_type_86 = None
        convert_element_type_87: "f32[1, 1, 14336][14336, 14336, 1]cuda:0" = torch.ops.prims.convert_element_type.default(view_133, torch.float32);  view_133 = None
        sigmoid_3: "f32[1, 1, 14336][14336, 14336, 1]cuda:0" = torch.ops.aten.sigmoid.default(convert_element_type_87)
        mul_51: "f32[1, 1, 14336][14336, 14336, 1]cuda:0" = torch.ops.aten.mul.Tensor(convert_element_type_87, sigmoid_3);  convert_element_type_87 = sigmoid_3 = None
        convert_element_type_88: "f16[1, 1, 14336][14336, 14336, 1]cuda:0" = torch.ops.prims.convert_element_type.default(mul_51, torch.float16);  mul_51 = None
        convert_element_type_89: "f32[1, 4096][4096, 1]cuda:0" = torch.ops.prims.convert_element_type.default(getitem_30, torch.float32);  getitem_30 = None
        unsqueeze_82: "f32[1, 4096, 1][4096, 1, 1]cuda:0" = torch.ops.aten.unsqueeze.default(convert_element_type_89, 2);  convert_element_type_89 = None
        permute_43: "f16[4096, 14336][1, 4096]cuda:0" = torch.ops.aten.permute.default(arg48_1, [1, 0]);  arg48_1 = None
        convert_element_type_90: "f32[4096, 14336][1, 4096]cuda:0" = torch.ops.prims.convert_element_type.default(permute_43, torch.float32);  permute_43 = None
        unsqueeze_83: "f32[1, 4096, 14336][4096, 1, 4096]cuda:0" = torch.ops.aten.unsqueeze.default(convert_element_type_90, 0);  convert_element_type_90 = None
        mul_52: "f32[1, 4096, 14336][4096, 1, 4096]cuda:0" = torch.ops.aten.mul.Tensor(unsqueeze_82, unsqueeze_83);  unsqueeze_82 = unsqueeze_83 = None
        sum_28: "f32[1, 14336][14336, 1]cuda:0" = torch.ops.aten.sum.dim_IntList(mul_52, [1]);  mul_52 = None
        convert_element_type_91: "f16[1, 14336][14336, 1]cuda:0" = torch.ops.prims.convert_element_type.default(sum_28, torch.float16);  sum_28 = None
        view_137: "f16[1, 1, 14336][14336, 14336, 1]cuda:0" = torch.ops.aten.reshape.default(convert_element_type_91, [1, 1, 14336]);  convert_element_type_91 = None
        mul_53: "f16[1, 1, 14336][14336, 14336, 1]cuda:0" = torch.ops.aten.mul.Tensor(convert_element_type_88, view_137);  convert_element_type_88 = view_137 = None
        view_138: "f16[1, 14336][14336, 1]cuda:0" = torch.ops.aten.reshape.default(mul_53, [1, 14336]);  mul_53 = None
        convert_element_type_92: "f32[1, 14336][14336, 1]cuda:0" = torch.ops.prims.convert_element_type.default(view_138, torch.float32);  view_138 = None
        unsqueeze_84: "f32[1, 14336, 1][14336, 1, 1]cuda:0" = torch.ops.aten.unsqueeze.default(convert_element_type_92, 2);  convert_element_type_92 = None
        permute_44: "f16[14336, 4096][1, 14336]cuda:0" = torch.ops.aten.permute.default(arg49_1, [1, 0]);  arg49_1 = None
        convert_element_type_93: "f32[14336, 4096][1, 14336]cuda:0" = torch.ops.prims.convert_element_type.default(permute_44, torch.float32);  permute_44 = None
        unsqueeze_85: "f32[1, 14336, 4096][14336, 1, 14336]cuda:0" = torch.ops.aten.unsqueeze.default(convert_element_type_93, 0);  convert_element_type_93 = None
        mul_54: "f32[1, 14336, 4096][14336, 1, 14336]cuda:0" = torch.ops.aten.mul.Tensor(unsqueeze_84, unsqueeze_85);  unsqueeze_84 = unsqueeze_85 = None
        sum_29: "f32[1, 4096][4096, 1]cuda:0" = torch.ops.aten.sum.dim_IntList(mul_54, [1]);  mul_54 = None
        convert_element_type_94: "f16[1, 4096][4096, 1]cuda:0" = torch.ops.prims.convert_element_type.default(sum_29, torch.float16);  sum_29 = None
        view_139: "f16[1, 1, 4096][4096, 4096, 1]cuda:0" = torch.ops.aten.reshape.default(convert_element_type_94, [1, 1, 4096]);  convert_element_type_94 = None
        
         # File: /app/low_bit_inference/model.py:279 in forward, code: hidden_states = residual + hidden_states
        add_15: "f16[1, 1, 4096][4096, 4096, 1]cuda:0" = torch.ops.aten.add.Tensor(add_14, view_139);  add_14 = view_139 = None
        
         # File: /app/low_bit_inference/optims/rms_norm_kernels/liger_rms_norm.py:443 in rms_norm_forward, code: X = X.view(-1, dim)
        view_140: "f16[1, 4096][4096, 1]cuda:0" = torch.ops.aten.reshape.default(add_15, [-1, 4096])
        
         # File: /app/low_bit_inference/optims/rms_norm_kernels/liger_rms_norm.py:451 in rms_norm_forward, code: RSTD = torch.empty(n_rows, dtype=rstd_dtype, device=X.device)
        empty_17: "f32[1][1]cuda:0" = torch.ops.aten.empty.memory_format([1], dtype = torch.float32, device = device(type='cuda', index=0), pin_memory = False)
        
         # File: /app/low_bit_inference/optims/rms_norm_kernels/liger_rms_norm.py:461 in rms_norm_forward, code: _rms_norm_forward_kernel[(n_rows,)](
        triton_kernel_wrapper_functional_proxy_8 = torch.ops.higher_order.triton_kernel_wrapper_functional(kernel_idx = 204, constant_args_idx = 203, grid = [(1, 1, 1)], tma_descriptor_metadata = {}, kwargs = {'Y_ptr': empty_16, 'X_ptr': view_140, 'W_ptr': arg50_1, 'RSTD_ptr': empty_17}, tensors_to_clone = ['Y_ptr', 'RSTD_ptr']);  empty_16 = view_140 = arg50_1 = empty_17 = None
        getitem_32: "f16[1, 4096][4096, 1]cuda:0" = triton_kernel_wrapper_functional_proxy_8['Y_ptr'];  triton_kernel_wrapper_functional_proxy_8 = None
        
         # File: /app/low_bit_inference/model.py:206 in forward, code: query_states = self.q_proj(hidden_states).view(hidden_shape).transpose(1, 2)
        convert_element_type_95: "f32[1, 4096][4096, 1]cuda:0" = torch.ops.prims.convert_element_type.default(getitem_32, torch.float32)
        unsqueeze_86: "f32[1, 4096, 1][4096, 1, 1]cuda:0" = torch.ops.aten.unsqueeze.default(convert_element_type_95, 2);  convert_element_type_95 = None
        permute_45: "f16[4096, 4096][1, 4096]cuda:0" = torch.ops.aten.permute.default(arg51_1, [1, 0]);  arg51_1 = None
        convert_element_type_96: "f32[4096, 4096][1, 4096]cuda:0" = torch.ops.prims.convert_element_type.default(permute_45, torch.float32);  permute_45 = None
        unsqueeze_87: "f32[1, 4096, 4096][4096, 1, 4096]cuda:0" = torch.ops.aten.unsqueeze.default(convert_element_type_96, 0);  convert_element_type_96 = None
        mul_55: "f32[1, 4096, 4096][4096, 1, 4096]cuda:0" = torch.ops.aten.mul.Tensor(unsqueeze_86, unsqueeze_87);  unsqueeze_86 = unsqueeze_87 = None
        sum_30: "f32[1, 4096][4096, 1]cuda:0" = torch.ops.aten.sum.dim_IntList(mul_55, [1]);  mul_55 = None
        convert_element_type_97: "f16[1, 4096][4096, 1]cuda:0" = torch.ops.prims.convert_element_type.default(sum_30, torch.float16);  sum_30 = None
        view_145: "f16[1, 1, 4096][4096, 4096, 1]cuda:0" = torch.ops.aten.reshape.default(convert_element_type_97, [1, 1, 4096]);  convert_element_type_97 = None
        view_146: "f16[1, 1, 32, 128][4096, 4096, 128, 1]cuda:0" = torch.ops.aten.reshape.default(view_145, [1, 1, -1, 128]);  view_145 = None
        permute_46: "f16[1, 32, 1, 128][4096, 128, 4096, 1]cuda:0" = torch.ops.aten.permute.default(view_146, [0, 2, 1, 3]);  view_146 = None
        
         # File: /app/low_bit_inference/model.py:105 in apply_rotary_pos_emb, code: cos = cos.unsqueeze(unsqueeze_dim)
        unsqueeze_92: "f16[1, 1, 1, 128][128, 128, 128, 1]cuda:0" = torch.ops.aten.unsqueeze.default(convert_element_type_1, 1)
        
         # File: /app/low_bit_inference/model.py:107 in apply_rotary_pos_emb, code: q_embed = (q * cos) + (rotate_half(q) * sin)
        mul_58: "f16[1, 32, 1, 128][4096, 128, 4096, 1]cuda:0" = torch.ops.aten.mul.Tensor(permute_46, unsqueeze_92)
        
         # File: /app/low_bit_inference/model.py:81 in rotate_half, code: x2 = x[..., x.shape[-1] // 2 :]
        slice_97: "f16[1, 32, 1, 64][4096, 128, 4096, 1]cuda:0" = torch.ops.aten.slice.Tensor(permute_46, 3, 64, 9223372036854775807)
        
         # File: /app/low_bit_inference/model.py:82 in rotate_half, code: return torch.cat((-x2, x1), dim=-1)
        neg_8: "f16[1, 32, 1, 64][2048, 64, 64, 1]cuda:0" = torch.ops.aten.neg.default(slice_97);  slice_97 = None
        
         # File: /app/low_bit_inference/model.py:80 in rotate_half, code: x1 = x[..., : x.shape[-1] // 2]
        slice_96: "f16[1, 32, 1, 64][4096, 128, 4096, 1]cuda:0" = torch.ops.aten.slice.Tensor(permute_46, 3, 0, 64);  permute_46 = None
        
         # File: /app/low_bit_inference/model.py:82 in rotate_half, code: return torch.cat((-x2, x1), dim=-1)
        cat_8: "f16[1, 32, 1, 128][4096, 128, 128, 1]cuda:0" = torch.ops.aten.cat.default([neg_8, slice_96], -1);  neg_8 = slice_96 = None
        
         # File: /app/low_bit_inference/model.py:106 in apply_rotary_pos_emb, code: sin = sin.unsqueeze(unsqueeze_dim)
        unsqueeze_93: "f16[1, 1, 1, 128][128, 128, 128, 1]cuda:0" = torch.ops.aten.unsqueeze.default(convert_element_type_2, 1)
        
         # File: /app/low_bit_inference/model.py:107 in apply_rotary_pos_emb, code: q_embed = (q * cos) + (rotate_half(q) * sin)
        mul_59: "f16[1, 32, 1, 128][4096, 128, 128, 1]cuda:0" = torch.ops.aten.mul.Tensor(cat_8, unsqueeze_93);  cat_8 = None
        add_16: "f16[1, 32, 1, 128][4096, 128, 128, 1]cuda:0" = torch.ops.aten.add.Tensor(mul_58, mul_59);  mul_58 = mul_59 = None
        
         # File: /app/low_bit_inference/model.py:207 in forward, code: key_states = self.k_proj(hidden_states).view(hidden_shape).transpose(1, 2)
        convert_element_type_98: "f32[1, 4096][4096, 1]cuda:0" = torch.ops.prims.convert_element_type.default(getitem_32, torch.float32)
        unsqueeze_88: "f32[1, 4096, 1][4096, 1, 1]cuda:0" = torch.ops.aten.unsqueeze.default(convert_element_type_98, 2);  convert_element_type_98 = None
        permute_47: "f16[4096, 1024][1, 4096]cuda:0" = torch.ops.aten.permute.default(arg52_1, [1, 0]);  arg52_1 = None
        convert_element_type_99: "f32[4096, 1024][1, 4096]cuda:0" = torch.ops.prims.convert_element_type.default(permute_47, torch.float32);  permute_47 = None
        unsqueeze_89: "f32[1, 4096, 1024][4096, 1, 4096]cuda:0" = torch.ops.aten.unsqueeze.default(convert_element_type_99, 0);  convert_element_type_99 = None
        mul_56: "f32[1, 4096, 1024][4096, 1, 4096]cuda:0" = torch.ops.aten.mul.Tensor(unsqueeze_88, unsqueeze_89);  unsqueeze_88 = unsqueeze_89 = None
        sum_31: "f32[1, 1024][1024, 1]cuda:0" = torch.ops.aten.sum.dim_IntList(mul_56, [1]);  mul_56 = None
        convert_element_type_100: "f16[1, 1024][1024, 1]cuda:0" = torch.ops.prims.convert_element_type.default(sum_31, torch.float16);  sum_31 = None
        view_150: "f16[1, 1, 1024][1024, 1024, 1]cuda:0" = torch.ops.aten.reshape.default(convert_element_type_100, [1, 1, 1024]);  convert_element_type_100 = None
        view_151: "f16[1, 1, 8, 128][1024, 1024, 128, 1]cuda:0" = torch.ops.aten.reshape.default(view_150, [1, 1, -1, 128]);  view_150 = None
        permute_48: "f16[1, 8, 1, 128][1024, 128, 1024, 1]cuda:0" = torch.ops.aten.permute.default(view_151, [0, 2, 1, 3]);  view_151 = None
        
         # File: /app/low_bit_inference/model.py:108 in apply_rotary_pos_emb, code: k_embed = (k * cos) + (rotate_half(k) * sin)
        mul_60: "f16[1, 8, 1, 128][1024, 128, 1024, 1]cuda:0" = torch.ops.aten.mul.Tensor(permute_48, unsqueeze_92);  unsqueeze_92 = None
        
         # File: /app/low_bit_inference/model.py:81 in rotate_half, code: x2 = x[..., x.shape[-1] // 2 :]
        slice_99: "f16[1, 8, 1, 64][1024, 128, 1024, 1]cuda:0" = torch.ops.aten.slice.Tensor(permute_48, 3, 64, 9223372036854775807)
        
         # File: /app/low_bit_inference/model.py:82 in rotate_half, code: return torch.cat((-x2, x1), dim=-1)
        neg_9: "f16[1, 8, 1, 64][512, 64, 64, 1]cuda:0" = torch.ops.aten.neg.default(slice_99);  slice_99 = None
        
         # File: /app/low_bit_inference/model.py:80 in rotate_half, code: x1 = x[..., : x.shape[-1] // 2]
        slice_98: "f16[1, 8, 1, 64][1024, 128, 1024, 1]cuda:0" = torch.ops.aten.slice.Tensor(permute_48, 3, 0, 64);  permute_48 = None
        
         # File: /app/low_bit_inference/model.py:82 in rotate_half, code: return torch.cat((-x2, x1), dim=-1)
        cat_9: "f16[1, 8, 1, 128][1024, 128, 128, 1]cuda:0" = torch.ops.aten.cat.default([neg_9, slice_98], -1);  neg_9 = slice_98 = None
        
         # File: /app/low_bit_inference/model.py:108 in apply_rotary_pos_emb, code: k_embed = (k * cos) + (rotate_half(k) * sin)
        mul_61: "f16[1, 8, 1, 128][1024, 128, 128, 1]cuda:0" = torch.ops.aten.mul.Tensor(cat_9, unsqueeze_93);  cat_9 = unsqueeze_93 = None
        add_17: "f16[1, 8, 1, 128][1024, 128, 128, 1]cuda:0" = torch.ops.aten.add.Tensor(mul_60, mul_61);  mul_60 = mul_61 = None
        
         # File: /app/low_bit_inference/optims/cache_optim.py:156 in update, code: self.keys.index_copy_(2, cache_position, key_states)
        index_put_8: "f16[1, 8, 2048, 128][2097152, 262144, 128, 1]cuda:0" = torch.ops.aten.index_put.default(arg54_1, [None, None, arg2_1], add_17);  add_17 = None
        
         # File: /app/.venv/lib/python3.12/site-packages/transformers/integrations/sdpa_attention.py:15 in repeat_kv, code: return hidden_states.reshape(batch, num_key_value_heads * n_rep, slen, head_dim)
        unsqueeze_95: "f16[1, 8, 1, 2048, 128][2097152, 262144, 262144, 128, 1]cuda:0" = torch.ops.aten.unsqueeze.default(index_put_8, 2)
        expand_25: "f16[1, 8, 4, 2048, 128][2097152, 262144, 0, 128, 1]cuda:0" = torch.ops.aten.expand.default(unsqueeze_95, [1, 8, 4, 2048, 128]);  unsqueeze_95 = None
        clone_10: "f16[1, 8, 4, 2048, 128][8388608, 1048576, 262144, 128, 1]cuda:0" = torch.ops.aten.clone.default(expand_25, memory_format = torch.contiguous_format);  expand_25 = None
        view_157: "f16[1, 32, 2048, 128][8388608, 262144, 128, 1]cuda:0" = torch.ops.aten.reshape.default(clone_10, [1, 32, 2048, 128]);  clone_10 = None
        
         # File: /app/low_bit_inference/model.py:208 in forward, code: value_states = self.v_proj(hidden_states).view(hidden_shape).transpose(1, 2)
        convert_element_type_101: "f32[1, 4096][4096, 1]cuda:0" = torch.ops.prims.convert_element_type.default(getitem_32, torch.float32);  getitem_32 = None
        unsqueeze_90: "f32[1, 4096, 1][4096, 1, 1]cuda:0" = torch.ops.aten.unsqueeze.default(convert_element_type_101, 2);  convert_element_type_101 = None
        permute_49: "f16[4096, 1024][1, 4096]cuda:0" = torch.ops.aten.permute.default(arg53_1, [1, 0]);  arg53_1 = None
        convert_element_type_102: "f32[4096, 1024][1, 4096]cuda:0" = torch.ops.prims.convert_element_type.default(permute_49, torch.float32);  permute_49 = None
        unsqueeze_91: "f32[1, 4096, 1024][4096, 1, 4096]cuda:0" = torch.ops.aten.unsqueeze.default(convert_element_type_102, 0);  convert_element_type_102 = None
        mul_57: "f32[1, 4096, 1024][4096, 1, 4096]cuda:0" = torch.ops.aten.mul.Tensor(unsqueeze_90, unsqueeze_91);  unsqueeze_90 = unsqueeze_91 = None
        sum_32: "f32[1, 1024][1024, 1]cuda:0" = torch.ops.aten.sum.dim_IntList(mul_57, [1]);  mul_57 = None
        convert_element_type_103: "f16[1, 1024][1024, 1]cuda:0" = torch.ops.prims.convert_element_type.default(sum_32, torch.float16);  sum_32 = None
        view_155: "f16[1, 1, 1024][1024, 1024, 1]cuda:0" = torch.ops.aten.reshape.default(convert_element_type_103, [1, 1, 1024]);  convert_element_type_103 = None
        view_156: "f16[1, 1, 8, 128][1024, 1024, 128, 1]cuda:0" = torch.ops.aten.reshape.default(view_155, [1, 1, -1, 128]);  view_155 = None
        permute_50: "f16[1, 8, 1, 128][1024, 128, 1024, 1]cuda:0" = torch.ops.aten.permute.default(view_156, [0, 2, 1, 3]);  view_156 = None
        
         # File: /app/low_bit_inference/optims/cache_optim.py:157 in update, code: self.values.index_copy_(2, cache_position, value_states)
        index_put_9: "f16[1, 8, 2048, 128][2097152, 262144, 128, 1]cuda:0" = torch.ops.aten.index_put.default(arg55_1, [None, None, arg2_1], permute_50);  permute_50 = None
        
         # File: /app/.venv/lib/python3.12/site-packages/transformers/integrations/sdpa_attention.py:15 in repeat_kv, code: return hidden_states.reshape(batch, num_key_value_heads * n_rep, slen, head_dim)
        unsqueeze_97: "f16[1, 8, 1, 2048, 128][2097152, 262144, 262144, 128, 1]cuda:0" = torch.ops.aten.unsqueeze.default(index_put_9, 2)
        expand_27: "f16[1, 8, 4, 2048, 128][2097152, 262144, 0, 128, 1]cuda:0" = torch.ops.aten.expand.default(unsqueeze_97, [1, 8, 4, 2048, 128]);  unsqueeze_97 = None
        clone_11: "f16[1, 8, 4, 2048, 128][8388608, 1048576, 262144, 128, 1]cuda:0" = torch.ops.aten.clone.default(expand_27, memory_format = torch.contiguous_format);  expand_27 = None
        view_158: "f16[1, 32, 2048, 128][8388608, 262144, 128, 1]cuda:0" = torch.ops.aten.reshape.default(clone_11, [1, 32, 2048, 128]);  clone_11 = None
        
         # File: /app/.venv/lib/python3.12/site-packages/transformers/integrations/sdpa_attention.py:54 in sdpa_attention_forward, code: attn_output = torch.nn.functional.scaled_dot_product_attention(
        full_default_9: "f16[][]cuda:0" = torch.ops.aten.full.default([], 0.0, dtype = torch.float16, layout = torch.strided, device = device(type='cuda', index=0), pin_memory = False)
        full_default_8: "f16[][]cuda:0" = torch.ops.aten.full.default([], -inf, dtype = torch.float16, layout = torch.strided, device = device(type='cuda', index=0), pin_memory = False)
        where_4: "f16[1, 1, 1, 2048][2048, 2048, 2048, 1]cuda:0" = torch.ops.aten.where.self(arg4_1, full_default_9, full_default_8);  full_default_9 = full_default_8 = None
        expand_28: "f16[1, 32, 1, 2048][2048, 0, 2048, 1]cuda:0" = torch.ops.aten.expand.default(where_4, [1, 32, 1, 2048]);  where_4 = None
        _scaled_dot_product_efficient_attention_4 = torch.ops.aten._scaled_dot_product_efficient_attention.default(add_16, view_157, view_158, expand_28, False, scale = 0.08838834764831845);  add_16 = view_157 = view_158 = expand_28 = None
        getitem_34: "f16[1, 32, 1, 128][4096, 128, 4096, 1]cuda:0" = _scaled_dot_product_efficient_attention_4[0];  _scaled_dot_product_efficient_attention_4 = None
        
         # File: /app/low_bit_inference/optims/rms_norm_kernels/liger_rms_norm.py:447 in rms_norm_forward, code: Y = torch.empty((n_rows, n_cols), dtype=X.dtype, device=X.device)
        empty_18: "f16[1, 4096][4096, 1]cuda:0" = torch.ops.aten.empty.memory_format([1, 4096], dtype = torch.float16, device = device(type='cuda', index=0), pin_memory = False)
        
         # File: /app/.venv/lib/python3.12/site-packages/transformers/integrations/sdpa_attention.py:63 in sdpa_attention_forward, code: attn_output = attn_output.transpose(1, 2).contiguous()
        permute_51: "f16[1, 1, 32, 128][4096, 4096, 128, 1]cuda:0" = torch.ops.aten.permute.default(getitem_34, [0, 2, 1, 3]);  getitem_34 = None
        
         # File: /app/low_bit_inference/model.py:233 in forward, code: attn_output = attn_output.reshape(*input_shape, -1).contiguous()
        view_159: "f16[1, 1, 4096][4096, 4096, 1]cuda:0" = torch.ops.aten.reshape.default(permute_51, [1, 1, -1]);  permute_51 = None
        
         # File: /app/low_bit_inference/model.py:234 in forward, code: attn_output = self.o_proj(attn_output)
        view_160: "f16[1, 4096][4096, 1]cuda:0" = torch.ops.aten.reshape.default(view_159, [1, 4096]);  view_159 = None
        convert_element_type_104: "f32[1, 4096][4096, 1]cuda:0" = torch.ops.prims.convert_element_type.default(view_160, torch.float32);  view_160 = None
        unsqueeze_98: "f32[1, 4096, 1][4096, 1, 1]cuda:0" = torch.ops.aten.unsqueeze.default(convert_element_type_104, 2);  convert_element_type_104 = None
        permute_52: "f16[4096, 4096][1, 4096]cuda:0" = torch.ops.aten.permute.default(arg56_1, [1, 0]);  arg56_1 = None
        convert_element_type_105: "f32[4096, 4096][1, 4096]cuda:0" = torch.ops.prims.convert_element_type.default(permute_52, torch.float32);  permute_52 = None
        unsqueeze_99: "f32[1, 4096, 4096][4096, 1, 4096]cuda:0" = torch.ops.aten.unsqueeze.default(convert_element_type_105, 0);  convert_element_type_105 = None
        mul_62: "f32[1, 4096, 4096][4096, 1, 4096]cuda:0" = torch.ops.aten.mul.Tensor(unsqueeze_98, unsqueeze_99);  unsqueeze_98 = unsqueeze_99 = None
        sum_33: "f32[1, 4096][4096, 1]cuda:0" = torch.ops.aten.sum.dim_IntList(mul_62, [1]);  mul_62 = None
        convert_element_type_106: "f16[1, 4096][4096, 1]cuda:0" = torch.ops.prims.convert_element_type.default(sum_33, torch.float16);  sum_33 = None
        view_161: "f16[1, 1, 4096][4096, 4096, 1]cuda:0" = torch.ops.aten.reshape.default(convert_element_type_106, [1, 1, 4096]);  convert_element_type_106 = None
        
         # File: /app/low_bit_inference/model.py:273 in forward, code: hidden_states = residual + hidden_states
        add_18: "f16[1, 1, 4096][4096, 4096, 1]cuda:0" = torch.ops.aten.add.Tensor(add_15, view_161);  add_15 = view_161 = None
        
         # File: /app/low_bit_inference/optims/rms_norm_kernels/liger_rms_norm.py:443 in rms_norm_forward, code: X = X.view(-1, dim)
        view_162: "f16[1, 4096][4096, 1]cuda:0" = torch.ops.aten.reshape.default(add_18, [-1, 4096])
        
         # File: /app/low_bit_inference/optims/rms_norm_kernels/liger_rms_norm.py:451 in rms_norm_forward, code: RSTD = torch.empty(n_rows, dtype=rstd_dtype, device=X.device)
        empty_19: "f32[1][1]cuda:0" = torch.ops.aten.empty.memory_format([1], dtype = torch.float32, device = device(type='cuda', index=0), pin_memory = False)
        
         # File: /app/low_bit_inference/optims/rms_norm_kernels/liger_rms_norm.py:461 in rms_norm_forward, code: _rms_norm_forward_kernel[(n_rows,)](
        triton_kernel_wrapper_functional_proxy_9 = torch.ops.higher_order.triton_kernel_wrapper_functional(kernel_idx = 205, constant_args_idx = 204, grid = [(1, 1, 1)], tma_descriptor_metadata = {}, kwargs = {'Y_ptr': empty_18, 'X_ptr': view_162, 'W_ptr': arg57_1, 'RSTD_ptr': empty_19}, tensors_to_clone = ['Y_ptr', 'RSTD_ptr']);  empty_18 = view_162 = arg57_1 = empty_19 = None
        getitem_38: "f16[1, 4096][4096, 1]cuda:0" = triton_kernel_wrapper_functional_proxy_9['Y_ptr'];  triton_kernel_wrapper_functional_proxy_9 = None
        
         # File: /app/low_bit_inference/optims/rms_norm_kernels/liger_rms_norm.py:447 in rms_norm_forward, code: Y = torch.empty((n_rows, n_cols), dtype=X.dtype, device=X.device)
        empty_20: "f16[1, 4096][4096, 1]cuda:0" = torch.ops.aten.empty.memory_format([1, 4096], dtype = torch.float16, device = device(type='cuda', index=0), pin_memory = False)
        
         # File: /app/low_bit_inference/model.py:124 in forward, code: down_proj = self.down_proj(self.act_fn(self.gate_proj(x)) * self.up_proj(x))
        convert_element_type_107: "f32[1, 4096][4096, 1]cuda:0" = torch.ops.prims.convert_element_type.default(getitem_38, torch.float32)
        unsqueeze_100: "f32[1, 4096, 1][4096, 1, 1]cuda:0" = torch.ops.aten.unsqueeze.default(convert_element_type_107, 2);  convert_element_type_107 = None
        permute_53: "f16[4096, 14336][1, 4096]cuda:0" = torch.ops.aten.permute.default(arg58_1, [1, 0]);  arg58_1 = None
        convert_element_type_108: "f32[4096, 14336][1, 4096]cuda:0" = torch.ops.prims.convert_element_type.default(permute_53, torch.float32);  permute_53 = None
        unsqueeze_101: "f32[1, 4096, 14336][4096, 1, 4096]cuda:0" = torch.ops.aten.unsqueeze.default(convert_element_type_108, 0);  convert_element_type_108 = None
        mul_63: "f32[1, 4096, 14336][4096, 1, 4096]cuda:0" = torch.ops.aten.mul.Tensor(unsqueeze_100, unsqueeze_101);  unsqueeze_100 = unsqueeze_101 = None
        sum_34: "f32[1, 14336][14336, 1]cuda:0" = torch.ops.aten.sum.dim_IntList(mul_63, [1]);  mul_63 = None
        convert_element_type_109: "f16[1, 14336][14336, 1]cuda:0" = torch.ops.prims.convert_element_type.default(sum_34, torch.float16);  sum_34 = None
        view_167: "f16[1, 1, 14336][14336, 14336, 1]cuda:0" = torch.ops.aten.reshape.default(convert_element_type_109, [1, 1, 14336]);  convert_element_type_109 = None
        convert_element_type_110: "f32[1, 1, 14336][14336, 14336, 1]cuda:0" = torch.ops.prims.convert_element_type.default(view_167, torch.float32);  view_167 = None
        sigmoid_4: "f32[1, 1, 14336][14336, 14336, 1]cuda:0" = torch.ops.aten.sigmoid.default(convert_element_type_110)
        mul_64: "f32[1, 1, 14336][14336, 14336, 1]cuda:0" = torch.ops.aten.mul.Tensor(convert_element_type_110, sigmoid_4);  convert_element_type_110 = sigmoid_4 = None
        convert_element_type_111: "f16[1, 1, 14336][14336, 14336, 1]cuda:0" = torch.ops.prims.convert_element_type.default(mul_64, torch.float16);  mul_64 = None
        convert_element_type_112: "f32[1, 4096][4096, 1]cuda:0" = torch.ops.prims.convert_element_type.default(getitem_38, torch.float32);  getitem_38 = None
        unsqueeze_102: "f32[1, 4096, 1][4096, 1, 1]cuda:0" = torch.ops.aten.unsqueeze.default(convert_element_type_112, 2);  convert_element_type_112 = None
        permute_54: "f16[4096, 14336][1, 4096]cuda:0" = torch.ops.aten.permute.default(arg59_1, [1, 0]);  arg59_1 = None
        convert_element_type_113: "f32[4096, 14336][1, 4096]cuda:0" = torch.ops.prims.convert_element_type.default(permute_54, torch.float32);  permute_54 = None
        unsqueeze_103: "f32[1, 4096, 14336][4096, 1, 4096]cuda:0" = torch.ops.aten.unsqueeze.default(convert_element_type_113, 0);  convert_element_type_113 = None
        mul_65: "f32[1, 4096, 14336][4096, 1, 4096]cuda:0" = torch.ops.aten.mul.Tensor(unsqueeze_102, unsqueeze_103);  unsqueeze_102 = unsqueeze_103 = None
        sum_35: "f32[1, 14336][14336, 1]cuda:0" = torch.ops.aten.sum.dim_IntList(mul_65, [1]);  mul_65 = None
        convert_element_type_114: "f16[1, 14336][14336, 1]cuda:0" = torch.ops.prims.convert_element_type.default(sum_35, torch.float16);  sum_35 = None
        view_171: "f16[1, 1, 14336][14336, 14336, 1]cuda:0" = torch.ops.aten.reshape.default(convert_element_type_114, [1, 1, 14336]);  convert_element_type_114 = None
        mul_66: "f16[1, 1, 14336][14336, 14336, 1]cuda:0" = torch.ops.aten.mul.Tensor(convert_element_type_111, view_171);  convert_element_type_111 = view_171 = None
        view_172: "f16[1, 14336][14336, 1]cuda:0" = torch.ops.aten.reshape.default(mul_66, [1, 14336]);  mul_66 = None
        convert_element_type_115: "f32[1, 14336][14336, 1]cuda:0" = torch.ops.prims.convert_element_type.default(view_172, torch.float32);  view_172 = None
        unsqueeze_104: "f32[1, 14336, 1][14336, 1, 1]cuda:0" = torch.ops.aten.unsqueeze.default(convert_element_type_115, 2);  convert_element_type_115 = None
        permute_55: "f16[14336, 4096][1, 14336]cuda:0" = torch.ops.aten.permute.default(arg60_1, [1, 0]);  arg60_1 = None
        convert_element_type_116: "f32[14336, 4096][1, 14336]cuda:0" = torch.ops.prims.convert_element_type.default(permute_55, torch.float32);  permute_55 = None
        unsqueeze_105: "f32[1, 14336, 4096][14336, 1, 14336]cuda:0" = torch.ops.aten.unsqueeze.default(convert_element_type_116, 0);  convert_element_type_116 = None
        mul_67: "f32[1, 14336, 4096][14336, 1, 14336]cuda:0" = torch.ops.aten.mul.Tensor(unsqueeze_104, unsqueeze_105);  unsqueeze_104 = unsqueeze_105 = None
        sum_36: "f32[1, 4096][4096, 1]cuda:0" = torch.ops.aten.sum.dim_IntList(mul_67, [1]);  mul_67 = None
        convert_element_type_117: "f16[1, 4096][4096, 1]cuda:0" = torch.ops.prims.convert_element_type.default(sum_36, torch.float16);  sum_36 = None
        view_173: "f16[1, 1, 4096][4096, 4096, 1]cuda:0" = torch.ops.aten.reshape.default(convert_element_type_117, [1, 1, 4096]);  convert_element_type_117 = None
        
         # File: /app/low_bit_inference/model.py:279 in forward, code: hidden_states = residual + hidden_states
        add_19: "f16[1, 1, 4096][4096, 4096, 1]cuda:0" = torch.ops.aten.add.Tensor(add_18, view_173);  add_18 = view_173 = None
        
         # File: /app/low_bit_inference/optims/rms_norm_kernels/liger_rms_norm.py:443 in rms_norm_forward, code: X = X.view(-1, dim)
        view_174: "f16[1, 4096][4096, 1]cuda:0" = torch.ops.aten.reshape.default(add_19, [-1, 4096])
        
         # File: /app/low_bit_inference/optims/rms_norm_kernels/liger_rms_norm.py:451 in rms_norm_forward, code: RSTD = torch.empty(n_rows, dtype=rstd_dtype, device=X.device)
        empty_21: "f32[1][1]cuda:0" = torch.ops.aten.empty.memory_format([1], dtype = torch.float32, device = device(type='cuda', index=0), pin_memory = False)
        
         # File: /app/low_bit_inference/optims/rms_norm_kernels/liger_rms_norm.py:461 in rms_norm_forward, code: _rms_norm_forward_kernel[(n_rows,)](
        triton_kernel_wrapper_functional_proxy_10 = torch.ops.higher_order.triton_kernel_wrapper_functional(kernel_idx = 206, constant_args_idx = 205, grid = [(1, 1, 1)], tma_descriptor_metadata = {}, kwargs = {'Y_ptr': empty_20, 'X_ptr': view_174, 'W_ptr': arg61_1, 'RSTD_ptr': empty_21}, tensors_to_clone = ['Y_ptr', 'RSTD_ptr']);  empty_20 = view_174 = arg61_1 = empty_21 = None
        getitem_40: "f16[1, 4096][4096, 1]cuda:0" = triton_kernel_wrapper_functional_proxy_10['Y_ptr'];  triton_kernel_wrapper_functional_proxy_10 = None
        
         # File: /app/low_bit_inference/model.py:206 in forward, code: query_states = self.q_proj(hidden_states).view(hidden_shape).transpose(1, 2)
        convert_element_type_118: "f32[1, 4096][4096, 1]cuda:0" = torch.ops.prims.convert_element_type.default(getitem_40, torch.float32)
        unsqueeze_106: "f32[1, 4096, 1][4096, 1, 1]cuda:0" = torch.ops.aten.unsqueeze.default(convert_element_type_118, 2);  convert_element_type_118 = None
        permute_56: "f16[4096, 4096][1, 4096]cuda:0" = torch.ops.aten.permute.default(arg62_1, [1, 0]);  arg62_1 = None
        convert_element_type_119: "f32[4096, 4096][1, 4096]cuda:0" = torch.ops.prims.convert_element_type.default(permute_56, torch.float32);  permute_56 = None
        unsqueeze_107: "f32[1, 4096, 4096][4096, 1, 4096]cuda:0" = torch.ops.aten.unsqueeze.default(convert_element_type_119, 0);  convert_element_type_119 = None
        mul_68: "f32[1, 4096, 4096][4096, 1, 4096]cuda:0" = torch.ops.aten.mul.Tensor(unsqueeze_106, unsqueeze_107);  unsqueeze_106 = unsqueeze_107 = None
        sum_37: "f32[1, 4096][4096, 1]cuda:0" = torch.ops.aten.sum.dim_IntList(mul_68, [1]);  mul_68 = None
        convert_element_type_120: "f16[1, 4096][4096, 1]cuda:0" = torch.ops.prims.convert_element_type.default(sum_37, torch.float16);  sum_37 = None
        view_179: "f16[1, 1, 4096][4096, 4096, 1]cuda:0" = torch.ops.aten.reshape.default(convert_element_type_120, [1, 1, 4096]);  convert_element_type_120 = None
        view_180: "f16[1, 1, 32, 128][4096, 4096, 128, 1]cuda:0" = torch.ops.aten.reshape.default(view_179, [1, 1, -1, 128]);  view_179 = None
        permute_57: "f16[1, 32, 1, 128][4096, 128, 4096, 1]cuda:0" = torch.ops.aten.permute.default(view_180, [0, 2, 1, 3]);  view_180 = None
        
         # File: /app/low_bit_inference/model.py:105 in apply_rotary_pos_emb, code: cos = cos.unsqueeze(unsqueeze_dim)
        unsqueeze_112: "f16[1, 1, 1, 128][128, 128, 128, 1]cuda:0" = torch.ops.aten.unsqueeze.default(convert_element_type_1, 1)
        
         # File: /app/low_bit_inference/model.py:107 in apply_rotary_pos_emb, code: q_embed = (q * cos) + (rotate_half(q) * sin)
        mul_71: "f16[1, 32, 1, 128][4096, 128, 4096, 1]cuda:0" = torch.ops.aten.mul.Tensor(permute_57, unsqueeze_112)
        
         # File: /app/low_bit_inference/model.py:81 in rotate_half, code: x2 = x[..., x.shape[-1] // 2 :]
        slice_120: "f16[1, 32, 1, 64][4096, 128, 4096, 1]cuda:0" = torch.ops.aten.slice.Tensor(permute_57, 3, 64, 9223372036854775807)
        
         # File: /app/low_bit_inference/model.py:82 in rotate_half, code: return torch.cat((-x2, x1), dim=-1)
        neg_10: "f16[1, 32, 1, 64][2048, 64, 64, 1]cuda:0" = torch.ops.aten.neg.default(slice_120);  slice_120 = None
        
         # File: /app/low_bit_inference/model.py:80 in rotate_half, code: x1 = x[..., : x.shape[-1] // 2]
        slice_119: "f16[1, 32, 1, 64][4096, 128, 4096, 1]cuda:0" = torch.ops.aten.slice.Tensor(permute_57, 3, 0, 64);  permute_57 = None
        
         # File: /app/low_bit_inference/model.py:82 in rotate_half, code: return torch.cat((-x2, x1), dim=-1)
        cat_10: "f16[1, 32, 1, 128][4096, 128, 128, 1]cuda:0" = torch.ops.aten.cat.default([neg_10, slice_119], -1);  neg_10 = slice_119 = None
        
         # File: /app/low_bit_inference/model.py:106 in apply_rotary_pos_emb, code: sin = sin.unsqueeze(unsqueeze_dim)
        unsqueeze_113: "f16[1, 1, 1, 128][128, 128, 128, 1]cuda:0" = torch.ops.aten.unsqueeze.default(convert_element_type_2, 1)
        
         # File: /app/low_bit_inference/model.py:107 in apply_rotary_pos_emb, code: q_embed = (q * cos) + (rotate_half(q) * sin)
        mul_72: "f16[1, 32, 1, 128][4096, 128, 128, 1]cuda:0" = torch.ops.aten.mul.Tensor(cat_10, unsqueeze_113);  cat_10 = None
        add_20: "f16[1, 32, 1, 128][4096, 128, 128, 1]cuda:0" = torch.ops.aten.add.Tensor(mul_71, mul_72);  mul_71 = mul_72 = None
        
         # File: /app/low_bit_inference/model.py:207 in forward, code: key_states = self.k_proj(hidden_states).view(hidden_shape).transpose(1, 2)
        convert_element_type_121: "f32[1, 4096][4096, 1]cuda:0" = torch.ops.prims.convert_element_type.default(getitem_40, torch.float32)
        unsqueeze_108: "f32[1, 4096, 1][4096, 1, 1]cuda:0" = torch.ops.aten.unsqueeze.default(convert_element_type_121, 2);  convert_element_type_121 = None
        permute_58: "f16[4096, 1024][1, 4096]cuda:0" = torch.ops.aten.permute.default(arg63_1, [1, 0]);  arg63_1 = None
        convert_element_type_122: "f32[4096, 1024][1, 4096]cuda:0" = torch.ops.prims.convert_element_type.default(permute_58, torch.float32);  permute_58 = None
        unsqueeze_109: "f32[1, 4096, 1024][4096, 1, 4096]cuda:0" = torch.ops.aten.unsqueeze.default(convert_element_type_122, 0);  convert_element_type_122 = None
        mul_69: "f32[1, 4096, 1024][4096, 1, 4096]cuda:0" = torch.ops.aten.mul.Tensor(unsqueeze_108, unsqueeze_109);  unsqueeze_108 = unsqueeze_109 = None
        sum_38: "f32[1, 1024][1024, 1]cuda:0" = torch.ops.aten.sum.dim_IntList(mul_69, [1]);  mul_69 = None
        convert_element_type_123: "f16[1, 1024][1024, 1]cuda:0" = torch.ops.prims.convert_element_type.default(sum_38, torch.float16);  sum_38 = None
        view_184: "f16[1, 1, 1024][1024, 1024, 1]cuda:0" = torch.ops.aten.reshape.default(convert_element_type_123, [1, 1, 1024]);  convert_element_type_123 = None
        view_185: "f16[1, 1, 8, 128][1024, 1024, 128, 1]cuda:0" = torch.ops.aten.reshape.default(view_184, [1, 1, -1, 128]);  view_184 = None
        permute_59: "f16[1, 8, 1, 128][1024, 128, 1024, 1]cuda:0" = torch.ops.aten.permute.default(view_185, [0, 2, 1, 3]);  view_185 = None
        
         # File: /app/low_bit_inference/model.py:108 in apply_rotary_pos_emb, code: k_embed = (k * cos) + (rotate_half(k) * sin)
        mul_73: "f16[1, 8, 1, 128][1024, 128, 1024, 1]cuda:0" = torch.ops.aten.mul.Tensor(permute_59, unsqueeze_112);  unsqueeze_112 = None
        
         # File: /app/low_bit_inference/model.py:81 in rotate_half, code: x2 = x[..., x.shape[-1] // 2 :]
        slice_122: "f16[1, 8, 1, 64][1024, 128, 1024, 1]cuda:0" = torch.ops.aten.slice.Tensor(permute_59, 3, 64, 9223372036854775807)
        
         # File: /app/low_bit_inference/model.py:82 in rotate_half, code: return torch.cat((-x2, x1), dim=-1)
        neg_11: "f16[1, 8, 1, 64][512, 64, 64, 1]cuda:0" = torch.ops.aten.neg.default(slice_122);  slice_122 = None
        
         # File: /app/low_bit_inference/model.py:80 in rotate_half, code: x1 = x[..., : x.shape[-1] // 2]
        slice_121: "f16[1, 8, 1, 64][1024, 128, 1024, 1]cuda:0" = torch.ops.aten.slice.Tensor(permute_59, 3, 0, 64);  permute_59 = None
        
         # File: /app/low_bit_inference/model.py:82 in rotate_half, code: return torch.cat((-x2, x1), dim=-1)
        cat_11: "f16[1, 8, 1, 128][1024, 128, 128, 1]cuda:0" = torch.ops.aten.cat.default([neg_11, slice_121], -1);  neg_11 = slice_121 = None
        
         # File: /app/low_bit_inference/model.py:108 in apply_rotary_pos_emb, code: k_embed = (k * cos) + (rotate_half(k) * sin)
        mul_74: "f16[1, 8, 1, 128][1024, 128, 128, 1]cuda:0" = torch.ops.aten.mul.Tensor(cat_11, unsqueeze_113);  cat_11 = unsqueeze_113 = None
        add_21: "f16[1, 8, 1, 128][1024, 128, 128, 1]cuda:0" = torch.ops.aten.add.Tensor(mul_73, mul_74);  mul_73 = mul_74 = None
        
         # File: /app/low_bit_inference/optims/cache_optim.py:156 in update, code: self.keys.index_copy_(2, cache_position, key_states)
        index_put_10: "f16[1, 8, 2048, 128][2097152, 262144, 128, 1]cuda:0" = torch.ops.aten.index_put.default(arg65_1, [None, None, arg2_1], add_21);  add_21 = None
        
         # File: /app/.venv/lib/python3.12/site-packages/transformers/integrations/sdpa_attention.py:15 in repeat_kv, code: return hidden_states.reshape(batch, num_key_value_heads * n_rep, slen, head_dim)
        unsqueeze_115: "f16[1, 8, 1, 2048, 128][2097152, 262144, 262144, 128, 1]cuda:0" = torch.ops.aten.unsqueeze.default(index_put_10, 2)
        expand_30: "f16[1, 8, 4, 2048, 128][2097152, 262144, 0, 128, 1]cuda:0" = torch.ops.aten.expand.default(unsqueeze_115, [1, 8, 4, 2048, 128]);  unsqueeze_115 = None
        clone_12: "f16[1, 8, 4, 2048, 128][8388608, 1048576, 262144, 128, 1]cuda:0" = torch.ops.aten.clone.default(expand_30, memory_format = torch.contiguous_format);  expand_30 = None
        view_191: "f16[1, 32, 2048, 128][8388608, 262144, 128, 1]cuda:0" = torch.ops.aten.reshape.default(clone_12, [1, 32, 2048, 128]);  clone_12 = None
        
         # File: /app/low_bit_inference/model.py:208 in forward, code: value_states = self.v_proj(hidden_states).view(hidden_shape).transpose(1, 2)
        convert_element_type_124: "f32[1, 4096][4096, 1]cuda:0" = torch.ops.prims.convert_element_type.default(getitem_40, torch.float32);  getitem_40 = None
        unsqueeze_110: "f32[1, 4096, 1][4096, 1, 1]cuda:0" = torch.ops.aten.unsqueeze.default(convert_element_type_124, 2);  convert_element_type_124 = None
        permute_60: "f16[4096, 1024][1, 4096]cuda:0" = torch.ops.aten.permute.default(arg64_1, [1, 0]);  arg64_1 = None
        convert_element_type_125: "f32[4096, 1024][1, 4096]cuda:0" = torch.ops.prims.convert_element_type.default(permute_60, torch.float32);  permute_60 = None
…
        sum_217: "f32[1, 14336][14336, 1]cuda:0" = torch.ops.aten.sum.dim_IntList(mul_403, [1]);  mul_403 = None
        convert_element_type_712: "f16[1, 14336][14336, 1]cuda:0" = torch.ops.prims.convert_element_type.default(sum_217, torch.float16);  sum_217 = None
        view_1055: "f16[1, 1, 14336][14336, 14336, 1]cuda:0" = torch.ops.aten.reshape.default(convert_element_type_712, [1, 1, 14336]);  convert_element_type_712 = None
        mul_404: "f16[1, 1, 14336][14336, 14336, 1]cuda:0" = torch.ops.aten.mul.Tensor(convert_element_type_709, view_1055);  convert_element_type_709 = view_1055 = None
        view_1056: "f16[1, 14336][14336, 1]cuda:0" = torch.ops.aten.reshape.default(mul_404, [1, 14336]);  mul_404 = None
        convert_element_type_713: "f32[1, 14336][14336, 1]cuda:0" = torch.ops.prims.convert_element_type.default(view_1056, torch.float32);  view_1056 = None
        unsqueeze_624: "f32[1, 14336, 1][14336, 1, 1]cuda:0" = torch.ops.aten.unsqueeze.default(convert_element_type_713, 2);  convert_element_type_713 = None
        permute_341: "f16[14336, 4096][1, 14336]cuda:0" = torch.ops.aten.permute.default(arg346_1, [1, 0]);  arg346_1 = None
        convert_element_type_714: "f32[14336, 4096][1, 14336]cuda:0" = torch.ops.prims.convert_element_type.default(permute_341, torch.float32);  permute_341 = None
        unsqueeze_625: "f32[1, 14336, 4096][14336, 1, 14336]cuda:0" = torch.ops.aten.unsqueeze.default(convert_element_type_714, 0);  convert_element_type_714 = None
        mul_405: "f32[1, 14336, 4096][14336, 1, 14336]cuda:0" = torch.ops.aten.mul.Tensor(unsqueeze_624, unsqueeze_625);  unsqueeze_624 = unsqueeze_625 = None
        sum_218: "f32[1, 4096][4096, 1]cuda:0" = torch.ops.aten.sum.dim_IntList(mul_405, [1]);  mul_405 = None
        convert_element_type_715: "f16[1, 4096][4096, 1]cuda:0" = torch.ops.prims.convert_element_type.default(sum_218, torch.float16);  sum_218 = None
        view_1057: "f16[1, 1, 4096][4096, 4096, 1]cuda:0" = torch.ops.aten.reshape.default(convert_element_type_715, [1, 1, 4096]);  convert_element_type_715 = None
        
         # File: /app/low_bit_inference/model.py:279 in forward, code: hidden_states = residual + hidden_states
        add_123: "f16[1, 1, 4096][4096, 4096, 1]cuda:0" = torch.ops.aten.add.Tensor(add_122, view_1057);  add_122 = view_1057 = None
        
         # File: /app/low_bit_inference/optims/rms_norm_kernels/liger_rms_norm.py:443 in rms_norm_forward, code: X = X.view(-1, dim)
        view_1058: "f16[1, 4096][4096, 1]cuda:0" = torch.ops.aten.reshape.default(add_123, [-1, 4096])
        
         # File: /app/low_bit_inference/optims/rms_norm_kernels/liger_rms_norm.py:451 in rms_norm_forward, code: RSTD = torch.empty(n_rows, dtype=rstd_dtype, device=X.device)
        empty_125: "f32[1][1]cuda:0" = torch.ops.aten.empty.memory_format([1], dtype = torch.float32, device = device(type='cuda', index=0), pin_memory = False)
        
         # File: /app/low_bit_inference/optims/rms_norm_kernels/liger_rms_norm.py:461 in rms_norm_forward, code: _rms_norm_forward_kernel[(n_rows,)](
        triton_kernel_wrapper_functional_proxy_62 = torch.ops.higher_order.triton_kernel_wrapper_functional(kernel_idx = 258, constant_args_idx = 257, grid = [(1, 1, 1)], tma_descriptor_metadata = {}, kwargs = {'Y_ptr': empty_124, 'X_ptr': view_1058, 'W_ptr': arg347_1, 'RSTD_ptr': empty_125}, tensors_to_clone = ['Y_ptr', 'RSTD_ptr']);  empty_124 = view_1058 = arg347_1 = empty_125 = None
        getitem_248: "f16[1, 4096][4096, 1]cuda:0" = triton_kernel_wrapper_functional_proxy_62['Y_ptr'];  triton_kernel_wrapper_functional_proxy_62 = None
        
         # File: /app/low_bit_inference/model.py:206 in forward, code: query_states = self.q_proj(hidden_states).view(hidden_shape).transpose(1, 2)
        convert_element_type_716: "f32[1, 4096][4096, 1]cuda:0" = torch.ops.prims.convert_element_type.default(getitem_248, torch.float32)
        unsqueeze_626: "f32[1, 4096, 1][4096, 1, 1]cuda:0" = torch.ops.aten.unsqueeze.default(convert_element_type_716, 2);  convert_element_type_716 = None
        permute_342: "f16[4096, 4096][1, 4096]cuda:0" = torch.ops.aten.permute.default(arg348_1, [1, 0]);  arg348_1 = None
        convert_element_type_717: "f32[4096, 4096][1, 4096]cuda:0" = torch.ops.prims.convert_element_type.default(permute_342, torch.float32);  permute_342 = None
        unsqueeze_627: "f32[1, 4096, 4096][4096, 1, 4096]cuda:0" = torch.ops.aten.unsqueeze.default(convert_element_type_717, 0);  convert_element_type_717 = None
        mul_406: "f32[1, 4096, 4096][4096, 1, 4096]cuda:0" = torch.ops.aten.mul.Tensor(unsqueeze_626, unsqueeze_627);  unsqueeze_626 = unsqueeze_627 = None
        sum_219: "f32[1, 4096][4096, 1]cuda:0" = torch.ops.aten.sum.dim_IntList(mul_406, [1]);  mul_406 = None
        convert_element_type_718: "f16[1, 4096][4096, 1]cuda:0" = torch.ops.prims.convert_element_type.default(sum_219, torch.float16);  sum_219 = None
        view_1063: "f16[1, 1, 4096][4096, 4096, 1]cuda:0" = torch.ops.aten.reshape.default(convert_element_type_718, [1, 1, 4096]);  convert_element_type_718 = None
        view_1064: "f16[1, 1, 32, 128][4096, 4096, 128, 1]cuda:0" = torch.ops.aten.reshape.default(view_1063, [1, 1, -1, 128]);  view_1063 = None
        permute_343: "f16[1, 32, 1, 128][4096, 128, 4096, 1]cuda:0" = torch.ops.aten.permute.default(view_1064, [0, 2, 1, 3]);  view_1064 = None
        
         # File: /app/low_bit_inference/model.py:105 in apply_rotary_pos_emb, code: cos = cos.unsqueeze(unsqueeze_dim)
        unsqueeze_632: "f16[1, 1, 1, 128][128, 128, 128, 1]cuda:0" = torch.ops.aten.unsqueeze.default(convert_element_type_1, 1);  convert_element_type_1 = None
        
         # File: /app/low_bit_inference/model.py:107 in apply_rotary_pos_emb, code: q_embed = (q * cos) + (rotate_half(q) * sin)
        mul_409: "f16[1, 32, 1, 128][4096, 128, 4096, 1]cuda:0" = torch.ops.aten.mul.Tensor(permute_343, unsqueeze_632)
        
         # File: /app/low_bit_inference/model.py:81 in rotate_half, code: x2 = x[..., x.shape[-1] // 2 :]
        slice_718: "f16[1, 32, 1, 64][4096, 128, 4096, 1]cuda:0" = torch.ops.aten.slice.Tensor(permute_343, 3, 64, 9223372036854775807)
        
         # File: /app/low_bit_inference/model.py:82 in rotate_half, code: return torch.cat((-x2, x1), dim=-1)
        neg_62: "f16[1, 32, 1, 64][2048, 64, 64, 1]cuda:0" = torch.ops.aten.neg.default(slice_718);  slice_718 = None
        
         # File: /app/low_bit_inference/model.py:80 in rotate_half, code: x1 = x[..., : x.shape[-1] // 2]
        slice_717: "f16[1, 32, 1, 64][4096, 128, 4096, 1]cuda:0" = torch.ops.aten.slice.Tensor(permute_343, 3, 0, 64);  permute_343 = None
        
         # File: /app/low_bit_inference/model.py:82 in rotate_half, code: return torch.cat((-x2, x1), dim=-1)
        cat_62: "f16[1, 32, 1, 128][4096, 128, 128, 1]cuda:0" = torch.ops.aten.cat.default([neg_62, slice_717], -1);  neg_62 = slice_717 = None
        
         # File: /app/low_bit_inference/model.py:106 in apply_rotary_pos_emb, code: sin = sin.unsqueeze(unsqueeze_dim)
        unsqueeze_633: "f16[1, 1, 1, 128][128, 128, 128, 1]cuda:0" = torch.ops.aten.unsqueeze.default(convert_element_type_2, 1);  convert_element_type_2 = None
        
         # File: /app/low_bit_inference/model.py:107 in apply_rotary_pos_emb, code: q_embed = (q * cos) + (rotate_half(q) * sin)
        mul_410: "f16[1, 32, 1, 128][4096, 128, 128, 1]cuda:0" = torch.ops.aten.mul.Tensor(cat_62, unsqueeze_633);  cat_62 = None
        add_124: "f16[1, 32, 1, 128][4096, 128, 128, 1]cuda:0" = torch.ops.aten.add.Tensor(mul_409, mul_410);  mul_409 = mul_410 = None
        
         # File: /app/low_bit_inference/model.py:207 in forward, code: key_states = self.k_proj(hidden_states).view(hidden_shape).transpose(1, 2)
        convert_element_type_719: "f32[1, 4096][4096, 1]cuda:0" = torch.ops.prims.convert_element_type.default(getitem_248, torch.float32)
        unsqueeze_628: "f32[1, 4096, 1][4096, 1, 1]cuda:0" = torch.ops.aten.unsqueeze.default(convert_element_type_719, 2);  convert_element_type_719 = None
        permute_344: "f16[4096, 1024][1, 4096]cuda:0" = torch.ops.aten.permute.default(arg349_1, [1, 0]);  arg349_1 = None
        convert_element_type_720: "f32[4096, 1024][1, 4096]cuda:0" = torch.ops.prims.convert_element_type.default(permute_344, torch.float32);  permute_344 = None
        unsqueeze_629: "f32[1, 4096, 1024][4096, 1, 4096]cuda:0" = torch.ops.aten.unsqueeze.default(convert_element_type_720, 0);  convert_element_type_720 = None
        mul_407: "f32[1, 4096, 1024][4096, 1, 4096]cuda:0" = torch.ops.aten.mul.Tensor(unsqueeze_628, unsqueeze_629);  unsqueeze_628 = unsqueeze_629 = None
        sum_220: "f32[1, 1024][1024, 1]cuda:0" = torch.ops.aten.sum.dim_IntList(mul_407, [1]);  mul_407 = None
        convert_element_type_721: "f16[1, 1024][1024, 1]cuda:0" = torch.ops.prims.convert_element_type.default(sum_220, torch.float16);  sum_220 = None
        view_1068: "f16[1, 1, 1024][1024, 1024, 1]cuda:0" = torch.ops.aten.reshape.default(convert_element_type_721, [1, 1, 1024]);  convert_element_type_721 = None
        view_1069: "f16[1, 1, 8, 128][1024, 1024, 128, 1]cuda:0" = torch.ops.aten.reshape.default(view_1068, [1, 1, -1, 128]);  view_1068 = None
        permute_345: "f16[1, 8, 1, 128][1024, 128, 1024, 1]cuda:0" = torch.ops.aten.permute.default(view_1069, [0, 2, 1, 3]);  view_1069 = None
        
         # File: /app/low_bit_inference/model.py:108 in apply_rotary_pos_emb, code: k_embed = (k * cos) + (rotate_half(k) * sin)
        mul_411: "f16[1, 8, 1, 128][1024, 128, 1024, 1]cuda:0" = torch.ops.aten.mul.Tensor(permute_345, unsqueeze_632);  unsqueeze_632 = None
        
         # File: /app/low_bit_inference/model.py:81 in rotate_half, code: x2 = x[..., x.shape[-1] // 2 :]
        slice_720: "f16[1, 8, 1, 64][1024, 128, 1024, 1]cuda:0" = torch.ops.aten.slice.Tensor(permute_345, 3, 64, 9223372036854775807)
        
         # File: /app/low_bit_inference/model.py:82 in rotate_half, code: return torch.cat((-x2, x1), dim=-1)
        neg_63: "f16[1, 8, 1, 64][512, 64, 64, 1]cuda:0" = torch.ops.aten.neg.default(slice_720);  slice_720 = None
        
         # File: /app/low_bit_inference/model.py:80 in rotate_half, code: x1 = x[..., : x.shape[-1] // 2]
        slice_719: "f16[1, 8, 1, 64][1024, 128, 1024, 1]cuda:0" = torch.ops.aten.slice.Tensor(permute_345, 3, 0, 64);  permute_345 = None
        
         # File: /app/low_bit_inference/model.py:82 in rotate_half, code: return torch.cat((-x2, x1), dim=-1)
        cat_63: "f16[1, 8, 1, 128][1024, 128, 128, 1]cuda:0" = torch.ops.aten.cat.default([neg_63, slice_719], -1);  neg_63 = slice_719 = None
        
         # File: /app/low_bit_inference/model.py:108 in apply_rotary_pos_emb, code: k_embed = (k * cos) + (rotate_half(k) * sin)
        mul_412: "f16[1, 8, 1, 128][1024, 128, 128, 1]cuda:0" = torch.ops.aten.mul.Tensor(cat_63, unsqueeze_633);  cat_63 = unsqueeze_633 = None
        add_125: "f16[1, 8, 1, 128][1024, 128, 128, 1]cuda:0" = torch.ops.aten.add.Tensor(mul_411, mul_412);  mul_411 = mul_412 = None
        
         # File: /app/low_bit_inference/optims/cache_optim.py:156 in update, code: self.keys.index_copy_(2, cache_position, key_states)
        index_put_62: "f16[1, 8, 2048, 128][2097152, 262144, 128, 1]cuda:0" = torch.ops.aten.index_put.default(arg351_1, [None, None, arg2_1], add_125);  add_125 = None
        
         # File: /app/.venv/lib/python3.12/site-packages/transformers/integrations/sdpa_attention.py:15 in repeat_kv, code: return hidden_states.reshape(batch, num_key_value_heads * n_rep, slen, head_dim)
        unsqueeze_635: "f16[1, 8, 1, 2048, 128][2097152, 262144, 262144, 128, 1]cuda:0" = torch.ops.aten.unsqueeze.default(index_put_62, 2)
        expand_160: "f16[1, 8, 4, 2048, 128][2097152, 262144, 0, 128, 1]cuda:0" = torch.ops.aten.expand.default(unsqueeze_635, [1, 8, 4, 2048, 128]);  unsqueeze_635 = None
        clone_64: "f16[1, 8, 4, 2048, 128][8388608, 1048576, 262144, 128, 1]cuda:0" = torch.ops.aten.clone.default(expand_160, memory_format = torch.contiguous_format);  expand_160 = None
        view_1075: "f16[1, 32, 2048, 128][8388608, 262144, 128, 1]cuda:0" = torch.ops.aten.reshape.default(clone_64, [1, 32, 2048, 128]);  clone_64 = None
        
         # File: /app/low_bit_inference/model.py:208 in forward, code: value_states = self.v_proj(hidden_states).view(hidden_shape).transpose(1, 2)
        convert_element_type_722: "f32[1, 4096][4096, 1]cuda:0" = torch.ops.prims.convert_element_type.default(getitem_248, torch.float32);  getitem_248 = None
        unsqueeze_630: "f32[1, 4096, 1][4096, 1, 1]cuda:0" = torch.ops.aten.unsqueeze.default(convert_element_type_722, 2);  convert_element_type_722 = None
        permute_346: "f16[4096, 1024][1, 4096]cuda:0" = torch.ops.aten.permute.default(arg350_1, [1, 0]);  arg350_1 = None
        convert_element_type_723: "f32[4096, 1024][1, 4096]cuda:0" = torch.ops.prims.convert_element_type.default(permute_346, torch.float32);  permute_346 = None
        unsqueeze_631: "f32[1, 4096, 1024][4096, 1, 4096]cuda:0" = torch.ops.aten.unsqueeze.default(convert_element_type_723, 0);  convert_element_type_723 = None
        mul_408: "f32[1, 4096, 1024][4096, 1, 4096]cuda:0" = torch.ops.aten.mul.Tensor(unsqueeze_630, unsqueeze_631);  unsqueeze_630 = unsqueeze_631 = None
        sum_221: "f32[1, 1024][1024, 1]cuda:0" = torch.ops.aten.sum.dim_IntList(mul_408, [1]);  mul_408 = None
        convert_element_type_724: "f16[1, 1024][1024, 1]cuda:0" = torch.ops.prims.convert_element_type.default(sum_221, torch.float16);  sum_221 = None
        view_1073: "f16[1, 1, 1024][1024, 1024, 1]cuda:0" = torch.ops.aten.reshape.default(convert_element_type_724, [1, 1, 1024]);  convert_element_type_724 = None
        view_1074: "f16[1, 1, 8, 128][1024, 1024, 128, 1]cuda:0" = torch.ops.aten.reshape.default(view_1073, [1, 1, -1, 128]);  view_1073 = None
        permute_347: "f16[1, 8, 1, 128][1024, 128, 1024, 1]cuda:0" = torch.ops.aten.permute.default(view_1074, [0, 2, 1, 3]);  view_1074 = None
        
         # File: /app/low_bit_inference/optims/cache_optim.py:157 in update, code: self.values.index_copy_(2, cache_position, value_states)
        index_put_63: "f16[1, 8, 2048, 128][2097152, 262144, 128, 1]cuda:0" = torch.ops.aten.index_put.default(arg352_1, [None, None, arg2_1], permute_347);  arg2_1 = permute_347 = None
        
         # File: /app/.venv/lib/python3.12/site-packages/transformers/integrations/sdpa_attention.py:15 in repeat_kv, code: return hidden_states.reshape(batch, num_key_value_heads * n_rep, slen, head_dim)
        unsqueeze_637: "f16[1, 8, 1, 2048, 128][2097152, 262144, 262144, 128, 1]cuda:0" = torch.ops.aten.unsqueeze.default(index_put_63, 2)
        expand_162: "f16[1, 8, 4, 2048, 128][2097152, 262144, 0, 128, 1]cuda:0" = torch.ops.aten.expand.default(unsqueeze_637, [1, 8, 4, 2048, 128]);  unsqueeze_637 = None
        clone_65: "f16[1, 8, 4, 2048, 128][8388608, 1048576, 262144, 128, 1]cuda:0" = torch.ops.aten.clone.default(expand_162, memory_format = torch.contiguous_format);  expand_162 = None
        view_1076: "f16[1, 32, 2048, 128][8388608, 262144, 128, 1]cuda:0" = torch.ops.aten.reshape.default(clone_65, [1, 32, 2048, 128]);  clone_65 = None
        
         # File: /app/.venv/lib/python3.12/site-packages/transformers/integrations/sdpa_attention.py:54 in sdpa_attention_forward, code: attn_output = torch.nn.functional.scaled_dot_product_attention(
        full_default_63: "f16[][]cuda:0" = torch.ops.aten.full.default([], 0.0, dtype = torch.float16, layout = torch.strided, device = device(type='cuda', index=0), pin_memory = False)
        full_default_62: "f16[][]cuda:0" = torch.ops.aten.full.default([], -inf, dtype = torch.float16, layout = torch.strided, device = device(type='cuda', index=0), pin_memory = False)
        where_31: "f16[1, 1, 1, 2048][2048, 2048, 2048, 1]cuda:0" = torch.ops.aten.where.self(arg4_1, full_default_63, full_default_62);  arg4_1 = full_default_63 = full_default_62 = None
        expand_163: "f16[1, 32, 1, 2048][2048, 0, 2048, 1]cuda:0" = torch.ops.aten.expand.default(where_31, [1, 32, 1, 2048]);  where_31 = None
        _scaled_dot_product_efficient_attention_31 = torch.ops.aten._scaled_dot_product_efficient_attention.default(add_124, view_1075, view_1076, expand_163, False, scale = 0.08838834764831845);  add_124 = view_1075 = view_1076 = expand_163 = None
        getitem_250: "f16[1, 32, 1, 128][4096, 128, 4096, 1]cuda:0" = _scaled_dot_product_efficient_attention_31[0];  _scaled_dot_product_efficient_attention_31 = None
        
         # File: /app/low_bit_inference/optims/rms_norm_kernels/liger_rms_norm.py:447 in rms_norm_forward, code: Y = torch.empty((n_rows, n_cols), dtype=X.dtype, device=X.device)
        empty_126: "f16[1, 4096][4096, 1]cuda:0" = torch.ops.aten.empty.memory_format([1, 4096], dtype = torch.float16, device = device(type='cuda', index=0), pin_memory = False)
        
         # File: /app/.venv/lib/python3.12/site-packages/transformers/integrations/sdpa_attention.py:63 in sdpa_attention_forward, code: attn_output = attn_output.transpose(1, 2).contiguous()
        permute_348: "f16[1, 1, 32, 128][4096, 4096, 128, 1]cuda:0" = torch.ops.aten.permute.default(getitem_250, [0, 2, 1, 3]);  getitem_250 = None
        
         # File: /app/low_bit_inference/model.py:233 in forward, code: attn_output = attn_output.reshape(*input_shape, -1).contiguous()
        view_1077: "f16[1, 1, 4096][4096, 4096, 1]cuda:0" = torch.ops.aten.reshape.default(permute_348, [1, 1, -1]);  permute_348 = None
        
         # File: /app/low_bit_inference/model.py:234 in forward, code: attn_output = self.o_proj(attn_output)
        view_1078: "f16[1, 4096][4096, 1]cuda:0" = torch.ops.aten.reshape.default(view_1077, [1, 4096]);  view_1077 = None
        convert_element_type_725: "f32[1, 4096][4096, 1]cuda:0" = torch.ops.prims.convert_element_type.default(view_1078, torch.float32);  view_1078 = None
        unsqueeze_638: "f32[1, 4096, 1][4096, 1, 1]cuda:0" = torch.ops.aten.unsqueeze.default(convert_element_type_725, 2);  convert_element_type_725 = None
        permute_349: "f16[4096, 4096][1, 4096]cuda:0" = torch.ops.aten.permute.default(arg353_1, [1, 0]);  arg353_1 = None
        convert_element_type_726: "f32[4096, 4096][1, 4096]cuda:0" = torch.ops.prims.convert_element_type.default(permute_349, torch.float32);  permute_349 = None
        unsqueeze_639: "f32[1, 4096, 4096][4096, 1, 4096]cuda:0" = torch.ops.aten.unsqueeze.default(convert_element_type_726, 0);  convert_element_type_726 = None
        mul_413: "f32[1, 4096, 4096][4096, 1, 4096]cuda:0" = torch.ops.aten.mul.Tensor(unsqueeze_638, unsqueeze_639);  unsqueeze_638 = unsqueeze_639 = None
        sum_222: "f32[1, 4096][4096, 1]cuda:0" = torch.ops.aten.sum.dim_IntList(mul_413, [1]);  mul_413 = None
        convert_element_type_727: "f16[1, 4096][4096, 1]cuda:0" = torch.ops.prims.convert_element_type.default(sum_222, torch.float16);  sum_222 = None
        view_1079: "f16[1, 1, 4096][4096, 4096, 1]cuda:0" = torch.ops.aten.reshape.default(convert_element_type_727, [1, 1, 4096]);  convert_element_type_727 = None
        
         # File: /app/low_bit_inference/model.py:273 in forward, code: hidden_states = residual + hidden_states
        add_126: "f16[1, 1, 4096][4096, 4096, 1]cuda:0" = torch.ops.aten.add.Tensor(add_123, view_1079);  add_123 = view_1079 = None
        
         # File: /app/low_bit_inference/optims/rms_norm_kernels/liger_rms_norm.py:443 in rms_norm_forward, code: X = X.view(-1, dim)
        view_1080: "f16[1, 4096][4096, 1]cuda:0" = torch.ops.aten.reshape.default(add_126, [-1, 4096])
        
         # File: /app/low_bit_inference/optims/rms_norm_kernels/liger_rms_norm.py:451 in rms_norm_forward, code: RSTD = torch.empty(n_rows, dtype=rstd_dtype, device=X.device)
        empty_127: "f32[1][1]cuda:0" = torch.ops.aten.empty.memory_format([1], dtype = torch.float32, device = device(type='cuda', index=0), pin_memory = False)
        
         # File: /app/low_bit_inference/optims/rms_norm_kernels/liger_rms_norm.py:461 in rms_norm_forward, code: _rms_norm_forward_kernel[(n_rows,)](
        triton_kernel_wrapper_functional_proxy_63 = torch.ops.higher_order.triton_kernel_wrapper_functional(kernel_idx = 259, constant_args_idx = 258, grid = [(1, 1, 1)], tma_descriptor_metadata = {}, kwargs = {'Y_ptr': empty_126, 'X_ptr': view_1080, 'W_ptr': arg354_1, 'RSTD_ptr': empty_127}, tensors_to_clone = ['Y_ptr', 'RSTD_ptr']);  empty_126 = view_1080 = arg354_1 = empty_127 = None
        getitem_254: "f16[1, 4096][4096, 1]cuda:0" = triton_kernel_wrapper_functional_proxy_63['Y_ptr'];  triton_kernel_wrapper_functional_proxy_63 = None
        
         # File: /app/low_bit_inference/optims/rms_norm_kernels/liger_rms_norm.py:447 in rms_norm_forward, code: Y = torch.empty((n_rows, n_cols), dtype=X.dtype, device=X.device)
        empty_128: "f16[1, 4096][4096, 1]cuda:0" = torch.ops.aten.empty.memory_format([1, 4096], dtype = torch.float16, device = device(type='cuda', index=0), pin_memory = False)
        
         # File: /app/low_bit_inference/model.py:124 in forward, code: down_proj = self.down_proj(self.act_fn(self.gate_proj(x)) * self.up_proj(x))
        convert_element_type_728: "f32[1, 4096][4096, 1]cuda:0" = torch.ops.prims.convert_element_type.default(getitem_254, torch.float32)
        unsqueeze_640: "f32[1, 4096, 1][4096, 1, 1]cuda:0" = torch.ops.aten.unsqueeze.default(convert_element_type_728, 2);  convert_element_type_728 = None
        permute_350: "f16[4096, 14336][1, 4096]cuda:0" = torch.ops.aten.permute.default(arg355_1, [1, 0]);  arg355_1 = None
        convert_element_type_729: "f32[4096, 14336][1, 4096]cuda:0" = torch.ops.prims.convert_element_type.default(permute_350, torch.float32);  permute_350 = None
        unsqueeze_641: "f32[1, 4096, 14336][4096, 1, 4096]cuda:0" = torch.ops.aten.unsqueeze.default(convert_element_type_729, 0);  convert_element_type_729 = None
        mul_414: "f32[1, 4096, 14336][4096, 1, 4096]cuda:0" = torch.ops.aten.mul.Tensor(unsqueeze_640, unsqueeze_641);  unsqueeze_640 = unsqueeze_641 = None
        sum_223: "f32[1, 14336][14336, 1]cuda:0" = torch.ops.aten.sum.dim_IntList(mul_414, [1]);  mul_414 = None
        convert_element_type_730: "f16[1, 14336][14336, 1]cuda:0" = torch.ops.prims.convert_element_type.default(sum_223, torch.float16);  sum_223 = None
        view_1085: "f16[1, 1, 14336][14336, 14336, 1]cuda:0" = torch.ops.aten.reshape.default(convert_element_type_730, [1, 1, 14336]);  convert_element_type_730 = None
        convert_element_type_731: "f32[1, 1, 14336][14336, 14336, 1]cuda:0" = torch.ops.prims.convert_element_type.default(view_1085, torch.float32);  view_1085 = None
        sigmoid_31: "f32[1, 1, 14336][14336, 14336, 1]cuda:0" = torch.ops.aten.sigmoid.default(convert_element_type_731)
        mul_415: "f32[1, 1, 14336][14336, 14336, 1]cuda:0" = torch.ops.aten.mul.Tensor(convert_element_type_731, sigmoid_31);  convert_element_type_731 = sigmoid_31 = None
        convert_element_type_732: "f16[1, 1, 14336][14336, 14336, 1]cuda:0" = torch.ops.prims.convert_element_type.default(mul_415, torch.float16);  mul_415 = None
        convert_element_type_733: "f32[1, 4096][4096, 1]cuda:0" = torch.ops.prims.convert_element_type.default(getitem_254, torch.float32);  getitem_254 = None
        unsqueeze_642: "f32[1, 4096, 1][4096, 1, 1]cuda:0" = torch.ops.aten.unsqueeze.default(convert_element_type_733, 2);  convert_element_type_733 = None
        permute_351: "f16[4096, 14336][1, 4096]cuda:0" = torch.ops.aten.permute.default(arg356_1, [1, 0]);  arg356_1 = None
        convert_element_type_734: "f32[4096, 14336][1, 4096]cuda:0" = torch.ops.prims.convert_element_type.default(permute_351, torch.float32);  permute_351 = None
        unsqueeze_643: "f32[1, 4096, 14336][4096, 1, 4096]cuda:0" = torch.ops.aten.unsqueeze.default(convert_element_type_734, 0);  convert_element_type_734 = None
        mul_416: "f32[1, 4096, 14336][4096, 1, 4096]cuda:0" = torch.ops.aten.mul.Tensor(unsqueeze_642, unsqueeze_643);  unsqueeze_642 = unsqueeze_643 = None
        sum_224: "f32[1, 14336][14336, 1]cuda:0" = torch.ops.aten.sum.dim_IntList(mul_416, [1]);  mul_416 = None
        convert_element_type_735: "f16[1, 14336][14336, 1]cuda:0" = torch.ops.prims.convert_element_type.default(sum_224, torch.float16);  sum_224 = None
        view_1089: "f16[1, 1, 14336][14336, 14336, 1]cuda:0" = torch.ops.aten.reshape.default(convert_element_type_735, [1, 1, 14336]);  convert_element_type_735 = None
        mul_417: "f16[1, 1, 14336][14336, 14336, 1]cuda:0" = torch.ops.aten.mul.Tensor(convert_element_type_732, view_1089);  convert_element_type_732 = view_1089 = None
        view_1090: "f16[1, 14336][14336, 1]cuda:0" = torch.ops.aten.reshape.default(mul_417, [1, 14336]);  mul_417 = None
        convert_element_type_736: "f32[1, 14336][14336, 1]cuda:0" = torch.ops.prims.convert_element_type.default(view_1090, torch.float32);  view_1090 = None
        unsqueeze_644: "f32[1, 14336, 1][14336, 1, 1]cuda:0" = torch.ops.aten.unsqueeze.default(convert_element_type_736, 2);  convert_element_type_736 = None
        permute_352: "f16[14336, 4096][1, 14336]cuda:0" = torch.ops.aten.permute.default(arg357_1, [1, 0]);  arg357_1 = None
        convert_element_type_737: "f32[14336, 4096][1, 14336]cuda:0" = torch.ops.prims.convert_element_type.default(permute_352, torch.float32);  permute_352 = None
        unsqueeze_645: "f32[1, 14336, 4096][14336, 1, 14336]cuda:0" = torch.ops.aten.unsqueeze.default(convert_element_type_737, 0);  convert_element_type_737 = None
        mul_418: "f32[1, 14336, 4096][14336, 1, 14336]cuda:0" = torch.ops.aten.mul.Tensor(unsqueeze_644, unsqueeze_645);  unsqueeze_644 = unsqueeze_645 = None
        sum_225: "f32[1, 4096][4096, 1]cuda:0" = torch.ops.aten.sum.dim_IntList(mul_418, [1]);  mul_418 = None
        convert_element_type_738: "f16[1, 4096][4096, 1]cuda:0" = torch.ops.prims.convert_element_type.default(sum_225, torch.float16);  sum_225 = None
        view_1091: "f16[1, 1, 4096][4096, 4096, 1]cuda:0" = torch.ops.aten.reshape.default(convert_element_type_738, [1, 1, 4096]);  convert_element_type_738 = None
        
         # File: /app/low_bit_inference/model.py:279 in forward, code: hidden_states = residual + hidden_states
        add_127: "f16[1, 1, 4096][4096, 4096, 1]cuda:0" = torch.ops.aten.add.Tensor(add_126, view_1091);  add_126 = view_1091 = None
        
         # File: /app/low_bit_inference/optims/rms_norm_kernels/liger_rms_norm.py:443 in rms_norm_forward, code: X = X.view(-1, dim)
        view_1092: "f16[1, 4096][4096, 1]cuda:0" = torch.ops.aten.reshape.default(add_127, [-1, 4096]);  add_127 = None
        
         # File: /app/low_bit_inference/optims/rms_norm_kernels/liger_rms_norm.py:451 in rms_norm_forward, code: RSTD = torch.empty(n_rows, dtype=rstd_dtype, device=X.device)
        empty_129: "f32[1][1]cuda:0" = torch.ops.aten.empty.memory_format([1], dtype = torch.float32, device = device(type='cuda', index=0), pin_memory = False)
        
         # File: /app/low_bit_inference/optims/rms_norm_kernels/liger_rms_norm.py:461 in rms_norm_forward, code: _rms_norm_forward_kernel[(n_rows,)](
        triton_kernel_wrapper_functional_proxy_64 = torch.ops.higher_order.triton_kernel_wrapper_functional(kernel_idx = 260, constant_args_idx = 259, grid = [(1, 1, 1)], tma_descriptor_metadata = {}, kwargs = {'Y_ptr': empty_128, 'X_ptr': view_1092, 'W_ptr': arg358_1, 'RSTD_ptr': empty_129}, tensors_to_clone = ['Y_ptr', 'RSTD_ptr']);  empty_128 = view_1092 = arg358_1 = empty_129 = None
        getitem_256: "f16[1, 4096][4096, 1]cuda:0" = triton_kernel_wrapper_functional_proxy_64['Y_ptr'];  triton_kernel_wrapper_functional_proxy_64 = None
        
         # File: /app/low_bit_inference/model.py:451 in forward, code: logits = self.lm_head(hidden_states[:, slice_indices, :])
        view_1095: "f16[1, 1, 4096][4096, 4096, 1]cuda:0" = torch.ops.aten.reshape.default(getitem_256, [1, 1, 4096]);  getitem_256 = None
        slice_744: "f16[1, 1, 4096][4096, 4096, 1]cuda:0" = torch.ops.aten.slice.Tensor(view_1095, 1, -1, 9223372036854775807);  view_1095 = None
        view_1096: "f16[1, 4096][4096, 1]cuda:0" = torch.ops.aten.reshape.default(slice_744, [1, 4096]);  slice_744 = None
        convert_element_type_739: "f32[1, 4096][4096, 1]cuda:0" = torch.ops.prims.convert_element_type.default(view_1096, torch.float32);  view_1096 = None
        unsqueeze_646: "f32[1, 4096, 1][4096, 1, 1]cuda:0" = torch.ops.aten.unsqueeze.default(convert_element_type_739, 2);  convert_element_type_739 = None
        permute_353: "f16[4096, 128256][1, 4096]cuda:0" = torch.ops.aten.permute.default(arg359_1, [1, 0]);  arg359_1 = None
        convert_element_type_740: "f32[4096, 128256][1, 4096]cuda:0" = torch.ops.prims.convert_element_type.default(permute_353, torch.float32);  permute_353 = None
        unsqueeze_647: "f32[1, 4096, 128256][4096, 1, 4096]cuda:0" = torch.ops.aten.unsqueeze.default(convert_element_type_740, 0);  convert_element_type_740 = None
        mul_419: "f32[1, 4096, 128256][4096, 1, 4096]cuda:0" = torch.ops.aten.mul.Tensor(unsqueeze_646, unsqueeze_647);  unsqueeze_646 = unsqueeze_647 = None
        sum_226: "f32[1, 128256][128256, 1]cuda:0" = torch.ops.aten.sum.dim_IntList(mul_419, [1]);  mul_419 = None
        convert_element_type_741: "f16[1, 128256][128256, 1]cuda:0" = torch.ops.prims.convert_element_type.default(sum_226, torch.float16);  sum_226 = None
        view_1097: "f16[1, 1, 128256][128256, 128256, 1]cuda:0" = torch.ops.aten.reshape.default(convert_element_type_741, [1, 1, 128256]);  convert_element_type_741 = None
        
         # File: /app/low_bit_inference/optims/cache_optim.py:156 in update, code: self.keys.index_copy_(2, cache_position, key_states)
        copy_: "f16[1, 8, 2048, 128][2097152, 262144, 128, 1]cuda:0" = torch.ops.aten.copy_.default(arg10_1, index_put);  arg10_1 = index_put = copy_ = None
        
         # File: /app/low_bit_inference/optims/cache_optim.py:157 in update, code: self.values.index_copy_(2, cache_position, value_states)
        copy__1: "f16[1, 8, 2048, 128][2097152, 262144, 128, 1]cuda:0" = torch.ops.aten.copy_.default(arg11_1, index_put_1);  arg11_1 = index_put_1 = copy__1 = None
        
         # File: /app/low_bit_inference/optims/cache_optim.py:156 in update, code: self.keys.index_copy_(2, cache_position, key_states)
        copy__2: "f16[1, 8, 2048, 128][2097152, 262144, 128, 1]cuda:0" = torch.ops.aten.copy_.default(arg21_1, index_put_2);  arg21_1 = index_put_2 = copy__2 = None
        
         # File: /app/low_bit_inference/optims/cache_optim.py:157 in update, code: self.values.index_copy_(2, cache_position, value_states)
        copy__3: "f16[1, 8, 2048, 128][2097152, 262144, 128, 1]cuda:0" = torch.ops.aten.copy_.default(arg22_1, index_put_3);  arg22_1 = index_put_3 = copy__3 = None
        
         # File: /app/low_bit_inference/optims/cache_optim.py:156 in update, code: self.keys.index_copy_(2, cache_position, key_states)
        copy__4: "f16[1, 8, 2048, 128][2097152, 262144, 128, 1]cuda:0" = torch.ops.aten.copy_.default(arg32_1, index_put_4);  arg32_1 = index_put_4 = copy__4 = None
        
         # File: /app/low_bit_inference/optims/cache_optim.py:157 in update, code: self.values.index_copy_(2, cache_position, value_states)
        copy__5: "f16[1, 8, 2048, 128][2097152, 262144, 128, 1]cuda:0" = torch.ops.aten.copy_.default(arg33_1, index_put_5);  arg33_1 = index_put_5 = copy__5 = None
        
         # File: /app/low_bit_inference/optims/cache_optim.py:156 in update, code: self.keys.index_copy_(2, cache_position, key_states)
        copy__6: "f16[1, 8, 2048, 128][2097152, 262144, 128, 1]cuda:0" = torch.ops.aten.copy_.default(arg43_1, index_put_6);  arg43_1 = index_put_6 = copy__6 = None
        
         # File: /app/low_bit_inference/optims/cache_optim.py:157 in update, code: self.values.index_copy_(2, cache_position, value_states)
        copy__7: "f16[1, 8, 2048, 128][2097152, 262144, 128, 1]cuda:0" = torch.ops.aten.copy_.default(arg44_1, index_put_7);  arg44_1 = index_put_7 = copy__7 = None
        
         # File: /app/low_bit_inference/optims/cache_optim.py:156 in update, code: self.keys.index_copy_(2, cache_position, key_states)
        copy__8: "f16[1, 8, 2048, 128][2097152, 262144, 128, 1]cuda:0" = torch.ops.aten.copy_.default(arg54_1, index_put_8);  arg54_1 = index_put_8 = copy__8 = None
        
         # File: /app/low_bit_inference/optims/cache_optim.py:157 in update, code: self.values.index_copy_(2, cache_position, value_states)
        copy__9: "f16[1, 8, 2048, 128][2097152, 262144, 128, 1]cuda:0" = torch.ops.aten.copy_.default(arg55_1, index_put_9);  arg55_1 = index_put_9 = copy__9 = None
        
         # File: /app/low_bit_inference/optims/cache_optim.py:156 in update, code: self.keys.index_copy_(2, cache_position, key_states)
        copy__10: "f16[1, 8, 2048, 128][2097152, 262144, 128, 1]cuda:0" = torch.ops.aten.copy_.default(arg65_1, index_put_10);  arg65_1 = index_put_10 = copy__10 = None
        
         # File: /app/low_bit_inference/optims/cache_optim.py:157 in update, code: self.values.index_copy_(2, cache_position, value_states)
        copy__11: "f16[1, 8, 2048, 128][2097152, 262144, 128, 1]cuda:0" = torch.ops.aten.copy_.default(arg66_1, index_put_11);  arg66_1 = index_put_11 = copy__11 = None
        
         # File: /app/low_bit_inference/optims/cache_optim.py:156 in update, code: self.keys.index_copy_(2, cache_position, key_states)
        copy__12: "f16[1, 8, 2048, 128][2097152, 262144, 128, 1]cuda:0" = torch.ops.aten.copy_.default(arg76_1, index_put_12);  arg76_1 = index_put_12 = copy__12 = None
        
         # File: /app/low_bit_inference/optims/cache_optim.py:157 in update, code: self.values.index_copy_(2, cache_position, value_states)
        copy__13: "f16[1, 8, 2048, 128][2097152, 262144, 128, 1]cuda:0" = torch.ops.aten.copy_.default(arg77_1, index_put_13);  arg77_1 = index_put_13 = copy__13 = None
        
         # File: /app/low_bit_inference/optims/cache_optim.py:156 in update, code: self.keys.index_copy_(2, cache_position, key_states)
        copy__14: "f16[1, 8, 2048, 128][2097152, 262144, 128, 1]cuda:0" = torch.ops.aten.copy_.default(arg87_1, index_put_14);  arg87_1 = index_put_14 = copy__14 = None
        
         # File: /app/low_bit_inference/optims/cache_optim.py:157 in update, code: self.values.index_copy_(2, cache_position, value_states)
        copy__15: "f16[1, 8, 2048, 128][2097152, 262144, 128, 1]cuda:0" = torch.ops.aten.copy_.default(arg88_1, index_put_15);  arg88_1 = index_put_15 = copy__15 = None
        
         # File: /app/low_bit_inference/optims/cache_optim.py:156 in update, code: self.keys.index_copy_(2, cache_position, key_states)
        copy__16: "f16[1, 8, 2048, 128][2097152, 262144, 128, 1]cuda:0" = torch.ops.aten.copy_.default(arg98_1, index_put_16);  arg98_1 = index_put_16 = copy__16 = None
        
         # File: /app/low_bit_inference/optims/cache_optim.py:157 in update, code: self.values.index_copy_(2, cache_position, value_states)
        copy__17: "f16[1, 8, 2048, 128][2097152, 262144, 128, 1]cuda:0" = torch.ops.aten.copy_.default(arg99_1, index_put_17);  arg99_1 = index_put_17 = copy__17 = None
        
         # File: /app/low_bit_inference/optims/cache_optim.py:156 in update, code: self.keys.index_copy_(2, cache_position, key_states)
        copy__18: "f16[1, 8, 2048, 128][2097152, 262144, 128, 1]cuda:0" = torch.ops.aten.copy_.default(arg109_1, index_put_18);  arg109_1 = index_put_18 = copy__18 = None
        
         # File: /app/low_bit_inference/optims/cache_optim.py:157 in update, code: self.values.index_copy_(2, cache_position, value_states)
        copy__19: "f16[1, 8, 2048, 128][2097152, 262144, 128, 1]cuda:0" = torch.ops.aten.copy_.default(arg110_1, index_put_19);  arg110_1 = index_put_19 = copy__19 = None
        
         # File: /app/low_bit_inference/optims/cache_optim.py:156 in update, code: self.keys.index_copy_(2, cache_position, key_states)
        copy__20: "f16[1, 8, 2048, 128][2097152, 262144, 128, 1]cuda:0" = torch.ops.aten.copy_.default(arg120_1, index_put_20);  arg120_1 = index_put_20 = copy__20 = None
        
         # File: /app/low_bit_inference/optims/cache_optim.py:157 in update, code: self.values.index_copy_(2, cache_position, value_states)
        copy__21: "f16[1, 8, 2048, 128][2097152, 262144, 128, 1]cuda:0" = torch.ops.aten.copy_.default(arg121_1, index_put_21);  arg121_1 = index_put_21 = copy__21 = None
        
         # File: /app/low_bit_inference/optims/cache_optim.py:156 in update, code: self.keys.index_copy_(2, cache_position, key_states)
        copy__22: "f16[1, 8, 2048, 128][2097152, 262144, 128, 1]cuda:0" = torch.ops.aten.copy_.default(arg131_1, index_put_22);  arg131_1 = index_put_22 = copy__22 = None
        
         # File: /app/low_bit_inference/optims/cache_optim.py:157 in update, code: self.values.index_copy_(2, cache_position, value_states)
        copy__23: "f16[1, 8, 2048, 128][2097152, 262144, 128, 1]cuda:0" = torch.ops.aten.copy_.default(arg132_1, index_put_23);  arg132_1 = index_put_23 = copy__23 = None
        
         # File: /app/low_bit_inference/optims/cache_optim.py:156 in update, code: self.keys.index_copy_(2, cache_position, key_states)
        copy__24: "f16[1, 8, 2048, 128][2097152, 262144, 128, 1]cuda:0" = torch.ops.aten.copy_.default(arg142_1, index_put_24);  arg142_1 = index_put_24 = copy__24 = None
        
         # File: /app/low_bit_inference/optims/cache_optim.py:157 in update, code: self.values.index_copy_(2, cache_position, value_states)
        copy__25: "f16[1, 8, 2048, 128][2097152, 262144, 128, 1]cuda:0" = torch.ops.aten.copy_.default(arg143_1, index_put_25);  arg143_1 = index_put_25 = copy__25 = None
        
         # File: /app/low_bit_inference/optims/cache_optim.py:156 in update, code: self.keys.index_copy_(2, cache_position, key_states)
        copy__26: "f16[1, 8, 2048, 128][2097152, 262144, 128, 1]cuda:0" = torch.ops.aten.copy_.default(arg153_1, index_put_26);  arg153_1 = index_put_26 = copy__26 = None
        
         # File: /app/low_bit_inference/optims/cache_optim.py:157 in update, code: self.values.index_copy_(2, cache_position, value_states)
        copy__27: "f16[1, 8, 2048, 128][2097152, 262144, 128, 1]cuda:0" = torch.ops.aten.copy_.default(arg154_1, index_put_27);  arg154_1 = index_put_27 = copy__27 = None
        
         # File: /app/low_bit_inference/optims/cache_optim.py:156 in update, code: self.keys.index_copy_(2, cache_position, key_states)
        copy__28: "f16[1, 8, 2048, 128][2097152, 262144, 128, 1]cuda:0" = torch.ops.aten.copy_.default(arg164_1, index_put_28);  arg164_1 = index_put_28 = copy__28 = None
        
         # File: /app/low_bit_inference/optims/cache_optim.py:157 in update, code: self.values.index_copy_(2, cache_position, value_states)
        copy__29: "f16[1, 8, 2048, 128][2097152, 262144, 128, 1]cuda:0" = torch.ops.aten.copy_.default(arg165_1, index_put_29);  arg165_1 = index_put_29 = copy__29 = None
        
         # File: /app/low_bit_inference/optims/cache_optim.py:156 in update, code: self.keys.index_copy_(2, cache_position, key_states)
        copy__30: "f16[1, 8, 2048, 128][2097152, 262144, 128, 1]cuda:0" = torch.ops.aten.copy_.default(arg175_1, index_put_30);  arg175_1 = index_put_30 = copy__30 = None
        
         # File: /app/low_bit_inference/optims/cache_optim.py:157 in update, code: self.values.index_copy_(2, cache_position, value_states)
        copy__31: "f16[1, 8, 2048, 128][2097152, 262144, 128, 1]cuda:0" = torch.ops.aten.copy_.default(arg176_1, index_put_31);  arg176_1 = index_put_31 = copy__31 = None
        
         # File: /app/low_bit_inference/optims/cache_optim.py:156 in update, code: self.keys.index_copy_(2, cache_position, key_states)
        copy__32: "f16[1, 8, 2048, 128][2097152, 262144, 128, 1]cuda:0" = torch.ops.aten.copy_.default(arg186_1, index_put_32);  arg186_1 = index_put_32 = copy__32 = None
        
         # File: /app/low_bit_inference/optims/cache_optim.py:157 in update, code: self.values.index_copy_(2, cache_position, value_states)
        copy__33: "f16[1, 8, 2048, 128][2097152, 262144, 128, 1]cuda:0" = torch.ops.aten.copy_.default(arg187_1, index_put_33);  arg187_1 = index_put_33 = copy__33 = None
        
         # File: /app/low_bit_inference/optims/cache_optim.py:156 in update, code: self.keys.index_copy_(2, cache_position, key_states)
        copy__34: "f16[1, 8, 2048, 128][2097152, 262144, 128, 1]cuda:0" = torch.ops.aten.copy_.default(arg197_1, index_put_34);  arg197_1 = index_put_34 = copy__34 = None
        
         # File: /app/low_bit_inference/optims/cache_optim.py:157 in update, code: self.values.index_copy_(2, cache_position, value_states)
        copy__35: "f16[1, 8, 2048, 128][2097152, 262144, 128, 1]cuda:0" = torch.ops.aten.copy_.default(arg198_1, index_put_35);  arg198_1 = index_put_35 = copy__35 = None
        
         # File: /app/low_bit_inference/optims/cache_optim.py:156 in update, code: self.keys.index_copy_(2, cache_position, key_states)
        copy__36: "f16[1, 8, 2048, 128][2097152, 262144, 128, 1]cuda:0" = torch.ops.aten.copy_.default(arg208_1, index_put_36);  arg208_1 = index_put_36 = copy__36 = None
        
         # File: /app/low_bit_inference/optims/cache_optim.py:157 in update, code: self.values.index_copy_(2, cache_position, value_states)
        copy__37: "f16[1, 8, 2048, 128][2097152, 262144, 128, 1]cuda:0" = torch.ops.aten.copy_.default(arg209_1, index_put_37);  arg209_1 = index_put_37 = copy__37 = None
        
         # File: /app/low_bit_inference/optims/cache_optim.py:156 in update, code: self.keys.index_copy_(2, cache_position, key_states)
        copy__38: "f16[1, 8, 2048, 128][2097152, 262144, 128, 1]cuda:0" = torch.ops.aten.copy_.default(arg219_1, index_put_38);  arg219_1 = index_put_38 = copy__38 = None
        
         # File: /app/low_bit_inference/optims/cache_optim.py:157 in update, code: self.values.index_copy_(2, cache_position, value_states)
        copy__39: "f16[1, 8, 2048, 128][2097152, 262144, 128, 1]cuda:0" = torch.ops.aten.copy_.default(arg220_1, index_put_39);  arg220_1 = index_put_39 = copy__39 = None
        
         # File: /app/low_bit_inference/optims/cache_optim.py:156 in update, code: self.keys.index_copy_(2, cache_position, key_states)
        copy__40: "f16[1, 8, 2048, 128][2097152, 262144, 128, 1]cuda:0" = torch.ops.aten.copy_.default(arg230_1, index_put_40);  arg230_1 = index_put_40 = copy__40 = None
        
         # File: /app/low_bit_inference/optims/cache_optim.py:157 in update, code: self.values.index_copy_(2, cache_position, value_states)
        copy__41: "f16[1, 8, 2048, 128][2097152, 262144, 128, 1]cuda:0" = torch.ops.aten.copy_.default(arg231_1, index_put_41);  arg231_1 = index_put_41 = copy__41 = None
        
         # File: /app/low_bit_inference/optims/cache_optim.py:156 in update, code: self.keys.index_copy_(2, cache_position, key_states)
        copy__42: "f16[1, 8, 2048, 128][2097152, 262144, 128, 1]cuda:0" = torch.ops.aten.copy_.default(arg241_1, index_put_42);  arg241_1 = index_put_42 = copy__42 = None
        
         # File: /app/low_bit_inference/optims/cache_optim.py:157 in update, code: self.values.index_copy_(2, cache_position, value_states)
        copy__43: "f16[1, 8, 2048, 128][2097152, 262144, 128, 1]cuda:0" = torch.ops.aten.copy_.default(arg242_1, index_put_43);  arg242_1 = index_put_43 = copy__43 = None
        
         # File: /app/low_bit_inference/optims/cache_optim.py:156 in update, code: self.keys.index_copy_(2, cache_position, key_states)
        copy__44: "f16[1, 8, 2048, 128][2097152, 262144, 128, 1]cuda:0" = torch.ops.aten.copy_.default(arg252_1, index_put_44);  arg252_1 = index_put_44 = copy__44 = None
        
         # File: /app/low_bit_inference/optims/cache_optim.py:157 in update, code: self.values.index_copy_(2, cache_position, value_states)
        copy__45: "f16[1, 8, 2048, 128][2097152, 262144, 128, 1]cuda:0" = torch.ops.aten.copy_.default(arg253_1, index_put_45);  arg253_1 = index_put_45 = copy__45 = None
        
         # File: /app/low_bit_inference/optims/cache_optim.py:156 in update, code: self.keys.index_copy_(2, cache_position, key_states)
        copy__46: "f16[1, 8, 2048, 128][2097152, 262144, 128, 1]cuda:0" = torch.ops.aten.copy_.default(arg263_1, index_put_46);  arg263_1 = index_put_46 = copy__46 = None
        
         # File: /app/low_bit_inference/optims/cache_optim.py:157 in update, code: self.values.index_copy_(2, cache_position, value_states)
        copy__47: "f16[1, 8, 2048, 128][2097152, 262144, 128, 1]cuda:0" = torch.ops.aten.copy_.default(arg264_1, index_put_47);  arg264_1 = index_put_47 = copy__47 = None
        
         # File: /app/low_bit_inference/optims/cache_optim.py:156 in update, code: self.keys.index_copy_(2, cache_position, key_states)
        copy__48: "f16[1, 8, 2048, 128][2097152, 262144, 128, 1]cuda:0" = torch.ops.aten.copy_.default(arg274_1, index_put_48);  arg274_1 = index_put_48 = copy__48 = None
        
         # File: /app/low_bit_inference/optims/cache_optim.py:157 in update, code: self.values.index_copy_(2, cache_position, value_states)
        copy__49: "f16[1, 8, 2048, 128][2097152, 262144, 128, 1]cuda:0" = torch.ops.aten.copy_.default(arg275_1, index_put_49);  arg275_1 = index_put_49 = copy__49 = None
        
         # File: /app/low_bit_inference/optims/cache_optim.py:156 in update, code: self.keys.index_copy_(2, cache_position, key_states)
        copy__50: "f16[1, 8, 2048, 128][2097152, 262144, 128, 1]cuda:0" = torch.ops.aten.copy_.default(arg285_1, index_put_50);  arg285_1 = index_put_50 = copy__50 = None
        
         # File: /app/low_bit_inference/optims/cache_optim.py:157 in update, code: self.values.index_copy_(2, cache_position, value_states)
        copy__51: "f16[1, 8, 2048, 128][2097152, 262144, 128, 1]cuda:0" = torch.ops.aten.copy_.default(arg286_1, index_put_51);  arg286_1 = index_put_51 = copy__51 = None
        
         # File: /app/low_bit_inference/optims/cache_optim.py:156 in update, code: self.keys.index_copy_(2, cache_position, key_states)
        copy__52: "f16[1, 8, 2048, 128][2097152, 262144, 128, 1]cuda:0" = torch.ops.aten.copy_.default(arg296_1, index_put_52);  arg296_1 = index_put_52 = copy__52 = None
        
         # File: /app/low_bit_inference/optims/cache_optim.py:157 in update, code: self.values.index_copy_(2, cache_position, value_states)
        copy__53: "f16[1, 8, 2048, 128][2097152, 262144, 128, 1]cuda:0" = torch.ops.aten.copy_.default(arg297_1, index_put_53);  arg297_1 = index_put_53 = copy__53 = None
        
         # File: /app/low_bit_inference/optims/cache_optim.py:156 in update, code: self.keys.index_copy_(2, cache_position, key_states)
        copy__54: "f16[1, 8, 2048, 128][2097152, 262144, 128, 1]cuda:0" = torch.ops.aten.copy_.default(arg307_1, index_put_54);  arg307_1 = index_put_54 = copy__54 = None
        
         # File: /app/low_bit_inference/optims/cache_optim.py:157 in update, code: self.values.index_copy_(2, cache_position, value_states)
        copy__55: "f16[1, 8, 2048, 128][2097152, 262144, 128, 1]cuda:0" = torch.ops.aten.copy_.default(arg308_1, index_put_55);  arg308_1 = index_put_55 = copy__55 = None
        
         # File: /app/low_bit_inference/optims/cache_optim.py:156 in update, code: self.keys.index_copy_(2, cache_position, key_states)
        copy__56: "f16[1, 8, 2048, 128][2097152, 262144, 128, 1]cuda:0" = torch.ops.aten.copy_.default(arg318_1, index_put_56);  arg318_1 = index_put_56 = copy__56 = None
        
         # File: /app/low_bit_inference/optims/cache_optim.py:157 in update, code: self.values.index_copy_(2, cache_position, value_states)
        copy__57: "f16[1, 8, 2048, 128][2097152, 262144, 128, 1]cuda:0" = torch.ops.aten.copy_.default(arg319_1, index_put_57);  arg319_1 = index_put_57 = copy__57 = None
        
         # File: /app/low_bit_inference/optims/cache_optim.py:156 in update, code: self.keys.index_copy_(2, cache_position, key_states)
        copy__58: "f16[1, 8, 2048, 128][2097152, 262144, 128, 1]cuda:0" = torch.ops.aten.copy_.default(arg329_1, index_put_58);  arg329_1 = index_put_58 = copy__58 = None
        
         # File: /app/low_bit_inference/optims/cache_optim.py:157 in update, code: self.values.index_copy_(2, cache_position, value_states)
        copy__59: "f16[1, 8, 2048, 128][2097152, 262144, 128, 1]cuda:0" = torch.ops.aten.copy_.default(arg330_1, index_put_59);  arg330_1 = index_put_59 = copy__59 = None
        
         # File: /app/low_bit_inference/optims/cache_optim.py:156 in update, code: self.keys.index_copy_(2, cache_position, key_states)
        copy__60: "f16[1, 8, 2048, 128][2097152, 262144, 128, 1]cuda:0" = torch.ops.aten.copy_.default(arg340_1, index_put_60);  arg340_1 = index_put_60 = copy__60 = None
        
         # File: /app/low_bit_inference/optims/cache_optim.py:157 in update, code: self.values.index_copy_(2, cache_position, value_states)
        copy__61: "f16[1, 8, 2048, 128][2097152, 262144, 128, 1]cuda:0" = torch.ops.aten.copy_.default(arg341_1, index_put_61);  arg341_1 = index_put_61 = copy__61 = None
        
         # File: /app/low_bit_inference/optims/cache_optim.py:156 in update, code: self.keys.index_copy_(2, cache_position, key_states)
        copy__62: "f16[1, 8, 2048, 128][2097152, 262144, 128, 1]cuda:0" = torch.ops.aten.copy_.default(arg351_1, index_put_62);  arg351_1 = index_put_62 = copy__62 = None
        
         # File: /app/low_bit_inference/optims/cache_optim.py:157 in update, code: self.values.index_copy_(2, cache_position, value_states)
        copy__63: "f16[1, 8, 2048, 128][2097152, 262144, 128, 1]cuda:0" = torch.ops.aten.copy_.default(arg352_1, index_put_63);  arg352_1 = index_put_63 = copy__63 = None
        return (view_1097,)
        