class GraphModule(torch.nn.Module):
    def forward(self, L_input_ids_: "i64[1, 1][1, 1]cuda:0", L_self_modules_model_modules_embed_tokens_parameters_weight_: "f16[128256, 4096][4096, 1]cuda:0", L_cache_position_: "i64[1][1]cuda:0", L_position_ids_: "i64[1, 1][1, 1]cuda:0", L_attention_mask_: "b8[1, 1, 1, 2048][2048, 2048, 2048, 1]cuda:0", L_self_modules_model_modules_rotary_emb_buffers_inv_freq_: "f32[64][1]cuda:0", L_self_modules_model_modules_layers_modules_0_modules_input_layernorm_parameters_weight_: "f16[4096][1]cuda:0", L_self_modules_model_modules_layers_modules_0_modules_self_attn_modules_q_proj_parameters_weight_: "f16[4096, 4096][4096, 1]cuda:0", L_self_modules_model_modules_layers_modules_0_modules_self_attn_modules_k_proj_parameters_weight_: "f16[1024, 4096][4096, 1]cuda:0", L_self_modules_model_modules_layers_modules_0_modules_self_attn_modules_v_proj_parameters_weight_: "f16[1024, 4096][4096, 1]cuda:0", L_past_key_values_layers_0_keys: "f16[1, 8, 2048, 128][2097152, 262144, 128, 1]cuda:0", L_past_key_values_layers_0_values: "f16[1, 8, 2048, 128][2097152, 262144, 128, 1]cuda:0", L_self_modules_model_modules_layers_modules_0_modules_self_attn_modules_o_proj_parameters_weight_: "f16[4096, 4096][4096, 1]cuda:0", L_self_modules_model_modules_layers_modules_0_modules_post_attention_layernorm_parameters_weight_: "f16[4096][1]cuda:0", L_self_modules_model_modules_layers_modules_0_modules_mlp_modules_gate_proj_parameters_weight_: "f16[14336, 4096][4096, 1]cuda:0", L_self_modules_model_modules_layers_modules_0_modules_mlp_modules_up_proj_parameters_weight_: "f16[14336, 4096][4096, 1]cuda:0", L_self_modules_model_modules_layers_modules_0_modules_mlp_modules_down_proj_parameters_weight_: "f16[4096, 14336][14336, 1]cuda:0", L_self_modules_model_modules_layers_modules_1_modules_input_layernorm_parameters_weight_: "f16[4096][1]cuda:0", L_self_modules_model_modules_layers_modules_1_modules_self_attn_modules_q_proj_parameters_weight_: "f16[4096, 4096][4096, 1]cuda:0", L_self_modules_model_modules_layers_modules_1_modules_self_attn_modules_k_proj_parameters_weight_: "f16[1024, 4096][4096, 1]cuda:0", L_self_modules_model_modules_layers_modules_1_modules_self_attn_modules_v_proj_parameters_weight_: "f16[1024, 4096][4096, 1]cuda:0", L_past_key_values_layers_1_keys: "f16[1, 8, 2048, 128][2097152, 262144, 128, 1]cuda:0", L_past_key_values_layers_1_values: "f16[1, 8, 2048, 128][2097152, 262144, 128, 1]cuda:0", L_self_modules_model_modules_layers_modules_1_modules_self_attn_modules_o_proj_parameters_weight_: "f16[4096, 4096][4096, 1]cuda:0", L_self_modules_model_modules_layers_modules_1_modules_post_attention_layernorm_parameters_weight_: "f16[4096][1]cuda:0", L_self_modules_model_modules_layers_modules_1_modules_mlp_modules_gate_proj_parameters_weight_: "f16[14336, 4096][4096, 1]cuda:0", L_self_modules_model_modules_layers_modules_1_modules_mlp_modules_up_proj_parameters_weight_: "f16[14336, 4096][4096, 1]cuda:0", L_self_modules_model_modules_layers_modules_1_modules_mlp_modules_down_proj_parameters_weight_: "f16[4096, 14336][14336, 1]cuda:0", L_self_modules_model_modules_layers_modules_2_modules_input_layernorm_parameters_weight_: "f16[4096][1]cuda:0", L_self_modules_model_modules_layers_modules_2_modules_self_attn_modules_q_proj_parameters_weight_: "f16[4096, 4096][4096, 1]cuda:0", L_self_modules_model_modules_layers_modules_2_modules_self_attn_modules_k_proj_parameters_weight_: "f16[1024, 4096][4096, 1]cuda:0", L_self_modules_model_modules_layers_modules_2_modules_self_attn_modules_v_proj_parameters_weight_: "f16[1024, 4096][4096, 1]cuda:0", L_past_key_values_layers_2_keys: "f16[1, 8, 2048, 128][2097152, 262144, 128, 1]cuda:0", L_past_key_values_layers_2_values: "f16[1, 8, 2048, 128][2097152, 262144, 128, 1]cuda:0", L_self_modules_model_modules_layers_modules_2_modules_self_attn_modules_o_proj_parameters_weight_: "f16[4096, 4096][4096, 1]cuda:0", L_self_modules_model_modules_layers_modules_2_modules_post_attention_layernorm_parameters_weight_: "f16[4096][1]cuda:0", L_self_modules_model_modules_layers_modules_2_modules_mlp_modules_gate_proj_parameters_weight_: "f16[14336, 4096][4096, 1]cuda:0", L_self_modules_model_modules_layers_modules_2_modules_mlp_modules_up_proj_parameters_weight_: "f16[14336, 4096][4096, 1]cuda:0", L_self_modules_model_modules_layers_modules_2_modules_mlp_modules_down_proj_parameters_weight_: "f16[4096, 14336][14336, 1]cuda:0", L_self_modules_model_modules_layers_modules_3_modules_input_layernorm_parameters_weight_: "f16[4096][1]cuda:0", L_self_modules_model_modules_layers_modules_3_modules_self_attn_modules_q_proj_parameters_weight_: "f16[4096, 4096][4096, 1]cuda:0", L_self_modules_model_modules_layers_modules_3_modules_self_attn_modules_k_proj_parameters_weight_: "f16[1024, 4096][4096, 1]cuda:0", L_self_modules_model_modules_layers_modules_3_modules_self_attn_modules_v_proj_parameters_weight_: "f16[1024, 4096][4096, 1]cuda:0", L_past_key_values_layers_3_keys: "f16[1, 8, 2048, 128][2097152, 262144, 128, 1]cuda:0", L_past_key_values_layers_3_values: "f16[1, 8, 2048, 128][2097152, 262144, 128, 1]cuda:0", L_self_modules_model_modules_layers_modules_3_modules_self_attn_modules_o_proj_parameters_weight_: "f16[4096, 4096][4096, 1]cuda:0", L_self_modules_model_modules_layers_modules_3_modules_post_attention_layernorm_parameters_weight_: "f16[4096][1]cuda:0", L_self_modules_model_modules_layers_modules_3_modules_mlp_modules_gate_proj_parameters_weight_: "f16[14336, 4096][4096, 1]cuda:0", L_self_modules_model_modules_layers_modules_3_modules_mlp_modules_up_proj_parameters_weight_: "f16[14336, 4096][4096, 1]cuda:0", L_self_modules_model_modules_layers_modules_3_modules_mlp_modules_down_proj_parameters_weight_: "f16[4096, 14336][14336, 1]cuda:0", L_self_modules_model_modules_layers_modules_4_modules_input_layernorm_parameters_weight_: "f16[4096][1]cuda:0", L_self_modules_model_modules_layers_modules_4_modules_self_attn_modules_q_proj_parameters_weight_: "f16[4096, 4096][4096, 1]cuda:0", L_self_modules_model_modules_layers_modules_4_modules_self_attn_modules_k_proj_parameters_weight_: "f16[1024, 4096][4096, 1]cuda:0", L_self_modules_model_modules_layers_modules_4_modules_self_attn_modules_v_proj_parameters_weight_: "f16[1024, 4096][4096, 1]cuda:0", L_past_key_values_layers_4_keys: "f16[1, 8, 2048, 128][2097152, 262144, 128, 1]cuda:0", L_past_key_values_layers_4_values: "f16[1, 8, 2048, 128][2097152, 262144, 128, 1]cuda:0", L_self_modules_model_modules_layers_modules_4_modules_self_attn_modules_o_proj_parameters_weight_: "f16[4096, 4096][4096, 1]cuda:0", L_self_modules_model_modules_layers_modules_4_modules_post_attention_layernorm_parameters_weight_: "f16[4096][1]cuda:0", L_self_modules_model_modules_layers_modules_4_modules_mlp_modules_gate_proj_parameters_weight_: "f16[14336, 4096][4096, 1]cuda:0", L_self_modules_model_modules_layers_modules_4_modules_mlp_modules_up_proj_parameters_weight_: "f16[14336, 4096][4096, 1]cuda:0", L_self_modules_model_modules_layers_modules_4_modules_mlp_modules_down_proj_parameters_weight_: "f16[4096, 14336][14336, 1]cuda:0", L_self_modules_model_modules_layers_modules_5_modules_input_layernorm_parameters_weight_: "f16[4096][1]cuda:0", L_self_modules_model_modules_layers_modules_5_modules_self_attn_modules_q_proj_parameters_weight_: "f16[4096, 4096][4096, 1]cuda:0", L_self_modules_model_modules_layers_modules_5_modules_self_attn_modules_k_proj_parameters_weight_: "f16[1024, 4096][4096, 1]cuda:0", L_self_modules_model_modules_layers_modules_5_modules_self_attn_modules_v_proj_parameters_weight_: "f16[1024, 4096][4096, 1]cuda:0", L_past_key_values_layers_5_keys: "f16[1, 8, 2048, 128][2097152, 262144, 128, 1]cuda:0", L_past_key_values_layers_5_values: "f16[1, 8, 2048, 128][2097152, 262144, 128, 1]cuda:0", L_self_modules_model_modules_layers_modules_5_modules_self_attn_modules_o_proj_parameters_weight_: "f16[4096, 4096][4096, 1]cuda:0", L_self_modules_model_modules_layers_modules_5_modules_post_attention_layernorm_parameters_weight_: "f16[4096][1]cuda:0", L_self_modules_model_modules_layers_modules_5_modules_mlp_modules_gate_proj_parameters_weight_: "f16[14336, 4096][4096, 1]cuda:0", L_self_modules_model_modules_layers_modules_5_modules_mlp_modules_up_proj_parameters_weight_: "f16[14336, 4096][4096, 1]cuda:0", L_self_modules_model_modules_layers_modules_5_modules_mlp_modules_down_proj_parameters_weight_: "f16[4096, 14336][14336, 1]cuda:0", L_self_modules_model_modules_layers_modules_6_modules_input_layernorm_parameters_weight_: "f16[4096][1]cuda:0", L_self_modules_model_modules_layers_modules_6_modules_self_attn_modules_q_proj_parameters_weight_: "f16[4096, 4096][4096, 1]cuda:0", L_self_modules_model_modules_layers_modules_6_modules_self_attn_modules_k_proj_parameters_weight_: "f16[1024, 4096][4096, 1]cuda:0", L_self_modules_model_modules_layers_modules_6_modules_self_attn_modules_v_proj_parameters_weight_: "f16[1024, 4096][4096, 1]cuda:0", L_past_key_values_layers_6_keys: "f16[1, 8, 2048, 128][2097152, 262144, 128, 1]cuda:0", L_past_key_values_layers_6_values: "f16[1, 8, 2048, 128][2097152, 262144, 128, 1]cuda:0", L_self_modules_model_modules_layers_modules_6_modules_self_attn_modules_o_proj_parameters_weight_: "f16[4096, 4096][4096, 1]cuda:0", L_self_modules_model_modules_layers_modules_6_modules_post_attention_layernorm_parameters_weight_: "f16[4096][1]cuda:0", L_self_modules_model_modules_layers_modules_6_modules_mlp_modules_gate_proj_parameters_weight_: "f16[14336, 4096][4096, 1]cuda:0", L_self_modules_model_modules_layers_modules_6_modules_mlp_modules_up_proj_parameters_weight_: "f16[14336, 4096][4096, 1]cuda:0", L_self_modules_model_modules_layers_modules_6_modules_mlp_modules_down_proj_parameters_weight_: "f16[4096, 14336][14336, 1]cuda:0", L_self_modules_model_modules_layers_modules_7_modules_input_layernorm_parameters_weight_: "f16[4096][1]cuda:0", L_self_modules_model_modules_layers_modules_7_modules_self_attn_modules_q_proj_parameters_weight_: "f16[4096, 4096][4096, 1]cuda:0", L_self_modules_model_modules_layers_modules_7_modules_self_attn_modules_k_proj_parameters_weight_: "f16[1024, 4096][4096, 1]cuda:0", L_self_modules_model_modules_layers_modules_7_modules_self_attn_modules_v_proj_parameters_weight_: "f16[1024, 4096][4096, 1]cuda:0", L_past_key_values_layers_7_keys: "f16[1, 8, 2048, 128][2097152, 262144, 128, 1]cuda:0", L_past_key_values_layers_7_values: "f16[1, 8, 2048, 128][2097152, 262144, 128, 1]cuda:0", L_self_modules_model_modules_layers_modules_7_modules_self_attn_modules_o_proj_parameters_weight_: "f16[4096, 4096][4096, 1]cuda:0", L_self_modules_model_modules_layers_modules_7_modules_post_attention_layernorm_parameters_weight_: "f16[4096][1]cuda:0", L_self_modules_model_modules_layers_modules_7_modules_mlp_modules_gate_proj_parameters_weight_: "f16[14336, 4096][4096, 1]cuda:0", L_self_modules_model_modules_layers_modules_7_modules_mlp_modules_up_proj_parameters_weight_: "f16[14336, 4096][4096, 1]cuda:0", L_self_modules_model_modules_layers_modules_7_modules_mlp_modules_down_proj_parameters_weight_: "f16[4096, 14336][14336, 1]cuda:0", L_self_modules_model_modules_layers_modules_8_modules_input_layernorm_parameters_weight_: "f16[4096][1]cuda:0", L_self_modules_model_modules_layers_modules_8_modules_self_attn_modules_q_proj_parameters_weight_: "f16[4096, 4096][4096, 1]cuda:0", L_self_modules_model_modules_layers_modules_8_modules_self_attn_modules_k_proj_parameters_weight_: "f16[1024, 4096][4096, 1]cuda:0", L_self_modules_model_modules_layers_modules_8_modules_self_attn_modules_v_proj_parameters_weight_: "f16[1024, 4096][4096, 1]cuda:0", L_past_key_values_layers_8_keys: "f16[1, 8, 2048, 128][2097152, 262144, 128, 1]cuda:0", L_past_key_values_layers_8_values: "f16[1, 8, 2048, 128][2097152, 262144, 128, 1]cuda:0", L_self_modules_model_modules_layers_modules_8_modules_self_attn_modules_o_proj_parameters_weight_: "f16[4096, 4096][4096, 1]cuda:0", L_self_modules_model_modules_layers_modules_8_modules_post_attention_layernorm_parameters_weight_: "f16[4096][1]cuda:0", L_self_modules_model_modules_layers_modules_8_modules_mlp_modules_gate_proj_parameters_weight_: "f16[14336, 4096][4096, 1]cuda:0", L_self_modules_model_modules_layers_modules_8_modules_mlp_modules_up_proj_parameters_weight_: "f16[14336, 4096][4096, 1]cuda:0", L_self_modules_model_modules_layers_modules_8_modules_mlp_modules_down_proj_parameters_weight_: "f16[4096, 14336][14336, 1]cuda:0", L_self_modules_model_modules_layers_modules_9_modules_input_layernorm_parameters_weight_: "f16[4096][1]cuda:0", L_self_modules_model_modules_layers_modules_9_modules_self_attn_modules_q_proj_parameters_weight_: "f16[4096, 4096][4096, 1]cuda:0", L_self_modules_model_modules_layers_modules_9_modules_self_attn_modules_k_proj_parameters_weight_: "f16[1024, 4096][4096, 1]cuda:0", L_self_modules_model_modules_layers_modules_9_modules_self_attn_modules_v_proj_parameters_weight_: "f16[1024, 4096][4096, 1]cuda:0", L_past_key_values_layers_9_keys: "f16[1, 8, 2048, 128][2097152, 262144, 128, 1]cuda:0", L_past_key_values_layers_9_values: "f16[1, 8, 2048, 128][2097152, 262144, 128, 1]cuda:0", L_self_modules_model_modules_layers_modules_9_modules_self_attn_modules_o_proj_parameters_weight_: "f16[4096, 4096][4096, 1]cuda:0", L_self_modules_model_modules_layers_modules_9_modules_post_attention_layernorm_parameters_weight_: "f16[4096][1]cuda:0", L_self_modules_model_modules_layers_modules_9_modules_mlp_modules_gate_proj_parameters_weight_: "f16[14336, 4096][4096, 1]cuda:0", L_self_modules_model_modules_layers_modules_9_modules_mlp_modules_up_proj_parameters_weight_: "f16[14336, 4096][4096, 1]cuda:0", L_self_modules_model_modules_layers_modules_9_modules_mlp_modules_down_proj_parameters_weight_: "f16[4096, 14336][14336, 1]cuda:0", L_self_modules_model_modules_layers_modules_10_modules_input_layernorm_parameters_weight_: "f16[4096][1]cuda:0", L_self_modules_model_modules_layers_modules_10_modules_self_attn_modules_q_proj_parameters_weight_: "f16[4096, 4096][4096, 1]cuda:0", L_self_modules_model_modules_layers_modules_10_modules_self_attn_modules_k_proj_parameters_weight_: "f16[1024, 4096][4096, 1]cuda:0", L_self_modules_model_modules_layers_modules_10_modules_self_attn_modules_v_proj_parameters_weight_: "f16[1024, 4096][4096, 1]cuda:0", L_past_key_values_layers_10_keys: "f16[1, 8, 2048, 128][2097152, 262144, 128, 1]cuda:0", L_past_key_values_layers_10_values: "f16[1, 8, 2048, 128][2097152, 262144, 128, 1]cuda:0", L_self_modules_model_modules_layers_modules_10_modules_self_attn_modules_o_proj_parameters_weight_: "f16[4096, 4096][4096, 1]cuda:0", L_self_modules_model_modules_layers_modules_10_modules_post_attention_layernorm_parameters_weight_: "f16[4096][1]cuda:0", L_self_modules_model_modules_layers_modules_10_modules_mlp_modules_gate_proj_parameters_weight_: "f16[14336, 4096][4096, 1]cuda:0", L_self_modules_model_modules_layers_modules_10_modules_mlp_modules_up_proj_parameters_weight_: "f16[14336, 4096][4096, 1]cuda:0", L_self_modules_model_modules_layers_modules_10_modules_mlp_modules_down_proj_parameters_weight_: "f16[4096, 14336][14336, 1]cuda:0", L_self_modules_model_modules_layers_modules_11_modules_input_layernorm_parameters_weight_: "f16[4096][1]cuda:0", L_self_modules_model_modules_layers_modules_11_modules_self_attn_modules_q_proj_parameters_weight_: "f16[4096, 4096][4096, 1]cuda:0", L_self_modules_model_modules_layers_modules_11_modules_self_attn_modules_k_proj_parameters_weight_: "f16[1024, 4096][4096, 1]cuda:0", L_self_modules_model_modules_layers_modules_11_modules_self_attn_modules_v_proj_parameters_weight_: "f16[1024, 4096][4096, 1]cuda:0", L_past_key_values_layers_11_keys: "f16[1, 8, 2048, 128][2097152, 262144, 128, 1]cuda:0", L_past_key_values_layers_11_values: "f16[1, 8, 2048, 128][2097152, 262144, 128, 1]cuda:0", L_self_modules_model_modules_layers_modules_11_modules_self_attn_modules_o_proj_parameters_weight_: "f16[4096, 4096][4096, 1]cuda:0", L_self_modules_model_modules_layers_modules_11_modules_post_attention_layernorm_parameters_weight_: "f16[4096][1]cuda:0", L_self_modules_model_modules_layers_modules_11_modules_mlp_modules_gate_proj_parameters_weight_: "f16[14336, 4096][4096, 1]cuda:0", L_self_modules_model_modules_layers_modules_11_modules_mlp_modules_up_proj_parameters_weight_: "f16[14336, 4096][4096, 1]cuda:0", L_self_modules_model_modules_layers_modules_11_modules_mlp_modules_down_proj_parameters_weight_: "f16[4096, 14336][14336, 1]cuda:0", L_self_modules_model_modules_layers_modules_12_modules_input_layernorm_parameters_weight_: "f16[4096][1]cuda:0", L_self_modules_model_modules_layers_modules_12_modules_self_attn_modules_q_proj_parameters_weight_: "f16[4096, 4096][4096, 1]cuda:0", L_self_modules_model_modules_layers_modules_12_modules_self_attn_modules_k_proj_parameters_weight_: "f16[1024, 4096][4096, 1]cuda:0", L_self_modules_model_modules_layers_modules_12_modules_self_attn_modules_v_proj_parameters_weight_: "f16[1024, 4096][4096, 1]cuda:0", L_past_key_values_layers_12_keys: "f16[1, 8, 2048, 128][2097152, 262144, 128, 1]cuda:0", L_past_key_values_layers_12_values: "f16[1, 8, 2048, 128][2097152, 262144, 128, 1]cuda:0", L_self_modules_model_modules_layers_modules_12_modules_self_attn_modules_o_proj_parameters_weight_: "f16[4096, 4096][4096, 1]cuda:0", L_self_modules_model_modules_layers_modules_12_modules_post_attention_layernorm_parameters_weight_: "f16[4096][1]cuda:0", L_self_modules_model_modules_layers_modules_12_modules_mlp_modules_gate_proj_parameters_weight_: "f16[14336, 4096][4096, 1]cuda:0", L_self_modules_model_modules_layers_modules_12_modules_mlp_modules_up_proj_parameters_weight_: "f16[14336, 4096][4096, 1]cuda:0", L_self_modules_model_modules_layers_modules_12_modules_mlp_modules_down_proj_parameters_weight_: "f16[4096, 14336][14336, 1]cuda:0", L_self_modules_model_modules_layers_modules_13_modules_input_layernorm_parameters_weight_: "f16[4096][1]cuda:0", L_self_modules_model_modules_layers_modules_13_modules_self_attn_modules_q_proj_parameters_weight_: "f16[4096, 4096][4096, 1]cuda:0", L_self_modules_model_modules_layers_modules_13_modules_self_attn_modules_k_proj_parameters_weight_: "f16[1024, 4096][4096, 1]cuda:0", L_self_modules_model_modules_layers_modules_13_modules_self_attn_modules_v_proj_parameters_weight_: "f16[1024, 4096][4096, 1]cuda:0", L_past_key_values_layers_13_keys: "f16[1, 8, 2048, 128][2097152, 262144, 128, 1]cuda:0", L_past_key_values_layers_13_values: "f16[1, 8, 2048, 128][2097152, 262144, 128, 1]cuda:0", L_self_modules_model_modules_layers_modules_13_modules_self_attn_modules_o_proj_parameters_weight_: "f16[4096, 4096][4096, 1]cuda:0", L_self_modules_model_modules_layers_modules_13_modules_post_attention_layernorm_parameters_weight_: "f16[4096][1]cuda:0", L_self_modules_model_modules_layers_modules_13_modules_mlp_modules_gate_proj_parameters_weight_: "f16[14336, 4096][4096, 1]cuda:0", L_self_modules_model_modules_layers_modules_13_modules_mlp_modules_up_proj_parameters_weight_: "f16[14336, 4096][4096, 1]cuda:0", L_self_modules_model_modules_layers_modules_13_modules_mlp_modules_down_proj_parameters_weight_: "f16[4096, 14336][14336, 1]cuda:0", L_self_modules_model_modules_layers_modules_14_modules_input_layernorm_parameters_weight_: "f16[4096][1]cuda:0", L_self_modules_model_modules_layers_modules_14_modules_self_attn_modules_q_proj_parameters_weight_: "f16[4096, 4096][4096, 1]cuda:0", L_self_modules_model_modules_layers_modules_14_modules_self_attn_modules_k_proj_parameters_weight_: "f16[1024, 4096][4096, 1]cuda:0", L_self_modules_model_modules_layers_modules_14_modules_self_attn_modules_v_proj_parameters_weight_: "f16[1024, 4096][4096, 1]cuda:0", L_past_key_values_layers_14_keys: "f16[1, 8, 2048, 128][2097152, 262144, 128, 1]cuda:0", L_past_key_values_layers_14_values: "f16[1, 8, 2048, 128][2097152, 262144, 128, 1]cuda:0", L_self_modules_model_modules_layers_modules_14_modules_self_attn_modules_o_proj_parameters_weight_: "f16[4096, 4096][4096, 1]cuda:0", L_self_modules_model_modules_layers_modules_14_modules_post_attention_layernorm_parameters_weight_: "f16[4096][1]cuda:0", L_self_modules_model_modules_layers_modules_14_modules_mlp_modules_gate_proj_parameters_weight_: "f16[14336, 4096][4096, 1]cuda:0", L_self_modules_model_modules_layers_modules_14_modules_mlp_modules_up_proj_parameters_weight_: "f16[14336, 4096][4096, 1]cuda:0", L_self_modules_model_modules_layers_modules_14_modules_mlp_modules_down_proj_parameters_weight_: "f16[4096, 14336][14336, 1]cuda:0", L_self_modules_model_modules_layers_modules_15_modules_input_layernorm_parameters_weight_: "f16[4096][1]cuda:0", L_self_modules_model_modules_layers_modules_15_modules_self_attn_modules_q_proj_parameters_weight_: "f16[4096, 4096][4096, 1]cuda:0", L_self_modules_model_modules_layers_modules_15_modules_self_attn_modules_k_proj_parameters_weight_: "f16[1024, 4096][4096, 1]cuda:0", L_self_modules_model_modules_layers_modules_15_modules_self_attn_modules_v_proj_parameters_weight_: "f16[1024, 4096][4096, 1]cuda:0", L_past_key_values_layers_15_keys: "f16[1, 8, 2048, 128][2097152, 262144, 128, 1]cuda:0", L_past_key_values_layers_15_values: "f16[1, 8, 2048, 128][2097152, 262144, 128, 1]cuda:0", L_self_modules_model_modules_layers_modules_15_modules_self_attn_modules_o_proj_parameters_weight_: "f16[4096, 4096][4096, 1]cuda:0", L_self_modules_model_modules_layers_modules_15_modules_post_attention_layernorm_parameters_weight_: "f16[4096][1]cuda:0", L_self_modules_model_modules_layers_modules_15_modules_mlp_modules_gate_proj_parameters_weight_: "f16[14336, 4096][4096, 1]cuda:0", L_self_modules_model_modules_layers_modules_15_modules_mlp_modules_up_proj_parameters_weight_: "f16[14336, 4096][4096, 1]cuda:0", L_self_modules_model_modules_layers_modules_15_modules_mlp_modules_down_proj_parameters_weight_: "f16[4096, 14336][14336, 1]cuda:0", L_self_modules_model_modules_layers_modules_16_modules_input_layernorm_parameters_weight_: "f16[4096][1]cuda:0", L_self_modules_model_modules_layers_modules_16_modules_self_attn_modules_q_proj_parameters_weight_: "f16[4096, 4096][4096, 1]cuda:0", L_self_modules_model_modules_layers_modules_16_modules_self_attn_modules_k_proj_parameters_weight_: "f16[1024, 4096][4096, 1]cuda:0", L_self_modules_model_modules_layers_modules_16_modules_self_attn_modules_v_proj_parameters_weight_: "f16[1024, 4096][4096, 1]cuda:0", L_past_key_values_layers_16_keys: "f16[1, 8, 2048, 128][2097152, 262144, 128, 1]cuda:0", L_past_key_values_layers_16_values: "f16[1, 8, 2048, 128][2097152, 262144, 128, 1]cuda:0", L_self_modules_model_modules_layers_modules_16_modules_self_attn_modules_o_proj_parameters_weight_: "f16[4096, 4096][4096, 1]cuda:0", L_self_modules_model_modules_layers_modules_16_modules_post_attention_layernorm_parameters_weight_: "f16[4096][1]cuda:0", L_self_modules_model_modules_layers_modules_16_modules_mlp_modules_gate_proj_parameters_weight_: "f16[14336, 4096][4096, 1]cuda:0", L_self_modules_model_modules_layers_modules_16_modules_mlp_modules_up_proj_parameters_weight_: "f16[14336, 4096][4096, 1]cuda:0", L_self_modules_model_modules_layers_modules_16_modules_mlp_modules_down_proj_parameters_weight_: "f16[4096, 14336][14336, 1]cuda:0", L_self_modules_model_modules_layers_modules_17_modules_input_layernorm_parameters_weight_: "f16[4096][1]cuda:0", L_self_modules_model_modules_layers_modules_17_modules_self_attn_modules_q_proj_parameters_weight_: "f16[4096, 4096][4096, 1]cuda:0", L_self_modules_model_modules_layers_modules_17_modules_self_attn_modules_k_proj_parameters_weight_: "f16[1024, 4096][4096, 1]cuda:0", L_self_modules_model_modules_layers_modules_17_modules_self_attn_modules_v_proj_parameters_weight_: "f16[1024, 4096][4096, 1]cuda:0", L_past_key_values_layers_17_keys: "f16[1, 8, 2048, 128][2097152, 262144, 128, 1]cuda:0", L_past_key_values_layers_17_values: "f16[1, 8, 2048, 128][2097152, 262144, 128, 1]cuda:0", L_self_modules_model_modules_layers_modules_17_modules_self_attn_modules_o_proj_parameters_weight_: "f16[4096, 4096][4096, 1]cuda:0", L_self_modules_model_modules_layers_modules_17_modules_post_attention_layernorm_parameters_weight_: "f16[4096][1]cuda:0", L_self_modules_model_modules_layers_modules_17_modules_mlp_modules_gate_proj_parameters_weight_: "f16[14336, 4096][4096, 1]cuda:0", L_self_modules_model_modules_layers_modules_17_modules_mlp_modules_up_proj_parameters_weight_: "f16[14336, 4096][4096, 1]cuda:0", L_self_modules_model_modules_layers_modules_17_modules_mlp_modules_down_proj_parameters_weight_: "f16[4096, 14336][14336, 1]cuda:0", L_self_modules_model_modules_layers_modules_18_modules_input_layernorm_parameters_weight_: "f16[4096][1]cuda:0", L_self_modules_model_modules_layers_modules_18_modules_self_attn_modules_q_proj_parameters_weight_: "f16[4096, 4096][4096, 1]cuda:0", L_self_modules_model_modules_layers_modules_18_modules_self_attn_modules_k_proj_parameters_weight_: "f16[1024, 4096][4096, 1]cuda:0", L_self_modules_model_modules_layers_modules_18_modules_self_attn_modules_v_proj_parameters_weight_: "f16[1024, 4096][4096, 1]cuda:0", L_past_key_values_layers_18_keys: "f16[1, 8, 2048, 128][2097152, 262144, 128, 1]cuda:0", L_past_key_values_layers_18_values: "f16[1, 8, 2048, 128][2097152, 262144, 128, 1]cuda:0", L_self_modules_model_modules_layers_modules_18_modules_self_attn_modules_o_proj_parameters_weight_: "f16[4096, 4096][4096, 1]cuda:0", L_self_modules_model_modules_layers_modules_18_modules_post_attention_layernorm_parameters_weight_: "f16[4096][1]cuda:0", L_self_modules_model_modules_layers_modules_18_modules_mlp_modules_gate_proj_parameters_weight_: "f16[14336, 4096][4096, 1]cuda:0", L_self_modules_model_modules_layers_modules_18_modules_mlp_modules_up_proj_parameters_weight_: "f16[14336, 4096][4096, 1]cuda:0", L_self_modules_model_modules_layers_modules_18_modules_mlp_modules_down_proj_parameters_weight_: "f16[4096, 14336][14336, 1]cuda:0", L_self_modules_model_modules_layers_modules_19_modules_input_layernorm_parameters_weight_: "f16[4096][1]cuda:0", L_self_modules_model_modules_layers_modules_19_modules_self_attn_modules_q_proj_parameters_weight_: "f16[4096, 4096][4096, 1]cuda:0", L_self_modules_model_modules_layers_modules_19_modules_self_attn_modules_k_proj_parameters_weight_: "f16[1024, 4096][4096, 1]cuda:0", L_self_modules_model_modules_layers_modules_19_modules_self_attn_modules_v_proj_parameters_weight_: "f16[1024, 4096][4096, 1]cuda:0", L_past_key_values_layers_19_keys: "f16[1, 8, 2048, 128][2097152, 262144, 128, 1]cuda:0", L_past_key_values_layers_19_values: "f16[1, 8, 2048, 128][2097152, 262144, 128, 1]cuda:0", L_self_modules_model_modules_layers_modules_19_modules_self_attn_modules_o_proj_parameters_weight_: "f16[4096, 4096][4096, 1]cuda:0", L_self_modules_model_modules_layers_modules_19_modules_post_attention_layernorm_parameters_weight_: "f16[4096][1]cuda:0", L_self_modules_model_modules_layers_modules_19_modules_mlp_modules_gate_proj_parameters_weight_: "f16[14336, 4096][4096, 1]cuda:0", L_self_modules_model_modules_layers_modules_19_modules_mlp_modules_up_proj_parameters_weight_: "f16[14336, 4096][4096, 1]cuda:0", L_self_modules_model_modules_layers_modules_19_modules_mlp_modules_down_proj_parameters_weight_: "f16[4096, 14336][14336, 1]cuda:0", L_self_modules_model_modules_layers_modules_20_modules_input_layernorm_parameters_weight_: "f16[4096][1]cuda:0", L_self_modules_model_modules_layers_modules_20_modules_self_attn_modules_q_proj_parameters_weight_: "f16[4096, 4096][4096, 1]cuda:0", L_self_modules_model_modules_layers_modules_20_modules_self_attn_modules_k_proj_parameters_weight_: "f16[1024, 4096][4096, 1]cuda:0", L_self_modules_model_modules_layers_modules_20_modules_self_attn_modules_v_proj_parameters_weight_: "f16[1024, 4096][4096, 1]cuda:0", L_past_key_values_layers_20_keys: "f16[1, 8, 2048, 128][2097152, 262144, 128, 1]cuda:0", L_past_key_values_layers_20_values: "f16[1, 8, 2048, 128][2097152, 262144, 128, 1]cuda:0", L_self_modules_model_modules_layers_modules_20_modules_self_attn_modules_o_proj_parameters_weight_: "f16[4096, 4096][4096, 1]cuda:0", L_self_modules_model_modules_layers_modules_20_modules_post_attention_layernorm_parameters_weight_: "f16[4096][1]cuda:0", L_self_modules_model_modules_layers_modules_20_modules_mlp_modules_gate_proj_parameters_weight_: "f16[14336, 4096][4096, 1]cuda:0", L_self_modules_model_modules_layers_modules_20_modules_mlp_modules_up_proj_parameters_weight_: "f16[14336, 4096][4096, 1]cuda:0", L_self_modules_model_modules_layers_modules_20_modules_mlp_modules_down_proj_parameters_weight_: "f16[4096, 14336][14336, 1]cuda:0", L_self_modules_model_modules_layers_modules_21_modules_input_layernorm_parameters_weight_: "f16[4096][1]cuda:0", L_self_modules_model_modules_layers_modules_21_modules_self_attn_modules_q_proj_parameters_weight_: "f16[4096, 4096][4096, 1]cuda:0", L_self_modules_model_modules_layers_modules_21_modules_self_attn_modules_k_proj_parameters_weight_: "f16[1024, 4096][4096, 1]cuda:0", L_self_modules_model_modules_layers_modules_21_modules_self_attn_modules_v_proj_parameters_weight_: "f16[1024, 4096][4096, 1]cuda:0", L_past_key_values_layers_21_keys: "f16[1, 8, 2048, 128][2097152, 262144, 128, 1]cuda:0", L_past_key_values_layers_21_values: "f16[1, 8, 2048, 128][2097152, 262144, 128, 1]cuda:0", L_self_modules_model_modules_layers_modules_21_modules_self_attn_modules_o_proj_parameters_weight_: "f16[4096, 4096][4096, 1]cuda:0", L_self_modules_model_modules_layers_modules_21_modules_post_attention_layernorm_parameters_weight_: "f16[4096][1]cuda:0", L_self_modules_model_modules_layers_modules_21_modules_mlp_modules_gate_proj_parameters_weight_: "f16[14336, 4096][4096, 1]cuda:0", L_self_modules_model_modules_layers_modules_21_modules_mlp_modules_up_proj_parameters_weight_: "f16[14336, 4096][4096, 1]cuda:0", L_self_modules_model_modules_layers_modules_21_modules_mlp_modules_down_proj_parameters_weight_: "f16[4096, 14336][14336, 1]cuda:0", L_self_modules_model_modules_layers_modules_22_modules_input_layernorm_parameters_weight_: "f16[4096][1]cuda:0", L_self_modules_model_modules_layers_modules_22_modules_self_attn_modules_q_proj_parameters_weight_: "f16[4096, 4096][4096, 1]cuda:0", L_self_modules_model_modules_layers_modules_22_modules_self_attn_modules_k_proj_parameters_weight_: "f16[1024, 4096][4096, 1]cuda:0", L_self_modules_model_modules_layers_modules_22_modules_self_attn_modules_v_proj_parameters_weight_: "f16[1024, 4096][4096, 1]cuda:0", L_past_key_values_layers_22_keys: "f16[1, 8, 2048, 128][2097152, 262144, 128, 1]cuda:0", L_past_key_values_layers_22_values: "f16[1, 8, 2048, 128][2097152, 262144, 128, 1]cuda:0", L_self_modules_model_modules_layers_modules_22_modules_self_attn_modules_o_proj_parameters_weight_: "f16[4096, 4096][4096, 1]cuda:0", L_self_modules_model_modules_layers_modules_22_modules_post_attention_layernorm_parameters_weight_: "f16[4096][1]cuda:0", L_self_modules_model_modules_layers_modules_22_modules_mlp_modules_gate_proj_parameters_weight_: "f16[14336, 4096][4096, 1]cuda:0", L_self_modules_model_modules_layers_modules_22_modules_mlp_modules_up_proj_parameters_weight_: "f16[14336, 4096][4096, 1]cuda:0", L_self_modules_model_modules_layers_modules_22_modules_mlp_modules_down_proj_parameters_weight_: "f16[4096, 14336][14336, 1]cuda:0", L_self_modules_model_modules_layers_modules_23_modules_input_layernorm_parameters_weight_: "f16[4096][1]cuda:0", L_self_modules_model_modules_layers_modules_23_modules_self_attn_modules_q_proj_parameters_weight_: "f16[4096, 4096][4096, 1]cuda:0", L_self_modules_model_modules_layers_modules_23_modules_self_attn_modules_k_proj_parameters_weight_: "f16[1024, 4096][4096, 1]cuda:0", L_self_modules_model_modules_layers_modules_23_modules_self_attn_modules_v_proj_parameters_weight_: "f16[1024, 4096][4096, 1]cuda:0", L_past_key_values_layers_23_keys: "f16[1, 8, 2048, 128][2097152, 262144, 128, 1]cuda:0", L_past_key_values_layers_23_values: "f16[1, 8, 2048, 128][2097152, 262144, 128, 1]cuda:0", L_self_modules_model_modules_layers_modules_23_modules_self_attn_modules_o_proj_parameters_weight_: "f16[4096, 4096][4096, 1]cuda:0", L_self_modules_model_modules_layers_modules_23_modules_post_attention_layernorm_parameters_weight_: "f16[4096][1]cuda:0", L_self_modules_model_modules_layers_modules_23_modules_mlp_modules_gate_proj_parameters_weight_: "f16[14336, 4096][4096, 1]cuda:0", L_self_modules_model_modules_layers_modules_23_modules_mlp_modules_up_proj_parameters_weight_: "f16[14336, 4096][4096, 1]cuda:0", L_self_modules_model_modules_layers_modules_23_modules_mlp_modules_down_proj_parameters_weight_: "f16[4096, 14336][14336, 1]cuda:0", L_self_modules_model_modules_layers_modules_24_modules_input_layernorm_parameters_weight_: "f16[4096][1]cuda:0", L_self_modules_model_modules_layers_modules_24_modules_self_attn_modules_q_proj_parameters_weight_: "f16[4096, 4096][4096, 1]cuda:0", L_self_modules_model_modules_layers_modules_24_modules_self_attn_modules_k_proj_parameters_weight_: "f16[1024, 4096][4096, 1]cuda:0", L_self_modules_model_modules_layers_modules_24_modules_self_attn_modules_v_proj_parameters_weight_: "f16[1024, 4096][4096, 1]cuda:0", L_past_key_values_layers_24_keys: "f16[1, 8, 2048, 128][2097152, 262144, 128, 1]cuda:0", L_past_key_values_layers_24_values: "f16[1, 8, 2048, 128][2097152, 262144, 128, 1]cuda:0", L_self_modules_model_modules_layers_modules_24_modules_self_attn_modules_o_proj_parameters_weight_: "f16[4096, 4096][4096, 1]cuda:0", L_self_modules_model_modules_layers_modules_24_modules_post_attention_layernorm_parameters_weight_: "f16[4096][1]cuda:0", L_self_modules_model_modules_layers_modules_24_modules_mlp_modules_gate_proj_parameters_weight_: "f16[14336, 4096][4096, 1]cuda:0", L_self_modules_model_modules_layers_modules_24_modules_mlp_modules_up_proj_parameters_weight_: "f16[14336, 4096][4096, 1]cuda:0", L_self_modules_model_modules_layers_modules_24_modules_mlp_modules_down_proj_parameters_weight_: "f16[4096, 14336][14336, 1]cuda:0", L_self_modules_model_modules_layers_modules_25_modules_input_layernorm_parameters_weight_: "f16[4096][1]cuda:0", L_self_modules_model_modules_layers_modules_25_modules_self_attn_modules_q_proj_parameters_weight_: "f16[4096, 4096][4096, 1]cuda:0", L_self_modules_model_modules_layers_modules_25_modules_self_attn_modules_k_proj_parameters_weight_: "f16[1024, 4096][4096, 1]cuda:0", L_self_modules_model_modules_layers_modules_25_modules_self_attn_modules_v_proj_parameters_weight_: "f16[1024, 4096][4096, 1]cuda:0", L_past_key_values_layers_25_keys: "f16[1, 8, 2048, 128][2097152, 262144, 128, 1]cuda:0", L_past_key_values_layers_25_values: "f16[1, 8, 2048, 128][2097152, 262144, 128, 1]cuda:0", L_self_modules_model_modules_layers_modules_25_modules_self_attn_modules_o_proj_parameters_weight_: "f16[4096, 4096][4096, 1]cuda:0", L_self_modules_model_modules_layers_modules_25_modules_post_attention_layernorm_parameters_weight_: "f16[4096][1]cuda:0", L_self_modules_model_modules_layers_modules_25_modules_mlp_modules_gate_proj_parameters_weight_: "f16[14336, 4096][4096, 1]cuda:0", L_self_modules_model_modules_layers_modules_25_modules_mlp_modules_up_proj_parameters_weight_: "f16[14336, 4096][4096, 1]cuda:0", L_self_modules_model_modules_layers_modules_25_modules_mlp_modules_down_proj_parameters_weight_: "f16[4096, 14336][14336, 1]cuda:0", L_self_modules_model_modules_layers_modules_26_modules_input_layernorm_parameters_weight_: "f16[4096][1]cuda:0", L_self_modules_model_modules_layers_modules_26_modules_self_attn_modules_q_proj_parameters_weight_: "f16[4096, 4096][4096, 1]cuda:0", L_self_modules_model_modules_layers_modules_26_modules_self_attn_modules_k_proj_parameters_weight_: "f16[1024, 4096][4096, 1]cuda:0", L_self_modules_model_modules_layers_modules_26_modules_self_attn_modules_v_proj_parameters_weight_: "f16[1024, 4096][4096, 1]cuda:0", L_past_key_values_layers_26_keys: "f16[1, 8, 2048, 128][2097152, 262144, 128, 1]cuda:0", L_past_key_values_layers_26_values: "f16[1, 8, 2048, 128][2097152, 262144, 128, 1]cuda:0", L_self_modules_model_modules_layers_modules_26_modules_self_attn_modules_o_proj_parameters_weight_: "f16[4096, 4096][4096, 1]cuda:0", L_self_modules_model_modules_layers_modules_26_modules_post_attention_layernorm_parameters_weight_: "f16[4096][1]cuda:0", L_self_modules_model_modules_layers_modules_26_modules_mlp_modules_gate_proj_parameters_weight_: "f16[14336, 4096][4096, 1]cuda:0", L_self_modules_model_modules_layers_modules_26_modules_mlp_modules_up_proj_parameters_weight_: "f16[14336, 4096][4096, 1]cuda:0", L_self_modules_model_modules_layers_modules_26_modules_mlp_modules_down_proj_parameters_weight_: "f16[4096, 14336][14336, 1]cuda:0", L_self_modules_model_modules_layers_modules_27_modules_input_layernorm_parameters_weight_: "f16[4096][1]cuda:0", L_self_modules_model_modules_layers_modules_27_modules_self_attn_modules_q_proj_parameters_weight_: "f16[4096, 4096][4096, 1]cuda:0", L_self_modules_model_modules_layers_modules_27_modules_self_attn_modules_k_proj_parameters_weight_: "f16[1024, 4096][4096, 1]cuda:0", L_self_modules_model_modules_layers_modules_27_modules_self_attn_modules_v_proj_parameters_weight_: "f16[1024, 4096][4096, 1]cuda:0", L_past_key_values_layers_27_keys: "f16[1, 8, 2048, 128][2097152, 262144, 128, 1]cuda:0", L_past_key_values_layers_27_values: "f16[1, 8, 2048, 128][2097152, 262144, 128, 1]cuda:0", L_self_modules_model_modules_layers_modules_27_modules_self_attn_modules_o_proj_parameters_weight_: "f16[4096, 4096][4096, 1]cuda:0", L_self_modules_model_modules_layers_modules_27_modules_post_attention_layernorm_parameters_weight_: "f16[4096][1]cuda:0", L_self_modules_model_modules_layers_modules_27_modules_mlp_modules_gate_proj_parameters_weight_: "f16[14336, 4096][4096, 1]cuda:0", L_self_modules_model_modules_layers_modules_27_modules_mlp_modules_up_proj_parameters_weight_: "f16[14336, 4096][4096, 1]cuda:0", L_self_modules_model_modules_layers_modules_27_modules_mlp_modules_down_proj_parameters_weight_: "f16[4096, 14336][14336, 1]cuda:0", L_self_modules_model_modules_layers_modules_28_modules_input_layernorm_parameters_weight_: "f16[4096][1]cuda:0", L_self_modules_model_modules_layers_modules_28_modules_self_attn_modules_q_proj_parameters_weight_: "f16[4096, 4096][4096, 1]cuda:0", L_self_modules_model_modules_layers_modules_28_modules_self_attn_modules_k_proj_parameters_weight_: "f16[1024, 4096][4096, 1]cuda:0", L_self_modules_model_modules_layers_modules_28_modules_self_attn_modules_v_proj_parameters_weight_: "f16[1024, 4096][4096, 1]cuda:0", L_past_key_values_layers_28_keys: "f16[1, 8, 2048, 128][2097152, 262144, 128, 1]cuda:0", L_past_key_values_layers_28_values: "f16[1, 8, 2048, 128][2097152, 262144, 128, 1]cuda:0", L_self_modules_model_modules_layers_modules_28_modules_self_attn_modules_o_proj_parameters_weight_: "f16[4096, 4096][4096, 1]cuda:0", L_self_modules_model_modules_layers_modules_28_modules_post_attention_layernorm_parameters_weight_: "f16[4096][1]cuda:0", L_self_modules_model_modules_layers_modules_28_modules_mlp_modules_gate_proj_parameters_weight_: "f16[14336, 4096][4096, 1]cuda:0", L_self_modules_model_modules_layers_modules_28_modules_mlp_modules_up_proj_parameters_weight_: "f16[14336, 4096][4096, 1]cuda:0", L_self_modules_model_modules_layers_modules_28_modules_mlp_modules_down_proj_parameters_weight_: "f16[4096, 14336][14336, 1]cuda:0", L_self_modules_model_modules_layers_modules_29_modules_input_layernorm_parameters_weight_: "f16[4096][1]cuda:0", L_self_modules_model_modules_layers_modules_29_modules_self_attn_modules_q_proj_parameters_weight_: "f16[4096, 4096][4096, 1]cuda:0", L_self_modules_model_modules_layers_modules_29_modules_self_attn_modules_k_proj_parameters_weight_: "f16[1024, 4096][4096, 1]cuda:0", L_self_modules_model_modules_layers_modules_29_modules_self_attn_modules_v_proj_parameters_weight_: "f16[1024, 4096][4096, 1]cuda:0", L_past_key_values_layers_29_keys: "f16[1, 8, 2048, 128][2097152, 262144, 128, 1]cuda:0", L_past_key_values_layers_29_values: "f16[1, 8, 2048, 128][2097152, 262144, 128, 1]cuda:0", L_self_modules_model_modules_layers_modules_29_modules_self_attn_modules_o_proj_parameters_weight_: "f16[4096, 4096][4096, 1]cuda:0", L_self_modules_model_modules_layers_modules_29_modules_post_attention_layernorm_parameters_weight_: "f16[4096][1]cuda:0", L_self_modules_model_modules_layers_modules_29_modules_mlp_modules_gate_proj_parameters_weight_: "f16[14336, 4096][4096, 1]cuda:0", L_self_modules_model_modules_layers_modules_29_modules_mlp_modules_up_proj_parameters_weight_: "f16[14336, 4096][4096, 1]cuda:0", L_self_modules_model_modules_layers_modules_29_modules_mlp_modules_down_proj_parameters_weight_: "f16[4096, 14336][14336, 1]cuda:0", L_self_modules_model_modules_layers_modules_30_modules_input_layernorm_parameters_weight_: "f16[4096][1]cuda:0", L_self_modules_model_modules_layers_modules_30_modules_self_attn_modules_q_proj_parameters_weight_: "f16[4096, 4096][4096, 1]cuda:0", L_self_modules_model_modules_layers_modules_30_modules_self_attn_modules_k_proj_parameters_weight_: "f16[1024, 4096][4096, 1]cuda:0", L_self_modules_model_modules_layers_modules_30_modules_self_attn_modules_v_proj_parameters_weight_: "f16[1024, 4096][4096, 1]cuda:0", L_past_key_values_layers_30_keys: "f16[1, 8, 2048, 128][2097152, 262144, 128, 1]cuda:0", L_past_key_values_layers_30_values: "f16[1, 8, 2048, 128][2097152, 262144, 128, 1]cuda:0", L_self_modules_model_modules_layers_modules_30_modules_self_attn_modules_o_proj_parameters_weight_: "f16[4096, 4096][4096, 1]cuda:0", L_self_modules_model_modules_layers_modules_30_modules_post_attention_layernorm_parameters_weight_: "f16[4096][1]cuda:0", L_self_modules_model_modules_layers_modules_30_modules_mlp_modules_gate_proj_parameters_weight_: "f16[14336, 4096][4096, 1]cuda:0", L_self_modules_model_modules_layers_modules_30_modules_mlp_modules_up_proj_parameters_weight_: "f16[14336, 4096][4096, 1]cuda:0", L_self_modules_model_modules_layers_modules_30_modules_mlp_modules_down_proj_parameters_weight_: "f16[4096, 14336][14336, 1]cuda:0", L_self_modules_model_modules_layers_modules_31_modules_input_layernorm_parameters_weight_: "f16[4096][1]cuda:0", L_self_modules_model_modules_layers_modules_31_modules_self_attn_modules_q_proj_parameters_weight_: "f16[4096, 4096][4096, 1]cuda:0", L_self_modules_model_modules_layers_modules_31_modules_self_attn_modules_k_proj_parameters_weight_: "f16[1024, 4096][4096, 1]cuda:0", L_self_modules_model_modules_layers_modules_31_modules_self_attn_modules_v_proj_parameters_weight_: "f16[1024, 4096][4096, 1]cuda:0", L_past_key_values_layers_31_keys: "f16[1, 8, 2048, 128][2097152, 262144, 128, 1]cuda:0", L_past_key_values_layers_31_values: "f16[1, 8, 2048, 128][2097152, 262144, 128, 1]cuda:0", L_self_modules_model_modules_layers_modules_31_modules_self_attn_modules_o_proj_parameters_weight_: "f16[4096, 4096][4096, 1]cuda:0", L_self_modules_model_modules_layers_modules_31_modules_post_attention_layernorm_parameters_weight_: "f16[4096][1]cuda:0", L_self_modules_model_modules_layers_modules_31_modules_mlp_modules_gate_proj_parameters_weight_: "f16[14336, 4096][4096, 1]cuda:0", L_self_modules_model_modules_layers_modules_31_modules_mlp_modules_up_proj_parameters_weight_: "f16[14336, 4096][4096, 1]cuda:0", L_self_modules_model_modules_layers_modules_31_modules_mlp_modules_down_proj_parameters_weight_: "f16[4096, 14336][14336, 1]cuda:0", L_self_modules_model_modules_norm_parameters_weight_: "f16[4096][1]cuda:0", L_self_modules_lm_head_parameters_weight_: "f16[128256, 4096][4096, 1]cuda:0"):
        l_input_ids_ = L_input_ids_
        l_self_modules_model_modules_embed_tokens_parameters_weight_ = L_self_modules_model_modules_embed_tokens_parameters_weight_
        l_cache_position_ = L_cache_position_
        l_position_ids_ = L_position_ids_
        l_attention_mask_ = L_attention_mask_
        l_self_modules_model_modules_rotary_emb_buffers_inv_freq_ = L_self_modules_model_modules_rotary_emb_buffers_inv_freq_
        l_self_modules_model_modules_layers_modules_0_modules_input_layernorm_parameters_weight_ = L_self_modules_model_modules_layers_modules_0_modules_input_layernorm_parameters_weight_
        l_self_modules_model_modules_layers_modules_0_modules_self_attn_modules_q_proj_parameters_weight_ = L_self_modules_model_modules_layers_modules_0_modules_self_attn_modules_q_proj_parameters_weight_
        l_self_modules_model_modules_layers_modules_0_modules_self_attn_modules_k_proj_parameters_weight_ = L_self_modules_model_modules_layers_modules_0_modules_self_attn_modules_k_proj_parameters_weight_
        l_self_modules_model_modules_layers_modules_0_modules_self_attn_modules_v_proj_parameters_weight_ = L_self_modules_model_modules_layers_modules_0_modules_self_attn_modules_v_proj_parameters_weight_
        l_past_key_values_layers_0_keys = L_past_key_values_layers_0_keys
        l_past_key_values_layers_0_values = L_past_key_values_layers_0_values
        l_self_modules_model_modules_layers_modules_0_modules_self_attn_modules_o_proj_parameters_weight_ = L_self_modules_model_modules_layers_modules_0_modules_self_attn_modules_o_proj_parameters_weight_
        l_self_modules_model_modules_layers_modules_0_modules_post_attention_layernorm_parameters_weight_ = L_self_modules_model_modules_layers_modules_0_modules_post_attention_layernorm_parameters_weight_
        l_self_modules_model_modules_layers_modules_0_modules_mlp_modules_gate_proj_parameters_weight_ = L_self_modules_model_modules_layers_modules_0_modules_mlp_modules_gate_proj_parameters_weight_
        l_self_modules_model_modules_layers_modules_0_modules_mlp_modules_up_proj_parameters_weight_ = L_self_modules_model_modules_layers_modules_0_modules_mlp_modules_up_proj_parameters_weight_
        l_self_modules_model_modules_layers_modules_0_modules_mlp_modules_down_proj_parameters_weight_ = L_self_modules_model_modules_layers_modules_0_modules_mlp_modules_down_proj_parameters_weight_
        l_self_modules_model_modules_layers_modules_1_modules_input_layernorm_parameters_weight_ = L_self_modules_model_modules_layers_modules_1_modules_input_layernorm_parameters_weight_
        l_self_modules_model_modules_layers_modules_1_modules_self_attn_modules_q_proj_parameters_weight_ = L_self_modules_model_modules_layers_modules_1_modules_self_attn_modules_q_proj_parameters_weight_
        l_self_modules_model_modules_layers_modules_1_modules_self_attn_modules_k_proj_parameters_weight_ = L_self_modules_model_modules_layers_modules_1_modules_self_attn_modules_k_proj_parameters_weight_
        l_self_modules_model_modules_layers_modules_1_modules_self_attn_modules_v_proj_parameters_weight_ = L_self_modules_model_modules_layers_modules_1_modules_self_attn_modules_v_proj_parameters_weight_
        l_past_key_values_layers_1_keys = L_past_key_values_layers_1_keys
        l_past_key_values_layers_1_values = L_past_key_values_layers_1_values
        l_self_modules_model_modules_layers_modules_1_modules_self_attn_modules_o_proj_parameters_weight_ = L_self_modules_model_modules_layers_modules_1_modules_self_attn_modules_o_proj_parameters_weight_
        l_self_modules_model_modules_layers_modules_1_modules_post_attention_layernorm_parameters_weight_ = L_self_modules_model_modules_layers_modules_1_modules_post_attention_layernorm_parameters_weight_
        l_self_modules_model_modules_layers_modules_1_modules_mlp_modules_gate_proj_parameters_weight_ = L_self_modules_model_modules_layers_modules_1_modules_mlp_modules_gate_proj_parameters_weight_
        l_self_modules_model_modules_layers_modules_1_modules_mlp_modules_up_proj_parameters_weight_ = L_self_modules_model_modules_layers_modules_1_modules_mlp_modules_up_proj_parameters_weight_
        l_self_modules_model_modules_layers_modules_1_modules_mlp_modules_down_proj_parameters_weight_ = L_self_modules_model_modules_layers_modules_1_modules_mlp_modules_down_proj_parameters_weight_
        l_self_modules_model_modules_layers_modules_2_modules_input_layernorm_parameters_weight_ = L_self_modules_model_modules_layers_modules_2_modules_input_layernorm_parameters_weight_
        l_self_modules_model_modules_layers_modules_2_modules_self_attn_modules_q_proj_parameters_weight_ = L_self_modules_model_modules_layers_modules_2_modules_self_attn_modules_q_proj_parameters_weight_
        l_self_modules_model_modules_layers_modules_2_modules_self_attn_modules_k_proj_parameters_weight_ = L_self_modules_model_modules_layers_modules_2_modules_self_attn_modules_k_proj_parameters_weight_
        l_self_modules_model_modules_layers_modules_2_modules_self_attn_modules_v_proj_parameters_weight_ = L_self_modules_model_modules_layers_modules_2_modules_self_attn_modules_v_proj_parameters_weight_
        l_past_key_values_layers_2_keys = L_past_key_values_layers_2_keys
        l_past_key_values_layers_2_values = L_past_key_values_layers_2_values
        l_self_modules_model_modules_layers_modules_2_modules_self_attn_modules_o_proj_parameters_weight_ = L_self_modules_model_modules_layers_modules_2_modules_self_attn_modules_o_proj_parameters_weight_
        l_self_modules_model_modules_layers_modules_2_modules_post_attention_layernorm_parameters_weight_ = L_self_modules_model_modules_layers_modules_2_modules_post_attention_layernorm_parameters_weight_
        l_self_modules_model_modules_layers_modules_2_modules_mlp_modules_gate_proj_parameters_weight_ = L_self_modules_model_modules_layers_modules_2_modules_mlp_modules_gate_proj_parameters_weight_
        l_self_modules_model_modules_layers_modules_2_modules_mlp_modules_up_proj_parameters_weight_ = L_self_modules_model_modules_layers_modules_2_modules_mlp_modules_up_proj_parameters_weight_
        l_self_modules_model_modules_layers_modules_2_modules_mlp_modules_down_proj_parameters_weight_ = L_self_modules_model_modules_layers_modules_2_modules_mlp_modules_down_proj_parameters_weight_
        l_self_modules_model_modules_layers_modules_3_modules_input_layernorm_parameters_weight_ = L_self_modules_model_modules_layers_modules_3_modules_input_layernorm_parameters_weight_
        l_self_modules_model_modules_layers_modules_3_modules_self_attn_modules_q_proj_parameters_weight_ = L_self_modules_model_modules_layers_modules_3_modules_self_attn_modules_q_proj_parameters_weight_
        l_self_modules_model_modules_layers_modules_3_modules_self_attn_modules_k_proj_parameters_weight_ = L_self_modules_model_modules_layers_modules_3_modules_self_attn_modules_k_proj_parameters_weight_
        l_self_modules_model_modules_layers_modules_3_modules_self_attn_modules_v_proj_parameters_weight_ = L_self_modules_model_modules_layers_modules_3_modules_self_attn_modules_v_proj_parameters_weight_
        l_past_key_values_layers_3_keys = L_past_key_values_layers_3_keys
        l_past_key_values_layers_3_values = L_past_key_values_layers_3_values
        l_self_modules_model_modules_layers_modules_3_modules_self_attn_modules_o_proj_parameters_weight_ = L_self_modules_model_modules_layers_modules_3_modules_self_attn_modules_o_proj_parameters_weight_
        l_self_modules_model_modules_layers_modules_3_modules_post_attention_layernorm_parameters_weight_ = L_self_modules_model_modules_layers_modules_3_modules_post_attention_layernorm_parameters_weight_
        l_self_modules_model_modules_layers_modules_3_modules_mlp_modules_gate_proj_parameters_weight_ = L_self_modules_model_modules_layers_modules_3_modules_mlp_modules_gate_proj_parameters_weight_
        l_self_modules_model_modules_layers_modules_3_modules_mlp_modules_up_proj_parameters_weight_ = L_self_modules_model_modules_layers_modules_3_modules_mlp_modules_up_proj_parameters_weight_
        l_self_modules_model_modules_layers_modules_3_modules_mlp_modules_down_proj_parameters_weight_ = L_self_modules_model_modules_layers_modules_3_modules_mlp_modules_down_proj_parameters_weight_
        l_self_modules_model_modules_layers_modules_4_modules_input_layernorm_parameters_weight_ = L_self_modules_model_modules_layers_modules_4_modules_input_layernorm_parameters_weight_
        l_self_modules_model_modules_layers_modules_4_modules_self_attn_modules_q_proj_parameters_weight_ = L_self_modules_model_modules_layers_modules_4_modules_self_attn_modules_q_proj_parameters_weight_
        l_self_modules_model_modules_layers_modules_4_modules_self_attn_modules_k_proj_parameters_weight_ = L_self_modules_model_modules_layers_modules_4_modules_self_attn_modules_k_proj_parameters_weight_
        l_self_modules_model_modules_layers_modules_4_modules_self_attn_modules_v_proj_parameters_weight_ = L_self_modules_model_modules_layers_modules_4_modules_self_attn_modules_v_proj_parameters_weight_
        l_past_key_values_layers_4_keys = L_past_key_values_layers_4_keys
        l_past_key_values_layers_4_values = L_past_key_values_layers_4_values
        l_self_modules_model_modules_layers_modules_4_modules_self_attn_modules_o_proj_parameters_weight_ = L_self_modules_model_modules_layers_modules_4_modules_self_attn_modules_o_proj_parameters_weight_
        l_self_modules_model_modules_layers_modules_4_modules_post_attention_layernorm_parameters_weight_ = L_self_modules_model_modules_layers_modules_4_modules_post_attention_layernorm_parameters_weight_
        l_self_modules_model_modules_layers_modules_4_modules_mlp_modules_gate_proj_parameters_weight_ = L_self_modules_model_modules_layers_modules_4_modules_mlp_modules_gate_proj_parameters_weight_
        l_self_modules_model_modules_layers_modules_4_modules_mlp_modules_up_proj_parameters_weight_ = L_self_modules_model_modules_layers_modules_4_modules_mlp_modules_up_proj_parameters_weight_
        l_self_modules_model_modules_layers_modules_4_modules_mlp_modules_down_proj_parameters_weight_ = L_self_modules_model_modules_layers_modules_4_modules_mlp_modules_down_proj_parameters_weight_
        l_self_modules_model_modules_layers_modules_5_modules_input_layernorm_parameters_weight_ = L_self_modules_model_modules_layers_modules_5_modules_input_layernorm_parameters_weight_
        l_self_modules_model_modules_layers_modules_5_modules_self_attn_modules_q_proj_parameters_weight_ = L_self_modules_model_modules_layers_modules_5_modules_self_attn_modules_q_proj_parameters_weight_
        l_self_modules_model_modules_layers_modules_5_modules_self_attn_modules_k_proj_parameters_weight_ = L_self_modules_model_modules_layers_modules_5_modules_self_attn_modules_k_proj_parameters_weight_
        l_self_modules_model_modules_layers_modules_5_modules_self_attn_modules_v_proj_parameters_weight_ = L_self_modules_model_modules_layers_modules_5_modules_self_attn_modules_v_proj_parameters_weight_
        l_past_key_values_layers_5_keys = L_past_key_values_layers_5_keys
        l_past_key_values_layers_5_values = L_past_key_values_layers_5_values
        l_self_modules_model_modules_layers_modules_5_modules_self_attn_modules_o_proj_parameters_weight_ = L_self_modules_model_modules_layers_modules_5_modules_self_attn_modules_o_proj_parameters_weight_
        l_self_modules_model_modules_layers_modules_5_modules_post_attention_layernorm_parameters_weight_ = L_self_modules_model_modules_layers_modules_5_modules_post_attention_layernorm_parameters_weight_
        l_self_modules_model_modules_layers_modules_5_modules_mlp_modules_gate_proj_parameters_weight_ = L_self_modules_model_modules_layers_modules_5_modules_mlp_modules_gate_proj_parameters_weight_
        l_self_modules_model_modules_layers_modules_5_modules_mlp_modules_up_proj_parameters_weight_ = L_self_modules_model_modules_layers_modules_5_modules_mlp_modules_up_proj_parameters_weight_
        l_self_modules_model_modules_layers_modules_5_modules_mlp_modules_down_proj_parameters_weight_ = L_self_modules_model_modules_layers_modules_5_modules_mlp_modules_down_proj_parameters_weight_
        l_self_modules_model_modules_layers_modules_6_modules_input_layernorm_parameters_weight_ = L_self_modules_model_modules_layers_modules_6_modules_input_layernorm_parameters_weight_
        l_self_modules_model_modules_layers_modules_6_modules_self_attn_modules_q_proj_parameters_weight_ = L_self_modules_model_modules_layers_modules_6_modules_self_attn_modules_q_proj_parameters_weight_
        l_self_modules_model_modules_layers_modules_6_modules_self_attn_modules_k_proj_parameters_weight_ = L_self_modules_model_modules_layers_modules_6_modules_self_attn_modules_k_proj_parameters_weight_
        l_self_modules_model_modules_layers_modules_6_modules_self_attn_modules_v_proj_parameters_weight_ = L_self_modules_model_modules_layers_modules_6_modules_self_attn_modules_v_proj_parameters_weight_
        l_past_key_values_layers_6_keys = L_past_key_values_layers_6_keys
        l_past_key_values_layers_6_values = L_past_key_values_layers_6_values
        l_self_modules_model_modules_layers_modules_6_modules_self_attn_modules_o_proj_parameters_weight_ = L_self_modules_model_modules_layers_modules_6_modules_self_attn_modules_o_proj_parameters_weight_
        l_self_modules_model_modules_layers_modules_6_modules_post_attention_layernorm_parameters_weight_ = L_self_modules_model_modules_layers_modules_6_modules_post_attention_layernorm_parameters_weight_
        l_self_modules_model_modules_layers_modules_6_modules_mlp_modules_gate_proj_parameters_weight_ = L_self_modules_model_modules_layers_modules_6_modules_mlp_modules_gate_proj_parameters_weight_
        l_self_modules_model_modules_layers_modules_6_modules_mlp_modules_up_proj_parameters_weight_ = L_self_modules_model_modules_layers_modules_6_modules_mlp_modules_up_proj_parameters_weight_
        l_self_modules_model_modules_layers_modules_6_modules_mlp_modules_down_proj_parameters_weight_ = L_self_modules_model_modules_layers_modules_6_modules_mlp_modules_down_proj_parameters_weight_
        l_self_modules_model_modules_layers_modules_7_modules_input_layernorm_parameters_weight_ = L_self_modules_model_modules_layers_modules_7_modules_input_layernorm_parameters_weight_
        l_self_modules_model_modules_layers_modules_7_modules_self_attn_modules_q_proj_parameters_weight_ = L_self_modules_model_modules_layers_modules_7_modules_self_attn_modules_q_proj_parameters_weight_
        l_self_modules_model_modules_layers_modules_7_modules_self_attn_modules_k_proj_parameters_weight_ = L_self_modules_model_modules_layers_modules_7_modules_self_attn_modules_k_proj_parameters_weight_
        l_self_modules_model_modules_layers_modules_7_modules_self_attn_modules_v_proj_parameters_weight_ = L_self_modules_model_modules_layers_modules_7_modules_self_attn_modules_v_proj_parameters_weight_
        l_past_key_values_layers_7_keys = L_past_key_values_layers_7_keys
        l_past_key_values_layers_7_values = L_past_key_values_layers_7_values
        l_self_modules_model_modules_layers_modules_7_modules_self_attn_modules_o_proj_parameters_weight_ = L_self_modules_model_modules_layers_modules_7_modules_self_attn_modules_o_proj_parameters_weight_
        l_self_modules_model_modules_layers_modules_7_modules_post_attention_layernorm_parameters_weight_ = L_self_modules_model_modules_layers_modules_7_modules_post_attention_layernorm_parameters_weight_
        l_self_modules_model_modules_layers_modules_7_modules_mlp_modules_gate_proj_parameters_weight_ = L_self_modules_model_modules_layers_modules_7_modules_mlp_modules_gate_proj_parameters_weight_
        l_self_modules_model_modules_layers_modules_7_modules_mlp_modules_up_proj_parameters_weight_ = L_self_modules_model_modules_layers_modules_7_modules_mlp_modules_up_proj_parameters_weight_
        l_self_modules_model_modules_layers_modules_7_modules_mlp_modules_down_proj_parameters_weight_ = L_self_modules_model_modules_layers_modules_7_modules_mlp_modules_down_proj_parameters_weight_
        l_self_modules_model_modules_layers_modules_8_modules_input_layernorm_parameters_weight_ = L_self_modules_model_modules_layers_modules_8_modules_input_layernorm_parameters_weight_
        l_self_modules_model_modules_layers_modules_8_modules_self_attn_modules_q_proj_parameters_weight_ = L_self_modules_model_modules_layers_modules_8_modules_self_attn_modules_q_proj_parameters_weight_
        l_self_modules_model_modules_layers_modules_8_modules_self_attn_modules_k_proj_parameters_weight_ = L_self_modules_model_modules_layers_modules_8_modules_self_attn_modules_k_proj_parameters_weight_
        l_self_modules_model_modules_layers_modules_8_modules_self_attn_modules_v_proj_parameters_weight_ = L_self_modules_model_modules_layers_modules_8_modules_self_attn_modules_v_proj_parameters_weight_
        l_past_key_values_layers_8_keys = L_past_key_values_layers_8_keys
        l_past_key_values_layers_8_values = L_past_key_values_layers_8_values
        l_self_modules_model_modules_layers_modules_8_modules_self_attn_modules_o_proj_parameters_weight_ = L_self_modules_model_modules_layers_modules_8_modules_self_attn_modules_o_proj_parameters_weight_
        l_self_modules_model_modules_layers_modules_8_modules_post_attention_layernorm_parameters_weight_ = L_self_modules_model_modules_layers_modules_8_modules_post_attention_layernorm_parameters_weight_
        l_self_modules_model_modules_layers_modules_8_modules_mlp_modules_gate_proj_parameters_weight_ = L_self_modules_model_modules_layers_modules_8_modules_mlp_modules_gate_proj_parameters_weight_
        l_self_modules_model_modules_layers_modules_8_modules_mlp_modules_up_proj_parameters_weight_ = L_self_modules_model_modules_layers_modules_8_modules_mlp_modules_up_proj_parameters_weight_
        l_self_modules_model_modules_layers_modules_8_modules_mlp_modules_down_proj_parameters_weight_ = L_self_modules_model_modules_layers_modules_8_modules_mlp_modules_down_proj_parameters_weight_
        l_self_modules_model_modules_layers_modules_9_modules_input_layernorm_parameters_weight_ = L_self_modules_model_modules_layers_modules_9_modules_input_layernorm_parameters_weight_
        l_self_modules_model_modules_layers_modules_9_modules_self_attn_modules_q_proj_parameters_weight_ = L_self_modules_model_modules_layers_modules_9_modules_self_attn_modules_q_proj_parameters_weight_
        l_self_modules_model_modules_layers_modules_9_modules_self_attn_modules_k_proj_parameters_weight_ = L_self_modules_model_modules_layers_modules_9_modules_self_attn_modules_k_proj_parameters_weight_
        l_self_modules_model_modules_layers_modules_9_modules_self_attn_modules_v_proj_parameters_weight_ = L_self_modules_model_modules_layers_modules_9_modules_self_attn_modules_v_proj_parameters_weight_
        l_past_key_values_layers_9_keys = L_past_key_values_layers_9_keys
        l_past_key_values_layers_9_values = L_past_key_values_layers_9_values
        l_self_modules_model_modules_layers_modules_9_modules_self_attn_modules_o_proj_parameters_weight_ = L_self_modules_model_modules_layers_modules_9_modules_self_attn_modules_o_proj_parameters_weight_
        l_self_modules_model_modules_layers_modules_9_modules_post_attention_layernorm_parameters_weight_ = L_self_modules_model_modules_layers_modules_9_modules_post_attention_layernorm_parameters_weight_
        l_self_modules_model_modules_layers_modules_9_modules_mlp_modules_gate_proj_parameters_weight_ = L_self_modules_model_modules_layers_modules_9_modules_mlp_modules_gate_proj_parameters_weight_
        l_self_modules_model_modules_layers_modules_9_modules_mlp_modules_up_proj_parameters_weight_ = L_self_modules_model_modules_layers_modules_9_modules_mlp_modules_up_proj_parameters_weight_
        l_self_modules_model_modules_layers_modules_9_modules_mlp_modules_down_proj_parameters_weight_ = L_self_modules_model_modules_layers_modules_9_modules_mlp_modules_down_proj_parameters_weight_
        l_self_modules_model_modules_layers_modules_10_modules_input_layernorm_parameters_weight_ = L_self_modules_model_modules_layers_modules_10_modules_input_layernorm_parameters_weight_
        l_self_modules_model_modules_layers_modules_10_modules_self_attn_modules_q_proj_parameters_weight_ = L_self_modules_model_modules_layers_modules_10_modules_self_attn_modules_q_proj_parameters_weight_
        l_self_modules_model_modules_layers_modules_10_modules_self_attn_modules_k_proj_parameters_weight_ = L_self_modules_model_modules_layers_modules_10_modules_self_attn_modules_k_proj_parameters_weight_
        l_self_modules_model_modules_layers_modules_10_modules_self_attn_modules_v_proj_parameters_weight_ = L_self_modules_model_modules_layers_modules_10_modules_self_attn_modules_v_proj_parameters_weight_
        l_past_key_values_layers_10_keys = L_past_key_values_layers_10_keys
        l_past_key_values_layers_10_values = L_past_key_values_layers_10_values
        l_self_modules_model_modules_layers_modules_10_modules_self_attn_modules_o_proj_parameters_weight_ = L_self_modules_model_modules_layers_modules_10_modules_self_attn_modules_o_proj_parameters_weight_
        l_self_modules_model_modules_layers_modules_10_modules_post_attention_layernorm_parameters_weight_ = L_self_modules_model_modules_layers_modules_10_modules_post_attention_layernorm_parameters_weight_
        l_self_modules_model_modules_layers_modules_10_modules_mlp_modules_gate_proj_parameters_weight_ = L_self_modules_model_modules_layers_modules_10_modules_mlp_modules_gate_proj_parameters_weight_
        l_self_modules_model_modules_layers_modules_10_modules_mlp_modules_up_proj_parameters_weight_ = L_self_modules_model_modules_layers_modules_10_modules_mlp_modules_up_proj_parameters_weight_
        l_self_modules_model_modules_layers_modules_10_modules_mlp_modules_down_proj_parameters_weight_ = L_self_modules_model_modules_layers_modules_10_modules_mlp_modules_down_proj_parameters_weight_
        l_self_modules_model_modules_layers_modules_11_modules_input_layernorm_parameters_weight_ = L_self_modules_model_modules_layers_modules_11_modules_input_layernorm_parameters_weight_
        l_self_modules_model_modules_layers_modules_11_modules_self_attn_modules_q_proj_parameters_weight_ = L_self_modules_model_modules_layers_modules_11_modules_self_attn_modules_q_proj_parameters_weight_
        l_self_modules_model_modules_layers_modules_11_modules_self_attn_modules_k_proj_parameters_weight_ = L_self_modules_model_modules_layers_modules_11_modules_self_attn_modules_k_proj_parameters_weight_
        l_self_modules_model_modules_layers_modules_11_modules_self_attn_modules_v_proj_parameters_weight_ = L_self_modules_model_modules_layers_modules_11_modules_self_attn_modules_v_proj_parameters_weight_
        l_past_key_values_layers_11_keys = L_past_key_values_layers_11_keys
        l_past_key_values_layers_11_values = L_past_key_values_layers_11_values
        l_self_modules_model_modules_layers_modules_11_modules_self_attn_modules_o_proj_parameters_weight_ = L_self_modules_model_modules_layers_modules_11_modules_self_attn_modules_o_proj_parameters_weight_
        l_self_modules_model_modules_layers_modules_11_modules_post_attention_layernorm_parameters_weight_ = L_self_modules_model_modules_layers_modules_11_modules_post_attention_layernorm_parameters_weight_
        l_self_modules_model_modules_layers_modules_11_modules_mlp_modules_gate_proj_parameters_weight_ = L_self_modules_model_modules_layers_modules_11_modules_mlp_modules_gate_proj_parameters_weight_
        l_self_modules_model_modules_layers_modules_11_modules_mlp_modules_up_proj_parameters_weight_ = L_self_modules_model_modules_layers_modules_11_modules_mlp_modules_up_proj_parameters_weight_
        l_self_modules_model_modules_layers_modules_11_modules_mlp_modules_down_proj_parameters_weight_ = L_self_modules_model_modules_layers_modules_11_modules_mlp_modules_down_proj_parameters_weight_
        l_self_modules_model_modules_layers_modules_12_modules_input_layernorm_parameters_weight_ = L_self_modules_model_modules_layers_modules_12_modules_input_layernorm_parameters_weight_
        l_self_modules_model_modules_layers_modules_12_modules_self_attn_modules_q_proj_parameters_weight_ = L_self_modules_model_modules_layers_modules_12_modules_self_attn_modules_q_proj_parameters_weight_
        l_self_modules_model_modules_layers_modules_12_modules_self_attn_modules_k_proj_parameters_weight_ = L_self_modules_model_modules_layers_modules_12_modules_self_attn_modules_k_proj_parameters_weight_
        l_self_modules_model_modules_layers_modules_12_modules_self_attn_modules_v_proj_parameters_weight_ = L_self_modules_model_modules_layers_modules_12_modules_self_attn_modules_v_proj_parameters_weight_
        l_past_key_values_layers_12_keys = L_past_key_values_layers_12_keys
        l_past_key_values_layers_12_values = L_past_key_values_layers_12_values
        l_self_modules_model_modules_layers_modules_12_modules_self_attn_modules_o_proj_parameters_weight_ = L_self_modules_model_modules_layers_modules_12_modules_self_attn_modules_o_proj_parameters_weight_
        l_self_modules_model_modules_layers_modules_12_modules_post_attention_layernorm_parameters_weight_ = L_self_modules_model_modules_layers_modules_12_modules_post_attention_layernorm_parameters_weight_
        l_self_modules_model_modules_layers_modules_12_modules_mlp_modules_gate_proj_parameters_weight_ = L_self_modules_model_modules_layers_modules_12_modules_mlp_modules_gate_proj_parameters_weight_
        l_self_modules_model_modules_layers_modules_12_modules_mlp_modules_up_proj_parameters_weight_ = L_self_modules_model_modules_layers_modules_12_modules_mlp_modules_up_proj_parameters_weight_
        l_self_modules_model_modules_layers_modules_12_modules_mlp_modules_down_proj_parameters_weight_ = L_self_modules_model_modules_layers_modules_12_modules_mlp_modules_down_proj_parameters_weight_
        l_self_modules_model_modules_layers_modules_13_modules_input_layernorm_parameters_weight_ = L_self_modules_model_modules_layers_modules_13_modules_input_layernorm_parameters_weight_
        l_self_modules_model_modules_layers_modules_13_modules_self_attn_modules_q_proj_parameters_weight_ = L_self_modules_model_modules_layers_modules_13_modules_self_attn_modules_q_proj_parameters_weight_
        l_self_modules_model_modules_layers_modules_13_modules_self_attn_modules_k_proj_parameters_weight_ = L_self_modules_model_modules_layers_modules_13_modules_self_attn_modules_k_proj_parameters_weight_
        l_self_modules_model_modules_layers_modules_13_modules_self_attn_modules_v_proj_parameters_weight_ = L_self_modules_model_modules_layers_modules_13_modules_self_attn_modules_v_proj_parameters_weight_
        l_past_key_values_layers_13_keys = L_past_key_values_layers_13_keys
        l_past_key_values_layers_13_values = L_past_key_values_layers_13_values
        l_self_modules_model_modules_layers_modules_13_modules_self_attn_modules_o_proj_parameters_weight_ = L_self_modules_model_modules_layers_modules_13_modules_self_attn_modules_o_proj_parameters_weight_
        l_self_modules_model_modules_layers_modules_13_modules_post_attention_layernorm_parameters_weight_ = L_self_modules_model_modules_layers_modules_13_modules_post_attention_layernorm_parameters_weight_
        l_self_modules_model_modules_layers_modules_13_modules_mlp_modules_gate_proj_parameters_weight_ = L_self_modules_model_modules_layers_modules_13_modules_mlp_modules_gate_proj_parameters_weight_
        l_self_modules_model_modules_layers_modules_13_modules_mlp_modules_up_proj_parameters_weight_ = L_self_modules_model_modules_layers_modules_13_modules_mlp_modules_up_proj_parameters_weight_
        l_self_modules_model_modules_layers_modules_13_modules_mlp_modules_down_proj_parameters_weight_ = L_self_modules_model_modules_layers_modules_13_modules_mlp_modules_down_proj_parameters_weight_
        l_self_modules_model_modules_layers_modules_14_modules_input_layernorm_parameters_weight_ = L_self_modules_model_modules_layers_modules_14_modules_input_layernorm_parameters_weight_
        l_self_modules_model_modules_layers_modules_14_modules_self_attn_modules_q_proj_parameters_weight_ = L_self_modules_model_modules_layers_modules_14_modules_self_attn_modules_q_proj_parameters_weight_
        l_self_modules_model_modules_layers_modules_14_modules_self_attn_modules_k_proj_parameters_weight_ = L_self_modules_model_modules_layers_modules_14_modules_self_attn_modules_k_proj_parameters_weight_
        l_self_modules_model_modules_layers_modules_14_modules_self_attn_modules_v_proj_parameters_weight_ = L_self_modules_model_modules_layers_modules_14_modules_self_attn_modules_v_proj_parameters_weight_
        l_past_key_values_layers_14_keys = L_past_key_values_layers_14_keys
        l_past_key_values_layers_14_values = L_past_key_values_layers_14_values
        l_self_modules_model_modules_layers_modules_14_modules_self_attn_modules_o_proj_parameters_weight_ = L_self_modules_model_modules_layers_modules_14_modules_self_attn_modules_o_proj_parameters_weight_
        l_self_modules_model_modules_layers_modules_14_modules_post_attention_layernorm_parameters_weight_ = L_self_modules_model_modules_layers_modules_14_modules_post_attention_layernorm_parameters_weight_
        l_self_modules_model_modules_layers_modules_14_modules_mlp_modules_gate_proj_parameters_weight_ = L_self_modules_model_modules_layers_modules_14_modules_mlp_modules_gate_proj_parameters_weight_
        l_self_modules_model_modules_layers_modules_14_modules_mlp_modules_up_proj_parameters_weight_ = L_self_modules_model_modules_layers_modules_14_modules_mlp_modules_up_proj_parameters_weight_
        l_self_modules_model_modules_layers_modules_14_modules_mlp_modules_down_proj_parameters_weight_ = L_self_modules_model_modules_layers_modules_14_modules_mlp_modules_down_proj_parameters_weight_
        l_self_modules_model_modules_layers_modules_15_modules_input_layernorm_parameters_weight_ = L_self_modules_model_modules_layers_modules_15_modules_input_layernorm_parameters_weight_
        l_self_modules_model_modules_layers_modules_15_modules_self_attn_modules_q_proj_parameters_weight_ = L_self_modules_model_modules_layers_modules_15_modules_self_attn_modules_q_proj_parameters_weight_
        l_self_modules_model_modules_layers_modules_15_modules_self_attn_modules_k_proj_parameters_weight_ = L_self_modules_model_modules_layers_modules_15_modules_self_attn_modules_k_proj_parameters_weight_
        l_self_modules_model_modules_layers_modules_15_modules_self_attn_modules_v_proj_parameters_weight_ = L_self_modules_model_modules_layers_modules_15_modules_self_attn_modules_v_proj_parameters_weight_
        l_past_key_values_layers_15_keys = L_past_key_values_layers_15_keys
        l_past_key_values_layers_15_values = L_past_key_values_layers_15_values
        l_self_modules_model_modules_layers_modules_15_modules_self_attn_modules_o_proj_parameters_weight_ = L_self_modules_model_modules_layers_modules_15_modules_self_attn_modules_o_proj_parameters_weight_
        l_self_modules_model_modules_layers_modules_15_modules_post_attention_layernorm_parameters_weight_ = L_self_modules_model_modules_layers_modules_15_modules_post_attention_layernorm_parameters_weight_
        l_self_modules_model_modules_layers_modules_15_modules_mlp_modules_gate_proj_parameters_weight_ = L_self_modules_model_modules_layers_modules_15_modules_mlp_modules_gate_proj_parameters_weight_
        l_self_modules_model_modules_layers_modules_15_modules_mlp_modules_up_proj_parameters_weight_ = L_self_modules_model_modules_layers_modules_15_modules_mlp_modules_up_proj_parameters_weight_
        l_self_modules_model_modules_layers_modules_15_modules_mlp_modules_down_proj_parameters_weight_ = L_self_modules_model_modules_layers_modules_15_modules_mlp_modules_down_proj_parameters_weight_
        l_self_modules_model_modules_layers_modules_16_modules_input_layernorm_parameters_weight_ = L_self_modules_model_modules_layers_modules_16_modules_input_layernorm_parameters_weight_
        l_self_modules_model_modules_layers_modules_16_modules_self_attn_modules_q_proj_parameters_weight_ = L_self_modules_model_modules_layers_modules_16_modules_self_attn_modules_q_proj_parameters_weight_
        l_self_modules_model_modules_layers_modules_16_modules_self_attn_modules_k_proj_parameters_weight_ = L_self_modules_model_modules_layers_modules_16_modules_self_attn_modules_k_proj_parameters_weight_
        l_self_modules_model_modules_layers_modules_16_modules_self_attn_modules_v_proj_parameters_weight_ = L_self_modules_model_modules_layers_modules_16_modules_self_attn_modules_v_proj_parameters_weight_
        l_past_key_values_layers_16_keys = L_past_key_values_layers_16_keys
        l_past_key_values_layers_16_values = L_past_key_values_layers_16_values
        l_self_modules_model_modules_layers_modules_16_modules_self_attn_modules_o_proj_parameters_weight_ = L_self_modules_model_modules_layers_modules_16_modules_self_attn_modules_o_proj_parameters_weight_
        l_self_modules_model_modules_layers_modules_16_modules_post_attention_layernorm_parameters_weight_ = L_self_modules_model_modules_layers_modules_16_modules_post_attention_layernorm_parameters_weight_
        l_self_modules_model_modules_layers_modules_16_modules_mlp_modules_gate_proj_parameters_weight_ = L_self_modules_model_modules_layers_modules_16_modules_mlp_modules_gate_proj_parameters_weight_
        l_self_modules_model_modules_layers_modules_16_modules_mlp_modules_up_proj_parameters_weight_ = L_self_modules_model_modules_layers_modules_16_modules_mlp_modules_up_proj_parameters_weight_
        l_self_modules_model_modules_layers_modules_16_modules_mlp_modules_down_proj_parameters_weight_ = L_self_modules_model_modules_layers_modules_16_modules_mlp_modules_down_proj_parameters_weight_
        l_self_modules_model_modules_layers_modules_17_modules_input_layernorm_parameters_weight_ = L_self_modules_model_modules_layers_modules_17_modules_input_layernorm_parameters_weight_
        l_self_modules_model_modules_layers_modules_17_modules_self_attn_modules_q_proj_parameters_weight_ = L_self_modules_model_modules_layers_modules_17_modules_self_attn_modules_q_proj_parameters_weight_
        l_self_modules_model_modules_layers_modules_17_modules_self_attn_modules_k_proj_parameters_weight_ = L_self_modules_model_modules_layers_modules_17_modules_self_attn_modules_k_proj_parameters_weight_
        l_self_modules_model_modules_layers_modules_17_modules_self_attn_modules_v_proj_parameters_weight_ = L_self_modules_model_modules_layers_modules_17_modules_self_attn_modules_v_proj_parameters_weight_
        l_past_key_values_layers_17_keys = L_past_key_values_layers_17_keys
        l_past_key_values_layers_17_values = L_past_key_values_layers_17_values
        l_self_modules_model_modules_layers_modules_17_modules_self_attn_modules_o_proj_parameters_weight_ = L_self_modules_model_modules_layers_modules_17_modules_self_attn_modules_o_proj_parameters_weight_
        l_self_modules_model_modules_layers_modules_17_modules_post_attention_layernorm_parameters_weight_ = L_self_modules_model_modules_layers_modules_17_modules_post_attention_layernorm_parameters_weight_
        l_self_modules_model_modules_layers_modules_17_modules_mlp_modules_gate_proj_parameters_weight_ = L_self_modules_model_modules_layers_modules_17_modules_mlp_modules_gate_proj_parameters_weight_
        l_self_modules_model_modules_layers_modules_17_modules_mlp_modules_up_proj_parameters_weight_ = L_self_modules_model_modules_layers_modules_17_modules_mlp_modules_up_proj_parameters_weight_
        l_self_modules_model_modules_layers_modules_17_modules_mlp_modules_down_proj_parameters_weight_ = L_self_modules_model_modules_layers_modules_17_modules_mlp_modules_down_proj_parameters_weight_
        l_self_modules_model_modules_layers_modules_18_modules_input_layernorm_parameters_weight_ = L_self_modules_model_modules_layers_modules_18_modules_input_layernorm_parameters_weight_
        l_self_modules_model_modules_layers_modules_18_modules_self_attn_modules_q_proj_parameters_weight_ = L_self_modules_model_modules_layers_modules_18_modules_self_attn_modules_q_proj_parameters_weight_
        l_self_modules_model_modules_layers_modules_18_modules_self_attn_modules_k_proj_parameters_weight_ = L_self_modules_model_modules_layers_modules_18_modules_self_attn_modules_k_proj_parameters_weight_
        l_self_modules_model_modules_layers_modules_18_modules_self_attn_modules_v_proj_parameters_weight_ = L_self_modules_model_modules_layers_modules_18_modules_self_attn_modules_v_proj_parameters_weight_
        l_past_key_values_layers_18_keys = L_past_key_values_layers_18_keys
        l_past_key_values_layers_18_values = L_past_key_values_layers_18_values
        l_self_modules_model_modules_layers_modules_18_modules_self_attn_modules_o_proj_parameters_weight_ = L_self_modules_model_modules_layers_modules_18_modules_self_attn_modules_o_proj_parameters_weight_
        l_self_modules_model_modules_layers_modules_18_modules_post_attention_layernorm_parameters_weight_ = L_self_modules_model_modules_layers_modules_18_modules_post_attention_layernorm_parameters_weight_
        l_self_modules_model_modules_layers_modules_18_modules_mlp_modules_gate_proj_parameters_weight_ = L_self_modules_model_modules_layers_modules_18_modules_mlp_modules_gate_proj_parameters_weight_
        l_self_modules_model_modules_layers_modules_18_modules_mlp_modules_up_proj_parameters_weight_ = L_self_modules_model_modules_layers_modules_18_modules_mlp_modules_up_proj_parameters_weight_
        l_self_modules_model_modules_layers_modules_18_modules_mlp_modules_down_proj_parameters_weight_ = L_self_modules_model_modules_layers_modules_18_modules_mlp_modules_down_proj_parameters_weight_
        l_self_modules_model_modules_layers_modules_19_modules_input_layernorm_parameters_weight_ = L_self_modules_model_modules_layers_modules_19_modules_input_layernorm_parameters_weight_
        l_self_modules_model_modules_layers_modules_19_modules_self_attn_modules_q_proj_parameters_weight_ = L_self_modules_model_modules_layers_modules_19_modules_self_attn_modules_q_proj_parameters_weight_
        l_self_modules_model_modules_layers_modules_19_modules_self_attn_modules_k_proj_parameters_weight_ = L_self_modules_model_modules_layers_modules_19_modules_self_attn_modules_k_proj_parameters_weight_
        l_self_modules_model_modules_layers_modules_19_modules_self_attn_modules_v_proj_parameters_weight_ = L_self_modules_model_modules_layers_modules_19_modules_self_attn_modules_v_proj_parameters_weight_
        l_past_key_values_layers_19_keys = L_past_key_values_layers_19_keys
        l_past_key_values_layers_19_values = L_past_key_values_layers_19_values
        l_self_modules_model_modules_layers_modules_19_modules_self_attn_modules_o_proj_parameters_weight_ = L_self_modules_model_modules_layers_modules_19_modules_self_attn_modules_o_proj_parameters_weight_
        l_self_modules_model_modules_layers_modules_19_modules_post_attention_layernorm_parameters_weight_ = L_self_modules_model_modules_layers_modules_19_modules_post_attention_layernorm_parameters_weight_
        l_self_modules_model_modules_layers_modules_19_modules_mlp_modules_gate_proj_parameters_weight_ = L_self_modules_model_modules_layers_modules_19_modules_mlp_modules_gate_proj_parameters_weight_
        l_self_modules_model_modules_layers_modules_19_modules_mlp_modules_up_proj_parameters_weight_ = L_self_modules_model_modules_layers_modules_19_modules_mlp_modules_up_proj_parameters_weight_
        l_self_modules_model_modules_layers_modules_19_modules_mlp_modules_down_proj_parameters_weight_ = L_self_modules_model_modules_layers_modules_19_modules_mlp_modules_down_proj_parameters_weight_
        l_self_modules_model_modules_layers_modules_20_modules_input_layernorm_parameters_weight_ = L_self_modules_model_modules_layers_modules_20_modules_input_layernorm_parameters_weight_
        l_self_modules_model_modules_layers_modules_20_modules_self_attn_modules_q_proj_parameters_weight_ = L_self_modules_model_modules_layers_modules_20_modules_self_attn_modules_q_proj_parameters_weight_
        l_self_modules_model_modules_layers_modules_20_modules_self_attn_modules_k_proj_parameters_weight_ = L_self_modules_model_modules_layers_modules_20_modules_self_attn_modules_k_proj_parameters_weight_
        l_self_modules_model_modules_layers_modules_20_modules_self_attn_modules_v_proj_parameters_weight_ = L_self_modules_model_modules_layers_modules_20_modules_self_attn_modules_v_proj_parameters_weight_
        l_past_key_values_layers_20_keys = L_past_key_values_layers_20_keys
        l_past_key_values_layers_20_values = L_past_key_values_layers_20_values
        l_self_modules_model_modules_layers_modules_20_modules_self_attn_modules_o_proj_parameters_weight_ = L_self_modules_model_modules_layers_modules_20_modules_self_attn_modules_o_proj_parameters_weight_
        l_self_modules_model_modules_layers_modules_20_modules_post_attention_layernorm_parameters_weight_ = L_self_modules_model_modules_layers_modules_20_modules_post_attention_layernorm_parameters_weight_
        l_self_modules_model_modules_layers_modules_20_modules_mlp_modules_gate_proj_parameters_weight_ = L_self_modules_model_modules_layers_modules_20_modules_mlp_modules_gate_proj_parameters_weight_
        l_self_modules_model_modules_layers_modules_20_modules_mlp_modules_up_proj_parameters_weight_ = L_self_modules_model_modules_layers_modules_20_modules_mlp_modules_up_proj_parameters_weight_
        l_self_modules_model_modules_layers_modules_20_modules_mlp_modules_down_proj_parameters_weight_ = L_self_modules_model_modules_layers_modules_20_modules_mlp_modules_down_proj_parameters_weight_
        l_self_modules_model_modules_layers_modules_21_modules_input_layernorm_parameters_weight_ = L_self_modules_model_modules_layers_modules_21_modules_input_layernorm_parameters_weight_
        l_self_modules_model_modules_layers_modules_21_modules_self_attn_modules_q_proj_parameters_weight_ = L_self_modules_model_modules_layers_modules_21_modules_self_attn_modules_q_proj_parameters_weight_
        l_self_modules_model_modules_layers_modules_21_modules_self_attn_modules_k_proj_parameters_weight_ = L_self_modules_model_modules_layers_modules_21_modules_self_attn_modules_k_proj_parameters_weight_
        l_self_modules_model_modules_layers_modules_21_modules_self_attn_modules_v_proj_parameters_weight_ = L_self_modules_model_modules_layers_modules_21_modules_self_attn_modules_v_proj_parameters_weight_
        l_past_key_values_layers_21_keys = L_past_key_values_layers_21_keys
        l_past_key_values_layers_21_values = L_past_key_values_layers_21_values
        l_self_modules_model_modules_layers_modules_21_modules_self_attn_modules_o_proj_parameters_weight_ = L_self_modules_model_modules_layers_modules_21_modules_self_attn_modules_o_proj_parameters_weight_
        l_self_modules_model_modules_layers_modules_21_modules_post_attention_layernorm_parameters_weight_ = L_self_modules_model_modules_layers_modules_21_modules_post_attention_layernorm_parameters_weight_
        l_self_modules_model_modules_layers_modules_21_modules_mlp_modules_gate_proj_parameters_weight_ = L_self_modules_model_modules_layers_modules_21_modules_mlp_modules_gate_proj_parameters_weight_
        l_self_modules_model_modules_layers_modules_21_modules_mlp_modules_up_proj_parameters_weight_ = L_self_modules_model_modules_layers_modules_21_modules_mlp_modules_up_proj_parameters_weight_
        l_self_modules_model_modules_layers_modules_21_modules_mlp_modules_down_proj_parameters_weight_ = L_self_modules_model_modules_layers_modules_21_modules_mlp_modules_down_proj_parameters_weight_
        l_self_modules_model_modules_layers_modules_22_modules_input_layernorm_parameters_weight_ = L_self_modules_model_modules_layers_modules_22_modules_input_layernorm_parameters_weight_
        l_self_modules_model_modules_layers_modules_22_modules_self_attn_modules_q_proj_parameters_weight_ = L_self_modules_model_modules_layers_modules_22_modules_self_attn_modules_q_proj_parameters_weight_
        l_self_modules_model_modules_layers_modules_22_modules_self_attn_modules_k_proj_parameters_weight_ = L_self_modules_model_modules_layers_modules_22_modules_self_attn_modules_k_proj_parameters_weight_
        l_self_modules_model_modules_layers_modules_22_modules_self_attn_modules_v_proj_parameters_weight_ = L_self_modules_model_modules_layers_modules_22_modules_self_attn_modules_v_proj_parameters_weight_
        l_past_key_values_layers_22_keys = L_past_key_values_layers_22_keys
        l_past_key_values_layers_22_values = L_past_key_values_layers_22_values
        l_self_modules_model_modules_layers_modules_22_modules_self_attn_modules_o_proj_parameters_weight_ = L_self_modules_model_modules_layers_modules_22_modules_self_attn_modules_o_proj_parameters_weight_
        l_self_modules_model_modules_layers_modules_22_modules_post_attention_layernorm_parameters_weight_ = L_self_modules_model_modules_layers_modules_22_modules_post_attention_layernorm_parameters_weight_
        l_self_modules_model_modules_layers_modules_22_modules_mlp_modules_gate_proj_parameters_weight_ = L_self_modules_model_modules_layers_modules_22_modules_mlp_modules_gate_proj_parameters_weight_
        l_self_modules_model_modules_layers_modules_22_modules_mlp_modules_up_proj_parameters_weight_ = L_self_modules_model_modules_layers_modules_22_modules_mlp_modules_up_proj_parameters_weight_
        l_self_modules_model_modules_layers_modules_22_modules_mlp_modules_down_proj_parameters_weight_ = L_self_modules_model_modules_layers_modules_22_modules_mlp_modules_down_proj_parameters_weight_
        l_self_modules_model_modules_layers_modules_23_modules_input_layernorm_parameters_weight_ = L_self_modules_model_modules_layers_modules_23_modules_input_layernorm_parameters_weight_
        l_self_modules_model_modules_layers_modules_23_modules_self_attn_modules_q_proj_parameters_weight_ = L_self_modules_model_modules_layers_modules_23_modules_self_attn_modules_q_proj_parameters_weight_
        l_self_modules_model_modules_layers_modules_23_modules_self_attn_modules_k_proj_parameters_weight_ = L_self_modules_model_modules_layers_modules_23_modules_self_attn_modules_k_proj_parameters_weight_
        l_self_modules_model_modules_layers_modules_23_modules_self_attn_modules_v_proj_parameters_weight_ = L_self_modules_model_modules_layers_modules_23_modules_self_attn_modules_v_proj_parameters_weight_
        l_past_key_values_layers_23_keys = L_past_key_values_layers_23_keys
        l_past_key_values_layers_23_values = L_past_key_values_layers_23_values
        l_self_modules_model_modules_layers_modules_23_modules_self_attn_modules_o_proj_parameters_weight_ = L_self_modules_model_modules_layers_modules_23_modules_self_attn_modules_o_proj_parameters_weight_
        l_self_modules_model_modules_layers_modules_23_modules_post_attention_layernorm_parameters_weight_ = L_self_modules_model_modules_layers_modules_23_modules_post_attention_layernorm_parameters_weight_
        l_self_modules_model_modules_layers_modules_23_modules_mlp_modules_gate_proj_parameters_weight_ = L_self_modules_model_modules_layers_modules_23_modules_mlp_modules_gate_proj_parameters_weight_
        l_self_modules_model_modules_layers_modules_23_modules_mlp_modules_up_proj_parameters_weight_ = L_self_modules_model_modules_layers_modules_23_modules_mlp_modules_up_proj_parameters_weight_
        l_self_modules_model_modules_layers_modules_23_modules_mlp_modules_down_proj_parameters_weight_ = L_self_modules_model_modules_layers_modules_23_modules_mlp_modules_down_proj_parameters_weight_
        l_self_modules_model_modules_layers_modules_24_modules_input_layernorm_parameters_weight_ = L_self_modules_model_modules_layers_modules_24_modules_input_layernorm_parameters_weight_
        l_self_modules_model_modules_layers_modules_24_modules_self_attn_modules_q_proj_parameters_weight_ = L_self_modules_model_modules_layers_modules_24_modules_self_attn_modules_q_proj_parameters_weight_
        l_self_modules_model_modules_layers_modules_24_modules_self_attn_modules_k_proj_parameters_weight_ = L_self_modules_model_modules_layers_modules_24_modules_self_attn_modules_k_proj_parameters_weight_
        l_self_modules_model_modules_layers_modules_24_modules_self_attn_modules_v_proj_parameters_weight_ = L_self_modules_model_modules_layers_modules_24_modules_self_attn_modules_v_proj_parameters_weight_
        l_past_key_values_layers_24_keys = L_past_key_values_layers_24_keys
        l_past_key_values_layers_24_values = L_past_key_values_layers_24_values
        l_self_modules_model_modules_layers_modules_24_modules_self_attn_modules_o_proj_parameters_weight_ = L_self_modules_model_modules_layers_modules_24_modules_self_attn_modules_o_proj_parameters_weight_
        l_self_modules_model_modules_layers_modules_24_modules_post_attention_layernorm_parameters_weight_ = L_self_modules_model_modules_layers_modules_24_modules_post_attention_layernorm_parameters_weight_
        l_self_modules_model_modules_layers_modules_24_modules_mlp_modules_gate_proj_parameters_weight_ = L_self_modules_model_modules_layers_modules_24_modules_mlp_modules_gate_proj_parameters_weight_
        l_self_modules_model_modules_layers_modules_24_modules_mlp_modules_up_proj_parameters_weight_ = L_self_modules_model_modules_layers_modules_24_modules_mlp_modules_up_proj_parameters_weight_
        l_self_modules_model_modules_layers_modules_24_modules_mlp_modules_down_proj_parameters_weight_ = L_self_modules_model_modules_layers_modules_24_modules_mlp_modules_down_proj_parameters_weight_
        l_self_modules_model_modules_layers_modules_25_modules_input_layernorm_parameters_weight_ = L_self_modules_model_modules_layers_modules_25_modules_input_layernorm_parameters_weight_
        l_self_modules_model_modules_layers_modules_25_modules_self_attn_modules_q_proj_parameters_weight_ = L_self_modules_model_modules_layers_modules_25_modules_self_attn_modules_q_proj_parameters_weight_
        l_self_modules_model_modules_layers_modules_25_modules_self_attn_modules_k_proj_parameters_weight_ = L_self_modules_model_modules_layers_modules_25_modules_self_attn_modules_k_proj_parameters_weight_
        l_self_modules_model_modules_layers_modules_25_modules_self_attn_modules_v_proj_parameters_weight_ = L_self_modules_model_modules_layers_modules_25_modules_self_attn_modules_v_proj_parameters_weight_
        l_past_key_values_layers_25_keys = L_past_key_values_layers_25_keys
        l_past_key_values_layers_25_values = L_past_key_values_layers_25_values
        l_self_modules_model_modules_layers_modules_25_modules_self_attn_modules_o_proj_parameters_weight_ = L_self_modules_model_modules_layers_modules_25_modules_self_attn_modules_o_proj_parameters_weight_
        l_self_modules_model_modules_layers_modules_25_modules_post_attention_layernorm_parameters_weight_ = L_self_modules_model_modules_layers_modules_25_modules_post_attention_layernorm_parameters_weight_
        l_self_modules_model_modules_layers_modules_25_modules_mlp_modules_gate_proj_parameters_weight_ = L_self_modules_model_modules_layers_modules_25_modules_mlp_modules_gate_proj_parameters_weight_
        l_self_modules_model_modules_layers_modules_25_modules_mlp_modules_up_proj_parameters_weight_ = L_self_modules_model_modules_layers_modules_25_modules_mlp_modules_up_proj_parameters_weight_
        l_self_modules_model_modules_layers_modules_25_modules_mlp_modules_down_proj_parameters_weight_ = L_self_modules_model_modules_layers_modules_25_modules_mlp_modules_down_proj_parameters_weight_
        l_self_modules_model_modules_layers_modules_26_modules_input_layernorm_parameters_weight_ = L_self_modules_model_modules_layers_modules_26_modules_input_layernorm_parameters_weight_
        l_self_modules_model_modules_layers_modules_26_modules_self_attn_modules_q_proj_parameters_weight_ = L_self_modules_model_modules_layers_modules_26_modules_self_attn_modules_q_proj_parameters_weight_
        l_self_modules_model_modules_layers_modules_26_modules_self_attn_modules_k_proj_parameters_weight_ = L_self_modules_model_modules_layers_modules_26_modules_self_attn_modules_k_proj_parameters_weight_
        l_self_modules_model_modules_layers_modules_26_modules_self_attn_modules_v_proj_parameters_weight_ = L_self_modules_model_modules_layers_modules_26_modules_self_attn_modules_v_proj_parameters_weight_
        l_past_key_values_layers_26_keys = L_past_key_values_layers_26_keys
        l_past_key_values_layers_26_values = L_past_key_values_layers_26_values
        l_self_modules_model_modules_layers_modules_26_modules_self_attn_modules_o_proj_parameters_weight_ = L_self_modules_model_modules_layers_modules_26_modules_self_attn_modules_o_proj_parameters_weight_
        l_self_modules_model_modules_layers_modules_26_modules_post_attention_layernorm_parameters_weight_ = L_self_modules_model_modules_layers_modules_26_modules_post_attention_layernorm_parameters_weight_
        l_self_modules_model_modules_layers_modules_26_modules_mlp_modules_gate_proj_parameters_weight_ = L_self_modules_model_modules_layers_modules_26_modules_mlp_modules_gate_proj_parameters_weight_
        l_self_modules_model_modules_layers_modules_26_modules_mlp_modules_up_proj_parameters_weight_ = L_self_modules_model_modules_layers_modules_26_modules_mlp_modules_up_proj_parameters_weight_
        l_self_modules_model_modules_layers_modules_26_modules_mlp_modules_down_proj_parameters_weight_ = L_self_modules_model_modules_layers_modules_26_modules_mlp_modules_down_proj_parameters_weight_
        l_self_modules_model_modules_layers_modules_27_modules_input_layernorm_parameters_weight_ = L_self_modules_model_modules_layers_modules_27_modules_input_layernorm_parameters_weight_
        l_self_modules_model_modules_layers_modules_27_modules_self_attn_modules_q_proj_parameters_weight_ = L_self_modules_model_modules_layers_modules_27_modules_self_attn_modules_q_proj_parameters_weight_
        l_self_modules_model_modules_layers_modules_27_modules_self_attn_modules_k_proj_parameters_weight_ = L_self_modules_model_modules_layers_modules_27_modules_self_attn_modules_k_proj_parameters_weight_
        l_self_modules_model_modules_layers_modules_27_modules_self_attn_modules_v_proj_parameters_weight_ = L_self_modules_model_modules_layers_modules_27_modules_self_attn_modules_v_proj_parameters_weight_
        l_past_key_values_layers_27_keys = L_past_key_values_layers_27_keys
        l_past_key_values_layers_27_values = L_past_key_values_layers_27_values
        l_self_modules_model_modules_layers_modules_27_modules_self_attn_modules_o_proj_parameters_weight_ = L_self_modules_model_modules_layers_modules_27_modules_self_attn_modules_o_proj_parameters_weight_
        l_self_modules_model_modules_layers_modules_27_modules_post_attention_layernorm_parameters_weight_ = L_self_modules_model_modules_layers_modules_27_modules_post_attention_layernorm_parameters_weight_
        l_self_modules_model_modules_layers_modules_27_modules_mlp_modules_gate_proj_parameters_weight_ = L_self_modules_model_modules_layers_modules_27_modules_mlp_modules_gate_proj_parameters_weight_
        l_self_modules_model_modules_layers_modules_27_modules_mlp_modules_up_proj_parameters_weight_ = L_self_modules_model_modules_layers_modules_27_modules_mlp_modules_up_proj_parameters_weight_
        l_self_modules_model_modules_layers_modules_27_modules_mlp_modules_down_proj_parameters_weight_ = L_self_modules_model_modules_layers_modules_27_modules_mlp_modules_down_proj_parameters_weight_
        l_self_modules_model_modules_layers_modules_28_modules_input_layernorm_parameters_weight_ = L_self_modules_model_modules_layers_modules_28_modules_input_layernorm_parameters_weight_
        l_self_modules_model_modules_layers_modules_28_modules_self_attn_modules_q_proj_parameters_weight_ = L_self_modules_model_modules_layers_modules_28_modules_self_attn_modules_q_proj_parameters_weight_
        l_self_modules_model_modules_layers_modules_28_modules_self_attn_modules_k_proj_parameters_weight_ = L_self_modules_model_modules_layers_modules_28_modules_self_attn_modules_k_proj_parameters_weight_
        l_self_modules_model_modules_layers_modules_28_modules_self_attn_modules_v_proj_parameters_weight_ = L_self_modules_model_modules_layers_modules_28_modules_self_attn_modules_v_proj_parameters_weight_
        l_past_key_values_layers_28_keys = L_past_key_values_layers_28_keys
        l_past_key_values_layers_28_values = L_past_key_values_layers_28_values
        l_self_modules_model_modules_layers_modules_28_modules_self_attn_modules_o_proj_parameters_weight_ = L_self_modules_model_modules_layers_modules_28_modules_self_attn_modules_o_proj_parameters_weight_
        l_self_modules_model_modules_layers_modules_28_modules_post_attention_layernorm_parameters_weight_ = L_self_modules_model_modules_layers_modules_28_modules_post_attention_layernorm_parameters_weight_
        l_self_modules_model_modules_layers_modules_28_modules_mlp_modules_gate_proj_parameters_weight_ = L_self_modules_model_modules_layers_modules_28_modules_mlp_modules_gate_proj_parameters_weight_
        l_self_modules_model_modules_layers_modules_28_modules_mlp_modules_up_proj_parameters_weight_ = L_self_modules_model_modules_layers_modules_28_modules_mlp_modules_up_proj_parameters_weight_
        l_self_modules_model_modules_layers_modules_28_modules_mlp_modules_down_proj_parameters_weight_ = L_self_modules_model_modules_layers_modules_28_modules_mlp_modules_down_proj_parameters_weight_
        l_self_modules_model_modules_layers_modules_29_modules_input_layernorm_parameters_weight_ = L_self_modules_model_modules_layers_modules_29_modules_input_layernorm_parameters_weight_
        l_self_modules_model_modules_layers_modules_29_modules_self_attn_modules_q_proj_parameters_weight_ = L_self_modules_model_modules_layers_modules_29_modules_self_attn_modules_q_proj_parameters_weight_
        l_self_modules_model_modules_layers_modules_29_modules_self_attn_modules_k_proj_parameters_weight_ = L_self_modules_model_modules_layers_modules_29_modules_self_attn_modules_k_proj_parameters_weight_
        l_self_modules_model_modules_layers_modules_29_modules_self_attn_modules_v_proj_parameters_weight_ = L_self_modules_model_modules_layers_modules_29_modules_self_attn_modules_v_proj_parameters_weight_
        l_past_key_values_layers_29_keys = L_past_key_values_layers_29_keys
        l_past_key_values_layers_29_values = L_past_key_values_layers_29_values
        l_self_modules_model_modules_layers_modules_29_modules_self_attn_modules_o_proj_parameters_weight_ = L_self_modules_model_modules_layers_modules_29_modules_self_attn_modules_o_proj_parameters_weight_
        l_self_modules_model_modules_layers_modules_29_modules_post_attention_layernorm_parameters_weight_ = L_self_modules_model_modules_layers_modules_29_modules_post_attention_layernorm_parameters_weight_
        l_self_modules_model_modules_layers_modules_29_modules_mlp_modules_gate_proj_parameters_weight_ = L_self_modules_model_modules_layers_modules_29_modules_mlp_modules_gate_proj_parameters_weight_
        l_self_modules_model_modules_layers_modules_29_modules_mlp_modules_up_proj_parameters_weight_ = L_self_modules_model_modules_layers_modules_29_modules_mlp_modules_up_proj_parameters_weight_
        l_self_modules_model_modules_layers_modules_29_modules_mlp_modules_down_proj_parameters_weight_ = L_self_modules_model_modules_layers_modules_29_modules_mlp_modules_down_proj_parameters_weight_
        l_self_modules_model_modules_layers_modules_30_modules_input_layernorm_parameters_weight_ = L_self_modules_model_modules_layers_modules_30_modules_input_layernorm_parameters_weight_
        l_self_modules_model_modules_layers_modules_30_modules_self_attn_modules_q_proj_parameters_weight_ = L_self_modules_model_modules_layers_modules_30_modules_self_attn_modules_q_proj_parameters_weight_
        l_self_modules_model_modules_layers_modules_30_modules_self_attn_modules_k_proj_parameters_weight_ = L_self_modules_model_modules_layers_modules_30_modules_self_attn_modules_k_proj_parameters_weight_
        l_self_modules_model_modules_layers_modules_30_modules_self_attn_modules_v_proj_parameters_weight_ = L_self_modules_model_modules_layers_modules_30_modules_self_attn_modules_v_proj_parameters_weight_
        l_past_key_values_layers_30_keys = L_past_key_values_layers_30_keys
        l_past_key_values_layers_30_values = L_past_key_values_layers_30_values
        l_self_modules_model_modules_layers_modules_30_modules_self_attn_modules_o_proj_parameters_weight_ = L_self_modules_model_modules_layers_modules_30_modules_self_attn_modules_o_proj_parameters_weight_
        l_self_modules_model_modules_layers_modules_30_modules_post_attention_layernorm_parameters_weight_ = L_self_modules_model_modules_layers_modules_30_modules_post_attention_layernorm_parameters_weight_
        l_self_modules_model_modules_layers_modules_30_modules_mlp_modules_gate_proj_parameters_weight_ = L_self_modules_model_modules_layers_modules_30_modules_mlp_modules_gate_proj_parameters_weight_
        l_self_modules_model_modules_layers_modules_30_modules_mlp_modules_up_proj_parameters_weight_ = L_self_modules_model_modules_layers_modules_30_modules_mlp_modules_up_proj_parameters_weight_
        l_self_modules_model_modules_layers_modules_30_modules_mlp_modules_down_proj_parameters_weight_ = L_self_modules_model_modules_layers_modules_30_modules_mlp_modules_down_proj_parameters_weight_
        l_self_modules_model_modules_layers_modules_31_modules_input_layernorm_parameters_weight_ = L_self_modules_model_modules_layers_modules_31_modules_input_layernorm_parameters_weight_
        l_self_modules_model_modules_layers_modules_31_modules_self_attn_modules_q_proj_parameters_weight_ = L_self_modules_model_modules_layers_modules_31_modules_self_attn_modules_q_proj_parameters_weight_
        l_self_modules_model_modules_layers_modules_31_modules_self_attn_modules_k_proj_parameters_weight_ = L_self_modules_model_modules_layers_modules_31_modules_self_attn_modules_k_proj_parameters_weight_
        l_self_modules_model_modules_layers_modules_31_modules_self_attn_modules_v_proj_parameters_weight_ = L_self_modules_model_modules_layers_modules_31_modules_self_attn_modules_v_proj_parameters_weight_
        l_past_key_values_layers_31_keys = L_past_key_values_layers_31_keys
        l_past_key_values_layers_31_values = L_past_key_values_layers_31_values
        l_self_modules_model_modules_layers_modules_31_modules_self_attn_modules_o_proj_parameters_weight_ = L_self_modules_model_modules_layers_modules_31_modules_self_attn_modules_o_proj_parameters_weight_
        l_self_modules_model_modules_layers_modules_31_modules_post_attention_layernorm_parameters_weight_ = L_self_modules_model_modules_layers_modules_31_modules_post_attention_layernorm_parameters_weight_
        l_self_modules_model_modules_layers_modules_31_modules_mlp_modules_gate_proj_parameters_weight_ = L_self_modules_model_modules_layers_modules_31_modules_mlp_modules_gate_proj_parameters_weight_
        l_self_modules_model_modules_layers_modules_31_modules_mlp_modules_up_proj_parameters_weight_ = L_self_modules_model_modules_layers_modules_31_modules_mlp_modules_up_proj_parameters_weight_
        l_self_modules_model_modules_layers_modules_31_modules_mlp_modules_down_proj_parameters_weight_ = L_self_modules_model_modules_layers_modules_31_modules_mlp_modules_down_proj_parameters_weight_
        l_self_modules_model_modules_norm_parameters_weight_ = L_self_modules_model_modules_norm_parameters_weight_
        l_self_modules_lm_head_parameters_weight_ = L_self_modules_lm_head_parameters_weight_
        
         # File: /app/low_bit_inference/model.py:346 in forward, code: inputs_embeds: torch.Tensor = self.embed_tokens(input_ids)
        inputs_embeds: "f16[1, 1, 4096][4096, 4096, 1]cuda:0" = torch.nn.functional.embedding(l_input_ids_, l_self_modules_model_modules_embed_tokens_parameters_weight_, 128004, None, 2.0, False, False);  l_input_ids_ = l_self_modules_model_modules_embed_tokens_parameters_weight_ = None
        
         # File: /app/low_bit_inference/model.py:65 in forward, code: inv_freq_expanded = self.inv_freq[None, :, None].float().expand(position_ids.shape[0], -1, 1).to(x.device)
        getitem: "f32[1, 64, 1][64, 1, 1]cuda:0" = l_self_modules_model_modules_rotary_emb_buffers_inv_freq_[(None, slice(None, None, None), None)];  l_self_modules_model_modules_rotary_emb_buffers_inv_freq_ = None
        float_1: "f32[1, 64, 1][64, 1, 1]cuda:0" = getitem.float();  getitem = None
        expand: "f32[1, 64, 1][64, 1, 1]cuda:0" = float_1.expand(1, -1, 1);  float_1 = None
        inv_freq_expanded: "f32[1, 64, 1][64, 1, 1]cuda:0" = expand.to(device(type='cuda', index=0));  expand = None
        
         # File: /app/low_bit_inference/model.py:66 in forward, code: position_ids_expanded = position_ids[:, None, :].float()
        getitem_1: "i64[1, 1, 1][1, 1, 1]cuda:0" = l_position_ids_[(slice(None, None, None), None, slice(None, None, None))];  l_position_ids_ = None
        position_ids_expanded: "f32[1, 1, 1][1, 1, 1]cuda:0" = getitem_1.float();  getitem_1 = None
        
        # No stacktrace found for following nodes
        _enter_autocast = torch.amp.autocast_mode._enter_autocast('cuda', None, False, None)
        
         # File: /app/low_bit_inference/model.py:70 in forward, code: freqs = (inv_freq_expanded.float() @ position_ids_expanded.float()).transpose(1, 2)
        float_3: "f32[1, 64, 1][64, 1, 1]cuda:0" = inv_freq_expanded.float();  inv_freq_expanded = None
        float_4: "f32[1, 1, 1][1, 1, 1]cuda:0" = position_ids_expanded.float();  position_ids_expanded = None
        matmul: "f32[1, 64, 1][64, 1, 1]cuda:0" = float_3 @ float_4;  float_3 = float_4 = None
        freqs: "f32[1, 1, 64][64, 1, 1]cuda:0" = matmul.transpose(1, 2);  matmul = None
        
         # File: /app/low_bit_inference/model.py:71 in forward, code: emb = torch.cat((freqs, freqs), dim=-1)
        emb: "f32[1, 1, 128][128, 128, 1]cuda:0" = torch.cat((freqs, freqs), dim = -1);  freqs = None
        
         # File: /app/low_bit_inference/model.py:72 in forward, code: cos = emb.cos() * self.attention_scaling
        cos: "f32[1, 1, 128][128, 128, 1]cuda:0" = emb.cos()
        cos_1: "f32[1, 1, 128][128, 128, 1]cuda:0" = cos * 1.0;  cos = None
        
         # File: /app/low_bit_inference/model.py:73 in forward, code: sin = emb.sin() * self.attention_scaling
        sin: "f32[1, 1, 128][128, 128, 1]cuda:0" = emb.sin();  emb = None
        sin_1: "f32[1, 1, 128][128, 128, 1]cuda:0" = sin * 1.0;  sin = None
        
        # No stacktrace found for following nodes
        _exit_autocast = torch.amp.autocast_mode._exit_autocast(_enter_autocast);  _enter_autocast = _exit_autocast = None
        
         # File: /app/low_bit_inference/model.py:75 in forward, code: return cos.to(dtype=x.dtype), sin.to(dtype=x.dtype)
        cos_2: "f16[1, 1, 128][128, 128, 1]cuda:0" = cos_1.to(dtype = torch.float16);  cos_1 = None
        sin_2: "f16[1, 1, 128][128, 128, 1]cuda:0" = sin_1.to(dtype = torch.float16);  sin_1 = None
        
         # File: /app/.venv/lib/python3.12/site-packages/torch/_dynamo/polyfills/__init__.py:156 in instantiate_user_defined_class_object, code: obj.__init__(*args, **kwargs)
        _log_api_usage_once = torch._C._log_api_usage_once('python.nn_module');  _log_api_usage_once = None
        
         # File: /app/low_bit_inference/optims/rms_norm_kernels/liger_rms_norm.py:666 in forward, code: return LigerRMSNormFunction.apply(
        function_ctx = torch.autograd.function.FunctionCtx();  function_ctx = None
        
         # File: /app/low_bit_inference/optims/rms_norm_kernels/liger_rms_norm.py:72 in maybe_to_contiguous, code: return x.contiguous() if isinstance(x, torch.Tensor) else x
        contiguous: "f16[1, 1, 4096][4096, 4096, 1]cuda:0" = inputs_embeds.contiguous()
        contiguous_1: "f16[4096][1]cuda:0" = l_self_modules_model_modules_layers_modules_0_modules_input_layernorm_parameters_weight_.contiguous();  l_self_modules_model_modules_layers_modules_0_modules_input_layernorm_parameters_weight_ = None
        
         # File: /app/low_bit_inference/optims/rms_norm_kernels/liger_rms_norm.py:443 in rms_norm_forward, code: X = X.view(-1, dim)
        X: "f16[1, 4096][4096, 1]cuda:0" = contiguous.view(-1, 4096);  contiguous = None
        
         # File: /app/low_bit_inference/optims/rms_norm_kernels/liger_rms_norm.py:447 in rms_norm_forward, code: Y = torch.empty((n_rows, n_cols), dtype=X.dtype, device=X.device)
        Y: "f16[1, 4096][4096, 1]cuda:0" = torch.empty((1, 4096), dtype = torch.float16, device = device(type='cuda', index=0))
        
         # File: /app/low_bit_inference/optims/rms_norm_kernels/liger_rms_norm.py:451 in rms_norm_forward, code: RSTD = torch.empty(n_rows, dtype=rstd_dtype, device=X.device)
        RSTD: "f32[1][1]cuda:0" = torch.empty(1, dtype = torch.float32, device = device(type='cuda', index=0))
        
         # File: /app/low_bit_inference/optims/rms_norm_kernels/liger_rms_norm.py:461 in rms_norm_forward, code: _rms_norm_forward_kernel[(n_rows,)](
        triton_kernel_wrapper_mutation = torch.ops.higher_order.triton_kernel_wrapper_mutation(kernel_idx = 326, constant_args_idx = 325, grid = [(1, 1, 1)], tma_descriptor_metadata = {}, kwargs = {'Y_ptr': Y, 'X_ptr': X, 'W_ptr': contiguous_1, 'RSTD_ptr': RSTD});  X = contiguous_1 = RSTD = triton_kernel_wrapper_mutation = None
        
         # File: /app/low_bit_inference/optims/rms_norm_kernels/liger_rms_norm.py:499 in rms_norm_forward, code: return Y.view(*shape), X, RSTD, BLOCK_SIZE, num_warps, casting_mode
        Y_1: "f16[1, 1, 4096][4096, 4096, 1]cuda:0" = Y.view(1, 1, 4096);  Y = None
        
         # File: /app/low_bit_inference/model.py:206 in forward, code: query_states = self.q_proj(hidden_states).view(hidden_shape).transpose(1, 2)
        linear: "f16[1, 1, 4096][4096, 4096, 1]cuda:0" = torch._C._nn.linear(Y_1, l_self_modules_model_modules_layers_modules_0_modules_self_attn_modules_q_proj_parameters_weight_, None);  l_self_modules_model_modules_layers_modules_0_modules_self_attn_modules_q_proj_parameters_weight_ = None
        view_2: "f16[1, 1, 32, 128][4096, 4096, 128, 1]cuda:0" = linear.view((1, 1, -1, 128));  linear = None
        query_states: "f16[1, 32, 1, 128][4096, 128, 4096, 1]cuda:0" = view_2.transpose(1, 2);  view_2 = None
        
         # File: /app/low_bit_inference/model.py:207 in forward, code: key_states = self.k_proj(hidden_states).view(hidden_shape).transpose(1, 2)
        linear_1: "f16[1, 1, 1024][1024, 1024, 1]cuda:0" = torch._C._nn.linear(Y_1, l_self_modules_model_modules_layers_modules_0_modules_self_attn_modules_k_proj_parameters_weight_, None);  l_self_modules_model_modules_layers_modules_0_modules_self_attn_modules_k_proj_parameters_weight_ = None
        view_3: "f16[1, 1, 8, 128][1024, 1024, 128, 1]cuda:0" = linear_1.view((1, 1, -1, 128));  linear_1 = None
        key_states: "f16[1, 8, 1, 128][1024, 128, 1024, 1]cuda:0" = view_3.transpose(1, 2);  view_3 = None
        
         # File: /app/low_bit_inference/model.py:208 in forward, code: value_states = self.v_proj(hidden_states).view(hidden_shape).transpose(1, 2)
        linear_2: "f16[1, 1, 1024][1024, 1024, 1]cuda:0" = torch._C._nn.linear(Y_1, l_self_modules_model_modules_layers_modules_0_modules_self_attn_modules_v_proj_parameters_weight_, None);  Y_1 = l_self_modules_model_modules_layers_modules_0_modules_self_attn_modules_v_proj_parameters_weight_ = None
        view_4: "f16[1, 1, 8, 128][1024, 1024, 128, 1]cuda:0" = linear_2.view((1, 1, -1, 128));  linear_2 = None
        value_states: "f16[1, 8, 1, 128][1024, 128, 1024, 1]cuda:0" = view_4.transpose(1, 2);  view_4 = None
        
         # File: /app/low_bit_inference/model.py:105 in apply_rotary_pos_emb, code: cos = cos.unsqueeze(unsqueeze_dim)
        cos_3: "f16[1, 1, 1, 128][128, 128, 128, 1]cuda:0" = cos_2.unsqueeze(1)
        
         # File: /app/low_bit_inference/model.py:106 in apply_rotary_pos_emb, code: sin = sin.unsqueeze(unsqueeze_dim)
        sin_3: "f16[1, 1, 1, 128][128, 128, 128, 1]cuda:0" = sin_2.unsqueeze(1)
        
         # File: /app/low_bit_inference/model.py:107 in apply_rotary_pos_emb, code: q_embed = (q * cos) + (rotate_half(q) * sin)
        mul_2: "f16[1, 32, 1, 128][4096, 128, 4096, 1]cuda:0" = query_states * cos_3
        
         # File: /app/low_bit_inference/model.py:80 in rotate_half, code: x1 = x[..., : x.shape[-1] // 2]
        x1: "f16[1, 32, 1, 64][4096, 128, 4096, 1]cuda:0" = query_states[(Ellipsis, slice(None, 64, None))]
        
         # File: /app/low_bit_inference/model.py:81 in rotate_half, code: x2 = x[..., x.shape[-1] // 2 :]
        x2: "f16[1, 32, 1, 64][4096, 128, 4096, 1]cuda:0" = query_states[(Ellipsis, slice(64, None, None))];  query_states = None
        
         # File: /app/low_bit_inference/model.py:82 in rotate_half, code: return torch.cat((-x2, x1), dim=-1)
        neg: "f16[1, 32, 1, 64][2048, 64, 64, 1]cuda:0" = -x2;  x2 = None
        cat_1: "f16[1, 32, 1, 128][4096, 128, 128, 1]cuda:0" = torch.cat((neg, x1), dim = -1);  neg = x1 = None
        
         # File: /app/low_bit_inference/model.py:107 in apply_rotary_pos_emb, code: q_embed = (q * cos) + (rotate_half(q) * sin)
        mul_3: "f16[1, 32, 1, 128][4096, 128, 128, 1]cuda:0" = cat_1 * sin_3;  cat_1 = None
        q_embed: "f16[1, 32, 1, 128][4096, 128, 128, 1]cuda:0" = mul_2 + mul_3;  mul_2 = mul_3 = None
        
         # File: /app/low_bit_inference/model.py:108 in apply_rotary_pos_emb, code: k_embed = (k * cos) + (rotate_half(k) * sin)
        mul_4: "f16[1, 8, 1, 128][1024, 128, 1024, 1]cuda:0" = key_states * cos_3;  cos_3 = None
        
         # File: /app/low_bit_inference/model.py:80 in rotate_half, code: x1 = x[..., : x.shape[-1] // 2]
        x1_1: "f16[1, 8, 1, 64][1024, 128, 1024, 1]cuda:0" = key_states[(Ellipsis, slice(None, 64, None))]
        
         # File: /app/low_bit_inference/model.py:81 in rotate_half, code: x2 = x[..., x.shape[-1] // 2 :]
        x2_1: "f16[1, 8, 1, 64][1024, 128, 1024, 1]cuda:0" = key_states[(Ellipsis, slice(64, None, None))];  key_states = None
        
         # File: /app/low_bit_inference/model.py:82 in rotate_half, code: return torch.cat((-x2, x1), dim=-1)
        neg_1: "f16[1, 8, 1, 64][512, 64, 64, 1]cuda:0" = -x2_1;  x2_1 = None
        cat_2: "f16[1, 8, 1, 128][1024, 128, 128, 1]cuda:0" = torch.cat((neg_1, x1_1), dim = -1);  neg_1 = x1_1 = None
        
         # File: /app/low_bit_inference/model.py:108 in apply_rotary_pos_emb, code: k_embed = (k * cos) + (rotate_half(k) * sin)
        mul_5: "f16[1, 8, 1, 128][1024, 128, 128, 1]cuda:0" = cat_2 * sin_3;  cat_2 = sin_3 = None
        k_embed: "f16[1, 8, 1, 128][1024, 128, 128, 1]cuda:0" = mul_4 + mul_5;  mul_4 = mul_5 = None
        
         # File: /app/low_bit_inference/optims/cache_optim.py:156 in update, code: self.keys.index_copy_(2, cache_position, key_states)
        index_copy_: "f16[1, 8, 2048, 128][2097152, 262144, 128, 1]cuda:0" = l_past_key_values_layers_0_keys.index_copy_(2, l_cache_position_, k_embed);  k_embed = index_copy_ = None
        
         # File: /app/low_bit_inference/optims/cache_optim.py:157 in update, code: self.values.index_copy_(2, cache_position, value_states)
        index_copy__1: "f16[1, 8, 2048, 128][2097152, 262144, 128, 1]cuda:0" = l_past_key_values_layers_0_values.index_copy_(2, l_cache_position_, value_states);  value_states = index_copy__1 = None
        
         # File: /app/.venv/lib/python3.12/site-packages/transformers/integrations/sdpa_attention.py:14 in repeat_kv, code: hidden_states = hidden_states[:, :, None, :, :].expand(batch, num_key_value_heads, n_rep, slen, head_dim)
        getitem_6: "f16[1, 8, 1, 2048, 128][2097152, 262144, 262144, 128, 1]cuda:0" = l_past_key_values_layers_0_keys[(slice(None, None, None), slice(None, None, None), None, slice(None, None, None), slice(None, None, None))];  l_past_key_values_layers_0_keys = None
        hidden_states: "f16[1, 8, 4, 2048, 128][2097152, 262144, 0, 128, 1]cuda:0" = getitem_6.expand(1, 8, 4, 2048, 128);  getitem_6 = None
        
         # File: /app/.venv/lib/python3.12/site-packages/transformers/integrations/sdpa_attention.py:15 in repeat_kv, code: return hidden_states.reshape(batch, num_key_value_heads * n_rep, slen, head_dim)
        key: "f16[1, 32, 2048, 128][8388608, 262144, 128, 1]cuda:0" = hidden_states.reshape(1, 32, 2048, 128);  hidden_states = None
        
         # File: /app/.venv/lib/python3.12/site-packages/transformers/integrations/sdpa_attention.py:14 in repeat_kv, code: hidden_states = hidden_states[:, :, None, :, :].expand(batch, num_key_value_heads, n_rep, slen, head_dim)
        getitem_7: "f16[1, 8, 1, 2048, 128][2097152, 262144, 262144, 128, 1]cuda:0" = l_past_key_values_layers_0_values[(slice(None, None, None), slice(None, None, None), None, slice(None, None, None), slice(None, None, None))];  l_past_key_values_layers_0_values = None
        hidden_states_1: "f16[1, 8, 4, 2048, 128][2097152, 262144, 0, 128, 1]cuda:0" = getitem_7.expand(1, 8, 4, 2048, 128);  getitem_7 = None
        
         # File: /app/.venv/lib/python3.12/site-packages/transformers/integrations/sdpa_attention.py:15 in repeat_kv, code: return hidden_states.reshape(batch, num_key_value_heads * n_rep, slen, head_dim)
        value: "f16[1, 32, 2048, 128][8388608, 262144, 128, 1]cuda:0" = hidden_states_1.reshape(1, 32, 2048, 128);  hidden_states_1 = None
        
         # File: /app/.venv/lib/python3.12/site-packages/transformers/integrations/sdpa_attention.py:35 in sdpa_attention_forward, code: causal_mask = causal_mask[:, :, :, : key.shape[-2]]
        causal_mask: "b8[1, 1, 1, 2048][2048, 2048, 2048, 1]cuda:0" = l_attention_mask_[(slice(None, None, None), slice(None, None, None), slice(None, None, None), slice(None, 2048, None))]
        
         # File: /app/.venv/lib/python3.12/site-packages/transformers/integrations/sdpa_attention.py:39 in sdpa_attention_forward, code: query = query.contiguous()
        query: "f16[1, 32, 1, 128][4096, 128, 128, 1]cuda:0" = q_embed.contiguous();  q_embed = None
        
         # File: /app/.venv/lib/python3.12/site-packages/transformers/integrations/sdpa_attention.py:40 in sdpa_attention_forward, code: key = key.contiguous()
        key_1: "f16[1, 32, 2048, 128][8388608, 262144, 128, 1]cuda:0" = key.contiguous();  key = None
        
         # File: /app/.venv/lib/python3.12/site-packages/transformers/integrations/sdpa_attention.py:41 in sdpa_attention_forward, code: value = value.contiguous()
        value_1: "f16[1, 32, 2048, 128][8388608, 262144, 128, 1]cuda:0" = value.contiguous();  value = None
        
         # File: /app/.venv/lib/python3.12/site-packages/transformers/integrations/sdpa_attention.py:54 in sdpa_attention_forward, code: attn_output = torch.nn.functional.scaled_dot_product_attention(
        attn_output: "f16[1, 32, 1, 128][4096, 128, 4096, 1]cuda:0" = torch._C._nn.scaled_dot_product_attention(query, key_1, value_1, attn_mask = causal_mask, dropout_p = 0.0, scale = 0.08838834764831845, is_causal = False);  query = key_1 = value_1 = causal_mask = None
        
         # File: /app/.venv/lib/python3.12/site-packages/transformers/integrations/sdpa_attention.py:63 in sdpa_attention_forward, code: attn_output = attn_output.transpose(1, 2).contiguous()
        transpose_4: "f16[1, 1, 32, 128][4096, 4096, 128, 1]cuda:0" = attn_output.transpose(1, 2);  attn_output = None
        attn_output_1: "f16[1, 1, 32, 128][4096, 4096, 128, 1]cuda:0" = transpose_4.contiguous();  transpose_4 = None
        
         # File: /app/low_bit_inference/model.py:233 in forward, code: attn_output = attn_output.reshape(*input_shape, -1).contiguous()
        reshape_2: "f16[1, 1, 4096][4096, 4096, 1]cuda:0" = attn_output_1.reshape(1, 1, -1);  attn_output_1 = None
        attn_output_2: "f16[1, 1, 4096][4096, 4096, 1]cuda:0" = reshape_2.contiguous();  reshape_2 = None
        
         # File: /app/low_bit_inference/model.py:234 in forward, code: attn_output = self.o_proj(attn_output)
        attn_output_3: "f16[1, 1, 4096][4096, 4096, 1]cuda:0" = torch._C._nn.linear(attn_output_2, l_self_modules_model_modules_layers_modules_0_modules_self_attn_modules_o_proj_parameters_weight_, None);  attn_output_2 = l_self_modules_model_modules_layers_modules_0_modules_self_attn_modules_o_proj_parameters_weight_ = None
        
         # File: /app/low_bit_inference/model.py:273 in forward, code: hidden_states = residual + hidden_states
        hidden_states_2: "f16[1, 1, 4096][4096, 4096, 1]cuda:0" = inputs_embeds + attn_output_3;  inputs_embeds = attn_output_3 = None
        
         # File: /app/low_bit_inference/optims/rms_norm_kernels/liger_rms_norm.py:666 in forward, code: return LigerRMSNormFunction.apply(
        function_ctx_1 = torch.autograd.function.FunctionCtx();  function_ctx_1 = None
        
         # File: /app/low_bit_inference/optims/rms_norm_kernels/liger_rms_norm.py:72 in maybe_to_contiguous, code: return x.contiguous() if isinstance(x, torch.Tensor) else x
        contiguous_7: "f16[1, 1, 4096][4096, 4096, 1]cuda:0" = hidden_states_2.contiguous()
        contiguous_8: "f16[4096][1]cuda:0" = l_self_modules_model_modules_layers_modules_0_modules_post_attention_layernorm_parameters_weight_.contiguous();  l_self_modules_model_modules_layers_modules_0_modules_post_attention_layernorm_parameters_weight_ = None
        
         # File: /app/low_bit_inference/optims/rms_norm_kernels/liger_rms_norm.py:443 in rms_norm_forward, code: X = X.view(-1, dim)
        X_1: "f16[1, 4096][4096, 1]cuda:0" = contiguous_7.view(-1, 4096);  contiguous_7 = None
        
         # File: /app/low_bit_inference/optims/rms_norm_kernels/liger_rms_norm.py:447 in rms_norm_forward, code: Y = torch.empty((n_rows, n_cols), dtype=X.dtype, device=X.device)
        Y_2: "f16[1, 4096][4096, 1]cuda:0" = torch.empty((1, 4096), dtype = torch.float16, device = device(type='cuda', index=0))
        
         # File: /app/low_bit_inference/optims/rms_norm_kernels/liger_rms_norm.py:451 in rms_norm_forward, code: RSTD = torch.empty(n_rows, dtype=rstd_dtype, device=X.device)
        RSTD_1: "f32[1][1]cuda:0" = torch.empty(1, dtype = torch.float32, device = device(type='cuda', index=0))
        
         # File: /app/low_bit_inference/optims/rms_norm_kernels/liger_rms_norm.py:461 in rms_norm_forward, code: _rms_norm_forward_kernel[(n_rows,)](
        triton_kernel_wrapper_mutation_1 = torch.ops.higher_order.triton_kernel_wrapper_mutation(kernel_idx = 327, constant_args_idx = 326, grid = [(1, 1, 1)], tma_descriptor_metadata = {}, kwargs = {'Y_ptr': Y_2, 'X_ptr': X_1, 'W_ptr': contiguous_8, 'RSTD_ptr': RSTD_1});  X_1 = contiguous_8 = RSTD_1 = triton_kernel_wrapper_mutation_1 = None
        
         # File: /app/low_bit_inference/optims/rms_norm_kernels/liger_rms_norm.py:499 in rms_norm_forward, code: return Y.view(*shape), X, RSTD, BLOCK_SIZE, num_warps, casting_mode
        Y_3: "f16[1, 1, 4096][4096, 4096, 1]cuda:0" = Y_2.view(1, 1, 4096);  Y_2 = None
        
         # File: /app/low_bit_inference/model.py:124 in forward, code: down_proj = self.down_proj(self.act_fn(self.gate_proj(x)) * self.up_proj(x))
        linear_4: "f16[1, 1, 14336][14336, 14336, 1]cuda:0" = torch._C._nn.linear(Y_3, l_self_modules_model_modules_layers_modules_0_modules_mlp_modules_gate_proj_parameters_weight_, None);  l_self_modules_model_modules_layers_modules_0_modules_mlp_modules_gate_proj_parameters_weight_ = None
        silu: "f16[1, 1, 14336][14336, 14336, 1]cuda:0" = torch.nn.functional.silu(linear_4, inplace = False);  linear_4 = None
        linear_5: "f16[1, 1, 14336][14336, 14336, 1]cuda:0" = torch._C._nn.linear(Y_3, l_self_modules_model_modules_layers_modules_0_modules_mlp_modules_up_proj_parameters_weight_, None);  Y_3 = l_self_modules_model_modules_layers_modules_0_modules_mlp_modules_up_proj_parameters_weight_ = None
        mul_6: "f16[1, 1, 14336][14336, 14336, 1]cuda:0" = silu * linear_5;  silu = linear_5 = None
        down_proj: "f16[1, 1, 4096][4096, 4096, 1]cuda:0" = torch._C._nn.linear(mul_6, l_self_modules_model_modules_layers_modules_0_modules_mlp_modules_down_proj_parameters_weight_, None);  mul_6 = l_self_modules_model_modules_layers_modules_0_modules_mlp_modules_down_proj_parameters_weight_ = None
        
         # File: /app/low_bit_inference/model.py:279 in forward, code: hidden_states = residual + hidden_states
        hidden_states_3: "f16[1, 1, 4096][4096, 4096, 1]cuda:0" = hidden_states_2 + down_proj;  hidden_states_2 = down_proj = None
        
         # File: /app/low_bit_inference/optims/rms_norm_kernels/liger_rms_norm.py:666 in forward, code: return LigerRMSNormFunction.apply(
        function_ctx_2 = torch.autograd.function.FunctionCtx();  function_ctx_2 = None
        
         # File: /app/low_bit_inference/optims/rms_norm_kernels/liger_rms_norm.py:72 in maybe_to_contiguous, code: return x.contiguous() if isinstance(x, torch.Tensor) else x
        contiguous_9: "f16[1, 1, 4096][4096, 4096, 1]cuda:0" = hidden_states_3.contiguous()
        contiguous_10: "f16[4096][1]cuda:0" = l_self_modules_model_modules_layers_modules_1_modules_input_layernorm_parameters_weight_.contiguous();  l_self_modules_model_modules_layers_modules_1_modules_input_layernorm_parameters_weight_ = None
        
         # File: /app/low_bit_inference/optims/rms_norm_kernels/liger_rms_norm.py:443 in rms_norm_forward, code: X = X.view(-1, dim)
        X_2: "f16[1, 4096][4096, 1]cuda:0" = contiguous_9.view(-1, 4096);  contiguous_9 = None
        
         # File: /app/low_bit_inference/optims/rms_norm_kernels/liger_rms_norm.py:447 in rms_norm_forward, code: Y = torch.empty((n_rows, n_cols), dtype=X.dtype, device=X.device)
        Y_4: "f16[1, 4096][4096, 1]cuda:0" = torch.empty((1, 4096), dtype = torch.float16, device = device(type='cuda', index=0))
        
         # File: /app/low_bit_inference/optims/rms_norm_kernels/liger_rms_norm.py:451 in rms_norm_forward, code: RSTD = torch.empty(n_rows, dtype=rstd_dtype, device=X.device)
        RSTD_2: "f32[1][1]cuda:0" = torch.empty(1, dtype = torch.float32, device = device(type='cuda', index=0))
        
         # File: /app/low_bit_inference/optims/rms_norm_kernels/liger_rms_norm.py:461 in rms_norm_forward, code: _rms_norm_forward_kernel[(n_rows,)](
        triton_kernel_wrapper_mutation_2 = torch.ops.higher_order.triton_kernel_wrapper_mutation(kernel_idx = 328, constant_args_idx = 327, grid = [(1, 1, 1)], tma_descriptor_metadata = {}, kwargs = {'Y_ptr': Y_4, 'X_ptr': X_2, 'W_ptr': contiguous_10, 'RSTD_ptr': RSTD_2});  X_2 = contiguous_10 = RSTD_2 = triton_kernel_wrapper_mutation_2 = None
        
         # File: /app/low_bit_inference/optims/rms_norm_kernels/liger_rms_norm.py:499 in rms_norm_forward, code: return Y.view(*shape), X, RSTD, BLOCK_SIZE, num_warps, casting_mode
        Y_5: "f16[1, 1, 4096][4096, 4096, 1]cuda:0" = Y_4.view(1, 1, 4096);  Y_4 = None
        
         # File: /app/low_bit_inference/model.py:206 in forward, code: query_states = self.q_proj(hidden_states).view(hidden_shape).transpose(1, 2)
        linear_7: "f16[1, 1, 4096][4096, 4096, 1]cuda:0" = torch._C._nn.linear(Y_5, l_self_modules_model_modules_layers_modules_1_modules_self_attn_modules_q_proj_parameters_weight_, None);  l_self_modules_model_modules_layers_modules_1_modules_self_attn_modules_q_proj_parameters_weight_ = None
        view_9: "f16[1, 1, 32, 128][4096, 4096, 128, 1]cuda:0" = linear_7.view((1, 1, -1, 128));  linear_7 = None
        query_states_1: "f16[1, 32, 1, 128][4096, 128, 4096, 1]cuda:0" = view_9.transpose(1, 2);  view_9 = None
        
         # File: /app/low_bit_inference/model.py:207 in forward, code: key_states = self.k_proj(hidden_states).view(hidden_shape).transpose(1, 2)
        linear_8: "f16[1, 1, 1024][1024, 1024, 1]cuda:0" = torch._C._nn.linear(Y_5, l_self_modules_model_modules_layers_modules_1_modules_self_attn_modules_k_proj_parameters_weight_, None);  l_self_modules_model_modules_layers_modules_1_modules_self_attn_modules_k_proj_parameters_weight_ = None
        view_10: "f16[1, 1, 8, 128][1024, 1024, 128, 1]cuda:0" = linear_8.view((1, 1, -1, 128));  linear_8 = None
        key_states_1: "f16[1, 8, 1, 128][1024, 128, 1024, 1]cuda:0" = view_10.transpose(1, 2);  view_10 = None
        
         # File: /app/low_bit_inference/model.py:208 in forward, code: value_states = self.v_proj(hidden_states).view(hidden_shape).transpose(1, 2)
        linear_9: "f16[1, 1, 1024][1024, 1024, 1]cuda:0" = torch._C._nn.linear(Y_5, l_self_modules_model_modules_layers_modules_1_modules_self_attn_modules_v_proj_parameters_weight_, None);  Y_5 = l_self_modules_model_modules_layers_modules_1_modules_self_attn_modules_v_proj_parameters_weight_ = None
        view_11: "f16[1, 1, 8, 128][1024, 1024, 128, 1]cuda:0" = linear_9.view((1, 1, -1, 128));  linear_9 = None
        value_states_1: "f16[1, 8, 1, 128][1024, 128, 1024, 1]cuda:0" = view_11.transpose(1, 2);  view_11 = None
        
         # File: /app/low_bit_inference/model.py:105 in apply_rotary_pos_emb, code: cos = cos.unsqueeze(unsqueeze_dim)
        cos_4: "f16[1, 1, 1, 128][128, 128, 128, 1]cuda:0" = cos_2.unsqueeze(1)
        
         # File: /app/low_bit_inference/model.py:106 in apply_rotary_pos_emb, code: sin = sin.unsqueeze(unsqueeze_dim)
        sin_4: "f16[1, 1, 1, 128][128, 128, 128, 1]cuda:0" = sin_2.unsqueeze(1)
        
         # File: /app/low_bit_inference/model.py:107 in apply_rotary_pos_emb, code: q_embed = (q * cos) + (rotate_half(q) * sin)
        mul_7: "f16[1, 32, 1, 128][4096, 128, 4096, 1]cuda:0" = query_states_1 * cos_4
        
         # File: /app/low_bit_inference/model.py:80 in rotate_half, code: x1 = x[..., : x.shape[-1] // 2]
        x1_2: "f16[1, 32, 1, 64][4096, 128, 4096, 1]cuda:0" = query_states_1[(Ellipsis, slice(None, 64, None))]
        
         # File: /app/low_bit_inference/model.py:81 in rotate_half, code: x2 = x[..., x.shape[-1] // 2 :]
        x2_2: "f16[1, 32, 1, 64][4096, 128, 4096, 1]cuda:0" = query_states_1[(Ellipsis, slice(64, None, None))];  query_states_1 = None
        
         # File: /app/low_bit_inference/model.py:82 in rotate_half, code: return torch.cat((-x2, x1), dim=-1)
        neg_2: "f16[1, 32, 1, 64][2048, 64, 64, 1]cuda:0" = -x2_2;  x2_2 = None
        cat_3: "f16[1, 32, 1, 128][4096, 128, 128, 1]cuda:0" = torch.cat((neg_2, x1_2), dim = -1);  neg_2 = x1_2 = None
        
         # File: /app/low_bit_inference/model.py:107 in apply_rotary_pos_emb, code: q_embed = (q * cos) + (rotate_half(q) * sin)
        mul_8: "f16[1, 32, 1, 128][4096, 128, 128, 1]cuda:0" = cat_3 * sin_4;  cat_3 = None
        q_embed_1: "f16[1, 32, 1, 128][4096, 128, 128, 1]cuda:0" = mul_7 + mul_8;  mul_7 = mul_8 = None
        
         # File: /app/low_bit_inference/model.py:108 in apply_rotary_pos_emb, code: k_embed = (k * cos) + (rotate_half(k) * sin)
        mul_9: "f16[1, 8, 1, 128][1024, 128, 1024, 1]cuda:0" = key_states_1 * cos_4;  cos_4 = None
        
         # File: /app/low_bit_inference/model.py:80 in rotate_half, code: x1 = x[..., : x.shape[-1] // 2]
        x1_3: "f16[1, 8, 1, 64][1024, 128, 1024, 1]cuda:0" = key_states_1[(Ellipsis, slice(None, 64, None))]
        
         # File: /app/low_bit_inference/model.py:81 in rotate_half, code: x2 = x[..., x.shape[-1] // 2 :]
        x2_3: "f16[1, 8, 1, 64][1024, 128, 1024, 1]cuda:0" = key_states_1[(Ellipsis, slice(64, None, None))];  key_states_1 = None
        
         # File: /app/low_bit_inference/model.py:82 in rotate_half, code: return torch.cat((-x2, x1), dim=-1)
        neg_3: "f16[1, 8, 1, 64][512, 64, 64, 1]cuda:0" = -x2_3;  x2_3 = None
        cat_4: "f16[1, 8, 1, 128][1024, 128, 128, 1]cuda:0" = torch.cat((neg_3, x1_3), dim = -1);  neg_3 = x1_3 = None
        
         # File: /app/low_bit_inference/model.py:108 in apply_rotary_pos_emb, code: k_embed = (k * cos) + (rotate_half(k) * sin)
        mul_10: "f16[1, 8, 1, 128][1024, 128, 128, 1]cuda:0" = cat_4 * sin_4;  cat_4 = sin_4 = None
        k_embed_1: "f16[1, 8, 1, 128][1024, 128, 128, 1]cuda:0" = mul_9 + mul_10;  mul_9 = mul_10 = None
        
         # File: /app/low_bit_inference/optims/cache_optim.py:156 in update, code: self.keys.index_copy_(2, cache_position, key_states)
        index_copy__2: "f16[1, 8, 2048, 128][2097152, 262144, 128, 1]cuda:0" = l_past_key_values_layers_1_keys.index_copy_(2, l_cache_position_, k_embed_1);  k_embed_1 = index_copy__2 = None
        
         # File: /app/low_bit_inference/optims/cache_optim.py:157 in update, code: self.values.index_copy_(2, cache_position, value_states)
        index_copy__3: "f16[1, 8, 2048, 128][2097152, 262144, 128, 1]cuda:0" = l_past_key_values_layers_1_values.index_copy_(2, l_cache_position_, value_states_1);  value_states_1 = index_copy__3 = None
        
         # File: /app/.venv/lib/python3.12/site-packages/transformers/integrations/sdpa_attention.py:14 in repeat_kv, code: hidden_states = hidden_states[:, :, None, :, :].expand(batch, num_key_value_heads, n_rep, slen, head_dim)
        getitem_13: "f16[1, 8, 1, 2048, 128][2097152, 262144, 262144, 128, 1]cuda:0" = l_past_key_values_layers_1_keys[(slice(None, None, None), slice(None, None, None), None, slice(None, None, None), slice(None, None, None))];  l_past_key_values_layers_1_keys = None
        hidden_states_4: "f16[1, 8, 4, 2048, 128][2097152, 262144, 0, 128, 1]cuda:0" = getitem_13.expand(1, 8, 4, 2048, 128);  getitem_13 = None
        
         # File: /app/.venv/lib/python3.12/site-packages/transformers/integrations/sdpa_attention.py:15 in repeat_kv, code: return hidden_states.reshape(batch, num_key_value_heads * n_rep, slen, head_dim)
        key_2: "f16[1, 32, 2048, 128][8388608, 262144, 128, 1]cuda:0" = hidden_states_4.reshape(1, 32, 2048, 128);  hidden_states_4 = None
        
         # File: /app/.venv/lib/python3.12/site-packages/transformers/integrations/sdpa_attention.py:14 in repeat_kv, code: hidden_states = hidden_states[:, :, None, :, :].expand(batch, num_key_value_heads, n_rep, slen, head_dim)
        getitem_14: "f16[1, 8, 1, 2048, 128][2097152, 262144, 262144, 128, 1]cuda:0" = l_past_key_values_layers_1_values[(slice(None, None, None), slice(None, None, None), None, slice(None, None, None), slice(None, None, None))];  l_past_key_values_layers_1_values = None
        hidden_states_5: "f16[1, 8, 4, 2048, 128][2097152, 262144, 0, 128, 1]cuda:0" = getitem_14.expand(1, 8, 4, 2048, 128);  getitem_14 = None
        
         # File: /app/.venv/lib/python3.12/site-packages/transformers/integrations/sdpa_attention.py:15 in repeat_kv, code: return hidden_states.reshape(batch, num_key_value_heads * n_rep, slen, head_dim)
        value_2: "f16[1, 32, 2048, 128][8388608, 262144, 128, 1]cuda:0" = hidden_states_5.reshape(1, 32, 2048, 128);  hidden_states_5 = None
        
         # File: /app/.venv/lib/python3.12/site-packages/transformers/integrations/sdpa_attention.py:35 in sdpa_attention_forward, code: causal_mask = causal_mask[:, :, :, : key.shape[-2]]
        causal_mask_1: "b8[1, 1, 1, 2048][2048, 2048, 2048, 1]cuda:0" = l_attention_mask_[(slice(None, None, None), slice(None, None, None), slice(None, None, None), slice(None, 2048, None))]
        
         # File: /app/.venv/lib/python3.12/site-packages/transformers/integrations/sdpa_attention.py:39 in sdpa_attention_forward, code: query = query.contiguous()
        query_1: "f16[1, 32, 1, 128][4096, 128, 128, 1]cuda:0" = q_embed_1.contiguous();  q_embed_1 = None
        
         # File: /app/.venv/lib/python3.12/site-packages/transformers/integrations/sdpa_attention.py:40 in sdpa_attention_forward, code: key = key.contiguous()
        key_3: "f16[1, 32, 2048, 128][8388608, 262144, 128, 1]cuda:0" = key_2.contiguous();  key_2 = None
        
         # File: /app/.venv/lib/python3.12/site-packages/transformers/integrations/sdpa_attention.py:41 in sdpa_attention_forward, code: value = value.contiguous()
        value_3: "f16[1, 32, 2048, 128][8388608, 262144, 128, 1]cuda:0" = value_2.contiguous();  value_2 = None
        
         # File: /app/.venv/lib/python3.12/site-packages/transformers/integrations/sdpa_attention.py:54 in sdpa_attention_forward, code: attn_output = torch.nn.functional.scaled_dot_product_attention(
        attn_output_4: "f16[1, 32, 1, 128][4096, 128, 4096, 1]cuda:0" = torch._C._nn.scaled_dot_product_attention(query_1, key_3, value_3, attn_mask = causal_mask_1, dropout_p = 0.0, scale = 0.08838834764831845, is_causal = False);  query_1 = key_3 = value_3 = causal_mask_1 = None
        
         # File: /app/.venv/lib/python3.12/site-packages/transformers/integrations/sdpa_attention.py:63 in sdpa_attention_forward, code: attn_output = attn_output.transpose(1, 2).contiguous()
        transpose_8: "f16[1, 1, 32, 128][4096, 4096, 128, 1]cuda:0" = attn_output_4.transpose(1, 2);  attn_output_4 = None
        attn_output_5: "f16[1, 1, 32, 128][4096, 4096, 128, 1]cuda:0" = transpose_8.contiguous();  transpose_8 = None
        
         # File: /app/low_bit_inference/model.py:233 in forward, code: attn_output = attn_output.reshape(*input_shape, -1).contiguous()
        reshape_5: "f16[1, 1, 4096][4096, 4096, 1]cuda:0" = attn_output_5.reshape(1, 1, -1);  attn_output_5 = None
        attn_output_6: "f16[1, 1, 4096][4096, 4096, 1]cuda:0" = reshape_5.contiguous();  reshape_5 = None
        
         # File: /app/low_bit_inference/model.py:234 in forward, code: attn_output = self.o_proj(attn_output)
        attn_output_7: "f16[1, 1, 4096][4096, 4096, 1]cuda:0" = torch._C._nn.linear(attn_output_6, l_self_modules_model_modules_layers_modules_1_modules_self_attn_modules_o_proj_parameters_weight_, None);  attn_output_6 = l_self_modules_model_modules_layers_modules_1_modules_self_attn_modules_o_proj_parameters_weight_ = None
        
         # File: /app/low_bit_inference/model.py:273 in forward, code: hidden_states = residual + hidden_states
        hidden_states_6: "f16[1, 1, 4096][4096, 4096, 1]cuda:0" = hidden_states_3 + attn_output_7;  hidden_states_3 = attn_output_7 = None
        
         # File: /app/low_bit_inference/optims/rms_norm_kernels/liger_rms_norm.py:666 in forward, code: return LigerRMSNormFunction.apply(
        function_ctx_3 = torch.autograd.function.FunctionCtx();  function_ctx_3 = None
        
         # File: /app/low_bit_inference/optims/rms_norm_kernels/liger_rms_norm.py:72 in maybe_to_contiguous, code: return x.contiguous() if isinstance(x, torch.Tensor) else x
        contiguous_16: "f16[1, 1, 4096][4096, 4096, 1]cuda:0" = hidden_states_6.contiguous()
        contiguous_17: "f16[4096][1]cuda:0" = l_self_modules_model_modules_layers_modules_1_modules_post_attention_layernorm_parameters_weight_.contiguous();  l_self_modules_model_modules_layers_modules_1_modules_post_attention_layernorm_parameters_weight_ = None
        
         # File: /app/low_bit_inference/optims/rms_norm_kernels/liger_rms_norm.py:443 in rms_norm_forward, code: X = X.view(-1, dim)
        X_3: "f16[1, 4096][4096, 1]cuda:0" = contiguous_16.view(-1, 4096);  contiguous_16 = None
        
         # File: /app/low_bit_inference/optims/rms_norm_kernels/liger_rms_norm.py:447 in rms_norm_forward, code: Y = torch.empty((n_rows, n_cols), dtype=X.dtype, device=X.device)
        Y_6: "f16[1, 4096][4096, 1]cuda:0" = torch.empty((1, 4096), dtype = torch.float16, device = device(type='cuda', index=0))
        
         # File: /app/low_bit_inference/optims/rms_norm_kernels/liger_rms_norm.py:451 in rms_norm_forward, code: RSTD = torch.empty(n_rows, dtype=rstd_dtype, device=X.device)
        RSTD_3: "f32[1][1]cuda:0" = torch.empty(1, dtype = torch.float32, device = device(type='cuda', index=0))
        
         # File: /app/low_bit_inference/optims/rms_norm_kernels/liger_rms_norm.py:461 in rms_norm_forward, code: _rms_norm_forward_kernel[(n_rows,)](
        triton_kernel_wrapper_mutation_3 = torch.ops.higher_order.triton_kernel_wrapper_mutation(kernel_idx = 329, constant_args_idx = 328, grid = [(1, 1, 1)], tma_descriptor_metadata = {}, kwargs = {'Y_ptr': Y_6, 'X_ptr': X_3, 'W_ptr': contiguous_17, 'RSTD_ptr': RSTD_3});  X_3 = contiguous_17 = RSTD_3 = triton_kernel_wrapper_mutation_3 = None
        
         # File: /app/low_bit_inference/optims/rms_norm_kernels/liger_rms_norm.py:499 in rms_norm_forward, code: return Y.view(*shape), X, RSTD, BLOCK_SIZE, num_warps, casting_mode
        Y_7: "f16[1, 1, 4096][4096, 4096, 1]cuda:0" = Y_6.view(1, 1, 4096);  Y_6 = None
        
         # File: /app/low_bit_inference/model.py:124 in forward, code: down_proj = self.down_proj(self.act_fn(self.gate_proj(x)) * self.up_proj(x))
        linear_11: "f16[1, 1, 14336][14336, 14336, 1]cuda:0" = torch._C._nn.linear(Y_7, l_self_modules_model_modules_layers_modules_1_modules_mlp_modules_gate_proj_parameters_weight_, None);  l_self_modules_model_modules_layers_modules_1_modules_mlp_modules_gate_proj_parameters_weight_ = None
        silu_1: "f16[1, 1, 14336][14336, 14336, 1]cuda:0" = torch.nn.functional.silu(linear_11, inplace = False);  linear_11 = None
        linear_12: "f16[1, 1, 14336][14336, 14336, 1]cuda:0" = torch._C._nn.linear(Y_7, l_self_modules_model_modules_layers_modules_1_modules_mlp_modules_up_proj_parameters_weight_, None);  Y_7 = l_self_modules_model_modules_layers_modules_1_modules_mlp_modules_up_proj_parameters_weight_ = None
        mul_11: "f16[1, 1, 14336][14336, 14336, 1]cuda:0" = silu_1 * linear_12;  silu_1 = linear_12 = None
        down_proj_1: "f16[1, 1, 4096][4096, 4096, 1]cuda:0" = torch._C._nn.linear(mul_11, l_self_modules_model_modules_layers_modules_1_modules_mlp_modules_down_proj_parameters_weight_, None);  mul_11 = l_self_modules_model_modules_layers_modules_1_modules_mlp_modules_down_proj_parameters_weight_ = None
        
         # File: /app/low_bit_inference/model.py:279 in forward, code: hidden_states = residual + hidden_states
        hidden_states_7: "f16[1, 1, 4096][4096, 4096, 1]cuda:0" = hidden_states_6 + down_proj_1;  hidden_states_6 = down_proj_1 = None
        
         # File: /app/low_bit_inference/optims/rms_norm_kernels/liger_rms_norm.py:666 in forward, code: return LigerRMSNormFunction.apply(
        function_ctx_4 = torch.autograd.function.FunctionCtx();  function_ctx_4 = None
        
         # File: /app/low_bit_inference/optims/rms_norm_kernels/liger_rms_norm.py:72 in maybe_to_contiguous, code: return x.contiguous() if isinstance(x, torch.Tensor) else x
        contiguous_18: "f16[1, 1, 4096][4096, 4096, 1]cuda:0" = hidden_states_7.contiguous()
        contiguous_19: "f16[4096][1]cuda:0" = l_self_modules_model_modules_layers_modules_2_modules_input_layernorm_parameters_weight_.contiguous();  l_self_modules_model_modules_layers_modules_2_modules_input_layernorm_parameters_weight_ = None
        
         # File: /app/low_bit_inference/optims/rms_norm_kernels/liger_rms_norm.py:443 in rms_norm_forward, code: X = X.view(-1, dim)
        X_4: "f16[1, 4096][4096, 1]cuda:0" = contiguous_18.view(-1, 4096);  contiguous_18 = None
        
         # File: /app/low_bit_inference/optims/rms_norm_kernels/liger_rms_norm.py:447 in rms_norm_forward, code: Y = torch.empty((n_rows, n_cols), dtype=X.dtype, device=X.device)
        Y_8: "f16[1, 4096][4096, 1]cuda:0" = torch.empty((1, 4096), dtype = torch.float16, device = device(type='cuda', index=0))
        
         # File: /app/low_bit_inference/optims/rms_norm_kernels/liger_rms_norm.py:451 in rms_norm_forward, code: RSTD = torch.empty(n_rows, dtype=rstd_dtype, device=X.device)
        RSTD_4: "f32[1][1]cuda:0" = torch.empty(1, dtype = torch.float32, device = device(type='cuda', index=0))
        
         # File: /app/low_bit_inference/optims/rms_norm_kernels/liger_rms_norm.py:461 in rms_norm_forward, code: _rms_norm_forward_kernel[(n_rows,)](
        triton_kernel_wrapper_mutation_4 = torch.ops.higher_order.triton_kernel_wrapper_mutation(kernel_idx = 330, constant_args_idx = 329, grid = [(1, 1, 1)], tma_descriptor_metadata = {}, kwargs = {'Y_ptr': Y_8, 'X_ptr': X_4, 'W_ptr': contiguous_19, 'RSTD_ptr': RSTD_4});  X_4 = contiguous_19 = RSTD_4 = triton_kernel_wrapper_mutation_4 = None
        
         # File: /app/low_bit_inference/optims/rms_norm_kernels/liger_rms_norm.py:499 in rms_norm_forward, code: return Y.view(*shape), X, RSTD, BLOCK_SIZE, num_warps, casting_mode
        Y_9: "f16[1, 1, 4096][4096, 4096, 1]cuda:0" = Y_8.view(1, 1, 4096);  Y_8 = None
        
         # File: /app/low_bit_inference/model.py:206 in forward, code: query_states = self.q_proj(hidden_states).view(hidden_shape).transpose(1, 2)
        linear_14: "f16[1, 1, 4096][4096, 4096, 1]cuda:0" = torch._C._nn.linear(Y_9, l_self_modules_model_modules_layers_modules_2_modules_self_attn_modules_q_proj_parameters_weight_, None);  l_self_modules_model_modules_layers_modules_2_modules_self_attn_modules_q_proj_parameters_weight_ = None
        view_16: "f16[1, 1, 32, 128][4096, 4096, 128, 1]cuda:0" = linear_14.view((1, 1, -1, 128));  linear_14 = None
        query_states_2: "f16[1, 32, 1, 128][4096, 128, 4096, 1]cuda:0" = view_16.transpose(1, 2);  view_16 = None
        
         # File: /app/low_bit_inference/model.py:207 in forward, code: key_states = self.k_proj(hidden_states).view(hidden_shape).transpose(1, 2)
        linear_15: "f16[1, 1, 1024][1024, 1024, 1]cuda:0" = torch._C._nn.linear(Y_9, l_self_modules_model_modules_layers_modules_2_modules_self_attn_modules_k_proj_parameters_weight_, None);  l_self_modules_model_modules_layers_modules_2_modules_self_attn_modules_k_proj_parameters_weight_ = None
        view_17: "f16[1, 1, 8, 128][1024, 1024, 128, 1]cuda:0" = linear_15.view((1, 1, -1, 128));  linear_15 = None
        key_states_2: "f16[1, 8, 1, 128][1024, 128, 1024, 1]cuda:0" = view_17.transpose(1, 2);  view_17 = None
        
…
        q_embed_29: "f16[1, 32, 1, 128][4096, 128, 128, 1]cuda:0" = mul_147 + mul_148;  mul_147 = mul_148 = None
        
         # File: /app/low_bit_inference/model.py:108 in apply_rotary_pos_emb, code: k_embed = (k * cos) + (rotate_half(k) * sin)
        mul_149: "f16[1, 8, 1, 128][1024, 128, 1024, 1]cuda:0" = key_states_29 * cos_32;  cos_32 = None
        
         # File: /app/low_bit_inference/model.py:80 in rotate_half, code: x1 = x[..., : x.shape[-1] // 2]
        x1_59: "f16[1, 8, 1, 64][1024, 128, 1024, 1]cuda:0" = key_states_29[(Ellipsis, slice(None, 64, None))]
        
         # File: /app/low_bit_inference/model.py:81 in rotate_half, code: x2 = x[..., x.shape[-1] // 2 :]
        x2_59: "f16[1, 8, 1, 64][1024, 128, 1024, 1]cuda:0" = key_states_29[(Ellipsis, slice(64, None, None))];  key_states_29 = None
        
         # File: /app/low_bit_inference/model.py:82 in rotate_half, code: return torch.cat((-x2, x1), dim=-1)
        neg_59: "f16[1, 8, 1, 64][512, 64, 64, 1]cuda:0" = -x2_59;  x2_59 = None
        cat_60: "f16[1, 8, 1, 128][1024, 128, 128, 1]cuda:0" = torch.cat((neg_59, x1_59), dim = -1);  neg_59 = x1_59 = None
        
         # File: /app/low_bit_inference/model.py:108 in apply_rotary_pos_emb, code: k_embed = (k * cos) + (rotate_half(k) * sin)
        mul_150: "f16[1, 8, 1, 128][1024, 128, 128, 1]cuda:0" = cat_60 * sin_32;  cat_60 = sin_32 = None
        k_embed_29: "f16[1, 8, 1, 128][1024, 128, 128, 1]cuda:0" = mul_149 + mul_150;  mul_149 = mul_150 = None
        
         # File: /app/low_bit_inference/optims/cache_optim.py:156 in update, code: self.keys.index_copy_(2, cache_position, key_states)
        index_copy__58: "f16[1, 8, 2048, 128][2097152, 262144, 128, 1]cuda:0" = l_past_key_values_layers_29_keys.index_copy_(2, l_cache_position_, k_embed_29);  k_embed_29 = index_copy__58 = None
        
         # File: /app/low_bit_inference/optims/cache_optim.py:157 in update, code: self.values.index_copy_(2, cache_position, value_states)
        index_copy__59: "f16[1, 8, 2048, 128][2097152, 262144, 128, 1]cuda:0" = l_past_key_values_layers_29_values.index_copy_(2, l_cache_position_, value_states_29);  value_states_29 = index_copy__59 = None
        
         # File: /app/.venv/lib/python3.12/site-packages/transformers/integrations/sdpa_attention.py:14 in repeat_kv, code: hidden_states = hidden_states[:, :, None, :, :].expand(batch, num_key_value_heads, n_rep, slen, head_dim)
        getitem_209: "f16[1, 8, 1, 2048, 128][2097152, 262144, 262144, 128, 1]cuda:0" = l_past_key_values_layers_29_keys[(slice(None, None, None), slice(None, None, None), None, slice(None, None, None), slice(None, None, None))];  l_past_key_values_layers_29_keys = None
        hidden_states_116: "f16[1, 8, 4, 2048, 128][2097152, 262144, 0, 128, 1]cuda:0" = getitem_209.expand(1, 8, 4, 2048, 128);  getitem_209 = None
        
         # File: /app/.venv/lib/python3.12/site-packages/transformers/integrations/sdpa_attention.py:15 in repeat_kv, code: return hidden_states.reshape(batch, num_key_value_heads * n_rep, slen, head_dim)
        key_58: "f16[1, 32, 2048, 128][8388608, 262144, 128, 1]cuda:0" = hidden_states_116.reshape(1, 32, 2048, 128);  hidden_states_116 = None
        
         # File: /app/.venv/lib/python3.12/site-packages/transformers/integrations/sdpa_attention.py:14 in repeat_kv, code: hidden_states = hidden_states[:, :, None, :, :].expand(batch, num_key_value_heads, n_rep, slen, head_dim)
        getitem_210: "f16[1, 8, 1, 2048, 128][2097152, 262144, 262144, 128, 1]cuda:0" = l_past_key_values_layers_29_values[(slice(None, None, None), slice(None, None, None), None, slice(None, None, None), slice(None, None, None))];  l_past_key_values_layers_29_values = None
        hidden_states_117: "f16[1, 8, 4, 2048, 128][2097152, 262144, 0, 128, 1]cuda:0" = getitem_210.expand(1, 8, 4, 2048, 128);  getitem_210 = None
        
         # File: /app/.venv/lib/python3.12/site-packages/transformers/integrations/sdpa_attention.py:15 in repeat_kv, code: return hidden_states.reshape(batch, num_key_value_heads * n_rep, slen, head_dim)
        value_58: "f16[1, 32, 2048, 128][8388608, 262144, 128, 1]cuda:0" = hidden_states_117.reshape(1, 32, 2048, 128);  hidden_states_117 = None
        
         # File: /app/.venv/lib/python3.12/site-packages/transformers/integrations/sdpa_attention.py:35 in sdpa_attention_forward, code: causal_mask = causal_mask[:, :, :, : key.shape[-2]]
        causal_mask_29: "b8[1, 1, 1, 2048][2048, 2048, 2048, 1]cuda:0" = l_attention_mask_[(slice(None, None, None), slice(None, None, None), slice(None, None, None), slice(None, 2048, None))]
        
         # File: /app/.venv/lib/python3.12/site-packages/transformers/integrations/sdpa_attention.py:39 in sdpa_attention_forward, code: query = query.contiguous()
        query_29: "f16[1, 32, 1, 128][4096, 128, 128, 1]cuda:0" = q_embed_29.contiguous();  q_embed_29 = None
        
         # File: /app/.venv/lib/python3.12/site-packages/transformers/integrations/sdpa_attention.py:40 in sdpa_attention_forward, code: key = key.contiguous()
        key_59: "f16[1, 32, 2048, 128][8388608, 262144, 128, 1]cuda:0" = key_58.contiguous();  key_58 = None
        
         # File: /app/.venv/lib/python3.12/site-packages/transformers/integrations/sdpa_attention.py:41 in sdpa_attention_forward, code: value = value.contiguous()
        value_59: "f16[1, 32, 2048, 128][8388608, 262144, 128, 1]cuda:0" = value_58.contiguous();  value_58 = None
        
         # File: /app/.venv/lib/python3.12/site-packages/transformers/integrations/sdpa_attention.py:54 in sdpa_attention_forward, code: attn_output = torch.nn.functional.scaled_dot_product_attention(
        attn_output_116: "f16[1, 32, 1, 128][4096, 128, 4096, 1]cuda:0" = torch._C._nn.scaled_dot_product_attention(query_29, key_59, value_59, attn_mask = causal_mask_29, dropout_p = 0.0, scale = 0.08838834764831845, is_causal = False);  query_29 = key_59 = value_59 = causal_mask_29 = None
        
         # File: /app/.venv/lib/python3.12/site-packages/transformers/integrations/sdpa_attention.py:63 in sdpa_attention_forward, code: attn_output = attn_output.transpose(1, 2).contiguous()
        transpose_120: "f16[1, 1, 32, 128][4096, 4096, 128, 1]cuda:0" = attn_output_116.transpose(1, 2);  attn_output_116 = None
        attn_output_117: "f16[1, 1, 32, 128][4096, 4096, 128, 1]cuda:0" = transpose_120.contiguous();  transpose_120 = None
        
         # File: /app/low_bit_inference/model.py:233 in forward, code: attn_output = attn_output.reshape(*input_shape, -1).contiguous()
        reshape_89: "f16[1, 1, 4096][4096, 4096, 1]cuda:0" = attn_output_117.reshape(1, 1, -1);  attn_output_117 = None
        attn_output_118: "f16[1, 1, 4096][4096, 4096, 1]cuda:0" = reshape_89.contiguous();  reshape_89 = None
        
         # File: /app/low_bit_inference/model.py:234 in forward, code: attn_output = self.o_proj(attn_output)
        attn_output_119: "f16[1, 1, 4096][4096, 4096, 1]cuda:0" = torch._C._nn.linear(attn_output_118, l_self_modules_model_modules_layers_modules_29_modules_self_attn_modules_o_proj_parameters_weight_, None);  attn_output_118 = l_self_modules_model_modules_layers_modules_29_modules_self_attn_modules_o_proj_parameters_weight_ = None
        
         # File: /app/low_bit_inference/model.py:273 in forward, code: hidden_states = residual + hidden_states
        hidden_states_118: "f16[1, 1, 4096][4096, 4096, 1]cuda:0" = hidden_states_115 + attn_output_119;  hidden_states_115 = attn_output_119 = None
        
         # File: /app/low_bit_inference/optims/rms_norm_kernels/liger_rms_norm.py:666 in forward, code: return LigerRMSNormFunction.apply(
        function_ctx_59 = torch.autograd.function.FunctionCtx();  function_ctx_59 = None
        
         # File: /app/low_bit_inference/optims/rms_norm_kernels/liger_rms_norm.py:72 in maybe_to_contiguous, code: return x.contiguous() if isinstance(x, torch.Tensor) else x
        contiguous_268: "f16[1, 1, 4096][4096, 4096, 1]cuda:0" = hidden_states_118.contiguous()
        contiguous_269: "f16[4096][1]cuda:0" = l_self_modules_model_modules_layers_modules_29_modules_post_attention_layernorm_parameters_weight_.contiguous();  l_self_modules_model_modules_layers_modules_29_modules_post_attention_layernorm_parameters_weight_ = None
        
         # File: /app/low_bit_inference/optims/rms_norm_kernels/liger_rms_norm.py:443 in rms_norm_forward, code: X = X.view(-1, dim)
        X_59: "f16[1, 4096][4096, 1]cuda:0" = contiguous_268.view(-1, 4096);  contiguous_268 = None
        
         # File: /app/low_bit_inference/optims/rms_norm_kernels/liger_rms_norm.py:447 in rms_norm_forward, code: Y = torch.empty((n_rows, n_cols), dtype=X.dtype, device=X.device)
        Y_118: "f16[1, 4096][4096, 1]cuda:0" = torch.empty((1, 4096), dtype = torch.float16, device = device(type='cuda', index=0))
        
         # File: /app/low_bit_inference/optims/rms_norm_kernels/liger_rms_norm.py:451 in rms_norm_forward, code: RSTD = torch.empty(n_rows, dtype=rstd_dtype, device=X.device)
        RSTD_59: "f32[1][1]cuda:0" = torch.empty(1, dtype = torch.float32, device = device(type='cuda', index=0))
        
         # File: /app/low_bit_inference/optims/rms_norm_kernels/liger_rms_norm.py:461 in rms_norm_forward, code: _rms_norm_forward_kernel[(n_rows,)](
        triton_kernel_wrapper_mutation_59 = torch.ops.higher_order.triton_kernel_wrapper_mutation(kernel_idx = 385, constant_args_idx = 384, grid = [(1, 1, 1)], tma_descriptor_metadata = {}, kwargs = {'Y_ptr': Y_118, 'X_ptr': X_59, 'W_ptr': contiguous_269, 'RSTD_ptr': RSTD_59});  X_59 = contiguous_269 = RSTD_59 = triton_kernel_wrapper_mutation_59 = None
        
         # File: /app/low_bit_inference/optims/rms_norm_kernels/liger_rms_norm.py:499 in rms_norm_forward, code: return Y.view(*shape), X, RSTD, BLOCK_SIZE, num_warps, casting_mode
        Y_119: "f16[1, 1, 4096][4096, 4096, 1]cuda:0" = Y_118.view(1, 1, 4096);  Y_118 = None
        
         # File: /app/low_bit_inference/model.py:124 in forward, code: down_proj = self.down_proj(self.act_fn(self.gate_proj(x)) * self.up_proj(x))
        linear_207: "f16[1, 1, 14336][14336, 14336, 1]cuda:0" = torch._C._nn.linear(Y_119, l_self_modules_model_modules_layers_modules_29_modules_mlp_modules_gate_proj_parameters_weight_, None);  l_self_modules_model_modules_layers_modules_29_modules_mlp_modules_gate_proj_parameters_weight_ = None
        silu_29: "f16[1, 1, 14336][14336, 14336, 1]cuda:0" = torch.nn.functional.silu(linear_207, inplace = False);  linear_207 = None
        linear_208: "f16[1, 1, 14336][14336, 14336, 1]cuda:0" = torch._C._nn.linear(Y_119, l_self_modules_model_modules_layers_modules_29_modules_mlp_modules_up_proj_parameters_weight_, None);  Y_119 = l_self_modules_model_modules_layers_modules_29_modules_mlp_modules_up_proj_parameters_weight_ = None
        mul_151: "f16[1, 1, 14336][14336, 14336, 1]cuda:0" = silu_29 * linear_208;  silu_29 = linear_208 = None
        down_proj_29: "f16[1, 1, 4096][4096, 4096, 1]cuda:0" = torch._C._nn.linear(mul_151, l_self_modules_model_modules_layers_modules_29_modules_mlp_modules_down_proj_parameters_weight_, None);  mul_151 = l_self_modules_model_modules_layers_modules_29_modules_mlp_modules_down_proj_parameters_weight_ = None
        
         # File: /app/low_bit_inference/model.py:279 in forward, code: hidden_states = residual + hidden_states
        hidden_states_119: "f16[1, 1, 4096][4096, 4096, 1]cuda:0" = hidden_states_118 + down_proj_29;  hidden_states_118 = down_proj_29 = None
        
         # File: /app/low_bit_inference/optims/rms_norm_kernels/liger_rms_norm.py:666 in forward, code: return LigerRMSNormFunction.apply(
        function_ctx_60 = torch.autograd.function.FunctionCtx();  function_ctx_60 = None
        
         # File: /app/low_bit_inference/optims/rms_norm_kernels/liger_rms_norm.py:72 in maybe_to_contiguous, code: return x.contiguous() if isinstance(x, torch.Tensor) else x
        contiguous_270: "f16[1, 1, 4096][4096, 4096, 1]cuda:0" = hidden_states_119.contiguous()
        contiguous_271: "f16[4096][1]cuda:0" = l_self_modules_model_modules_layers_modules_30_modules_input_layernorm_parameters_weight_.contiguous();  l_self_modules_model_modules_layers_modules_30_modules_input_layernorm_parameters_weight_ = None
        
         # File: /app/low_bit_inference/optims/rms_norm_kernels/liger_rms_norm.py:443 in rms_norm_forward, code: X = X.view(-1, dim)
        X_60: "f16[1, 4096][4096, 1]cuda:0" = contiguous_270.view(-1, 4096);  contiguous_270 = None
        
         # File: /app/low_bit_inference/optims/rms_norm_kernels/liger_rms_norm.py:447 in rms_norm_forward, code: Y = torch.empty((n_rows, n_cols), dtype=X.dtype, device=X.device)
        Y_120: "f16[1, 4096][4096, 1]cuda:0" = torch.empty((1, 4096), dtype = torch.float16, device = device(type='cuda', index=0))
        
         # File: /app/low_bit_inference/optims/rms_norm_kernels/liger_rms_norm.py:451 in rms_norm_forward, code: RSTD = torch.empty(n_rows, dtype=rstd_dtype, device=X.device)
        RSTD_60: "f32[1][1]cuda:0" = torch.empty(1, dtype = torch.float32, device = device(type='cuda', index=0))
        
         # File: /app/low_bit_inference/optims/rms_norm_kernels/liger_rms_norm.py:461 in rms_norm_forward, code: _rms_norm_forward_kernel[(n_rows,)](
        triton_kernel_wrapper_mutation_60 = torch.ops.higher_order.triton_kernel_wrapper_mutation(kernel_idx = 386, constant_args_idx = 385, grid = [(1, 1, 1)], tma_descriptor_metadata = {}, kwargs = {'Y_ptr': Y_120, 'X_ptr': X_60, 'W_ptr': contiguous_271, 'RSTD_ptr': RSTD_60});  X_60 = contiguous_271 = RSTD_60 = triton_kernel_wrapper_mutation_60 = None
        
         # File: /app/low_bit_inference/optims/rms_norm_kernels/liger_rms_norm.py:499 in rms_norm_forward, code: return Y.view(*shape), X, RSTD, BLOCK_SIZE, num_warps, casting_mode
        Y_121: "f16[1, 1, 4096][4096, 4096, 1]cuda:0" = Y_120.view(1, 1, 4096);  Y_120 = None
        
         # File: /app/low_bit_inference/model.py:206 in forward, code: query_states = self.q_proj(hidden_states).view(hidden_shape).transpose(1, 2)
        linear_210: "f16[1, 1, 4096][4096, 4096, 1]cuda:0" = torch._C._nn.linear(Y_121, l_self_modules_model_modules_layers_modules_30_modules_self_attn_modules_q_proj_parameters_weight_, None);  l_self_modules_model_modules_layers_modules_30_modules_self_attn_modules_q_proj_parameters_weight_ = None
        view_212: "f16[1, 1, 32, 128][4096, 4096, 128, 1]cuda:0" = linear_210.view((1, 1, -1, 128));  linear_210 = None
        query_states_30: "f16[1, 32, 1, 128][4096, 128, 4096, 1]cuda:0" = view_212.transpose(1, 2);  view_212 = None
        
         # File: /app/low_bit_inference/model.py:207 in forward, code: key_states = self.k_proj(hidden_states).view(hidden_shape).transpose(1, 2)
        linear_211: "f16[1, 1, 1024][1024, 1024, 1]cuda:0" = torch._C._nn.linear(Y_121, l_self_modules_model_modules_layers_modules_30_modules_self_attn_modules_k_proj_parameters_weight_, None);  l_self_modules_model_modules_layers_modules_30_modules_self_attn_modules_k_proj_parameters_weight_ = None
        view_213: "f16[1, 1, 8, 128][1024, 1024, 128, 1]cuda:0" = linear_211.view((1, 1, -1, 128));  linear_211 = None
        key_states_30: "f16[1, 8, 1, 128][1024, 128, 1024, 1]cuda:0" = view_213.transpose(1, 2);  view_213 = None
        
         # File: /app/low_bit_inference/model.py:208 in forward, code: value_states = self.v_proj(hidden_states).view(hidden_shape).transpose(1, 2)
        linear_212: "f16[1, 1, 1024][1024, 1024, 1]cuda:0" = torch._C._nn.linear(Y_121, l_self_modules_model_modules_layers_modules_30_modules_self_attn_modules_v_proj_parameters_weight_, None);  Y_121 = l_self_modules_model_modules_layers_modules_30_modules_self_attn_modules_v_proj_parameters_weight_ = None
        view_214: "f16[1, 1, 8, 128][1024, 1024, 128, 1]cuda:0" = linear_212.view((1, 1, -1, 128));  linear_212 = None
        value_states_30: "f16[1, 8, 1, 128][1024, 128, 1024, 1]cuda:0" = view_214.transpose(1, 2);  view_214 = None
        
         # File: /app/low_bit_inference/model.py:105 in apply_rotary_pos_emb, code: cos = cos.unsqueeze(unsqueeze_dim)
        cos_33: "f16[1, 1, 1, 128][128, 128, 128, 1]cuda:0" = cos_2.unsqueeze(1)
        
         # File: /app/low_bit_inference/model.py:106 in apply_rotary_pos_emb, code: sin = sin.unsqueeze(unsqueeze_dim)
        sin_33: "f16[1, 1, 1, 128][128, 128, 128, 1]cuda:0" = sin_2.unsqueeze(1)
        
         # File: /app/low_bit_inference/model.py:107 in apply_rotary_pos_emb, code: q_embed = (q * cos) + (rotate_half(q) * sin)
        mul_152: "f16[1, 32, 1, 128][4096, 128, 4096, 1]cuda:0" = query_states_30 * cos_33
        
         # File: /app/low_bit_inference/model.py:80 in rotate_half, code: x1 = x[..., : x.shape[-1] // 2]
        x1_60: "f16[1, 32, 1, 64][4096, 128, 4096, 1]cuda:0" = query_states_30[(Ellipsis, slice(None, 64, None))]
        
         # File: /app/low_bit_inference/model.py:81 in rotate_half, code: x2 = x[..., x.shape[-1] // 2 :]
        x2_60: "f16[1, 32, 1, 64][4096, 128, 4096, 1]cuda:0" = query_states_30[(Ellipsis, slice(64, None, None))];  query_states_30 = None
        
         # File: /app/low_bit_inference/model.py:82 in rotate_half, code: return torch.cat((-x2, x1), dim=-1)
        neg_60: "f16[1, 32, 1, 64][2048, 64, 64, 1]cuda:0" = -x2_60;  x2_60 = None
        cat_61: "f16[1, 32, 1, 128][4096, 128, 128, 1]cuda:0" = torch.cat((neg_60, x1_60), dim = -1);  neg_60 = x1_60 = None
        
         # File: /app/low_bit_inference/model.py:107 in apply_rotary_pos_emb, code: q_embed = (q * cos) + (rotate_half(q) * sin)
        mul_153: "f16[1, 32, 1, 128][4096, 128, 128, 1]cuda:0" = cat_61 * sin_33;  cat_61 = None
        q_embed_30: "f16[1, 32, 1, 128][4096, 128, 128, 1]cuda:0" = mul_152 + mul_153;  mul_152 = mul_153 = None
        
         # File: /app/low_bit_inference/model.py:108 in apply_rotary_pos_emb, code: k_embed = (k * cos) + (rotate_half(k) * sin)
        mul_154: "f16[1, 8, 1, 128][1024, 128, 1024, 1]cuda:0" = key_states_30 * cos_33;  cos_33 = None
        
         # File: /app/low_bit_inference/model.py:80 in rotate_half, code: x1 = x[..., : x.shape[-1] // 2]
        x1_61: "f16[1, 8, 1, 64][1024, 128, 1024, 1]cuda:0" = key_states_30[(Ellipsis, slice(None, 64, None))]
        
         # File: /app/low_bit_inference/model.py:81 in rotate_half, code: x2 = x[..., x.shape[-1] // 2 :]
        x2_61: "f16[1, 8, 1, 64][1024, 128, 1024, 1]cuda:0" = key_states_30[(Ellipsis, slice(64, None, None))];  key_states_30 = None
        
         # File: /app/low_bit_inference/model.py:82 in rotate_half, code: return torch.cat((-x2, x1), dim=-1)
        neg_61: "f16[1, 8, 1, 64][512, 64, 64, 1]cuda:0" = -x2_61;  x2_61 = None
        cat_62: "f16[1, 8, 1, 128][1024, 128, 128, 1]cuda:0" = torch.cat((neg_61, x1_61), dim = -1);  neg_61 = x1_61 = None
        
         # File: /app/low_bit_inference/model.py:108 in apply_rotary_pos_emb, code: k_embed = (k * cos) + (rotate_half(k) * sin)
        mul_155: "f16[1, 8, 1, 128][1024, 128, 128, 1]cuda:0" = cat_62 * sin_33;  cat_62 = sin_33 = None
        k_embed_30: "f16[1, 8, 1, 128][1024, 128, 128, 1]cuda:0" = mul_154 + mul_155;  mul_154 = mul_155 = None
        
         # File: /app/low_bit_inference/optims/cache_optim.py:156 in update, code: self.keys.index_copy_(2, cache_position, key_states)
        index_copy__60: "f16[1, 8, 2048, 128][2097152, 262144, 128, 1]cuda:0" = l_past_key_values_layers_30_keys.index_copy_(2, l_cache_position_, k_embed_30);  k_embed_30 = index_copy__60 = None
        
         # File: /app/low_bit_inference/optims/cache_optim.py:157 in update, code: self.values.index_copy_(2, cache_position, value_states)
        index_copy__61: "f16[1, 8, 2048, 128][2097152, 262144, 128, 1]cuda:0" = l_past_key_values_layers_30_values.index_copy_(2, l_cache_position_, value_states_30);  value_states_30 = index_copy__61 = None
        
         # File: /app/.venv/lib/python3.12/site-packages/transformers/integrations/sdpa_attention.py:14 in repeat_kv, code: hidden_states = hidden_states[:, :, None, :, :].expand(batch, num_key_value_heads, n_rep, slen, head_dim)
        getitem_216: "f16[1, 8, 1, 2048, 128][2097152, 262144, 262144, 128, 1]cuda:0" = l_past_key_values_layers_30_keys[(slice(None, None, None), slice(None, None, None), None, slice(None, None, None), slice(None, None, None))];  l_past_key_values_layers_30_keys = None
        hidden_states_120: "f16[1, 8, 4, 2048, 128][2097152, 262144, 0, 128, 1]cuda:0" = getitem_216.expand(1, 8, 4, 2048, 128);  getitem_216 = None
        
         # File: /app/.venv/lib/python3.12/site-packages/transformers/integrations/sdpa_attention.py:15 in repeat_kv, code: return hidden_states.reshape(batch, num_key_value_heads * n_rep, slen, head_dim)
        key_60: "f16[1, 32, 2048, 128][8388608, 262144, 128, 1]cuda:0" = hidden_states_120.reshape(1, 32, 2048, 128);  hidden_states_120 = None
        
         # File: /app/.venv/lib/python3.12/site-packages/transformers/integrations/sdpa_attention.py:14 in repeat_kv, code: hidden_states = hidden_states[:, :, None, :, :].expand(batch, num_key_value_heads, n_rep, slen, head_dim)
        getitem_217: "f16[1, 8, 1, 2048, 128][2097152, 262144, 262144, 128, 1]cuda:0" = l_past_key_values_layers_30_values[(slice(None, None, None), slice(None, None, None), None, slice(None, None, None), slice(None, None, None))];  l_past_key_values_layers_30_values = None
        hidden_states_121: "f16[1, 8, 4, 2048, 128][2097152, 262144, 0, 128, 1]cuda:0" = getitem_217.expand(1, 8, 4, 2048, 128);  getitem_217 = None
        
         # File: /app/.venv/lib/python3.12/site-packages/transformers/integrations/sdpa_attention.py:15 in repeat_kv, code: return hidden_states.reshape(batch, num_key_value_heads * n_rep, slen, head_dim)
        value_60: "f16[1, 32, 2048, 128][8388608, 262144, 128, 1]cuda:0" = hidden_states_121.reshape(1, 32, 2048, 128);  hidden_states_121 = None
        
         # File: /app/.venv/lib/python3.12/site-packages/transformers/integrations/sdpa_attention.py:35 in sdpa_attention_forward, code: causal_mask = causal_mask[:, :, :, : key.shape[-2]]
        causal_mask_30: "b8[1, 1, 1, 2048][2048, 2048, 2048, 1]cuda:0" = l_attention_mask_[(slice(None, None, None), slice(None, None, None), slice(None, None, None), slice(None, 2048, None))]
        
         # File: /app/.venv/lib/python3.12/site-packages/transformers/integrations/sdpa_attention.py:39 in sdpa_attention_forward, code: query = query.contiguous()
        query_30: "f16[1, 32, 1, 128][4096, 128, 128, 1]cuda:0" = q_embed_30.contiguous();  q_embed_30 = None
        
         # File: /app/.venv/lib/python3.12/site-packages/transformers/integrations/sdpa_attention.py:40 in sdpa_attention_forward, code: key = key.contiguous()
        key_61: "f16[1, 32, 2048, 128][8388608, 262144, 128, 1]cuda:0" = key_60.contiguous();  key_60 = None
        
         # File: /app/.venv/lib/python3.12/site-packages/transformers/integrations/sdpa_attention.py:41 in sdpa_attention_forward, code: value = value.contiguous()
        value_61: "f16[1, 32, 2048, 128][8388608, 262144, 128, 1]cuda:0" = value_60.contiguous();  value_60 = None
        
         # File: /app/.venv/lib/python3.12/site-packages/transformers/integrations/sdpa_attention.py:54 in sdpa_attention_forward, code: attn_output = torch.nn.functional.scaled_dot_product_attention(
        attn_output_120: "f16[1, 32, 1, 128][4096, 128, 4096, 1]cuda:0" = torch._C._nn.scaled_dot_product_attention(query_30, key_61, value_61, attn_mask = causal_mask_30, dropout_p = 0.0, scale = 0.08838834764831845, is_causal = False);  query_30 = key_61 = value_61 = causal_mask_30 = None
        
         # File: /app/.venv/lib/python3.12/site-packages/transformers/integrations/sdpa_attention.py:63 in sdpa_attention_forward, code: attn_output = attn_output.transpose(1, 2).contiguous()
        transpose_124: "f16[1, 1, 32, 128][4096, 4096, 128, 1]cuda:0" = attn_output_120.transpose(1, 2);  attn_output_120 = None
        attn_output_121: "f16[1, 1, 32, 128][4096, 4096, 128, 1]cuda:0" = transpose_124.contiguous();  transpose_124 = None
        
         # File: /app/low_bit_inference/model.py:233 in forward, code: attn_output = attn_output.reshape(*input_shape, -1).contiguous()
        reshape_92: "f16[1, 1, 4096][4096, 4096, 1]cuda:0" = attn_output_121.reshape(1, 1, -1);  attn_output_121 = None
        attn_output_122: "f16[1, 1, 4096][4096, 4096, 1]cuda:0" = reshape_92.contiguous();  reshape_92 = None
        
         # File: /app/low_bit_inference/model.py:234 in forward, code: attn_output = self.o_proj(attn_output)
        attn_output_123: "f16[1, 1, 4096][4096, 4096, 1]cuda:0" = torch._C._nn.linear(attn_output_122, l_self_modules_model_modules_layers_modules_30_modules_self_attn_modules_o_proj_parameters_weight_, None);  attn_output_122 = l_self_modules_model_modules_layers_modules_30_modules_self_attn_modules_o_proj_parameters_weight_ = None
        
         # File: /app/low_bit_inference/model.py:273 in forward, code: hidden_states = residual + hidden_states
        hidden_states_122: "f16[1, 1, 4096][4096, 4096, 1]cuda:0" = hidden_states_119 + attn_output_123;  hidden_states_119 = attn_output_123 = None
        
         # File: /app/low_bit_inference/optims/rms_norm_kernels/liger_rms_norm.py:666 in forward, code: return LigerRMSNormFunction.apply(
        function_ctx_61 = torch.autograd.function.FunctionCtx();  function_ctx_61 = None
        
         # File: /app/low_bit_inference/optims/rms_norm_kernels/liger_rms_norm.py:72 in maybe_to_contiguous, code: return x.contiguous() if isinstance(x, torch.Tensor) else x
        contiguous_277: "f16[1, 1, 4096][4096, 4096, 1]cuda:0" = hidden_states_122.contiguous()
        contiguous_278: "f16[4096][1]cuda:0" = l_self_modules_model_modules_layers_modules_30_modules_post_attention_layernorm_parameters_weight_.contiguous();  l_self_modules_model_modules_layers_modules_30_modules_post_attention_layernorm_parameters_weight_ = None
        
         # File: /app/low_bit_inference/optims/rms_norm_kernels/liger_rms_norm.py:443 in rms_norm_forward, code: X = X.view(-1, dim)
        X_61: "f16[1, 4096][4096, 1]cuda:0" = contiguous_277.view(-1, 4096);  contiguous_277 = None
        
         # File: /app/low_bit_inference/optims/rms_norm_kernels/liger_rms_norm.py:447 in rms_norm_forward, code: Y = torch.empty((n_rows, n_cols), dtype=X.dtype, device=X.device)
        Y_122: "f16[1, 4096][4096, 1]cuda:0" = torch.empty((1, 4096), dtype = torch.float16, device = device(type='cuda', index=0))
        
         # File: /app/low_bit_inference/optims/rms_norm_kernels/liger_rms_norm.py:451 in rms_norm_forward, code: RSTD = torch.empty(n_rows, dtype=rstd_dtype, device=X.device)
        RSTD_61: "f32[1][1]cuda:0" = torch.empty(1, dtype = torch.float32, device = device(type='cuda', index=0))
        
         # File: /app/low_bit_inference/optims/rms_norm_kernels/liger_rms_norm.py:461 in rms_norm_forward, code: _rms_norm_forward_kernel[(n_rows,)](
        triton_kernel_wrapper_mutation_61 = torch.ops.higher_order.triton_kernel_wrapper_mutation(kernel_idx = 387, constant_args_idx = 386, grid = [(1, 1, 1)], tma_descriptor_metadata = {}, kwargs = {'Y_ptr': Y_122, 'X_ptr': X_61, 'W_ptr': contiguous_278, 'RSTD_ptr': RSTD_61});  X_61 = contiguous_278 = RSTD_61 = triton_kernel_wrapper_mutation_61 = None
        
         # File: /app/low_bit_inference/optims/rms_norm_kernels/liger_rms_norm.py:499 in rms_norm_forward, code: return Y.view(*shape), X, RSTD, BLOCK_SIZE, num_warps, casting_mode
        Y_123: "f16[1, 1, 4096][4096, 4096, 1]cuda:0" = Y_122.view(1, 1, 4096);  Y_122 = None
        
         # File: /app/low_bit_inference/model.py:124 in forward, code: down_proj = self.down_proj(self.act_fn(self.gate_proj(x)) * self.up_proj(x))
        linear_214: "f16[1, 1, 14336][14336, 14336, 1]cuda:0" = torch._C._nn.linear(Y_123, l_self_modules_model_modules_layers_modules_30_modules_mlp_modules_gate_proj_parameters_weight_, None);  l_self_modules_model_modules_layers_modules_30_modules_mlp_modules_gate_proj_parameters_weight_ = None
        silu_30: "f16[1, 1, 14336][14336, 14336, 1]cuda:0" = torch.nn.functional.silu(linear_214, inplace = False);  linear_214 = None
        linear_215: "f16[1, 1, 14336][14336, 14336, 1]cuda:0" = torch._C._nn.linear(Y_123, l_self_modules_model_modules_layers_modules_30_modules_mlp_modules_up_proj_parameters_weight_, None);  Y_123 = l_self_modules_model_modules_layers_modules_30_modules_mlp_modules_up_proj_parameters_weight_ = None
        mul_156: "f16[1, 1, 14336][14336, 14336, 1]cuda:0" = silu_30 * linear_215;  silu_30 = linear_215 = None
        down_proj_30: "f16[1, 1, 4096][4096, 4096, 1]cuda:0" = torch._C._nn.linear(mul_156, l_self_modules_model_modules_layers_modules_30_modules_mlp_modules_down_proj_parameters_weight_, None);  mul_156 = l_self_modules_model_modules_layers_modules_30_modules_mlp_modules_down_proj_parameters_weight_ = None
        
         # File: /app/low_bit_inference/model.py:279 in forward, code: hidden_states = residual + hidden_states
        hidden_states_123: "f16[1, 1, 4096][4096, 4096, 1]cuda:0" = hidden_states_122 + down_proj_30;  hidden_states_122 = down_proj_30 = None
        
         # File: /app/low_bit_inference/optims/rms_norm_kernels/liger_rms_norm.py:666 in forward, code: return LigerRMSNormFunction.apply(
        function_ctx_62 = torch.autograd.function.FunctionCtx();  function_ctx_62 = None
        
         # File: /app/low_bit_inference/optims/rms_norm_kernels/liger_rms_norm.py:72 in maybe_to_contiguous, code: return x.contiguous() if isinstance(x, torch.Tensor) else x
        contiguous_279: "f16[1, 1, 4096][4096, 4096, 1]cuda:0" = hidden_states_123.contiguous()
        contiguous_280: "f16[4096][1]cuda:0" = l_self_modules_model_modules_layers_modules_31_modules_input_layernorm_parameters_weight_.contiguous();  l_self_modules_model_modules_layers_modules_31_modules_input_layernorm_parameters_weight_ = None
        
         # File: /app/low_bit_inference/optims/rms_norm_kernels/liger_rms_norm.py:443 in rms_norm_forward, code: X = X.view(-1, dim)
        X_62: "f16[1, 4096][4096, 1]cuda:0" = contiguous_279.view(-1, 4096);  contiguous_279 = None
        
         # File: /app/low_bit_inference/optims/rms_norm_kernels/liger_rms_norm.py:447 in rms_norm_forward, code: Y = torch.empty((n_rows, n_cols), dtype=X.dtype, device=X.device)
        Y_124: "f16[1, 4096][4096, 1]cuda:0" = torch.empty((1, 4096), dtype = torch.float16, device = device(type='cuda', index=0))
        
         # File: /app/low_bit_inference/optims/rms_norm_kernels/liger_rms_norm.py:451 in rms_norm_forward, code: RSTD = torch.empty(n_rows, dtype=rstd_dtype, device=X.device)
        RSTD_62: "f32[1][1]cuda:0" = torch.empty(1, dtype = torch.float32, device = device(type='cuda', index=0))
        
         # File: /app/low_bit_inference/optims/rms_norm_kernels/liger_rms_norm.py:461 in rms_norm_forward, code: _rms_norm_forward_kernel[(n_rows,)](
        triton_kernel_wrapper_mutation_62 = torch.ops.higher_order.triton_kernel_wrapper_mutation(kernel_idx = 388, constant_args_idx = 387, grid = [(1, 1, 1)], tma_descriptor_metadata = {}, kwargs = {'Y_ptr': Y_124, 'X_ptr': X_62, 'W_ptr': contiguous_280, 'RSTD_ptr': RSTD_62});  X_62 = contiguous_280 = RSTD_62 = triton_kernel_wrapper_mutation_62 = None
        
         # File: /app/low_bit_inference/optims/rms_norm_kernels/liger_rms_norm.py:499 in rms_norm_forward, code: return Y.view(*shape), X, RSTD, BLOCK_SIZE, num_warps, casting_mode
        Y_125: "f16[1, 1, 4096][4096, 4096, 1]cuda:0" = Y_124.view(1, 1, 4096);  Y_124 = None
        
         # File: /app/low_bit_inference/model.py:206 in forward, code: query_states = self.q_proj(hidden_states).view(hidden_shape).transpose(1, 2)
        linear_217: "f16[1, 1, 4096][4096, 4096, 1]cuda:0" = torch._C._nn.linear(Y_125, l_self_modules_model_modules_layers_modules_31_modules_self_attn_modules_q_proj_parameters_weight_, None);  l_self_modules_model_modules_layers_modules_31_modules_self_attn_modules_q_proj_parameters_weight_ = None
        view_219: "f16[1, 1, 32, 128][4096, 4096, 128, 1]cuda:0" = linear_217.view((1, 1, -1, 128));  linear_217 = None
        query_states_31: "f16[1, 32, 1, 128][4096, 128, 4096, 1]cuda:0" = view_219.transpose(1, 2);  view_219 = None
        
         # File: /app/low_bit_inference/model.py:207 in forward, code: key_states = self.k_proj(hidden_states).view(hidden_shape).transpose(1, 2)
        linear_218: "f16[1, 1, 1024][1024, 1024, 1]cuda:0" = torch._C._nn.linear(Y_125, l_self_modules_model_modules_layers_modules_31_modules_self_attn_modules_k_proj_parameters_weight_, None);  l_self_modules_model_modules_layers_modules_31_modules_self_attn_modules_k_proj_parameters_weight_ = None
        view_220: "f16[1, 1, 8, 128][1024, 1024, 128, 1]cuda:0" = linear_218.view((1, 1, -1, 128));  linear_218 = None
        key_states_31: "f16[1, 8, 1, 128][1024, 128, 1024, 1]cuda:0" = view_220.transpose(1, 2);  view_220 = None
        
         # File: /app/low_bit_inference/model.py:208 in forward, code: value_states = self.v_proj(hidden_states).view(hidden_shape).transpose(1, 2)
        linear_219: "f16[1, 1, 1024][1024, 1024, 1]cuda:0" = torch._C._nn.linear(Y_125, l_self_modules_model_modules_layers_modules_31_modules_self_attn_modules_v_proj_parameters_weight_, None);  Y_125 = l_self_modules_model_modules_layers_modules_31_modules_self_attn_modules_v_proj_parameters_weight_ = None
        view_221: "f16[1, 1, 8, 128][1024, 1024, 128, 1]cuda:0" = linear_219.view((1, 1, -1, 128));  linear_219 = None
        value_states_31: "f16[1, 8, 1, 128][1024, 128, 1024, 1]cuda:0" = view_221.transpose(1, 2);  view_221 = None
        
         # File: /app/low_bit_inference/model.py:105 in apply_rotary_pos_emb, code: cos = cos.unsqueeze(unsqueeze_dim)
        cos_34: "f16[1, 1, 1, 128][128, 128, 128, 1]cuda:0" = cos_2.unsqueeze(1);  cos_2 = None
        
         # File: /app/low_bit_inference/model.py:106 in apply_rotary_pos_emb, code: sin = sin.unsqueeze(unsqueeze_dim)
        sin_34: "f16[1, 1, 1, 128][128, 128, 128, 1]cuda:0" = sin_2.unsqueeze(1);  sin_2 = None
        
         # File: /app/low_bit_inference/model.py:107 in apply_rotary_pos_emb, code: q_embed = (q * cos) + (rotate_half(q) * sin)
        mul_157: "f16[1, 32, 1, 128][4096, 128, 4096, 1]cuda:0" = query_states_31 * cos_34
        
         # File: /app/low_bit_inference/model.py:80 in rotate_half, code: x1 = x[..., : x.shape[-1] // 2]
        x1_62: "f16[1, 32, 1, 64][4096, 128, 4096, 1]cuda:0" = query_states_31[(Ellipsis, slice(None, 64, None))]
        
         # File: /app/low_bit_inference/model.py:81 in rotate_half, code: x2 = x[..., x.shape[-1] // 2 :]
        x2_62: "f16[1, 32, 1, 64][4096, 128, 4096, 1]cuda:0" = query_states_31[(Ellipsis, slice(64, None, None))];  query_states_31 = None
        
         # File: /app/low_bit_inference/model.py:82 in rotate_half, code: return torch.cat((-x2, x1), dim=-1)
        neg_62: "f16[1, 32, 1, 64][2048, 64, 64, 1]cuda:0" = -x2_62;  x2_62 = None
        cat_63: "f16[1, 32, 1, 128][4096, 128, 128, 1]cuda:0" = torch.cat((neg_62, x1_62), dim = -1);  neg_62 = x1_62 = None
        
         # File: /app/low_bit_inference/model.py:107 in apply_rotary_pos_emb, code: q_embed = (q * cos) + (rotate_half(q) * sin)
        mul_158: "f16[1, 32, 1, 128][4096, 128, 128, 1]cuda:0" = cat_63 * sin_34;  cat_63 = None
        q_embed_31: "f16[1, 32, 1, 128][4096, 128, 128, 1]cuda:0" = mul_157 + mul_158;  mul_157 = mul_158 = None
        
         # File: /app/low_bit_inference/model.py:108 in apply_rotary_pos_emb, code: k_embed = (k * cos) + (rotate_half(k) * sin)
        mul_159: "f16[1, 8, 1, 128][1024, 128, 1024, 1]cuda:0" = key_states_31 * cos_34;  cos_34 = None
        
         # File: /app/low_bit_inference/model.py:80 in rotate_half, code: x1 = x[..., : x.shape[-1] // 2]
        x1_63: "f16[1, 8, 1, 64][1024, 128, 1024, 1]cuda:0" = key_states_31[(Ellipsis, slice(None, 64, None))]
        
         # File: /app/low_bit_inference/model.py:81 in rotate_half, code: x2 = x[..., x.shape[-1] // 2 :]
        x2_63: "f16[1, 8, 1, 64][1024, 128, 1024, 1]cuda:0" = key_states_31[(Ellipsis, slice(64, None, None))];  key_states_31 = None
        
         # File: /app/low_bit_inference/model.py:82 in rotate_half, code: return torch.cat((-x2, x1), dim=-1)
        neg_63: "f16[1, 8, 1, 64][512, 64, 64, 1]cuda:0" = -x2_63;  x2_63 = None
        cat_64: "f16[1, 8, 1, 128][1024, 128, 128, 1]cuda:0" = torch.cat((neg_63, x1_63), dim = -1);  neg_63 = x1_63 = None
        
         # File: /app/low_bit_inference/model.py:108 in apply_rotary_pos_emb, code: k_embed = (k * cos) + (rotate_half(k) * sin)
        mul_160: "f16[1, 8, 1, 128][1024, 128, 128, 1]cuda:0" = cat_64 * sin_34;  cat_64 = sin_34 = None
        k_embed_31: "f16[1, 8, 1, 128][1024, 128, 128, 1]cuda:0" = mul_159 + mul_160;  mul_159 = mul_160 = None
        
         # File: /app/low_bit_inference/optims/cache_optim.py:156 in update, code: self.keys.index_copy_(2, cache_position, key_states)
        index_copy__62: "f16[1, 8, 2048, 128][2097152, 262144, 128, 1]cuda:0" = l_past_key_values_layers_31_keys.index_copy_(2, l_cache_position_, k_embed_31);  k_embed_31 = index_copy__62 = None
        
         # File: /app/low_bit_inference/optims/cache_optim.py:157 in update, code: self.values.index_copy_(2, cache_position, value_states)
        index_copy__63: "f16[1, 8, 2048, 128][2097152, 262144, 128, 1]cuda:0" = l_past_key_values_layers_31_values.index_copy_(2, l_cache_position_, value_states_31);  l_cache_position_ = value_states_31 = index_copy__63 = None
        
         # File: /app/.venv/lib/python3.12/site-packages/transformers/integrations/sdpa_attention.py:14 in repeat_kv, code: hidden_states = hidden_states[:, :, None, :, :].expand(batch, num_key_value_heads, n_rep, slen, head_dim)
        getitem_223: "f16[1, 8, 1, 2048, 128][2097152, 262144, 262144, 128, 1]cuda:0" = l_past_key_values_layers_31_keys[(slice(None, None, None), slice(None, None, None), None, slice(None, None, None), slice(None, None, None))];  l_past_key_values_layers_31_keys = None
        hidden_states_124: "f16[1, 8, 4, 2048, 128][2097152, 262144, 0, 128, 1]cuda:0" = getitem_223.expand(1, 8, 4, 2048, 128);  getitem_223 = None
        
         # File: /app/.venv/lib/python3.12/site-packages/transformers/integrations/sdpa_attention.py:15 in repeat_kv, code: return hidden_states.reshape(batch, num_key_value_heads * n_rep, slen, head_dim)
        key_62: "f16[1, 32, 2048, 128][8388608, 262144, 128, 1]cuda:0" = hidden_states_124.reshape(1, 32, 2048, 128);  hidden_states_124 = None
        
         # File: /app/.venv/lib/python3.12/site-packages/transformers/integrations/sdpa_attention.py:14 in repeat_kv, code: hidden_states = hidden_states[:, :, None, :, :].expand(batch, num_key_value_heads, n_rep, slen, head_dim)
        getitem_224: "f16[1, 8, 1, 2048, 128][2097152, 262144, 262144, 128, 1]cuda:0" = l_past_key_values_layers_31_values[(slice(None, None, None), slice(None, None, None), None, slice(None, None, None), slice(None, None, None))];  l_past_key_values_layers_31_values = None
        hidden_states_125: "f16[1, 8, 4, 2048, 128][2097152, 262144, 0, 128, 1]cuda:0" = getitem_224.expand(1, 8, 4, 2048, 128);  getitem_224 = None
        
         # File: /app/.venv/lib/python3.12/site-packages/transformers/integrations/sdpa_attention.py:15 in repeat_kv, code: return hidden_states.reshape(batch, num_key_value_heads * n_rep, slen, head_dim)
        value_62: "f16[1, 32, 2048, 128][8388608, 262144, 128, 1]cuda:0" = hidden_states_125.reshape(1, 32, 2048, 128);  hidden_states_125 = None
        
         # File: /app/.venv/lib/python3.12/site-packages/transformers/integrations/sdpa_attention.py:35 in sdpa_attention_forward, code: causal_mask = causal_mask[:, :, :, : key.shape[-2]]
        causal_mask_31: "b8[1, 1, 1, 2048][2048, 2048, 2048, 1]cuda:0" = l_attention_mask_[(slice(None, None, None), slice(None, None, None), slice(None, None, None), slice(None, 2048, None))];  l_attention_mask_ = None
        
         # File: /app/.venv/lib/python3.12/site-packages/transformers/integrations/sdpa_attention.py:39 in sdpa_attention_forward, code: query = query.contiguous()
        query_31: "f16[1, 32, 1, 128][4096, 128, 128, 1]cuda:0" = q_embed_31.contiguous();  q_embed_31 = None
        
         # File: /app/.venv/lib/python3.12/site-packages/transformers/integrations/sdpa_attention.py:40 in sdpa_attention_forward, code: key = key.contiguous()
        key_63: "f16[1, 32, 2048, 128][8388608, 262144, 128, 1]cuda:0" = key_62.contiguous();  key_62 = None
        
         # File: /app/.venv/lib/python3.12/site-packages/transformers/integrations/sdpa_attention.py:41 in sdpa_attention_forward, code: value = value.contiguous()
        value_63: "f16[1, 32, 2048, 128][8388608, 262144, 128, 1]cuda:0" = value_62.contiguous();  value_62 = None
        
         # File: /app/.venv/lib/python3.12/site-packages/transformers/integrations/sdpa_attention.py:54 in sdpa_attention_forward, code: attn_output = torch.nn.functional.scaled_dot_product_attention(
        attn_output_124: "f16[1, 32, 1, 128][4096, 128, 4096, 1]cuda:0" = torch._C._nn.scaled_dot_product_attention(query_31, key_63, value_63, attn_mask = causal_mask_31, dropout_p = 0.0, scale = 0.08838834764831845, is_causal = False);  query_31 = key_63 = value_63 = causal_mask_31 = None
        
         # File: /app/.venv/lib/python3.12/site-packages/transformers/integrations/sdpa_attention.py:63 in sdpa_attention_forward, code: attn_output = attn_output.transpose(1, 2).contiguous()
        transpose_128: "f16[1, 1, 32, 128][4096, 4096, 128, 1]cuda:0" = attn_output_124.transpose(1, 2);  attn_output_124 = None
        attn_output_125: "f16[1, 1, 32, 128][4096, 4096, 128, 1]cuda:0" = transpose_128.contiguous();  transpose_128 = None
        
         # File: /app/low_bit_inference/model.py:233 in forward, code: attn_output = attn_output.reshape(*input_shape, -1).contiguous()
        reshape_95: "f16[1, 1, 4096][4096, 4096, 1]cuda:0" = attn_output_125.reshape(1, 1, -1);  attn_output_125 = None
        attn_output_126: "f16[1, 1, 4096][4096, 4096, 1]cuda:0" = reshape_95.contiguous();  reshape_95 = None
        
         # File: /app/low_bit_inference/model.py:234 in forward, code: attn_output = self.o_proj(attn_output)
        attn_output_127: "f16[1, 1, 4096][4096, 4096, 1]cuda:0" = torch._C._nn.linear(attn_output_126, l_self_modules_model_modules_layers_modules_31_modules_self_attn_modules_o_proj_parameters_weight_, None);  attn_output_126 = l_self_modules_model_modules_layers_modules_31_modules_self_attn_modules_o_proj_parameters_weight_ = None
        
         # File: /app/low_bit_inference/model.py:273 in forward, code: hidden_states = residual + hidden_states
        hidden_states_126: "f16[1, 1, 4096][4096, 4096, 1]cuda:0" = hidden_states_123 + attn_output_127;  hidden_states_123 = attn_output_127 = None
        
         # File: /app/low_bit_inference/optims/rms_norm_kernels/liger_rms_norm.py:666 in forward, code: return LigerRMSNormFunction.apply(
        function_ctx_63 = torch.autograd.function.FunctionCtx();  function_ctx_63 = None
        
         # File: /app/low_bit_inference/optims/rms_norm_kernels/liger_rms_norm.py:72 in maybe_to_contiguous, code: return x.contiguous() if isinstance(x, torch.Tensor) else x
        contiguous_286: "f16[1, 1, 4096][4096, 4096, 1]cuda:0" = hidden_states_126.contiguous()
        contiguous_287: "f16[4096][1]cuda:0" = l_self_modules_model_modules_layers_modules_31_modules_post_attention_layernorm_parameters_weight_.contiguous();  l_self_modules_model_modules_layers_modules_31_modules_post_attention_layernorm_parameters_weight_ = None
        
         # File: /app/low_bit_inference/optims/rms_norm_kernels/liger_rms_norm.py:443 in rms_norm_forward, code: X = X.view(-1, dim)
        X_63: "f16[1, 4096][4096, 1]cuda:0" = contiguous_286.view(-1, 4096);  contiguous_286 = None
        
         # File: /app/low_bit_inference/optims/rms_norm_kernels/liger_rms_norm.py:447 in rms_norm_forward, code: Y = torch.empty((n_rows, n_cols), dtype=X.dtype, device=X.device)
        Y_126: "f16[1, 4096][4096, 1]cuda:0" = torch.empty((1, 4096), dtype = torch.float16, device = device(type='cuda', index=0))
        
         # File: /app/low_bit_inference/optims/rms_norm_kernels/liger_rms_norm.py:451 in rms_norm_forward, code: RSTD = torch.empty(n_rows, dtype=rstd_dtype, device=X.device)
        RSTD_63: "f32[1][1]cuda:0" = torch.empty(1, dtype = torch.float32, device = device(type='cuda', index=0))
        
         # File: /app/low_bit_inference/optims/rms_norm_kernels/liger_rms_norm.py:461 in rms_norm_forward, code: _rms_norm_forward_kernel[(n_rows,)](
        triton_kernel_wrapper_mutation_63 = torch.ops.higher_order.triton_kernel_wrapper_mutation(kernel_idx = 389, constant_args_idx = 388, grid = [(1, 1, 1)], tma_descriptor_metadata = {}, kwargs = {'Y_ptr': Y_126, 'X_ptr': X_63, 'W_ptr': contiguous_287, 'RSTD_ptr': RSTD_63});  X_63 = contiguous_287 = RSTD_63 = triton_kernel_wrapper_mutation_63 = None
        
         # File: /app/low_bit_inference/optims/rms_norm_kernels/liger_rms_norm.py:499 in rms_norm_forward, code: return Y.view(*shape), X, RSTD, BLOCK_SIZE, num_warps, casting_mode
        Y_127: "f16[1, 1, 4096][4096, 4096, 1]cuda:0" = Y_126.view(1, 1, 4096);  Y_126 = None
        
         # File: /app/low_bit_inference/model.py:124 in forward, code: down_proj = self.down_proj(self.act_fn(self.gate_proj(x)) * self.up_proj(x))
        linear_221: "f16[1, 1, 14336][14336, 14336, 1]cuda:0" = torch._C._nn.linear(Y_127, l_self_modules_model_modules_layers_modules_31_modules_mlp_modules_gate_proj_parameters_weight_, None);  l_self_modules_model_modules_layers_modules_31_modules_mlp_modules_gate_proj_parameters_weight_ = None
        silu_31: "f16[1, 1, 14336][14336, 14336, 1]cuda:0" = torch.nn.functional.silu(linear_221, inplace = False);  linear_221 = None
        linear_222: "f16[1, 1, 14336][14336, 14336, 1]cuda:0" = torch._C._nn.linear(Y_127, l_self_modules_model_modules_layers_modules_31_modules_mlp_modules_up_proj_parameters_weight_, None);  Y_127 = l_self_modules_model_modules_layers_modules_31_modules_mlp_modules_up_proj_parameters_weight_ = None
        mul_161: "f16[1, 1, 14336][14336, 14336, 1]cuda:0" = silu_31 * linear_222;  silu_31 = linear_222 = None
        down_proj_31: "f16[1, 1, 4096][4096, 4096, 1]cuda:0" = torch._C._nn.linear(mul_161, l_self_modules_model_modules_layers_modules_31_modules_mlp_modules_down_proj_parameters_weight_, None);  mul_161 = l_self_modules_model_modules_layers_modules_31_modules_mlp_modules_down_proj_parameters_weight_ = None
        
         # File: /app/low_bit_inference/model.py:279 in forward, code: hidden_states = residual + hidden_states
        hidden_states_127: "f16[1, 1, 4096][4096, 4096, 1]cuda:0" = hidden_states_126 + down_proj_31;  hidden_states_126 = down_proj_31 = None
        
         # File: /app/low_bit_inference/optims/rms_norm_kernels/liger_rms_norm.py:666 in forward, code: return LigerRMSNormFunction.apply(
        function_ctx_64 = torch.autograd.function.FunctionCtx();  function_ctx_64 = None
        
         # File: /app/low_bit_inference/optims/rms_norm_kernels/liger_rms_norm.py:72 in maybe_to_contiguous, code: return x.contiguous() if isinstance(x, torch.Tensor) else x
        contiguous_288: "f16[1, 1, 4096][4096, 4096, 1]cuda:0" = hidden_states_127.contiguous();  hidden_states_127 = None
        contiguous_289: "f16[4096][1]cuda:0" = l_self_modules_model_modules_norm_parameters_weight_.contiguous();  l_self_modules_model_modules_norm_parameters_weight_ = None
        
         # File: /app/low_bit_inference/optims/rms_norm_kernels/liger_rms_norm.py:443 in rms_norm_forward, code: X = X.view(-1, dim)
        X_64: "f16[1, 4096][4096, 1]cuda:0" = contiguous_288.view(-1, 4096);  contiguous_288 = None
        
         # File: /app/low_bit_inference/optims/rms_norm_kernels/liger_rms_norm.py:447 in rms_norm_forward, code: Y = torch.empty((n_rows, n_cols), dtype=X.dtype, device=X.device)
        Y_128: "f16[1, 4096][4096, 1]cuda:0" = torch.empty((1, 4096), dtype = torch.float16, device = device(type='cuda', index=0))
        
         # File: /app/low_bit_inference/optims/rms_norm_kernels/liger_rms_norm.py:451 in rms_norm_forward, code: RSTD = torch.empty(n_rows, dtype=rstd_dtype, device=X.device)
        RSTD_64: "f32[1][1]cuda:0" = torch.empty(1, dtype = torch.float32, device = device(type='cuda', index=0))
        
         # File: /app/low_bit_inference/optims/rms_norm_kernels/liger_rms_norm.py:461 in rms_norm_forward, code: _rms_norm_forward_kernel[(n_rows,)](
        triton_kernel_wrapper_mutation_64 = torch.ops.higher_order.triton_kernel_wrapper_mutation(kernel_idx = 390, constant_args_idx = 389, grid = [(1, 1, 1)], tma_descriptor_metadata = {}, kwargs = {'Y_ptr': Y_128, 'X_ptr': X_64, 'W_ptr': contiguous_289, 'RSTD_ptr': RSTD_64});  X_64 = contiguous_289 = RSTD_64 = triton_kernel_wrapper_mutation_64 = None
        
         # File: /app/low_bit_inference/optims/rms_norm_kernels/liger_rms_norm.py:499 in rms_norm_forward, code: return Y.view(*shape), X, RSTD, BLOCK_SIZE, num_warps, casting_mode
        Y_129: "f16[1, 1, 4096][4096, 4096, 1]cuda:0" = Y_128.view(1, 1, 4096);  Y_128 = None
        
         # File: /app/low_bit_inference/model.py:451 in forward, code: logits = self.lm_head(hidden_states[:, slice_indices, :])
        getitem_226: "f16[1, 1, 4096][4096, 4096, 1]cuda:0" = Y_129[(slice(None, None, None), slice(-1, None, None), slice(None, None, None))];  Y_129 = None
        logits: "f16[1, 1, 128256][128256, 128256, 1]cuda:0" = torch._C._nn.linear(getitem_226, l_self_modules_lm_head_parameters_weight_, None);  getitem_226 = l_self_modules_lm_head_parameters_weight_ = None
        return (logits,)
        