class <lambda>(torch.nn.Module):
    def forward(self, arg0_1: "Sym(s0)", arg1_1: "i64[1, s0][s0, 1]cuda:0", arg2_1: "f16[128256, 4096][4096, 1]cuda:0", arg3_1: "Sym(s1)", arg4_1: "i64[s1][1]cuda:0", arg5_1: "Sym(s0)", arg6_1: "i64[1, s0][s0, 1]cuda:0", arg7_1: "Sym(s4)", arg8_1: "b8[1, 1, s0, s4][s0*s4, s0*s4, s4, 1]cuda:0", arg9_1: "f32[64][1]cuda:0", arg10_1: "f16[4096][1]cuda:0", arg11_1: "f16[4096, 4096][4096, 1]cuda:0", arg12_1: "f16[1024, 4096][4096, 1]cuda:0", arg13_1: "f16[1024, 4096][4096, 1]cuda:0", arg14_1: "f16[1, 8, s4, 128][1024*s4, 128*s4, 128, 1]cuda:0", arg15_1: "f16[1, 8, s4, 128][1024*s4, 128*s4, 128, 1]cuda:0", arg16_1: "f16[4096, 4096][4096, 1]cuda:0", arg17_1: "f16[4096][1]cuda:0", arg18_1: "f16[14336, 4096][4096, 1]cuda:0", arg19_1: "f16[14336, 4096][4096, 1]cuda:0", arg20_1: "f16[4096, 14336][14336, 1]cuda:0", arg21_1: "f16[4096][1]cuda:0", arg22_1: "f16[4096, 4096][4096, 1]cuda:0", arg23_1: "f16[1024, 4096][4096, 1]cuda:0", arg24_1: "f16[1024, 4096][4096, 1]cuda:0", arg25_1: "f16[1, 8, s4, 128][1024*s4, 128*s4, 128, 1]cuda:0", arg26_1: "f16[1, 8, s4, 128][1024*s4, 128*s4, 128, 1]cuda:0", arg27_1: "f16[4096, 4096][4096, 1]cuda:0", arg28_1: "f16[4096][1]cuda:0", arg29_1: "f16[14336, 4096][4096, 1]cuda:0", arg30_1: "f16[14336, 4096][4096, 1]cuda:0", arg31_1: "f16[4096, 14336][14336, 1]cuda:0", arg32_1: "f16[4096][1]cuda:0", arg33_1: "f16[4096, 4096][4096, 1]cuda:0", arg34_1: "f16[1024, 4096][4096, 1]cuda:0", arg35_1: "f16[1024, 4096][4096, 1]cuda:0", arg36_1: "f16[1, 8, s4, 128][1024*s4, 128*s4, 128, 1]cuda:0", arg37_1: "f16[1, 8, s4, 128][1024*s4, 128*s4, 128, 1]cuda:0", arg38_1: "f16[4096, 4096][4096, 1]cuda:0", arg39_1: "f16[4096][1]cuda:0", arg40_1: "f16[14336, 4096][4096, 1]cuda:0", arg41_1: "f16[14336, 4096][4096, 1]cuda:0", arg42_1: "f16[4096, 14336][14336, 1]cuda:0", arg43_1: "f16[4096][1]cuda:0", arg44_1: "f16[4096, 4096][4096, 1]cuda:0", arg45_1: "f16[1024, 4096][4096, 1]cuda:0", arg46_1: "f16[1024, 4096][4096, 1]cuda:0", arg47_1: "f16[1, 8, s4, 128][1024*s4, 128*s4, 128, 1]cuda:0", arg48_1: "f16[1, 8, s4, 128][1024*s4, 128*s4, 128, 1]cuda:0", arg49_1: "f16[4096, 4096][4096, 1]cuda:0", arg50_1: "f16[4096][1]cuda:0", arg51_1: "f16[14336, 4096][4096, 1]cuda:0", arg52_1: "f16[14336, 4096][4096, 1]cuda:0", arg53_1: "f16[4096, 14336][14336, 1]cuda:0", arg54_1: "f16[4096][1]cuda:0", arg55_1: "f16[4096, 4096][4096, 1]cuda:0", arg56_1: "f16[1024, 4096][4096, 1]cuda:0", arg57_1: "f16[1024, 4096][4096, 1]cuda:0", arg58_1: "f16[1, 8, s4, 128][1024*s4, 128*s4, 128, 1]cuda:0", arg59_1: "f16[1, 8, s4, 128][1024*s4, 128*s4, 128, 1]cuda:0", arg60_1: "f16[4096, 4096][4096, 1]cuda:0", arg61_1: "f16[4096][1]cuda:0", arg62_1: "f16[14336, 4096][4096, 1]cuda:0", arg63_1: "f16[14336, 4096][4096, 1]cuda:0", arg64_1: "f16[4096, 14336][14336, 1]cuda:0", arg65_1: "f16[4096][1]cuda:0", arg66_1: "f16[4096, 4096][4096, 1]cuda:0", arg67_1: "f16[1024, 4096][4096, 1]cuda:0", arg68_1: "f16[1024, 4096][4096, 1]cuda:0", arg69_1: "f16[1, 8, s4, 128][1024*s4, 128*s4, 128, 1]cuda:0", arg70_1: "f16[1, 8, s4, 128][1024*s4, 128*s4, 128, 1]cuda:0", arg71_1: "f16[4096, 4096][4096, 1]cuda:0", arg72_1: "f16[4096][1]cuda:0", arg73_1: "f16[14336, 4096][4096, 1]cuda:0", arg74_1: "f16[14336, 4096][4096, 1]cuda:0", arg75_1: "f16[4096, 14336][14336, 1]cuda:0", arg76_1: "f16[4096][1]cuda:0", arg77_1: "f16[4096, 4096][4096, 1]cuda:0", arg78_1: "f16[1024, 4096][4096, 1]cuda:0", arg79_1: "f16[1024, 4096][4096, 1]cuda:0", arg80_1: "f16[1, 8, s4, 128][1024*s4, 128*s4, 128, 1]cuda:0", arg81_1: "f16[1, 8, s4, 128][1024*s4, 128*s4, 128, 1]cuda:0", arg82_1: "f16[4096, 4096][4096, 1]cuda:0", arg83_1: "f16[4096][1]cuda:0", arg84_1: "f16[14336, 4096][4096, 1]cuda:0", arg85_1: "f16[14336, 4096][4096, 1]cuda:0", arg86_1: "f16[4096, 14336][14336, 1]cuda:0", arg87_1: "f16[4096][1]cuda:0", arg88_1: "f16[4096, 4096][4096, 1]cuda:0", arg89_1: "f16[1024, 4096][4096, 1]cuda:0", arg90_1: "f16[1024, 4096][4096, 1]cuda:0", arg91_1: "f16[1, 8, s4, 128][1024*s4, 128*s4, 128, 1]cuda:0", arg92_1: "f16[1, 8, s4, 128][1024*s4, 128*s4, 128, 1]cuda:0", arg93_1: "f16[4096, 4096][4096, 1]cuda:0", arg94_1: "f16[4096][1]cuda:0", arg95_1: "f16[14336, 4096][4096, 1]cuda:0", arg96_1: "f16[14336, 4096][4096, 1]cuda:0", arg97_1: "f16[4096, 14336][14336, 1]cuda:0", arg98_1: "f16[4096][1]cuda:0", arg99_1: "f16[4096, 4096][4096, 1]cuda:0", arg100_1: "f16[1024, 4096][4096, 1]cuda:0", arg101_1: "f16[1024, 4096][4096, 1]cuda:0", arg102_1: "f16[1, 8, s4, 128][1024*s4, 128*s4, 128, 1]cuda:0", arg103_1: "f16[1, 8, s4, 128][1024*s4, 128*s4, 128, 1]cuda:0", arg104_1: "f16[4096, 4096][4096, 1]cuda:0", arg105_1: "f16[4096][1]cuda:0", arg106_1: "f16[14336, 4096][4096, 1]cuda:0", arg107_1: "f16[14336, 4096][4096, 1]cuda:0", arg108_1: "f16[4096, 14336][14336, 1]cuda:0", arg109_1: "f16[4096][1]cuda:0", arg110_1: "f16[4096, 4096][4096, 1]cuda:0", arg111_1: "f16[1024, 4096][4096, 1]cuda:0", arg112_1: "f16[1024, 4096][4096, 1]cuda:0", arg113_1: "f16[1, 8, s4, 128][1024*s4, 128*s4, 128, 1]cuda:0", arg114_1: "f16[1, 8, s4, 128][1024*s4, 128*s4, 128, 1]cuda:0", arg115_1: "f16[4096, 4096][4096, 1]cuda:0", arg116_1: "f16[4096][1]cuda:0", arg117_1: "f16[14336, 4096][4096, 1]cuda:0", arg118_1: "f16[14336, 4096][4096, 1]cuda:0", arg119_1: "f16[4096, 14336][14336, 1]cuda:0", arg120_1: "f16[4096][1]cuda:0", arg121_1: "f16[4096, 4096][4096, 1]cuda:0", arg122_1: "f16[1024, 4096][4096, 1]cuda:0", arg123_1: "f16[1024, 4096][4096, 1]cuda:0", arg124_1: "f16[1, 8, s4, 128][1024*s4, 128*s4, 128, 1]cuda:0", arg125_1: "f16[1, 8, s4, 128][1024*s4, 128*s4, 128, 1]cuda:0", arg126_1: "f16[4096, 4096][4096, 1]cuda:0", arg127_1: "f16[4096][1]cuda:0", arg128_1: "f16[14336, 4096][4096, 1]cuda:0", arg129_1: "f16[14336, 4096][4096, 1]cuda:0", arg130_1: "f16[4096, 14336][14336, 1]cuda:0", arg131_1: "f16[4096][1]cuda:0", arg132_1: "f16[4096, 4096][4096, 1]cuda:0", arg133_1: "f16[1024, 4096][4096, 1]cuda:0", arg134_1: "f16[1024, 4096][4096, 1]cuda:0", arg135_1: "f16[1, 8, s4, 128][1024*s4, 128*s4, 128, 1]cuda:0", arg136_1: "f16[1, 8, s4, 128][1024*s4, 128*s4, 128, 1]cuda:0", arg137_1: "f16[4096, 4096][4096, 1]cuda:0", arg138_1: "f16[4096][1]cuda:0", arg139_1: "f16[14336, 4096][4096, 1]cuda:0", arg140_1: "f16[14336, 4096][4096, 1]cuda:0", arg141_1: "f16[4096, 14336][14336, 1]cuda:0", arg142_1: "f16[4096][1]cuda:0", arg143_1: "f16[4096, 4096][4096, 1]cuda:0", arg144_1: "f16[1024, 4096][4096, 1]cuda:0", arg145_1: "f16[1024, 4096][4096, 1]cuda:0", arg146_1: "f16[1, 8, s4, 128][1024*s4, 128*s4, 128, 1]cuda:0", arg147_1: "f16[1, 8, s4, 128][1024*s4, 128*s4, 128, 1]cuda:0", arg148_1: "f16[4096, 4096][4096, 1]cuda:0", arg149_1: "f16[4096][1]cuda:0", arg150_1: "f16[14336, 4096][4096, 1]cuda:0", arg151_1: "f16[14336, 4096][4096, 1]cuda:0", arg152_1: "f16[4096, 14336][14336, 1]cuda:0", arg153_1: "f16[4096][1]cuda:0", arg154_1: "f16[4096, 4096][4096, 1]cuda:0", arg155_1: "f16[1024, 4096][4096, 1]cuda:0", arg156_1: "f16[1024, 4096][4096, 1]cuda:0", arg157_1: "f16[1, 8, s4, 128][1024*s4, 128*s4, 128, 1]cuda:0", arg158_1: "f16[1, 8, s4, 128][1024*s4, 128*s4, 128, 1]cuda:0", arg159_1: "f16[4096, 4096][4096, 1]cuda:0", arg160_1: "f16[4096][1]cuda:0", arg161_1: "f16[14336, 4096][4096, 1]cuda:0", arg162_1: "f16[14336, 4096][4096, 1]cuda:0", arg163_1: "f16[4096, 14336][14336, 1]cuda:0", arg164_1: "f16[4096][1]cuda:0", arg165_1: "f16[4096, 4096][4096, 1]cuda:0", arg166_1: "f16[1024, 4096][4096, 1]cuda:0", arg167_1: "f16[1024, 4096][4096, 1]cuda:0", arg168_1: "f16[1, 8, s4, 128][1024*s4, 128*s4, 128, 1]cuda:0", arg169_1: "f16[1, 8, s4, 128][1024*s4, 128*s4, 128, 1]cuda:0", arg170_1: "f16[4096, 4096][4096, 1]cuda:0", arg171_1: "f16[4096][1]cuda:0", arg172_1: "f16[14336, 4096][4096, 1]cuda:0", arg173_1: "f16[14336, 4096][4096, 1]cuda:0", arg174_1: "f16[4096, 14336][14336, 1]cuda:0", arg175_1: "f16[4096][1]cuda:0", arg176_1: "f16[4096, 4096][4096, 1]cuda:0", arg177_1: "f16[1024, 4096][4096, 1]cuda:0", arg178_1: "f16[1024, 4096][4096, 1]cuda:0", arg179_1: "f16[1, 8, s4, 128][1024*s4, 128*s4, 128, 1]cuda:0", arg180_1: "f16[1, 8, s4, 128][1024*s4, 128*s4, 128, 1]cuda:0", arg181_1: "f16[4096, 4096][4096, 1]cuda:0", arg182_1: "f16[4096][1]cuda:0", arg183_1: "f16[14336, 4096][4096, 1]cuda:0", arg184_1: "f16[14336, 4096][4096, 1]cuda:0", arg185_1: "f16[4096, 14336][14336, 1]cuda:0", arg186_1: "f16[4096][1]cuda:0", arg187_1: "f16[4096, 4096][4096, 1]cuda:0", arg188_1: "f16[1024, 4096][4096, 1]cuda:0", arg189_1: "f16[1024, 4096][4096, 1]cuda:0", arg190_1: "f16[1, 8, s4, 128][1024*s4, 128*s4, 128, 1]cuda:0", arg191_1: "f16[1, 8, s4, 128][1024*s4, 128*s4, 128, 1]cuda:0", arg192_1: "f16[4096, 4096][4096, 1]cuda:0", arg193_1: "f16[4096][1]cuda:0", arg194_1: "f16[14336, 4096][4096, 1]cuda:0", arg195_1: "f16[14336, 4096][4096, 1]cuda:0", arg196_1: "f16[4096, 14336][14336, 1]cuda:0", arg197_1: "f16[4096][1]cuda:0", arg198_1: "f16[4096, 4096][4096, 1]cuda:0", arg199_1: "f16[1024, 4096][4096, 1]cuda:0", arg200_1: "f16[1024, 4096][4096, 1]cuda:0", arg201_1: "f16[1, 8, s4, 128][1024*s4, 128*s4, 128, 1]cuda:0", arg202_1: "f16[1, 8, s4, 128][1024*s4, 128*s4, 128, 1]cuda:0", arg203_1: "f16[4096, 4096][4096, 1]cuda:0", arg204_1: "f16[4096][1]cuda:0", arg205_1: "f16[14336, 4096][4096, 1]cuda:0", arg206_1: "f16[14336, 4096][4096, 1]cuda:0", arg207_1: "f16[4096, 14336][14336, 1]cuda:0", arg208_1: "f16[4096][1]cuda:0", arg209_1: "f16[4096, 4096][4096, 1]cuda:0", arg210_1: "f16[1024, 4096][4096, 1]cuda:0", arg211_1: "f16[1024, 4096][4096, 1]cuda:0", arg212_1: "f16[1, 8, s4, 128][1024*s4, 128*s4, 128, 1]cuda:0", arg213_1: "f16[1, 8, s4, 128][1024*s4, 128*s4, 128, 1]cuda:0", arg214_1: "f16[4096, 4096][4096, 1]cuda:0", arg215_1: "f16[4096][1]cuda:0", arg216_1: "f16[14336, 4096][4096, 1]cuda:0", arg217_1: "f16[14336, 4096][4096, 1]cuda:0", arg218_1: "f16[4096, 14336][14336, 1]cuda:0", arg219_1: "f16[4096][1]cuda:0", arg220_1: "f16[4096, 4096][4096, 1]cuda:0", arg221_1: "f16[1024, 4096][4096, 1]cuda:0", arg222_1: "f16[1024, 4096][4096, 1]cuda:0", arg223_1: "f16[1, 8, s4, 128][1024*s4, 128*s4, 128, 1]cuda:0", arg224_1: "f16[1, 8, s4, 128][1024*s4, 128*s4, 128, 1]cuda:0", arg225_1: "f16[4096, 4096][4096, 1]cuda:0", arg226_1: "f16[4096][1]cuda:0", arg227_1: "f16[14336, 4096][4096, 1]cuda:0", arg228_1: "f16[14336, 4096][4096, 1]cuda:0", arg229_1: "f16[4096, 14336][14336, 1]cuda:0", arg230_1: "f16[4096][1]cuda:0", arg231_1: "f16[4096, 4096][4096, 1]cuda:0", arg232_1: "f16[1024, 4096][4096, 1]cuda:0", arg233_1: "f16[1024, 4096][4096, 1]cuda:0", arg234_1: "f16[1, 8, s4, 128][1024*s4, 128*s4, 128, 1]cuda:0", arg235_1: "f16[1, 8, s4, 128][1024*s4, 128*s4, 128, 1]cuda:0", arg236_1: "f16[4096, 4096][4096, 1]cuda:0", arg237_1: "f16[4096][1]cuda:0", arg238_1: "f16[14336, 4096][4096, 1]cuda:0", arg239_1: "f16[14336, 4096][4096, 1]cuda:0", arg240_1: "f16[4096, 14336][14336, 1]cuda:0", arg241_1: "f16[4096][1]cuda:0", arg242_1: "f16[4096, 4096][4096, 1]cuda:0", arg243_1: "f16[1024, 4096][4096, 1]cuda:0", arg244_1: "f16[1024, 4096][4096, 1]cuda:0", arg245_1: "f16[1, 8, s4, 128][1024*s4, 128*s4, 128, 1]cuda:0", arg246_1: "f16[1, 8, s4, 128][1024*s4, 128*s4, 128, 1]cuda:0", arg247_1: "f16[4096, 4096][4096, 1]cuda:0", arg248_1: "f16[4096][1]cuda:0", arg249_1: "f16[14336, 4096][4096, 1]cuda:0", arg250_1: "f16[14336, 4096][4096, 1]cuda:0", arg251_1: "f16[4096, 14336][14336, 1]cuda:0", arg252_1: "f16[4096][1]cuda:0", arg253_1: "f16[4096, 4096][4096, 1]cuda:0", arg254_1: "f16[1024, 4096][4096, 1]cuda:0", arg255_1: "f16[1024, 4096][4096, 1]cuda:0", arg256_1: "f16[1, 8, s4, 128][1024*s4, 128*s4, 128, 1]cuda:0", arg257_1: "f16[1, 8, s4, 128][1024*s4, 128*s4, 128, 1]cuda:0", arg258_1: "f16[4096, 4096][4096, 1]cuda:0", arg259_1: "f16[4096][1]cuda:0", arg260_1: "f16[14336, 4096][4096, 1]cuda:0", arg261_1: "f16[14336, 4096][4096, 1]cuda:0", arg262_1: "f16[4096, 14336][14336, 1]cuda:0", arg263_1: "f16[4096][1]cuda:0", arg264_1: "f16[4096, 4096][4096, 1]cuda:0", arg265_1: "f16[1024, 4096][4096, 1]cuda:0", arg266_1: "f16[1024, 4096][4096, 1]cuda:0", arg267_1: "f16[1, 8, s4, 128][1024*s4, 128*s4, 128, 1]cuda:0", arg268_1: "f16[1, 8, s4, 128][1024*s4, 128*s4, 128, 1]cuda:0", arg269_1: "f16[4096, 4096][4096, 1]cuda:0", arg270_1: "f16[4096][1]cuda:0", arg271_1: "f16[14336, 4096][4096, 1]cuda:0", arg272_1: "f16[14336, 4096][4096, 1]cuda:0", arg273_1: "f16[4096, 14336][14336, 1]cuda:0", arg274_1: "f16[4096][1]cuda:0", arg275_1: "f16[4096, 4096][4096, 1]cuda:0", arg276_1: "f16[1024, 4096][4096, 1]cuda:0", arg277_1: "f16[1024, 4096][4096, 1]cuda:0", arg278_1: "f16[1, 8, s4, 128][1024*s4, 128*s4, 128, 1]cuda:0", arg279_1: "f16[1, 8, s4, 128][1024*s4, 128*s4, 128, 1]cuda:0", arg280_1: "f16[4096, 4096][4096, 1]cuda:0", arg281_1: "f16[4096][1]cuda:0", arg282_1: "f16[14336, 4096][4096, 1]cuda:0", arg283_1: "f16[14336, 4096][4096, 1]cuda:0", arg284_1: "f16[4096, 14336][14336, 1]cuda:0", arg285_1: "f16[4096][1]cuda:0", arg286_1: "f16[4096, 4096][4096, 1]cuda:0", arg287_1: "f16[1024, 4096][4096, 1]cuda:0", arg288_1: "f16[1024, 4096][4096, 1]cuda:0", arg289_1: "f16[1, 8, s4, 128][1024*s4, 128*s4, 128, 1]cuda:0", arg290_1: "f16[1, 8, s4, 128][1024*s4, 128*s4, 128, 1]cuda:0", arg291_1: "f16[4096, 4096][4096, 1]cuda:0", arg292_1: "f16[4096][1]cuda:0", arg293_1: "f16[14336, 4096][4096, 1]cuda:0", arg294_1: "f16[14336, 4096][4096, 1]cuda:0", arg295_1: "f16[4096, 14336][14336, 1]cuda:0", arg296_1: "f16[4096][1]cuda:0", arg297_1: "f16[4096, 4096][4096, 1]cuda:0", arg298_1: "f16[1024, 4096][4096, 1]cuda:0", arg299_1: "f16[1024, 4096][4096, 1]cuda:0", arg300_1: "f16[1, 8, s4, 128][1024*s4, 128*s4, 128, 1]cuda:0", arg301_1: "f16[1, 8, s4, 128][1024*s4, 128*s4, 128, 1]cuda:0", arg302_1: "f16[4096, 4096][4096, 1]cuda:0", arg303_1: "f16[4096][1]cuda:0", arg304_1: "f16[14336, 4096][4096, 1]cuda:0", arg305_1: "f16[14336, 4096][4096, 1]cuda:0", arg306_1: "f16[4096, 14336][14336, 1]cuda:0", arg307_1: "f16[4096][1]cuda:0", arg308_1: "f16[4096, 4096][4096, 1]cuda:0", arg309_1: "f16[1024, 4096][4096, 1]cuda:0", arg310_1: "f16[1024, 4096][4096, 1]cuda:0", arg311_1: "f16[1, 8, s4, 128][1024*s4, 128*s4, 128, 1]cuda:0", arg312_1: "f16[1, 8, s4, 128][1024*s4, 128*s4, 128, 1]cuda:0", arg313_1: "f16[4096, 4096][4096, 1]cuda:0", arg314_1: "f16[4096][1]cuda:0", arg315_1: "f16[14336, 4096][4096, 1]cuda:0", arg316_1: "f16[14336, 4096][4096, 1]cuda:0", arg317_1: "f16[4096, 14336][14336, 1]cuda:0", arg318_1: "f16[4096][1]cuda:0", arg319_1: "f16[4096, 4096][4096, 1]cuda:0", arg320_1: "f16[1024, 4096][4096, 1]cuda:0", arg321_1: "f16[1024, 4096][4096, 1]cuda:0", arg322_1: "f16[1, 8, s4, 128][1024*s4, 128*s4, 128, 1]cuda:0", arg323_1: "f16[1, 8, s4, 128][1024*s4, 128*s4, 128, 1]cuda:0", arg324_1: "f16[4096, 4096][4096, 1]cuda:0", arg325_1: "f16[4096][1]cuda:0", arg326_1: "f16[14336, 4096][4096, 1]cuda:0", arg327_1: "f16[14336, 4096][4096, 1]cuda:0", arg328_1: "f16[4096, 14336][14336, 1]cuda:0", arg329_1: "f16[4096][1]cuda:0", arg330_1: "f16[4096, 4096][4096, 1]cuda:0", arg331_1: "f16[1024, 4096][4096, 1]cuda:0", arg332_1: "f16[1024, 4096][4096, 1]cuda:0", arg333_1: "f16[1, 8, s4, 128][1024*s4, 128*s4, 128, 1]cuda:0", arg334_1: "f16[1, 8, s4, 128][1024*s4, 128*s4, 128, 1]cuda:0", arg335_1: "f16[4096, 4096][4096, 1]cuda:0", arg336_1: "f16[4096][1]cuda:0", arg337_1: "f16[14336, 4096][4096, 1]cuda:0", arg338_1: "f16[14336, 4096][4096, 1]cuda:0", arg339_1: "f16[4096, 14336][14336, 1]cuda:0", arg340_1: "f16[4096][1]cuda:0", arg341_1: "f16[4096, 4096][4096, 1]cuda:0", arg342_1: "f16[1024, 4096][4096, 1]cuda:0", arg343_1: "f16[1024, 4096][4096, 1]cuda:0", arg344_1: "f16[1, 8, s4, 128][1024*s4, 128*s4, 128, 1]cuda:0", arg345_1: "f16[1, 8, s4, 128][1024*s4, 128*s4, 128, 1]cuda:0", arg346_1: "f16[4096, 4096][4096, 1]cuda:0", arg347_1: "f16[4096][1]cuda:0", arg348_1: "f16[14336, 4096][4096, 1]cuda:0", arg349_1: "f16[14336, 4096][4096, 1]cuda:0", arg350_1: "f16[4096, 14336][14336, 1]cuda:0", arg351_1: "f16[4096][1]cuda:0", arg352_1: "f16[4096, 4096][4096, 1]cuda:0", arg353_1: "f16[1024, 4096][4096, 1]cuda:0", arg354_1: "f16[1024, 4096][4096, 1]cuda:0", arg355_1: "f16[1, 8, s4, 128][1024*s4, 128*s4, 128, 1]cuda:0", arg356_1: "f16[1, 8, s4, 128][1024*s4, 128*s4, 128, 1]cuda:0", arg357_1: "f16[4096, 4096][4096, 1]cuda:0", arg358_1: "f16[4096][1]cuda:0", arg359_1: "f16[14336, 4096][4096, 1]cuda:0", arg360_1: "f16[14336, 4096][4096, 1]cuda:0", arg361_1: "f16[4096, 14336][14336, 1]cuda:0", arg362_1: "f16[4096][1]cuda:0", arg363_1: "Sym(1)", arg364_1: "f16[128256, 4096][4096, 1]cuda:0"):
         # File: /app/low_bit_inference/model.py:346 in forward, code: inputs_embeds: torch.Tensor = self.embed_tokens(input_ids)
        embedding: "f16[1, s0, 4096][4096*s0, 4096, 1]cuda:0" = torch.ops.aten.embedding.default(arg2_1, arg1_1, 128004);  arg2_1 = arg1_1 = None
        
         # File: /app/low_bit_inference/model.py:65 in forward, code: inv_freq_expanded = self.inv_freq[None, :, None].float().expand(position_ids.shape[0], -1, 1).to(x.device)
        unsqueeze: "f32[1, 64][64, 1]cuda:0" = torch.ops.aten.unsqueeze.default(arg9_1, 0);  arg9_1 = None
        slice_1: "f32[1, 64][64, 1]cuda:0" = torch.ops.aten.slice.Tensor(unsqueeze, 1, 0, 9223372036854775807);  unsqueeze = None
        unsqueeze_1: "f32[1, 64, 1][64, 1, 1]cuda:0" = torch.ops.aten.unsqueeze.default(slice_1, 2);  slice_1 = None
        expand: "f32[1, 64, 1][64, 1, 1]cuda:0" = torch.ops.aten.expand.default(unsqueeze_1, [1, -1, 1]);  unsqueeze_1 = None
        
         # File: /app/low_bit_inference/model.py:66 in forward, code: position_ids_expanded = position_ids[:, None, :].float()
        slice_2: "i64[1, s0][s0, 1]cuda:0" = torch.ops.aten.slice.Tensor(arg6_1, 0, 0, 9223372036854775807);  arg6_1 = None
        unsqueeze_2: "i64[1, 1, s0][s0, s0, 1]cuda:0" = torch.ops.aten.unsqueeze.default(slice_2, 1);  slice_2 = None
        slice_3: "i64[1, 1, s0][s0, s0, 1]cuda:0" = torch.ops.aten.slice.Tensor(unsqueeze_2, 2, 0, 9223372036854775807);  unsqueeze_2 = None
        convert_element_type: "f32[1, 1, s0][s0, s0, 1]cuda:0" = torch.ops.prims.convert_element_type.default(slice_3, torch.float32);  slice_3 = None
        
         # File: /app/low_bit_inference/model.py:70 in forward, code: freqs = (inv_freq_expanded.float() @ position_ids_expanded.float()).transpose(1, 2)
        expand_1: "f32[1, 64, 1][64, 1, 1]cuda:0" = torch.ops.aten.expand.default(expand, [1, 64, 1]);  expand = None
        view: "f32[1, 64, 1][64, 1, 1]cuda:0" = torch.ops.aten.view.default(expand_1, [1, 64, 1]);  expand_1 = None
        expand_2: "f32[1, 1, s0][s0, s0, 1]cuda:0" = torch.ops.aten.expand.default(convert_element_type, [1, 1, arg5_1]);  convert_element_type = None
        view_1: "f32[1, 1, s0][s0, s0, 1]cuda:0" = torch.ops.aten.view.default(expand_2, [1, 1, arg5_1]);  expand_2 = None
        bmm: "f32[1, 64, s0][64*s0, s0, 1]cuda:0" = torch.ops.aten.bmm.default(view, view_1);  view = view_1 = None
        view_2: "f32[1, 64, s0][64*s0, s0, 1]cuda:0" = torch.ops.aten.view.default(bmm, [1, 64, arg5_1]);  bmm = None
        permute: "f32[1, s0, 64][64*s0, 1, s0]cuda:0" = torch.ops.aten.permute.default(view_2, [0, 2, 1]);  view_2 = None
        
         # File: /app/low_bit_inference/model.py:71 in forward, code: emb = torch.cat((freqs, freqs), dim=-1)
        unsqueeze_3: "f32[1, s0, 1, 64][64*s0, 1, 64*s0, s0]cuda:0" = torch.ops.aten.unsqueeze.default(permute, 2);  permute = None
        expand_3: "f32[1, s0, 2, 64][64*s0, 1, 0, s0]cuda:0" = torch.ops.aten.expand.default(unsqueeze_3, [1, arg5_1, 2, 64]);  unsqueeze_3 = None
        clone: "f32[1, s0, 2, 64][128*s0, 128, 64, 1]cuda:0" = torch.ops.aten.clone.default(expand_3, memory_format = torch.contiguous_format);  expand_3 = None
        view_3: "f32[1, s0, 128][128*s0, 128, 1]cuda:0" = torch.ops.aten.view.default(clone, [1, arg5_1, 128]);  clone = None
        clone_1: "f32[1, s0, 128][128*s0, 128, 1]cuda:0" = torch.ops.aten.clone.default(view_3);  view_3 = None
        
         # File: /app/low_bit_inference/model.py:72 in forward, code: cos = emb.cos() * self.attention_scaling
        cos: "f32[1, s0, 128][128*s0, 128, 1]cuda:0" = torch.ops.aten.cos.default(clone_1)
        mul_39: "f32[1, s0, 128][128*s0, 128, 1]cuda:0" = torch.ops.aten.mul.Tensor(cos, 1.0);  cos = None
        
         # File: /app/low_bit_inference/model.py:73 in forward, code: sin = emb.sin() * self.attention_scaling
        sin: "f32[1, s0, 128][128*s0, 128, 1]cuda:0" = torch.ops.aten.sin.default(clone_1);  clone_1 = None
        mul_46: "f32[1, s0, 128][128*s0, 128, 1]cuda:0" = torch.ops.aten.mul.Tensor(sin, 1.0);  sin = None
        
         # File: /app/low_bit_inference/model.py:75 in forward, code: return cos.to(dtype=x.dtype), sin.to(dtype=x.dtype)
        convert_element_type_1: "f16[1, s0, 128][128*s0, 128, 1]cuda:0" = torch.ops.prims.convert_element_type.default(mul_39, torch.float16);  mul_39 = None
        convert_element_type_2: "f16[1, s0, 128][128*s0, 128, 1]cuda:0" = torch.ops.prims.convert_element_type.default(mul_46, torch.float16);  mul_46 = None
        
         # File: /app/low_bit_inference/optims/rms_norm_kernels/liger_rms_norm.py:443 in rms_norm_forward, code: X = X.view(-1, dim)
        view_4: "f16[s0, 4096][4096, 1]cuda:0" = torch.ops.aten.view.default(embedding, [-1, 4096])
        
         # File: /app/low_bit_inference/optims/rms_norm_kernels/liger_rms_norm.py:447 in rms_norm_forward, code: Y = torch.empty((n_rows, n_cols), dtype=X.dtype, device=X.device)
        empty: "f16[s0, 4096][4096, 1]cuda:0" = torch.ops.aten.empty.memory_format([arg0_1, 4096], dtype = torch.float16, device = device(type='cuda', index=0), pin_memory = False)
        alias: "f16[s0, 4096][4096, 1]cuda:0" = torch.ops.aten.alias.default(empty);  empty = None
        
         # File: /app/low_bit_inference/optims/rms_norm_kernels/liger_rms_norm.py:451 in rms_norm_forward, code: RSTD = torch.empty(n_rows, dtype=rstd_dtype, device=X.device)
        empty_1: "f32[s0][1]cuda:0" = torch.ops.aten.empty.memory_format([arg0_1], dtype = torch.float32, device = device(type='cuda', index=0), pin_memory = False)
        alias_1: "f32[s0][1]cuda:0" = torch.ops.aten.alias.default(empty_1);  empty_1 = None
        
         # File: /app/low_bit_inference/optims/rms_norm_kernels/liger_rms_norm.py:461 in rms_norm_forward, code: _rms_norm_forward_kernel[(n_rows,)](
        triton_kernel_wrapper_functional_proxy = torch.ops.higher_order.triton_kernel_wrapper_functional(kernel_idx = 131, constant_args_idx = 130, grid = [(arg0_1, 1, 1)], tma_descriptor_metadata = {}, kwargs = {'Y_ptr': alias, 'X_ptr': view_4, 'W_ptr': arg10_1, 'RSTD_ptr': alias_1}, tensors_to_clone = ['Y_ptr', 'RSTD_ptr']);  alias = view_4 = arg10_1 = alias_1 = None
        getitem: "f16[s0, 4096][4096, 1]cuda:0" = triton_kernel_wrapper_functional_proxy['Y_ptr'];  triton_kernel_wrapper_functional_proxy = None
        
         # File: /app/low_bit_inference/model.py:206 in forward, code: query_states = self.q_proj(hidden_states).view(hidden_shape).transpose(1, 2)
        permute_1: "f16[4096, 4096][1, 4096]cuda:0" = torch.ops.aten.permute.default(arg11_1, [1, 0]);  arg11_1 = None
        alias_4: "f16[s0, 4096][4096, 1]cuda:0" = torch.ops.aten.alias.default(getitem)
        view_7: "f16[1, s0, 4096][4096*s0, 4096, 1]cuda:0" = torch.ops.aten.view.default(alias_4, [1, arg0_1, 4096]);  alias_4 = None
        view_8: "f16[s0, 4096][4096, 1]cuda:0" = torch.ops.aten.view.default(view_7, [arg5_1, 4096]);  view_7 = None
        mm: "f16[s0, 4096][4096, 1]cuda:0" = torch.ops.aten.mm.default(view_8, permute_1);  view_8 = permute_1 = None
        view_9: "f16[1, s0, 4096][4096*s0, 4096, 1]cuda:0" = torch.ops.aten.view.default(mm, [1, arg5_1, 4096]);  mm = None
        view_10: "f16[1, s0, 32, 128][4096*s0, 4096, 128, 1]cuda:0" = torch.ops.aten.view.default(view_9, [1, arg0_1, -1, 128]);  view_9 = None
        permute_2: "f16[1, 32, s0, 128][4096*s0, 128, 4096, 1]cuda:0" = torch.ops.aten.permute.default(view_10, [0, 2, 1, 3]);  view_10 = None
        
         # File: /app/low_bit_inference/model.py:207 in forward, code: key_states = self.k_proj(hidden_states).view(hidden_shape).transpose(1, 2)
        permute_3: "f16[4096, 1024][1, 4096]cuda:0" = torch.ops.aten.permute.default(arg12_1, [1, 0]);  arg12_1 = None
        alias_5: "f16[s0, 4096][4096, 1]cuda:0" = torch.ops.aten.alias.default(getitem)
        view_12: "f16[1, s0, 4096][4096*s0, 4096, 1]cuda:0" = torch.ops.aten.view.default(alias_5, [1, arg0_1, 4096]);  alias_5 = None
        view_13: "f16[s0, 4096][4096, 1]cuda:0" = torch.ops.aten.view.default(view_12, [arg5_1, 4096]);  view_12 = None
        mm_1: "f16[s0, 1024][1024, 1]cuda:0" = torch.ops.aten.mm.default(view_13, permute_3);  view_13 = permute_3 = None
        view_14: "f16[1, s0, 1024][1024*s0, 1024, 1]cuda:0" = torch.ops.aten.view.default(mm_1, [1, arg5_1, 1024]);  mm_1 = None
        view_15: "f16[1, s0, 8, 128][1024*s0, 1024, 128, 1]cuda:0" = torch.ops.aten.view.default(view_14, [1, arg0_1, -1, 128]);  view_14 = None
        permute_4: "f16[1, 8, s0, 128][1024*s0, 128, 1024, 1]cuda:0" = torch.ops.aten.permute.default(view_15, [0, 2, 1, 3]);  view_15 = None
        
         # File: /app/low_bit_inference/model.py:208 in forward, code: value_states = self.v_proj(hidden_states).view(hidden_shape).transpose(1, 2)
        permute_5: "f16[4096, 1024][1, 4096]cuda:0" = torch.ops.aten.permute.default(arg13_1, [1, 0]);  arg13_1 = None
        alias_6: "f16[s0, 4096][4096, 1]cuda:0" = torch.ops.aten.alias.default(getitem);  getitem = None
        view_17: "f16[1, s0, 4096][4096*s0, 4096, 1]cuda:0" = torch.ops.aten.view.default(alias_6, [1, arg0_1, 4096]);  alias_6 = None
        view_18: "f16[s0, 4096][4096, 1]cuda:0" = torch.ops.aten.view.default(view_17, [arg5_1, 4096]);  view_17 = None
        mm_2: "f16[s0, 1024][1024, 1]cuda:0" = torch.ops.aten.mm.default(view_18, permute_5);  view_18 = permute_5 = None
        view_19: "f16[1, s0, 1024][1024*s0, 1024, 1]cuda:0" = torch.ops.aten.view.default(mm_2, [1, arg5_1, 1024]);  mm_2 = None
        view_20: "f16[1, s0, 8, 128][1024*s0, 1024, 128, 1]cuda:0" = torch.ops.aten.view.default(view_19, [1, arg0_1, -1, 128]);  view_19 = None
        permute_6: "f16[1, 8, s0, 128][1024*s0, 128, 1024, 1]cuda:0" = torch.ops.aten.permute.default(view_20, [0, 2, 1, 3]);  view_20 = None
        
         # File: /app/low_bit_inference/model.py:105 in apply_rotary_pos_emb, code: cos = cos.unsqueeze(unsqueeze_dim)
        unsqueeze_4: "f16[1, 1, s0, 128][128*s0, 128*s0, 128, 1]cuda:0" = torch.ops.aten.unsqueeze.default(convert_element_type_1, 1)
        
         # File: /app/low_bit_inference/model.py:106 in apply_rotary_pos_emb, code: sin = sin.unsqueeze(unsqueeze_dim)
        unsqueeze_5: "f16[1, 1, s0, 128][128*s0, 128*s0, 128, 1]cuda:0" = torch.ops.aten.unsqueeze.default(convert_element_type_2, 1)
        
         # File: /app/low_bit_inference/model.py:107 in apply_rotary_pos_emb, code: q_embed = (q * cos) + (rotate_half(q) * sin)
        mul_136: "f16[1, 32, s0, 128][4096*s0, 128, 4096, 1]cuda:0" = torch.ops.aten.mul.Tensor(permute_2, unsqueeze_4)
        
         # File: /app/low_bit_inference/model.py:80 in rotate_half, code: x1 = x[..., : x.shape[-1] // 2]
        slice_4: "f16[1, 32, s0, 64][4096*s0, 128, 4096, 1]cuda:0" = torch.ops.aten.slice.Tensor(permute_2, 3, 0, 64)
        
         # File: /app/low_bit_inference/model.py:81 in rotate_half, code: x2 = x[..., x.shape[-1] // 2 :]
        slice_5: "f16[1, 32, s0, 64][4096*s0, 128, 4096, 1]cuda:0" = torch.ops.aten.slice.Tensor(permute_2, 3, 64, 9223372036854775807);  permute_2 = None
        
         # File: /app/low_bit_inference/model.py:82 in rotate_half, code: return torch.cat((-x2, x1), dim=-1)
        neg: "f16[1, 32, s0, 64][2048*s0, 64, 2048, 1]cuda:0" = torch.ops.aten.neg.default(slice_5);  slice_5 = None
        cat: "f16[1, 32, s0, 128][4096*s0, 128*s0, 128, 1]cuda:0" = torch.ops.aten.cat.default([neg, slice_4], -1);  neg = slice_4 = None
        
         # File: /app/low_bit_inference/model.py:107 in apply_rotary_pos_emb, code: q_embed = (q * cos) + (rotate_half(q) * sin)
        mul_153: "f16[1, 32, s0, 128][4096*s0, 128*s0, 128, 1]cuda:0" = torch.ops.aten.mul.Tensor(cat, unsqueeze_5);  cat = None
        add_135: "f16[1, 32, s0, 128][4096*s0, 128, 4096, 1]cuda:0" = torch.ops.aten.add.Tensor(mul_136, mul_153);  mul_136 = mul_153 = None
        
         # File: /app/low_bit_inference/model.py:108 in apply_rotary_pos_emb, code: k_embed = (k * cos) + (rotate_half(k) * sin)
        mul_161: "f16[1, 8, s0, 128][1024*s0, 128, 1024, 1]cuda:0" = torch.ops.aten.mul.Tensor(permute_4, unsqueeze_4);  unsqueeze_4 = None
        
         # File: /app/low_bit_inference/model.py:80 in rotate_half, code: x1 = x[..., : x.shape[-1] // 2]
        slice_6: "f16[1, 8, s0, 64][1024*s0, 128, 1024, 1]cuda:0" = torch.ops.aten.slice.Tensor(permute_4, 3, 0, 64)
        
         # File: /app/low_bit_inference/model.py:81 in rotate_half, code: x2 = x[..., x.shape[-1] // 2 :]
        slice_7: "f16[1, 8, s0, 64][1024*s0, 128, 1024, 1]cuda:0" = torch.ops.aten.slice.Tensor(permute_4, 3, 64, 9223372036854775807);  permute_4 = None
        
         # File: /app/low_bit_inference/model.py:82 in rotate_half, code: return torch.cat((-x2, x1), dim=-1)
        neg_1: "f16[1, 8, s0, 64][512*s0, 64, 512, 1]cuda:0" = torch.ops.aten.neg.default(slice_7);  slice_7 = None
        cat_1: "f16[1, 8, s0, 128][1024*s0, 128*s0, 128, 1]cuda:0" = torch.ops.aten.cat.default([neg_1, slice_6], -1);  neg_1 = slice_6 = None
        
         # File: /app/low_bit_inference/model.py:108 in apply_rotary_pos_emb, code: k_embed = (k * cos) + (rotate_half(k) * sin)
        mul_178: "f16[1, 8, s0, 128][1024*s0, 128*s0, 128, 1]cuda:0" = torch.ops.aten.mul.Tensor(cat_1, unsqueeze_5);  cat_1 = unsqueeze_5 = None
        add_159: "f16[1, 8, s0, 128][1024*s0, 128, 1024, 1]cuda:0" = torch.ops.aten.add.Tensor(mul_161, mul_178);  mul_161 = mul_178 = None
        
         # File: /app/low_bit_inference/optims/cache_optim.py:150 in update, code: self.keys.index_copy_(2, cache_position, key_states)
        index_put: "f16[1, 8, s4, 128][1024*s4, 128*s4, 128, 1]cuda:0" = torch.ops.aten.index_put.default(arg14_1, [None, None, arg4_1], add_159);  add_159 = None
        
         # File: /app/low_bit_inference/optims/cache_optim.py:151 in update, code: self.values.index_copy_(2, cache_position, value_states)
        index_put_1: "f16[1, 8, s4, 128][1024*s4, 128*s4, 128, 1]cuda:0" = torch.ops.aten.index_put.default(arg15_1, [None, None, arg4_1], permute_6);  permute_6 = None
        
         # File: /app/.venv/lib/python3.12/site-packages/transformers/integrations/sdpa_attention.py:15 in repeat_kv, code: return hidden_states.reshape(batch, num_key_value_heads * n_rep, slen, head_dim)
        slice_12: "f16[1, 8, s4, 128][1024*s4, 128*s4, 128, 1]cuda:0" = torch.ops.aten.slice.Tensor(index_put, 0, 0, 9223372036854775807)
        slice_13: "f16[1, 8, s4, 128][1024*s4, 128*s4, 128, 1]cuda:0" = torch.ops.aten.slice.Tensor(slice_12, 1, 0, 9223372036854775807);  slice_12 = None
        unsqueeze_7: "f16[1, 8, 1, s4, 128][1024*s4, 128*s4, 128*s4, 128, 1]cuda:0" = torch.ops.aten.unsqueeze.default(slice_13, 2);  slice_13 = None
        slice_14: "f16[1, 8, 1, s4, 128][1024*s4, 128*s4, 128*s4, 128, 1]cuda:0" = torch.ops.aten.slice.Tensor(unsqueeze_7, 3, 0, 9223372036854775807);  unsqueeze_7 = None
        slice_15: "f16[1, 8, 1, s4, 128][1024*s4, 128*s4, 128*s4, 128, 1]cuda:0" = torch.ops.aten.slice.Tensor(slice_14, 4, 0, 9223372036854775807);  slice_14 = None
        expand_5: "f16[1, 8, 4, s4, 128][1024*s4, 128*s4, 0, 128, 1]cuda:0" = torch.ops.aten.expand.default(slice_15, [1, 8, 4, arg7_1, 128]);  slice_15 = None
        clone_2: "f16[1, 8, 4, s4, 128][4096*s4, 512*s4, 128*s4, 128, 1]cuda:0" = torch.ops.aten.clone.default(expand_5, memory_format = torch.contiguous_format);  expand_5 = None
        view_21: "f16[1, 32, s4, 128][4096*s4, 128*s4, 128, 1]cuda:0" = torch.ops.aten.view.default(clone_2, [1, 32, arg7_1, 128]);  clone_2 = None
        
         # File: /app/.venv/lib/python3.12/site-packages/transformers/integrations/sdpa_attention.py:15 in repeat_kv, code: return hidden_states.reshape(batch, num_key_value_heads * n_rep, slen, head_dim)
        slice_20: "f16[1, 8, s4, 128][1024*s4, 128*s4, 128, 1]cuda:0" = torch.ops.aten.slice.Tensor(index_put_1, 0, 0, 9223372036854775807)
        slice_21: "f16[1, 8, s4, 128][1024*s4, 128*s4, 128, 1]cuda:0" = torch.ops.aten.slice.Tensor(slice_20, 1, 0, 9223372036854775807);  slice_20 = None
        unsqueeze_9: "f16[1, 8, 1, s4, 128][1024*s4, 128*s4, 128*s4, 128, 1]cuda:0" = torch.ops.aten.unsqueeze.default(slice_21, 2);  slice_21 = None
        slice_22: "f16[1, 8, 1, s4, 128][1024*s4, 128*s4, 128*s4, 128, 1]cuda:0" = torch.ops.aten.slice.Tensor(unsqueeze_9, 3, 0, 9223372036854775807);  unsqueeze_9 = None
        slice_23: "f16[1, 8, 1, s4, 128][1024*s4, 128*s4, 128*s4, 128, 1]cuda:0" = torch.ops.aten.slice.Tensor(slice_22, 4, 0, 9223372036854775807);  slice_22 = None
        expand_7: "f16[1, 8, 4, s4, 128][1024*s4, 128*s4, 0, 128, 1]cuda:0" = torch.ops.aten.expand.default(slice_23, [1, 8, 4, arg7_1, 128]);  slice_23 = None
        clone_3: "f16[1, 8, 4, s4, 128][4096*s4, 512*s4, 128*s4, 128, 1]cuda:0" = torch.ops.aten.clone.default(expand_7, memory_format = torch.contiguous_format);  expand_7 = None
        view_22: "f16[1, 32, s4, 128][4096*s4, 128*s4, 128, 1]cuda:0" = torch.ops.aten.view.default(clone_3, [1, 32, arg7_1, 128]);  clone_3 = None
        
         # File: /app/.venv/lib/python3.12/site-packages/transformers/integrations/sdpa_attention.py:35 in sdpa_attention_forward, code: causal_mask = causal_mask[:, :, :, : key.shape[-2]]
        slice_24: "b8[1, 1, s0, s4][s0*s4, s0*s4, s4, 1]cuda:0" = torch.ops.aten.slice.Tensor(arg8_1, 0, 0, 9223372036854775807)
        slice_25: "b8[1, 1, s0, s4][s0*s4, s0*s4, s4, 1]cuda:0" = torch.ops.aten.slice.Tensor(slice_24, 1, 0, 9223372036854775807);  slice_24 = None
        slice_26: "b8[1, 1, s0, s4][s0*s4, s0*s4, s4, 1]cuda:0" = torch.ops.aten.slice.Tensor(slice_25, 2, 0, 9223372036854775807);  slice_25 = None
        
         # File: /app/.venv/lib/python3.12/site-packages/transformers/integrations/sdpa_attention.py:39 in sdpa_attention_forward, code: query = query.contiguous()
        clone_4: "f16[1, 32, s0, 128][4096*s0, 128*s0, 128, 1]cuda:0" = torch.ops.aten.clone.default(add_135, memory_format = torch.contiguous_format);  add_135 = None
        
         # File: /app/.venv/lib/python3.12/site-packages/transformers/integrations/sdpa_attention.py:54 in sdpa_attention_forward, code: attn_output = torch.nn.functional.scaled_dot_product_attention(
        scalar_tensor: "f16[][]cuda:0" = torch.ops.aten.scalar_tensor.default(-inf, dtype = torch.float16, device = device(type='cuda', index=0))
        scalar_tensor_1: "f16[][]cuda:0" = torch.ops.aten.scalar_tensor.default(0.0, dtype = torch.float16, layout = torch.strided, device = device(type='cuda', index=0))
        where: "f16[1, 1, s0, s4][s0*s4, s0*s4, s4, 1]cuda:0" = torch.ops.aten.where.self(slice_26, scalar_tensor_1, scalar_tensor);  slice_26 = scalar_tensor_1 = scalar_tensor = None
        expand_8: "f16[1, 32, s0, s4][s0*s4, 0, s4, 1]cuda:0" = torch.ops.aten.expand.default(where, [1, 32, arg5_1, arg7_1]);  where = None
        _scaled_dot_product_efficient_attention = torch.ops.aten._scaled_dot_product_efficient_attention.default(clone_4, view_21, view_22, expand_8, False, scale = 0.08838834764831845);  clone_4 = view_21 = view_22 = expand_8 = None
        getitem_2: "f16[1, 32, s0, 128][4096*s0, 128, 4096, 1]cuda:0" = _scaled_dot_product_efficient_attention[0];  _scaled_dot_product_efficient_attention = None
        
         # File: /app/.venv/lib/python3.12/site-packages/transformers/integrations/sdpa_attention.py:63 in sdpa_attention_forward, code: attn_output = attn_output.transpose(1, 2).contiguous()
        permute_7: "f16[1, s0, 32, 128][4096*s0, 4096, 128, 1]cuda:0" = torch.ops.aten.permute.default(getitem_2, [0, 2, 1, 3]);  getitem_2 = None
        
         # File: /app/low_bit_inference/model.py:233 in forward, code: attn_output = attn_output.reshape(*input_shape, -1).contiguous()
        view_23: "f16[1, s0, 4096][4096*s0, 4096, 1]cuda:0" = torch.ops.aten.view.default(permute_7, [1, arg0_1, -1]);  permute_7 = None
        
         # File: /app/low_bit_inference/model.py:234 in forward, code: attn_output = self.o_proj(attn_output)
        permute_8: "f16[4096, 4096][1, 4096]cuda:0" = torch.ops.aten.permute.default(arg16_1, [1, 0]);  arg16_1 = None
        view_24: "f16[s0, 4096][4096, 1]cuda:0" = torch.ops.aten.view.default(view_23, [arg5_1, 4096]);  view_23 = None
        mm_3: "f16[s0, 4096][4096, 1]cuda:0" = torch.ops.aten.mm.default(view_24, permute_8);  view_24 = permute_8 = None
        view_25: "f16[1, s0, 4096][4096*s0, 4096, 1]cuda:0" = torch.ops.aten.view.default(mm_3, [1, arg5_1, 4096]);  mm_3 = None
        
         # File: /app/low_bit_inference/model.py:273 in forward, code: hidden_states = residual + hidden_states
        add_301: "f16[1, s0, 4096][4096*s0, 4096, 1]cuda:0" = torch.ops.aten.add.Tensor(embedding, view_25);  embedding = view_25 = None
        
         # File: /app/low_bit_inference/optims/rms_norm_kernels/liger_rms_norm.py:443 in rms_norm_forward, code: X = X.view(-1, dim)
        view_26: "f16[s0, 4096][4096, 1]cuda:0" = torch.ops.aten.view.default(add_301, [-1, 4096])
        
         # File: /app/low_bit_inference/optims/rms_norm_kernels/liger_rms_norm.py:447 in rms_norm_forward, code: Y = torch.empty((n_rows, n_cols), dtype=X.dtype, device=X.device)
        empty_2: "f16[s0, 4096][4096, 1]cuda:0" = torch.ops.aten.empty.memory_format([arg0_1, 4096], dtype = torch.float16, device = device(type='cuda', index=0), pin_memory = False)
        alias_7: "f16[s0, 4096][4096, 1]cuda:0" = torch.ops.aten.alias.default(empty_2);  empty_2 = None
        
         # File: /app/low_bit_inference/optims/rms_norm_kernels/liger_rms_norm.py:451 in rms_norm_forward, code: RSTD = torch.empty(n_rows, dtype=rstd_dtype, device=X.device)
        empty_3: "f32[s0][1]cuda:0" = torch.ops.aten.empty.memory_format([arg0_1], dtype = torch.float32, device = device(type='cuda', index=0), pin_memory = False)
        alias_8: "f32[s0][1]cuda:0" = torch.ops.aten.alias.default(empty_3);  empty_3 = None
        
         # File: /app/low_bit_inference/optims/rms_norm_kernels/liger_rms_norm.py:461 in rms_norm_forward, code: _rms_norm_forward_kernel[(n_rows,)](
        triton_kernel_wrapper_functional_proxy_1 = torch.ops.higher_order.triton_kernel_wrapper_functional(kernel_idx = 132, constant_args_idx = 131, grid = [(arg0_1, 1, 1)], tma_descriptor_metadata = {}, kwargs = {'Y_ptr': alias_7, 'X_ptr': view_26, 'W_ptr': arg17_1, 'RSTD_ptr': alias_8}, tensors_to_clone = ['Y_ptr', 'RSTD_ptr']);  alias_7 = view_26 = arg17_1 = alias_8 = None
        getitem_6: "f16[s0, 4096][4096, 1]cuda:0" = triton_kernel_wrapper_functional_proxy_1['Y_ptr'];  triton_kernel_wrapper_functional_proxy_1 = None
        
         # File: /app/low_bit_inference/model.py:124 in forward, code: down_proj = self.down_proj(self.act_fn(self.gate_proj(x)) * self.up_proj(x))
        permute_9: "f16[4096, 14336][1, 4096]cuda:0" = torch.ops.aten.permute.default(arg18_1, [1, 0]);  arg18_1 = None
        alias_11: "f16[s0, 4096][4096, 1]cuda:0" = torch.ops.aten.alias.default(getitem_6)
        view_29: "f16[1, s0, 4096][4096*s0, 4096, 1]cuda:0" = torch.ops.aten.view.default(alias_11, [1, arg0_1, 4096]);  alias_11 = None
        view_30: "f16[s0, 4096][4096, 1]cuda:0" = torch.ops.aten.view.default(view_29, [arg5_1, 4096]);  view_29 = None
        mm_4: "f16[s0, 14336][14336, 1]cuda:0" = torch.ops.aten.mm.default(view_30, permute_9);  view_30 = permute_9 = None
        view_31: "f16[1, s0, 14336][14336*s0, 14336, 1]cuda:0" = torch.ops.aten.view.default(mm_4, [1, arg5_1, 14336]);  mm_4 = None
        convert_element_type_13: "f32[1, s0, 14336][14336*s0, 14336, 1]cuda:0" = torch.ops.prims.convert_element_type.default(view_31, torch.float32);  view_31 = None
        sigmoid: "f32[1, s0, 14336][14336*s0, 14336, 1]cuda:0" = torch.ops.aten.sigmoid.default(convert_element_type_13)
        mul_410: "f32[1, s0, 14336][14336*s0, 14336, 1]cuda:0" = torch.ops.aten.mul.Tensor(convert_element_type_13, sigmoid);  convert_element_type_13 = sigmoid = None
        convert_element_type_14: "f16[1, s0, 14336][14336*s0, 14336, 1]cuda:0" = torch.ops.prims.convert_element_type.default(mul_410, torch.float16);  mul_410 = None
        permute_10: "f16[4096, 14336][1, 4096]cuda:0" = torch.ops.aten.permute.default(arg19_1, [1, 0]);  arg19_1 = None
        alias_12: "f16[s0, 4096][4096, 1]cuda:0" = torch.ops.aten.alias.default(getitem_6);  getitem_6 = None
        view_33: "f16[1, s0, 4096][4096*s0, 4096, 1]cuda:0" = torch.ops.aten.view.default(alias_12, [1, arg0_1, 4096]);  alias_12 = None
        view_34: "f16[s0, 4096][4096, 1]cuda:0" = torch.ops.aten.view.default(view_33, [arg5_1, 4096]);  view_33 = None
        mm_5: "f16[s0, 14336][14336, 1]cuda:0" = torch.ops.aten.mm.default(view_34, permute_10);  view_34 = permute_10 = None
        view_35: "f16[1, s0, 14336][14336*s0, 14336, 1]cuda:0" = torch.ops.aten.view.default(mm_5, [1, arg5_1, 14336]);  mm_5 = None
        mul_427: "f16[1, s0, 14336][14336*s0, 14336, 1]cuda:0" = torch.ops.aten.mul.Tensor(convert_element_type_14, view_35);  convert_element_type_14 = view_35 = None
        permute_11: "f16[14336, 4096][1, 14336]cuda:0" = torch.ops.aten.permute.default(arg20_1, [1, 0]);  arg20_1 = None
        view_36: "f16[s0, 14336][14336, 1]cuda:0" = torch.ops.aten.view.default(mul_427, [arg5_1, 14336]);  mul_427 = None
        mm_6: "f16[s0, 4096][4096, 1]cuda:0" = torch.ops.aten.mm.default(view_36, permute_11);  view_36 = permute_11 = None
        view_37: "f16[1, s0, 4096][4096*s0, 4096, 1]cuda:0" = torch.ops.aten.view.default(mm_6, [1, arg5_1, 4096]);  mm_6 = None
        
         # File: /app/low_bit_inference/model.py:279 in forward, code: hidden_states = residual + hidden_states
        add_354: "f16[1, s0, 4096][4096*s0, 4096, 1]cuda:0" = torch.ops.aten.add.Tensor(add_301, view_37);  add_301 = view_37 = None
        
         # File: /app/low_bit_inference/optims/rms_norm_kernels/liger_rms_norm.py:443 in rms_norm_forward, code: X = X.view(-1, dim)
        view_38: "f16[s0, 4096][4096, 1]cuda:0" = torch.ops.aten.view.default(add_354, [-1, 4096])
        
         # File: /app/low_bit_inference/optims/rms_norm_kernels/liger_rms_norm.py:447 in rms_norm_forward, code: Y = torch.empty((n_rows, n_cols), dtype=X.dtype, device=X.device)
        empty_4: "f16[s0, 4096][4096, 1]cuda:0" = torch.ops.aten.empty.memory_format([arg0_1, 4096], dtype = torch.float16, device = device(type='cuda', index=0), pin_memory = False)
        alias_13: "f16[s0, 4096][4096, 1]cuda:0" = torch.ops.aten.alias.default(empty_4);  empty_4 = None
        
         # File: /app/low_bit_inference/optims/rms_norm_kernels/liger_rms_norm.py:451 in rms_norm_forward, code: RSTD = torch.empty(n_rows, dtype=rstd_dtype, device=X.device)
        empty_5: "f32[s0][1]cuda:0" = torch.ops.aten.empty.memory_format([arg0_1], dtype = torch.float32, device = device(type='cuda', index=0), pin_memory = False)
        alias_14: "f32[s0][1]cuda:0" = torch.ops.aten.alias.default(empty_5);  empty_5 = None
        
         # File: /app/low_bit_inference/optims/rms_norm_kernels/liger_rms_norm.py:461 in rms_norm_forward, code: _rms_norm_forward_kernel[(n_rows,)](
        triton_kernel_wrapper_functional_proxy_2 = torch.ops.higher_order.triton_kernel_wrapper_functional(kernel_idx = 133, constant_args_idx = 132, grid = [(arg0_1, 1, 1)], tma_descriptor_metadata = {}, kwargs = {'Y_ptr': alias_13, 'X_ptr': view_38, 'W_ptr': arg21_1, 'RSTD_ptr': alias_14}, tensors_to_clone = ['Y_ptr', 'RSTD_ptr']);  alias_13 = view_38 = arg21_1 = alias_14 = None
        getitem_8: "f16[s0, 4096][4096, 1]cuda:0" = triton_kernel_wrapper_functional_proxy_2['Y_ptr'];  triton_kernel_wrapper_functional_proxy_2 = None
        
         # File: /app/low_bit_inference/model.py:206 in forward, code: query_states = self.q_proj(hidden_states).view(hidden_shape).transpose(1, 2)
        permute_12: "f16[4096, 4096][1, 4096]cuda:0" = torch.ops.aten.permute.default(arg22_1, [1, 0]);  arg22_1 = None
        alias_17: "f16[s0, 4096][4096, 1]cuda:0" = torch.ops.aten.alias.default(getitem_8)
        view_41: "f16[1, s0, 4096][4096*s0, 4096, 1]cuda:0" = torch.ops.aten.view.default(alias_17, [1, arg0_1, 4096]);  alias_17 = None
        view_42: "f16[s0, 4096][4096, 1]cuda:0" = torch.ops.aten.view.default(view_41, [arg5_1, 4096]);  view_41 = None
        mm_7: "f16[s0, 4096][4096, 1]cuda:0" = torch.ops.aten.mm.default(view_42, permute_12);  view_42 = permute_12 = None
        view_43: "f16[1, s0, 4096][4096*s0, 4096, 1]cuda:0" = torch.ops.aten.view.default(mm_7, [1, arg5_1, 4096]);  mm_7 = None
        view_44: "f16[1, s0, 32, 128][4096*s0, 4096, 128, 1]cuda:0" = torch.ops.aten.view.default(view_43, [1, arg0_1, -1, 128]);  view_43 = None
        permute_13: "f16[1, 32, s0, 128][4096*s0, 128, 4096, 1]cuda:0" = torch.ops.aten.permute.default(view_44, [0, 2, 1, 3]);  view_44 = None
        
         # File: /app/low_bit_inference/model.py:207 in forward, code: key_states = self.k_proj(hidden_states).view(hidden_shape).transpose(1, 2)
        permute_14: "f16[4096, 1024][1, 4096]cuda:0" = torch.ops.aten.permute.default(arg23_1, [1, 0]);  arg23_1 = None
        alias_18: "f16[s0, 4096][4096, 1]cuda:0" = torch.ops.aten.alias.default(getitem_8)
        view_46: "f16[1, s0, 4096][4096*s0, 4096, 1]cuda:0" = torch.ops.aten.view.default(alias_18, [1, arg0_1, 4096]);  alias_18 = None
        view_47: "f16[s0, 4096][4096, 1]cuda:0" = torch.ops.aten.view.default(view_46, [arg5_1, 4096]);  view_46 = None
        mm_8: "f16[s0, 1024][1024, 1]cuda:0" = torch.ops.aten.mm.default(view_47, permute_14);  view_47 = permute_14 = None
        view_48: "f16[1, s0, 1024][1024*s0, 1024, 1]cuda:0" = torch.ops.aten.view.default(mm_8, [1, arg5_1, 1024]);  mm_8 = None
        view_49: "f16[1, s0, 8, 128][1024*s0, 1024, 128, 1]cuda:0" = torch.ops.aten.view.default(view_48, [1, arg0_1, -1, 128]);  view_48 = None
        permute_15: "f16[1, 8, s0, 128][1024*s0, 128, 1024, 1]cuda:0" = torch.ops.aten.permute.default(view_49, [0, 2, 1, 3]);  view_49 = None
        
         # File: /app/low_bit_inference/model.py:208 in forward, code: value_states = self.v_proj(hidden_states).view(hidden_shape).transpose(1, 2)
        permute_16: "f16[4096, 1024][1, 4096]cuda:0" = torch.ops.aten.permute.default(arg24_1, [1, 0]);  arg24_1 = None
        alias_19: "f16[s0, 4096][4096, 1]cuda:0" = torch.ops.aten.alias.default(getitem_8);  getitem_8 = None
        view_51: "f16[1, s0, 4096][4096*s0, 4096, 1]cuda:0" = torch.ops.aten.view.default(alias_19, [1, arg0_1, 4096]);  alias_19 = None
        view_52: "f16[s0, 4096][4096, 1]cuda:0" = torch.ops.aten.view.default(view_51, [arg5_1, 4096]);  view_51 = None
        mm_9: "f16[s0, 1024][1024, 1]cuda:0" = torch.ops.aten.mm.default(view_52, permute_16);  view_52 = permute_16 = None
        view_53: "f16[1, s0, 1024][1024*s0, 1024, 1]cuda:0" = torch.ops.aten.view.default(mm_9, [1, arg5_1, 1024]);  mm_9 = None
        view_54: "f16[1, s0, 8, 128][1024*s0, 1024, 128, 1]cuda:0" = torch.ops.aten.view.default(view_53, [1, arg0_1, -1, 128]);  view_53 = None
        permute_17: "f16[1, 8, s0, 128][1024*s0, 128, 1024, 1]cuda:0" = torch.ops.aten.permute.default(view_54, [0, 2, 1, 3]);  view_54 = None
        
         # File: /app/low_bit_inference/model.py:105 in apply_rotary_pos_emb, code: cos = cos.unsqueeze(unsqueeze_dim)
        unsqueeze_10: "f16[1, 1, s0, 128][128*s0, 128*s0, 128, 1]cuda:0" = torch.ops.aten.unsqueeze.default(convert_element_type_1, 1)
        
         # File: /app/low_bit_inference/model.py:106 in apply_rotary_pos_emb, code: sin = sin.unsqueeze(unsqueeze_dim)
        unsqueeze_11: "f16[1, 1, s0, 128][128*s0, 128*s0, 128, 1]cuda:0" = torch.ops.aten.unsqueeze.default(convert_element_type_2, 1)
        
         # File: /app/low_bit_inference/model.py:107 in apply_rotary_pos_emb, code: q_embed = (q * cos) + (rotate_half(q) * sin)
        mul_529: "f16[1, 32, s0, 128][4096*s0, 128, 4096, 1]cuda:0" = torch.ops.aten.mul.Tensor(permute_13, unsqueeze_10)
        
         # File: /app/low_bit_inference/model.py:80 in rotate_half, code: x1 = x[..., : x.shape[-1] // 2]
        slice_27: "f16[1, 32, s0, 64][4096*s0, 128, 4096, 1]cuda:0" = torch.ops.aten.slice.Tensor(permute_13, 3, 0, 64)
        
         # File: /app/low_bit_inference/model.py:81 in rotate_half, code: x2 = x[..., x.shape[-1] // 2 :]
        slice_28: "f16[1, 32, s0, 64][4096*s0, 128, 4096, 1]cuda:0" = torch.ops.aten.slice.Tensor(permute_13, 3, 64, 9223372036854775807);  permute_13 = None
        
         # File: /app/low_bit_inference/model.py:82 in rotate_half, code: return torch.cat((-x2, x1), dim=-1)
        neg_2: "f16[1, 32, s0, 64][2048*s0, 64, 2048, 1]cuda:0" = torch.ops.aten.neg.default(slice_28);  slice_28 = None
        cat_2: "f16[1, 32, s0, 128][4096*s0, 128*s0, 128, 1]cuda:0" = torch.ops.aten.cat.default([neg_2, slice_27], -1);  neg_2 = slice_27 = None
        
         # File: /app/low_bit_inference/model.py:107 in apply_rotary_pos_emb, code: q_embed = (q * cos) + (rotate_half(q) * sin)
        mul_546: "f16[1, 32, s0, 128][4096*s0, 128*s0, 128, 1]cuda:0" = torch.ops.aten.mul.Tensor(cat_2, unsqueeze_11);  cat_2 = None
        add_448: "f16[1, 32, s0, 128][4096*s0, 128, 4096, 1]cuda:0" = torch.ops.aten.add.Tensor(mul_529, mul_546);  mul_529 = mul_546 = None
        
         # File: /app/low_bit_inference/model.py:108 in apply_rotary_pos_emb, code: k_embed = (k * cos) + (rotate_half(k) * sin)
        mul_554: "f16[1, 8, s0, 128][1024*s0, 128, 1024, 1]cuda:0" = torch.ops.aten.mul.Tensor(permute_15, unsqueeze_10);  unsqueeze_10 = None
        
         # File: /app/low_bit_inference/model.py:80 in rotate_half, code: x1 = x[..., : x.shape[-1] // 2]
        slice_29: "f16[1, 8, s0, 64][1024*s0, 128, 1024, 1]cuda:0" = torch.ops.aten.slice.Tensor(permute_15, 3, 0, 64)
        
         # File: /app/low_bit_inference/model.py:81 in rotate_half, code: x2 = x[..., x.shape[-1] // 2 :]
        slice_30: "f16[1, 8, s0, 64][1024*s0, 128, 1024, 1]cuda:0" = torch.ops.aten.slice.Tensor(permute_15, 3, 64, 9223372036854775807);  permute_15 = None
        
         # File: /app/low_bit_inference/model.py:82 in rotate_half, code: return torch.cat((-x2, x1), dim=-1)
        neg_3: "f16[1, 8, s0, 64][512*s0, 64, 512, 1]cuda:0" = torch.ops.aten.neg.default(slice_30);  slice_30 = None
        cat_3: "f16[1, 8, s0, 128][1024*s0, 128*s0, 128, 1]cuda:0" = torch.ops.aten.cat.default([neg_3, slice_29], -1);  neg_3 = slice_29 = None
        
         # File: /app/low_bit_inference/model.py:108 in apply_rotary_pos_emb, code: k_embed = (k * cos) + (rotate_half(k) * sin)
        mul_571: "f16[1, 8, s0, 128][1024*s0, 128*s0, 128, 1]cuda:0" = torch.ops.aten.mul.Tensor(cat_3, unsqueeze_11);  cat_3 = unsqueeze_11 = None
        add_472: "f16[1, 8, s0, 128][1024*s0, 128, 1024, 1]cuda:0" = torch.ops.aten.add.Tensor(mul_554, mul_571);  mul_554 = mul_571 = None
        
         # File: /app/low_bit_inference/optims/cache_optim.py:150 in update, code: self.keys.index_copy_(2, cache_position, key_states)
        index_put_2: "f16[1, 8, s4, 128][1024*s4, 128*s4, 128, 1]cuda:0" = torch.ops.aten.index_put.default(arg25_1, [None, None, arg4_1], add_472);  add_472 = None
        
         # File: /app/low_bit_inference/optims/cache_optim.py:151 in update, code: self.values.index_copy_(2, cache_position, value_states)
        index_put_3: "f16[1, 8, s4, 128][1024*s4, 128*s4, 128, 1]cuda:0" = torch.ops.aten.index_put.default(arg26_1, [None, None, arg4_1], permute_17);  permute_17 = None
        
         # File: /app/.venv/lib/python3.12/site-packages/transformers/integrations/sdpa_attention.py:15 in repeat_kv, code: return hidden_states.reshape(batch, num_key_value_heads * n_rep, slen, head_dim)
        slice_35: "f16[1, 8, s4, 128][1024*s4, 128*s4, 128, 1]cuda:0" = torch.ops.aten.slice.Tensor(index_put_2, 0, 0, 9223372036854775807)
        slice_36: "f16[1, 8, s4, 128][1024*s4, 128*s4, 128, 1]cuda:0" = torch.ops.aten.slice.Tensor(slice_35, 1, 0, 9223372036854775807);  slice_35 = None
        unsqueeze_13: "f16[1, 8, 1, s4, 128][1024*s4, 128*s4, 128*s4, 128, 1]cuda:0" = torch.ops.aten.unsqueeze.default(slice_36, 2);  slice_36 = None
        slice_37: "f16[1, 8, 1, s4, 128][1024*s4, 128*s4, 128*s4, 128, 1]cuda:0" = torch.ops.aten.slice.Tensor(unsqueeze_13, 3, 0, 9223372036854775807);  unsqueeze_13 = None
        slice_38: "f16[1, 8, 1, s4, 128][1024*s4, 128*s4, 128*s4, 128, 1]cuda:0" = torch.ops.aten.slice.Tensor(slice_37, 4, 0, 9223372036854775807);  slice_37 = None
        expand_10: "f16[1, 8, 4, s4, 128][1024*s4, 128*s4, 0, 128, 1]cuda:0" = torch.ops.aten.expand.default(slice_38, [1, 8, 4, arg7_1, 128]);  slice_38 = None
        clone_5: "f16[1, 8, 4, s4, 128][4096*s4, 512*s4, 128*s4, 128, 1]cuda:0" = torch.ops.aten.clone.default(expand_10, memory_format = torch.contiguous_format);  expand_10 = None
        view_55: "f16[1, 32, s4, 128][4096*s4, 128*s4, 128, 1]cuda:0" = torch.ops.aten.view.default(clone_5, [1, 32, arg7_1, 128]);  clone_5 = None
        
         # File: /app/.venv/lib/python3.12/site-packages/transformers/integrations/sdpa_attention.py:15 in repeat_kv, code: return hidden_states.reshape(batch, num_key_value_heads * n_rep, slen, head_dim)
        slice_43: "f16[1, 8, s4, 128][1024*s4, 128*s4, 128, 1]cuda:0" = torch.ops.aten.slice.Tensor(index_put_3, 0, 0, 9223372036854775807)
        slice_44: "f16[1, 8, s4, 128][1024*s4, 128*s4, 128, 1]cuda:0" = torch.ops.aten.slice.Tensor(slice_43, 1, 0, 9223372036854775807);  slice_43 = None
        unsqueeze_15: "f16[1, 8, 1, s4, 128][1024*s4, 128*s4, 128*s4, 128, 1]cuda:0" = torch.ops.aten.unsqueeze.default(slice_44, 2);  slice_44 = None
        slice_45: "f16[1, 8, 1, s4, 128][1024*s4, 128*s4, 128*s4, 128, 1]cuda:0" = torch.ops.aten.slice.Tensor(unsqueeze_15, 3, 0, 9223372036854775807);  unsqueeze_15 = None
        slice_46: "f16[1, 8, 1, s4, 128][1024*s4, 128*s4, 128*s4, 128, 1]cuda:0" = torch.ops.aten.slice.Tensor(slice_45, 4, 0, 9223372036854775807);  slice_45 = None
        expand_12: "f16[1, 8, 4, s4, 128][1024*s4, 128*s4, 0, 128, 1]cuda:0" = torch.ops.aten.expand.default(slice_46, [1, 8, 4, arg7_1, 128]);  slice_46 = None
        clone_6: "f16[1, 8, 4, s4, 128][4096*s4, 512*s4, 128*s4, 128, 1]cuda:0" = torch.ops.aten.clone.default(expand_12, memory_format = torch.contiguous_format);  expand_12 = None
        view_56: "f16[1, 32, s4, 128][4096*s4, 128*s4, 128, 1]cuda:0" = torch.ops.aten.view.default(clone_6, [1, 32, arg7_1, 128]);  clone_6 = None
        
         # File: /app/.venv/lib/python3.12/site-packages/transformers/integrations/sdpa_attention.py:35 in sdpa_attention_forward, code: causal_mask = causal_mask[:, :, :, : key.shape[-2]]
        slice_47: "b8[1, 1, s0, s4][s0*s4, s0*s4, s4, 1]cuda:0" = torch.ops.aten.slice.Tensor(arg8_1, 0, 0, 9223372036854775807)
        slice_48: "b8[1, 1, s0, s4][s0*s4, s0*s4, s4, 1]cuda:0" = torch.ops.aten.slice.Tensor(slice_47, 1, 0, 9223372036854775807);  slice_47 = None
        slice_49: "b8[1, 1, s0, s4][s0*s4, s0*s4, s4, 1]cuda:0" = torch.ops.aten.slice.Tensor(slice_48, 2, 0, 9223372036854775807);  slice_48 = None
        
         # File: /app/.venv/lib/python3.12/site-packages/transformers/integrations/sdpa_attention.py:39 in sdpa_attention_forward, code: query = query.contiguous()
        clone_7: "f16[1, 32, s0, 128][4096*s0, 128*s0, 128, 1]cuda:0" = torch.ops.aten.clone.default(add_448, memory_format = torch.contiguous_format);  add_448 = None
        
         # File: /app/.venv/lib/python3.12/site-packages/transformers/integrations/sdpa_attention.py:54 in sdpa_attention_forward, code: attn_output = torch.nn.functional.scaled_dot_product_attention(
        scalar_tensor_2: "f16[][]cuda:0" = torch.ops.aten.scalar_tensor.default(-inf, dtype = torch.float16, device = device(type='cuda', index=0))
        scalar_tensor_3: "f16[][]cuda:0" = torch.ops.aten.scalar_tensor.default(0.0, dtype = torch.float16, layout = torch.strided, device = device(type='cuda', index=0))
        where_1: "f16[1, 1, s0, s4][s0*s4, s0*s4, s4, 1]cuda:0" = torch.ops.aten.where.self(slice_49, scalar_tensor_3, scalar_tensor_2);  slice_49 = scalar_tensor_3 = scalar_tensor_2 = None
        expand_13: "f16[1, 32, s0, s4][s0*s4, 0, s4, 1]cuda:0" = torch.ops.aten.expand.default(where_1, [1, 32, arg5_1, arg7_1]);  where_1 = None
        _scaled_dot_product_efficient_attention_1 = torch.ops.aten._scaled_dot_product_efficient_attention.default(clone_7, view_55, view_56, expand_13, False, scale = 0.08838834764831845);  clone_7 = view_55 = view_56 = expand_13 = None
        getitem_10: "f16[1, 32, s0, 128][4096*s0, 128, 4096, 1]cuda:0" = _scaled_dot_product_efficient_attention_1[0];  _scaled_dot_product_efficient_attention_1 = None
        
         # File: /app/.venv/lib/python3.12/site-packages/transformers/integrations/sdpa_attention.py:63 in sdpa_attention_forward, code: attn_output = attn_output.transpose(1, 2).contiguous()
        permute_18: "f16[1, s0, 32, 128][4096*s0, 4096, 128, 1]cuda:0" = torch.ops.aten.permute.default(getitem_10, [0, 2, 1, 3]);  getitem_10 = None
        
         # File: /app/low_bit_inference/model.py:233 in forward, code: attn_output = attn_output.reshape(*input_shape, -1).contiguous()
        view_57: "f16[1, s0, 4096][4096*s0, 4096, 1]cuda:0" = torch.ops.aten.view.default(permute_18, [1, arg0_1, -1]);  permute_18 = None
        
         # File: /app/low_bit_inference/model.py:234 in forward, code: attn_output = self.o_proj(attn_output)
        permute_19: "f16[4096, 4096][1, 4096]cuda:0" = torch.ops.aten.permute.default(arg27_1, [1, 0]);  arg27_1 = None
        view_58: "f16[s0, 4096][4096, 1]cuda:0" = torch.ops.aten.view.default(view_57, [arg5_1, 4096]);  view_57 = None
        mm_10: "f16[s0, 4096][4096, 1]cuda:0" = torch.ops.aten.mm.default(view_58, permute_19);  view_58 = permute_19 = None
        view_59: "f16[1, s0, 4096][4096*s0, 4096, 1]cuda:0" = torch.ops.aten.view.default(mm_10, [1, arg5_1, 4096]);  mm_10 = None
        
         # File: /app/low_bit_inference/model.py:273 in forward, code: hidden_states = residual + hidden_states
        add_614: "f16[1, s0, 4096][4096*s0, 4096, 1]cuda:0" = torch.ops.aten.add.Tensor(add_354, view_59);  add_354 = view_59 = None
        
         # File: /app/low_bit_inference/optims/rms_norm_kernels/liger_rms_norm.py:443 in rms_norm_forward, code: X = X.view(-1, dim)
        view_60: "f16[s0, 4096][4096, 1]cuda:0" = torch.ops.aten.view.default(add_614, [-1, 4096])
        
         # File: /app/low_bit_inference/optims/rms_norm_kernels/liger_rms_norm.py:447 in rms_norm_forward, code: Y = torch.empty((n_rows, n_cols), dtype=X.dtype, device=X.device)
        empty_6: "f16[s0, 4096][4096, 1]cuda:0" = torch.ops.aten.empty.memory_format([arg0_1, 4096], dtype = torch.float16, device = device(type='cuda', index=0), pin_memory = False)
        alias_20: "f16[s0, 4096][4096, 1]cuda:0" = torch.ops.aten.alias.default(empty_6);  empty_6 = None
        
         # File: /app/low_bit_inference/optims/rms_norm_kernels/liger_rms_norm.py:451 in rms_norm_forward, code: RSTD = torch.empty(n_rows, dtype=rstd_dtype, device=X.device)
        empty_7: "f32[s0][1]cuda:0" = torch.ops.aten.empty.memory_format([arg0_1], dtype = torch.float32, device = device(type='cuda', index=0), pin_memory = False)
        alias_21: "f32[s0][1]cuda:0" = torch.ops.aten.alias.default(empty_7);  empty_7 = None
        
         # File: /app/low_bit_inference/optims/rms_norm_kernels/liger_rms_norm.py:461 in rms_norm_forward, code: _rms_norm_forward_kernel[(n_rows,)](
        triton_kernel_wrapper_functional_proxy_3 = torch.ops.higher_order.triton_kernel_wrapper_functional(kernel_idx = 134, constant_args_idx = 133, grid = [(arg0_1, 1, 1)], tma_descriptor_metadata = {}, kwargs = {'Y_ptr': alias_20, 'X_ptr': view_60, 'W_ptr': arg28_1, 'RSTD_ptr': alias_21}, tensors_to_clone = ['Y_ptr', 'RSTD_ptr']);  alias_20 = view_60 = arg28_1 = alias_21 = None
        getitem_14: "f16[s0, 4096][4096, 1]cuda:0" = triton_kernel_wrapper_functional_proxy_3['Y_ptr'];  triton_kernel_wrapper_functional_proxy_3 = None
        
         # File: /app/low_bit_inference/model.py:124 in forward, code: down_proj = self.down_proj(self.act_fn(self.gate_proj(x)) * self.up_proj(x))
        permute_20: "f16[4096, 14336][1, 4096]cuda:0" = torch.ops.aten.permute.default(arg29_1, [1, 0]);  arg29_1 = None
        alias_24: "f16[s0, 4096][4096, 1]cuda:0" = torch.ops.aten.alias.default(getitem_14)
        view_63: "f16[1, s0, 4096][4096*s0, 4096, 1]cuda:0" = torch.ops.aten.view.default(alias_24, [1, arg0_1, 4096]);  alias_24 = None
        view_64: "f16[s0, 4096][4096, 1]cuda:0" = torch.ops.aten.view.default(view_63, [arg5_1, 4096]);  view_63 = None
        mm_11: "f16[s0, 14336][14336, 1]cuda:0" = torch.ops.aten.mm.default(view_64, permute_20);  view_64 = permute_20 = None
        view_65: "f16[1, s0, 14336][14336*s0, 14336, 1]cuda:0" = torch.ops.aten.view.default(mm_11, [1, arg5_1, 14336]);  mm_11 = None
        convert_element_type_29: "f32[1, s0, 14336][14336*s0, 14336, 1]cuda:0" = torch.ops.prims.convert_element_type.default(view_65, torch.float32);  view_65 = None
        sigmoid_1: "f32[1, s0, 14336][14336*s0, 14336, 1]cuda:0" = torch.ops.aten.sigmoid.default(convert_element_type_29)
        mul_803: "f32[1, s0, 14336][14336*s0, 14336, 1]cuda:0" = torch.ops.aten.mul.Tensor(convert_element_type_29, sigmoid_1);  convert_element_type_29 = sigmoid_1 = None
        convert_element_type_30: "f16[1, s0, 14336][14336*s0, 14336, 1]cuda:0" = torch.ops.prims.convert_element_type.default(mul_803, torch.float16);  mul_803 = None
        permute_21: "f16[4096, 14336][1, 4096]cuda:0" = torch.ops.aten.permute.default(arg30_1, [1, 0]);  arg30_1 = None
        alias_25: "f16[s0, 4096][4096, 1]cuda:0" = torch.ops.aten.alias.default(getitem_14);  getitem_14 = None
        view_67: "f16[1, s0, 4096][4096*s0, 4096, 1]cuda:0" = torch.ops.aten.view.default(alias_25, [1, arg0_1, 4096]);  alias_25 = None
        view_68: "f16[s0, 4096][4096, 1]cuda:0" = torch.ops.aten.view.default(view_67, [arg5_1, 4096]);  view_67 = None
        mm_12: "f16[s0, 14336][14336, 1]cuda:0" = torch.ops.aten.mm.default(view_68, permute_21);  view_68 = permute_21 = None
        view_69: "f16[1, s0, 14336][14336*s0, 14336, 1]cuda:0" = torch.ops.aten.view.default(mm_12, [1, arg5_1, 14336]);  mm_12 = None
        mul_820: "f16[1, s0, 14336][14336*s0, 14336, 1]cuda:0" = torch.ops.aten.mul.Tensor(convert_element_type_30, view_69);  convert_element_type_30 = view_69 = None
        permute_22: "f16[14336, 4096][1, 14336]cuda:0" = torch.ops.aten.permute.default(arg31_1, [1, 0]);  arg31_1 = None
        view_70: "f16[s0, 14336][14336, 1]cuda:0" = torch.ops.aten.view.default(mul_820, [arg5_1, 14336]);  mul_820 = None
        mm_13: "f16[s0, 4096][4096, 1]cuda:0" = torch.ops.aten.mm.default(view_70, permute_22);  view_70 = permute_22 = None
        view_71: "f16[1, s0, 4096][4096*s0, 4096, 1]cuda:0" = torch.ops.aten.view.default(mm_13, [1, arg5_1, 4096]);  mm_13 = None
        
         # File: /app/low_bit_inference/model.py:279 in forward, code: hidden_states = residual + hidden_states
        add_667: "f16[1, s0, 4096][4096*s0, 4096, 1]cuda:0" = torch.ops.aten.add.Tensor(add_614, view_71);  add_614 = view_71 = None
        
         # File: /app/low_bit_inference/optims/rms_norm_kernels/liger_rms_norm.py:443 in rms_norm_forward, code: X = X.view(-1, dim)
        view_72: "f16[s0, 4096][4096, 1]cuda:0" = torch.ops.aten.view.default(add_667, [-1, 4096])
        
         # File: /app/low_bit_inference/optims/rms_norm_kernels/liger_rms_norm.py:447 in rms_norm_forward, code: Y = torch.empty((n_rows, n_cols), dtype=X.dtype, device=X.device)
        empty_8: "f16[s0, 4096][4096, 1]cuda:0" = torch.ops.aten.empty.memory_format([arg0_1, 4096], dtype = torch.float16, device = device(type='cuda', index=0), pin_memory = False)
        alias_26: "f16[s0, 4096][4096, 1]cuda:0" = torch.ops.aten.alias.default(empty_8);  empty_8 = None
        
         # File: /app/low_bit_inference/optims/rms_norm_kernels/liger_rms_norm.py:451 in rms_norm_forward, code: RSTD = torch.empty(n_rows, dtype=rstd_dtype, device=X.device)
        empty_9: "f32[s0][1]cuda:0" = torch.ops.aten.empty.memory_format([arg0_1], dtype = torch.float32, device = device(type='cuda', index=0), pin_memory = False)
        alias_27: "f32[s0][1]cuda:0" = torch.ops.aten.alias.default(empty_9);  empty_9 = None
        
         # File: /app/low_bit_inference/optims/rms_norm_kernels/liger_rms_norm.py:461 in rms_norm_forward, code: _rms_norm_forward_kernel[(n_rows,)](
        triton_kernel_wrapper_functional_proxy_4 = torch.ops.higher_order.triton_kernel_wrapper_functional(kernel_idx = 135, constant_args_idx = 134, grid = [(arg0_1, 1, 1)], tma_descriptor_metadata = {}, kwargs = {'Y_ptr': alias_26, 'X_ptr': view_72, 'W_ptr': arg32_1, 'RSTD_ptr': alias_27}, tensors_to_clone = ['Y_ptr', 'RSTD_ptr']);  alias_26 = view_72 = arg32_1 = alias_27 = None
        getitem_16: "f16[s0, 4096][4096, 1]cuda:0" = triton_kernel_wrapper_functional_proxy_4['Y_ptr'];  triton_kernel_wrapper_functional_proxy_4 = None
        
         # File: /app/low_bit_inference/model.py:206 in forward, code: query_states = self.q_proj(hidden_states).view(hidden_shape).transpose(1, 2)
        permute_23: "f16[4096, 4096][1, 4096]cuda:0" = torch.ops.aten.permute.default(arg33_1, [1, 0]);  arg33_1 = None
        alias_30: "f16[s0, 4096][4096, 1]cuda:0" = torch.ops.aten.alias.default(getitem_16)
        view_75: "f16[1, s0, 4096][4096*s0, 4096, 1]cuda:0" = torch.ops.aten.view.default(alias_30, [1, arg0_1, 4096]);  alias_30 = None
        view_76: "f16[s0, 4096][4096, 1]cuda:0" = torch.ops.aten.view.default(view_75, [arg5_1, 4096]);  view_75 = None
        mm_14: "f16[s0, 4096][4096, 1]cuda:0" = torch.ops.aten.mm.default(view_76, permute_23);  view_76 = permute_23 = None
        view_77: "f16[1, s0, 4096][4096*s0, 4096, 1]cuda:0" = torch.ops.aten.view.default(mm_14, [1, arg5_1, 4096]);  mm_14 = None
        view_78: "f16[1, s0, 32, 128][4096*s0, 4096, 128, 1]cuda:0" = torch.ops.aten.view.default(view_77, [1, arg0_1, -1, 128]);  view_77 = None
        permute_24: "f16[1, 32, s0, 128][4096*s0, 128, 4096, 1]cuda:0" = torch.ops.aten.permute.default(view_78, [0, 2, 1, 3]);  view_78 = None
        
         # File: /app/low_bit_inference/model.py:207 in forward, code: key_states = self.k_proj(hidden_states).view(hidden_shape).transpose(1, 2)
        permute_25: "f16[4096, 1024][1, 4096]cuda:0" = torch.ops.aten.permute.default(arg34_1, [1, 0]);  arg34_1 = None
        alias_31: "f16[s0, 4096][4096, 1]cuda:0" = torch.ops.aten.alias.default(getitem_16)
        view_80: "f16[1, s0, 4096][4096*s0, 4096, 1]cuda:0" = torch.ops.aten.view.default(alias_31, [1, arg0_1, 4096]);  alias_31 = None
        view_81: "f16[s0, 4096][4096, 1]cuda:0" = torch.ops.aten.view.default(view_80, [arg5_1, 4096]);  view_80 = None
        mm_15: "f16[s0, 1024][1024, 1]cuda:0" = torch.ops.aten.mm.default(view_81, permute_25);  view_81 = permute_25 = None
        view_82: "f16[1, s0, 1024][1024*s0, 1024, 1]cuda:0" = torch.ops.aten.view.default(mm_15, [1, arg5_1, 1024]);  mm_15 = None
        view_83: "f16[1, s0, 8, 128][1024*s0, 1024, 128, 1]cuda:0" = torch.ops.aten.view.default(view_82, [1, arg0_1, -1, 128]);  view_82 = None
        permute_26: "f16[1, 8, s0, 128][1024*s0, 128, 1024, 1]cuda:0" = torch.ops.aten.permute.default(view_83, [0, 2, 1, 3]);  view_83 = None
        
         # File: /app/low_bit_inference/model.py:208 in forward, code: value_states = self.v_proj(hidden_states).view(hidden_shape).transpose(1, 2)
        permute_27: "f16[4096, 1024][1, 4096]cuda:0" = torch.ops.aten.permute.default(arg35_1, [1, 0]);  arg35_1 = None
        alias_32: "f16[s0, 4096][4096, 1]cuda:0" = torch.ops.aten.alias.default(getitem_16);  getitem_16 = None
        view_85: "f16[1, s0, 4096][4096*s0, 4096, 1]cuda:0" = torch.ops.aten.view.default(alias_32, [1, arg0_1, 4096]);  alias_32 = None
        view_86: "f16[s0, 4096][4096, 1]cuda:0" = torch.ops.aten.view.default(view_85, [arg5_1, 4096]);  view_85 = None
        mm_16: "f16[s0, 1024][1024, 1]cuda:0" = torch.ops.aten.mm.default(view_86, permute_27);  view_86 = permute_27 = None
        view_87: "f16[1, s0, 1024][1024*s0, 1024, 1]cuda:0" = torch.ops.aten.view.default(mm_16, [1, arg5_1, 1024]);  mm_16 = None
        view_88: "f16[1, s0, 8, 128][1024*s0, 1024, 128, 1]cuda:0" = torch.ops.aten.view.default(view_87, [1, arg0_1, -1, 128]);  view_87 = None
        permute_28: "f16[1, 8, s0, 128][1024*s0, 128, 1024, 1]cuda:0" = torch.ops.aten.permute.default(view_88, [0, 2, 1, 3]);  view_88 = None
        
         # File: /app/low_bit_inference/model.py:105 in apply_rotary_pos_emb, code: cos = cos.unsqueeze(unsqueeze_dim)
        unsqueeze_16: "f16[1, 1, s0, 128][128*s0, 128*s0, 128, 1]cuda:0" = torch.ops.aten.unsqueeze.default(convert_element_type_1, 1)
        
         # File: /app/low_bit_inference/model.py:106 in apply_rotary_pos_emb, code: sin = sin.unsqueeze(unsqueeze_dim)
        unsqueeze_17: "f16[1, 1, s0, 128][128*s0, 128*s0, 128, 1]cuda:0" = torch.ops.aten.unsqueeze.default(convert_element_type_2, 1)
        
         # File: /app/low_bit_inference/model.py:107 in apply_rotary_pos_emb, code: q_embed = (q * cos) + (rotate_half(q) * sin)
        mul_922: "f16[1, 32, s0, 128][4096*s0, 128, 4096, 1]cuda:0" = torch.ops.aten.mul.Tensor(permute_24, unsqueeze_16)
        
         # File: /app/low_bit_inference/model.py:80 in rotate_half, code: x1 = x[..., : x.shape[-1] // 2]
        slice_50: "f16[1, 32, s0, 64][4096*s0, 128, 4096, 1]cuda:0" = torch.ops.aten.slice.Tensor(permute_24, 3, 0, 64)
        
         # File: /app/low_bit_inference/model.py:81 in rotate_half, code: x2 = x[..., x.shape[-1] // 2 :]
        slice_51: "f16[1, 32, s0, 64][4096*s0, 128, 4096, 1]cuda:0" = torch.ops.aten.slice.Tensor(permute_24, 3, 64, 9223372036854775807);  permute_24 = None
        
         # File: /app/low_bit_inference/model.py:82 in rotate_half, code: return torch.cat((-x2, x1), dim=-1)
        neg_4: "f16[1, 32, s0, 64][2048*s0, 64, 2048, 1]cuda:0" = torch.ops.aten.neg.default(slice_51);  slice_51 = None
        cat_4: "f16[1, 32, s0, 128][4096*s0, 128*s0, 128, 1]cuda:0" = torch.ops.aten.cat.default([neg_4, slice_50], -1);  neg_4 = slice_50 = None
        
         # File: /app/low_bit_inference/model.py:107 in apply_rotary_pos_emb, code: q_embed = (q * cos) + (rotate_half(q) * sin)
        mul_939: "f16[1, 32, s0, 128][4096*s0, 128*s0, 128, 1]cuda:0" = torch.ops.aten.mul.Tensor(cat_4, unsqueeze_17);  cat_4 = None
        add_761: "f16[1, 32, s0, 128][4096*s0, 128, 4096, 1]cuda:0" = torch.ops.aten.add.Tensor(mul_922, mul_939);  mul_922 = mul_939 = None
        
         # File: /app/low_bit_inference/model.py:108 in apply_rotary_pos_emb, code: k_embed = (k * cos) + (rotate_half(k) * sin)
        mul_947: "f16[1, 8, s0, 128][1024*s0, 128, 1024, 1]cuda:0" = torch.ops.aten.mul.Tensor(permute_26, unsqueeze_16);  unsqueeze_16 = None
        
         # File: /app/low_bit_inference/model.py:80 in rotate_half, code: x1 = x[..., : x.shape[-1] // 2]
        slice_52: "f16[1, 8, s0, 64][1024*s0, 128, 1024, 1]cuda:0" = torch.ops.aten.slice.Tensor(permute_26, 3, 0, 64)
        
         # File: /app/low_bit_inference/model.py:81 in rotate_half, code: x2 = x[..., x.shape[-1] // 2 :]
        slice_53: "f16[1, 8, s0, 64][1024*s0, 128, 1024, 1]cuda:0" = torch.ops.aten.slice.Tensor(permute_26, 3, 64, 9223372036854775807);  permute_26 = None
        
         # File: /app/low_bit_inference/model.py:82 in rotate_half, code: return torch.cat((-x2, x1), dim=-1)
        neg_5: "f16[1, 8, s0, 64][512*s0, 64, 512, 1]cuda:0" = torch.ops.aten.neg.default(slice_53);  slice_53 = None
        cat_5: "f16[1, 8, s0, 128][1024*s0, 128*s0, 128, 1]cuda:0" = torch.ops.aten.cat.default([neg_5, slice_52], -1);  neg_5 = slice_52 = None
        
         # File: /app/low_bit_inference/model.py:108 in apply_rotary_pos_emb, code: k_embed = (k * cos) + (rotate_half(k) * sin)
        mul_964: "f16[1, 8, s0, 128][1024*s0, 128*s0, 128, 1]cuda:0" = torch.ops.aten.mul.Tensor(cat_5, unsqueeze_17);  cat_5 = unsqueeze_17 = None
        add_785: "f16[1, 8, s0, 128][1024*s0, 128, 1024, 1]cuda:0" = torch.ops.aten.add.Tensor(mul_947, mul_964);  mul_947 = mul_964 = None
        
         # File: /app/low_bit_inference/optims/cache_optim.py:150 in update, code: self.keys.index_copy_(2, cache_position, key_states)
        index_put_4: "f16[1, 8, s4, 128][1024*s4, 128*s4, 128, 1]cuda:0" = torch.ops.aten.index_put.default(arg36_1, [None, None, arg4_1], add_785);  add_785 = None
        
         # File: /app/low_bit_inference/optims/cache_optim.py:151 in update, code: self.values.index_copy_(2, cache_position, value_states)
        index_put_5: "f16[1, 8, s4, 128][1024*s4, 128*s4, 128, 1]cuda:0" = torch.ops.aten.index_put.default(arg37_1, [None, None, arg4_1], permute_28);  permute_28 = None
        
         # File: /app/.venv/lib/python3.12/site-packages/transformers/integrations/sdpa_attention.py:15 in repeat_kv, code: return hidden_states.reshape(batch, num_key_value_heads * n_rep, slen, head_dim)
        slice_58: "f16[1, 8, s4, 128][1024*s4, 128*s4, 128, 1]cuda:0" = torch.ops.aten.slice.Tensor(index_put_4, 0, 0, 9223372036854775807)
        slice_59: "f16[1, 8, s4, 128][1024*s4, 128*s4, 128, 1]cuda:0" = torch.ops.aten.slice.Tensor(slice_58, 1, 0, 9223372036854775807);  slice_58 = None
        unsqueeze_19: "f16[1, 8, 1, s4, 128][1024*s4, 128*s4, 128*s4, 128, 1]cuda:0" = torch.ops.aten.unsqueeze.default(slice_59, 2);  slice_59 = None
        slice_60: "f16[1, 8, 1, s4, 128][1024*s4, 128*s4, 128*s4, 128, 1]cuda:0" = torch.ops.aten.slice.Tensor(unsqueeze_19, 3, 0, 9223372036854775807);  unsqueeze_19 = None
        slice_61: "f16[1, 8, 1, s4, 128][1024*s4, 128*s4, 128*s4, 128, 1]cuda:0" = torch.ops.aten.slice.Tensor(slice_60, 4, 0, 9223372036854775807);  slice_60 = None
        expand_15: "f16[1, 8, 4, s4, 128][1024*s4, 128*s4, 0, 128, 1]cuda:0" = torch.ops.aten.expand.default(slice_61, [1, 8, 4, arg7_1, 128]);  slice_61 = None
        clone_8: "f16[1, 8, 4, s4, 128][4096*s4, 512*s4, 128*s4, 128, 1]cuda:0" = torch.ops.aten.clone.default(expand_15, memory_format = torch.contiguous_format);  expand_15 = None
        view_89: "f16[1, 32, s4, 128][4096*s4, 128*s4, 128, 1]cuda:0" = torch.ops.aten.view.default(clone_8, [1, 32, arg7_1, 128]);  clone_8 = None
        
         # File: /app/.venv/lib/python3.12/site-packages/transformers/integrations/sdpa_attention.py:15 in repeat_kv, code: return hidden_states.reshape(batch, num_key_value_heads * n_rep, slen, head_dim)
        slice_66: "f16[1, 8, s4, 128][1024*s4, 128*s4, 128, 1]cuda:0" = torch.ops.aten.slice.Tensor(index_put_5, 0, 0, 9223372036854775807)
        slice_67: "f16[1, 8, s4, 128][1024*s4, 128*s4, 128, 1]cuda:0" = torch.ops.aten.slice.Tensor(slice_66, 1, 0, 9223372036854775807);  slice_66 = None
        unsqueeze_21: "f16[1, 8, 1, s4, 128][1024*s4, 128*s4, 128*s4, 128, 1]cuda:0" = torch.ops.aten.unsqueeze.default(slice_67, 2);  slice_67 = None
        slice_68: "f16[1, 8, 1, s4, 128][1024*s4, 128*s4, 128*s4, 128, 1]cuda:0" = torch.ops.aten.slice.Tensor(unsqueeze_21, 3, 0, 9223372036854775807);  unsqueeze_21 = None
        slice_69: "f16[1, 8, 1, s4, 128][1024*s4, 128*s4, 128*s4, 128, 1]cuda:0" = torch.ops.aten.slice.Tensor(slice_68, 4, 0, 9223372036854775807);  slice_68 = None
        expand_17: "f16[1, 8, 4, s4, 128][1024*s4, 128*s4, 0, 128, 1]cuda:0" = torch.ops.aten.expand.default(slice_69, [1, 8, 4, arg7_1, 128]);  slice_69 = None
        clone_9: "f16[1, 8, 4, s4, 128][4096*s4, 512*s4, 128*s4, 128, 1]cuda:0" = torch.ops.aten.clone.default(expand_17, memory_format = torch.contiguous_format);  expand_17 = None
        view_90: "f16[1, 32, s4, 128][4096*s4, 128*s4, 128, 1]cuda:0" = torch.ops.aten.view.default(clone_9, [1, 32, arg7_1, 128]);  clone_9 = None
        
         # File: /app/.venv/lib/python3.12/site-packages/transformers/integrations/sdpa_attention.py:35 in sdpa_attention_forward, code: causal_mask = causal_mask[:, :, :, : key.shape[-2]]
        slice_70: "b8[1, 1, s0, s4][s0*s4, s0*s4, s4, 1]cuda:0" = torch.ops.aten.slice.Tensor(arg8_1, 0, 0, 9223372036854775807)
        slice_71: "b8[1, 1, s0, s4][s0*s4, s0*s4, s4, 1]cuda:0" = torch.ops.aten.slice.Tensor(slice_70, 1, 0, 9223372036854775807);  slice_70 = None
        slice_72: "b8[1, 1, s0, s4][s0*s4, s0*s4, s4, 1]cuda:0" = torch.ops.aten.slice.Tensor(slice_71, 2, 0, 9223372036854775807);  slice_71 = None
        
         # File: /app/.venv/lib/python3.12/site-packages/transformers/integrations/sdpa_attention.py:39 in sdpa_attention_forward, code: query = query.contiguous()
        clone_10: "f16[1, 32, s0, 128][4096*s0, 128*s0, 128, 1]cuda:0" = torch.ops.aten.clone.default(add_761, memory_format = torch.contiguous_format);  add_761 = None
        
         # File: /app/.venv/lib/python3.12/site-packages/transformers/integrations/sdpa_attention.py:54 in sdpa_attention_forward, code: attn_output = torch.nn.functional.scaled_dot_product_attention(
        scalar_tensor_4: "f16[][]cuda:0" = torch.ops.aten.scalar_tensor.default(-inf, dtype = torch.float16, device = device(type='cuda', index=0))
        scalar_tensor_5: "f16[][]cuda:0" = torch.ops.aten.scalar_tensor.default(0.0, dtype = torch.float16, layout = torch.strided, device = device(type='cuda', index=0))
        where_2: "f16[1, 1, s0, s4][s0*s4, s0*s4, s4, 1]cuda:0" = torch.ops.aten.where.self(slice_72, scalar_tensor_5, scalar_tensor_4);  slice_72 = scalar_tensor_5 = scalar_tensor_4 = None
        expand_18: "f16[1, 32, s0, s4][s0*s4, 0, s4, 1]cuda:0" = torch.ops.aten.expand.default(where_2, [1, 32, arg5_1, arg7_1]);  where_2 = None
        _scaled_dot_product_efficient_attention_2 = torch.ops.aten._scaled_dot_product_efficient_attention.default(clone_10, view_89, view_90, expand_18, False, scale = 0.08838834764831845);  clone_10 = view_89 = view_90 = expand_18 = None
        getitem_18: "f16[1, 32, s0, 128][4096*s0, 128, 4096, 1]cuda:0" = _scaled_dot_product_efficient_attention_2[0];  _scaled_dot_product_efficient_attention_2 = None
        
         # File: /app/.venv/lib/python3.12/site-packages/transformers/integrations/sdpa_attention.py:63 in sdpa_attention_forward, code: attn_output = attn_output.transpose(1, 2).contiguous()
        permute_29: "f16[1, s0, 32, 128][4096*s0, 4096, 128, 1]cuda:0" = torch.ops.aten.permute.default(getitem_18, [0, 2, 1, 3]);  getitem_18 = None
        
         # File: /app/low_bit_inference/model.py:233 in forward, code: attn_output = attn_output.reshape(*input_shape, -1).contiguous()
        view_91: "f16[1, s0, 4096][4096*s0, 4096, 1]cuda:0" = torch.ops.aten.view.default(permute_29, [1, arg0_1, -1]);  permute_29 = None
        
         # File: /app/low_bit_inference/model.py:234 in forward, code: attn_output = self.o_proj(attn_output)
        permute_30: "f16[4096, 4096][1, 4096]cuda:0" = torch.ops.aten.permute.default(arg38_1, [1, 0]);  arg38_1 = None
        view_92: "f16[s0, 4096][4096, 1]cuda:0" = torch.ops.aten.view.default(view_91, [arg5_1, 4096]);  view_91 = None
        mm_17: "f16[s0, 4096][4096, 1]cuda:0" = torch.ops.aten.mm.default(view_92, permute_30);  view_92 = permute_30 = None
        view_93: "f16[1, s0, 4096][4096*s0, 4096, 1]cuda:0" = torch.ops.aten.view.default(mm_17, [1, arg5_1, 4096]);  mm_17 = None
        
         # File: /app/low_bit_inference/model.py:273 in forward, code: hidden_states = residual + hidden_states
        add_927: "f16[1, s0, 4096][4096*s0, 4096, 1]cuda:0" = torch.ops.aten.add.Tensor(add_667, view_93);  add_667 = view_93 = None
        
         # File: /app/low_bit_inference/optims/rms_norm_kernels/liger_rms_norm.py:443 in rms_norm_forward, code: X = X.view(-1, dim)
        view_94: "f16[s0, 4096][4096, 1]cuda:0" = torch.ops.aten.view.default(add_927, [-1, 4096])
        
         # File: /app/low_bit_inference/optims/rms_norm_kernels/liger_rms_norm.py:447 in rms_norm_forward, code: Y = torch.empty((n_rows, n_cols), dtype=X.dtype, device=X.device)
        empty_10: "f16[s0, 4096][4096, 1]cuda:0" = torch.ops.aten.empty.memory_format([arg0_1, 4096], dtype = torch.float16, device = device(type='cuda', index=0), pin_memory = False)
        alias_33: "f16[s0, 4096][4096, 1]cuda:0" = torch.ops.aten.alias.default(empty_10);  empty_10 = None
        
         # File: /app/low_bit_inference/optims/rms_norm_kernels/liger_rms_norm.py:451 in rms_norm_forward, code: RSTD = torch.empty(n_rows, dtype=rstd_dtype, device=X.device)
        empty_11: "f32[s0][1]cuda:0" = torch.ops.aten.empty.memory_format([arg0_1], dtype = torch.float32, device = device(type='cuda', index=0), pin_memory = False)
        alias_34: "f32[s0][1]cuda:0" = torch.ops.aten.alias.default(empty_11);  empty_11 = None
        
         # File: /app/low_bit_inference/optims/rms_norm_kernels/liger_rms_norm.py:461 in rms_norm_forward, code: _rms_norm_forward_kernel[(n_rows,)](
        triton_kernel_wrapper_functional_proxy_5 = torch.ops.higher_order.triton_kernel_wrapper_functional(kernel_idx = 136, constant_args_idx = 135, grid = [(arg0_1, 1, 1)], tma_descriptor_metadata = {}, kwargs = {'Y_ptr': alias_33, 'X_ptr': view_94, 'W_ptr': arg39_1, 'RSTD_ptr': alias_34}, tensors_to_clone = ['Y_ptr', 'RSTD_ptr']);  alias_33 = view_94 = arg39_1 = alias_34 = None
        getitem_22: "f16[s0, 4096][4096, 1]cuda:0" = triton_kernel_wrapper_functional_proxy_5['Y_ptr'];  triton_kernel_wrapper_functional_proxy_5 = None
        
         # File: /app/low_bit_inference/model.py:124 in forward, code: down_proj = self.down_proj(self.act_fn(self.gate_proj(x)) * self.up_proj(x))
        permute_31: "f16[4096, 14336][1, 4096]cuda:0" = torch.ops.aten.permute.default(arg40_1, [1, 0]);  arg40_1 = None
        alias_37: "f16[s0, 4096][4096, 1]cuda:0" = torch.ops.aten.alias.default(getitem_22)
        view_97: "f16[1, s0, 4096][4096*s0, 4096, 1]cuda:0" = torch.ops.aten.view.default(alias_37, [1, arg0_1, 4096]);  alias_37 = None
        view_98: "f16[s0, 4096][4096, 1]cuda:0" = torch.ops.aten.view.default(view_97, [arg5_1, 4096]);  view_97 = None
        mm_18: "f16[s0, 14336][14336, 1]cuda:0" = torch.ops.aten.mm.default(view_98, permute_31);  view_98 = permute_31 = None
        view_99: "f16[1, s0, 14336][14336*s0, 14336, 1]cuda:0" = torch.ops.aten.view.default(mm_18, [1, arg5_1, 14336]);  mm_18 = None
        convert_element_type_45: "f32[1, s0, 14336][14336*s0, 14336, 1]cuda:0" = torch.ops.prims.convert_element_type.default(view_99, torch.float32);  view_99 = None
        sigmoid_2: "f32[1, s0, 14336][14336*s0, 14336, 1]cuda:0" = torch.ops.aten.sigmoid.default(convert_element_type_45)
        mul_1196: "f32[1, s0, 14336][14336*s0, 14336, 1]cuda:0" = torch.ops.aten.mul.Tensor(convert_element_type_45, sigmoid_2);  convert_element_type_45 = sigmoid_2 = None
        convert_element_type_46: "f16[1, s0, 14336][14336*s0, 14336, 1]cuda:0" = torch.ops.prims.convert_element_type.default(mul_1196, torch.float16);  mul_1196 = None
        permute_32: "f16[4096, 14336][1, 4096]cuda:0" = torch.ops.aten.permute.default(arg41_1, [1, 0]);  arg41_1 = None
        alias_38: "f16[s0, 4096][4096, 1]cuda:0" = torch.ops.aten.alias.default(getitem_22);  getitem_22 = None
        view_101: "f16[1, s0, 4096][4096*s0, 4096, 1]cuda:0" = torch.ops.aten.view.default(alias_38, [1, arg0_1, 4096]);  alias_38 = None
        view_102: "f16[s0, 4096][4096, 1]cuda:0" = torch.ops.aten.view.default(view_101, [arg5_1, 4096]);  view_101 = None
        mm_19: "f16[s0, 14336][14336, 1]cuda:0" = torch.ops.aten.mm.default(view_102, permute_32);  view_102 = permute_32 = None
        view_103: "f16[1, s0, 14336][14336*s0, 14336, 1]cuda:0" = torch.ops.aten.view.default(mm_19, [1, arg5_1, 14336]);  mm_19 = None
        mul_1213: "f16[1, s0, 14336][14336*s0, 14336, 1]cuda:0" = torch.ops.aten.mul.Tensor(convert_element_type_46, view_103);  convert_element_type_46 = view_103 = None
        permute_33: "f16[14336, 4096][1, 14336]cuda:0" = torch.ops.aten.permute.default(arg42_1, [1, 0]);  arg42_1 = None
        view_104: "f16[s0, 14336][14336, 1]cuda:0" = torch.ops.aten.view.default(mul_1213, [arg5_1, 14336]);  mul_1213 = None
        mm_20: "f16[s0, 4096][4096, 1]cuda:0" = torch.ops.aten.mm.default(view_104, permute_33);  view_104 = permute_33 = None
        view_105: "f16[1, s0, 4096][4096*s0, 4096, 1]cuda:0" = torch.ops.aten.view.default(mm_20, [1, arg5_1, 4096]);  mm_20 = None
        
         # File: /app/low_bit_inference/model.py:279 in forward, code: hidden_states = residual + hidden_states
        add_980: "f16[1, s0, 4096][4096*s0, 4096, 1]cuda:0" = torch.ops.aten.add.Tensor(add_927, view_105);  add_927 = view_105 = None
        
         # File: /app/low_bit_inference/optims/rms_norm_kernels/liger_rms_norm.py:443 in rms_norm_forward, code: X = X.view(-1, dim)
        view_106: "f16[s0, 4096][4096, 1]cuda:0" = torch.ops.aten.view.default(add_980, [-1, 4096])
        
         # File: /app/low_bit_inference/optims/rms_norm_kernels/liger_rms_norm.py:447 in rms_norm_forward, code: Y = torch.empty((n_rows, n_cols), dtype=X.dtype, device=X.device)
        empty_12: "f16[s0, 4096][4096, 1]cuda:0" = torch.ops.aten.empty.memory_format([arg0_1, 4096], dtype = torch.float16, device = device(type='cuda', index=0), pin_memory = False)
        alias_39: "f16[s0, 4096][4096, 1]cuda:0" = torch.ops.aten.alias.default(empty_12);  empty_12 = None
        
         # File: /app/low_bit_inference/optims/rms_norm_kernels/liger_rms_norm.py:451 in rms_norm_forward, code: RSTD = torch.empty(n_rows, dtype=rstd_dtype, device=X.device)
        empty_13: "f32[s0][1]cuda:0" = torch.ops.aten.empty.memory_format([arg0_1], dtype = torch.float32, device = device(type='cuda', index=0), pin_memory = False)
        alias_40: "f32[s0][1]cuda:0" = torch.ops.aten.alias.default(empty_13);  empty_13 = None
        
         # File: /app/low_bit_inference/optims/rms_norm_kernels/liger_rms_norm.py:461 in rms_norm_forward, code: _rms_norm_forward_kernel[(n_rows,)](
        triton_kernel_wrapper_functional_proxy_6 = torch.ops.higher_order.triton_kernel_wrapper_functional(kernel_idx = 137, constant_args_idx = 136, grid = [(arg0_1, 1, 1)], tma_descriptor_metadata = {}, kwargs = {'Y_ptr': alias_39, 'X_ptr': view_106, 'W_ptr': arg43_1, 'RSTD_ptr': alias_40}, tensors_to_clone = ['Y_ptr', 'RSTD_ptr']);  alias_39 = view_106 = arg43_1 = alias_40 = None
        getitem_24: "f16[s0, 4096][4096, 1]cuda:0" = triton_kernel_wrapper_functional_proxy_6['Y_ptr'];  triton_kernel_wrapper_functional_proxy_6 = None
        
         # File: /app/low_bit_inference/model.py:206 in forward, code: query_states = self.q_proj(hidden_states).view(hidden_shape).transpose(1, 2)
        permute_34: "f16[4096, 4096][1, 4096]cuda:0" = torch.ops.aten.permute.default(arg44_1, [1, 0]);  arg44_1 = None
        alias_43: "f16[s0, 4096][4096, 1]cuda:0" = torch.ops.aten.alias.default(getitem_24)
        view_109: "f16[1, s0, 4096][4096*s0, 4096, 1]cuda:0" = torch.ops.aten.view.default(alias_43, [1, arg0_1, 4096]);  alias_43 = None
        view_110: "f16[s0, 4096][4096, 1]cuda:0" = torch.ops.aten.view.default(view_109, [arg5_1, 4096]);  view_109 = None
        mm_21: "f16[s0, 4096][4096, 1]cuda:0" = torch.ops.aten.mm.default(view_110, permute_34);  view_110 = permute_34 = None
        view_111: "f16[1, s0, 4096][4096*s0, 4096, 1]cuda:0" = torch.ops.aten.view.default(mm_21, [1, arg5_1, 4096]);  mm_21 = None
        view_112: "f16[1, s0, 32, 128][4096*s0, 4096, 128, 1]cuda:0" = torch.ops.aten.view.default(view_111, [1, arg0_1, -1, 128]);  view_111 = None
        permute_35: "f16[1, 32, s0, 128][4096*s0, 128, 4096, 1]cuda:0" = torch.ops.aten.permute.default(view_112, [0, 2, 1, 3]);  view_112 = None
        
         # File: /app/low_bit_inference/model.py:207 in forward, code: key_states = self.k_proj(hidden_states).view(hidden_shape).transpose(1, 2)
        permute_36: "f16[4096, 1024][1, 4096]cuda:0" = torch.ops.aten.permute.default(arg45_1, [1, 0]);  arg45_1 = None
        alias_44: "f16[s0, 4096][4096, 1]cuda:0" = torch.ops.aten.alias.default(getitem_24)
        view_114: "f16[1, s0, 4096][4096*s0, 4096, 1]cuda:0" = torch.ops.aten.view.default(alias_44, [1, arg0_1, 4096]);  alias_44 = None
        view_115: "f16[s0, 4096][4096, 1]cuda:0" = torch.ops.aten.view.default(view_114, [arg5_1, 4096]);  view_114 = None
        mm_22: "f16[s0, 1024][1024, 1]cuda:0" = torch.ops.aten.mm.default(view_115, permute_36);  view_115 = permute_36 = None
        view_116: "f16[1, s0, 1024][1024*s0, 1024, 1]cuda:0" = torch.ops.aten.view.default(mm_22, [1, arg5_1, 1024]);  mm_22 = None
        view_117: "f16[1, s0, 8, 128][1024*s0, 1024, 128, 1]cuda:0" = torch.ops.aten.view.default(view_116, [1, arg0_1, -1, 128]);  view_116 = None
        permute_37: "f16[1, 8, s0, 128][1024*s0, 128, 1024, 1]cuda:0" = torch.ops.aten.permute.default(view_117, [0, 2, 1, 3]);  view_117 = None
        
         # File: /app/low_bit_inference/model.py:208 in forward, code: value_states = self.v_proj(hidden_states).view(hidden_shape).transpose(1, 2)
        permute_38: "f16[4096, 1024][1, 4096]cuda:0" = torch.ops.aten.permute.default(arg46_1, [1, 0]);  arg46_1 = None
        alias_45: "f16[s0, 4096][4096, 1]cuda:0" = torch.ops.aten.alias.default(getitem_24);  getitem_24 = None
        view_119: "f16[1, s0, 4096][4096*s0, 4096, 1]cuda:0" = torch.ops.aten.view.default(alias_45, [1, arg0_1, 4096]);  alias_45 = None
        view_120: "f16[s0, 4096][4096, 1]cuda:0" = torch.ops.aten.view.default(view_119, [arg5_1, 4096]);  view_119 = None
        mm_23: "f16[s0, 1024][1024, 1]cuda:0" = torch.ops.aten.mm.default(view_120, permute_38);  view_120 = permute_38 = None
        view_121: "f16[1, s0, 1024][1024*s0, 1024, 1]cuda:0" = torch.ops.aten.view.default(mm_23, [1, arg5_1, 1024]);  mm_23 = None
        view_122: "f16[1, s0, 8, 128][1024*s0, 1024, 128, 1]cuda:0" = torch.ops.aten.view.default(view_121, [1, arg0_1, -1, 128]);  view_121 = None
        permute_39: "f16[1, 8, s0, 128][1024*s0, 128, 1024, 1]cuda:0" = torch.ops.aten.permute.default(view_122, [0, 2, 1, 3]);  view_122 = None
        
         # File: /app/low_bit_inference/model.py:105 in apply_rotary_pos_emb, code: cos = cos.unsqueeze(unsqueeze_dim)
        unsqueeze_22: "f16[1, 1, s0, 128][128*s0, 128*s0, 128, 1]cuda:0" = torch.ops.aten.unsqueeze.default(convert_element_type_1, 1)
        
         # File: /app/low_bit_inference/model.py:106 in apply_rotary_pos_emb, code: sin = sin.unsqueeze(unsqueeze_dim)
        unsqueeze_23: "f16[1, 1, s0, 128][128*s0, 128*s0, 128, 1]cuda:0" = torch.ops.aten.unsqueeze.default(convert_element_type_2, 1)
        
         # File: /app/low_bit_inference/model.py:107 in apply_rotary_pos_emb, code: q_embed = (q * cos) + (rotate_half(q) * sin)
        mul_1315: "f16[1, 32, s0, 128][4096*s0, 128, 4096, 1]cuda:0" = torch.ops.aten.mul.Tensor(permute_35, unsqueeze_22)
        
         # File: /app/low_bit_inference/model.py:80 in rotate_half, code: x1 = x[..., : x.shape[-1] // 2]
        slice_73: "f16[1, 32, s0, 64][4096*s0, 128, 4096, 1]cuda:0" = torch.ops.aten.slice.Tensor(permute_35, 3, 0, 64)
        
         # File: /app/low_bit_inference/model.py:81 in rotate_half, code: x2 = x[..., x.shape[-1] // 2 :]
        slice_74: "f16[1, 32, s0, 64][4096*s0, 128, 4096, 1]cuda:0" = torch.ops.aten.slice.Tensor(permute_35, 3, 64, 9223372036854775807);  permute_35 = None
        
         # File: /app/low_bit_inference/model.py:82 in rotate_half, code: return torch.cat((-x2, x1), dim=-1)
        neg_6: "f16[1, 32, s0, 64][2048*s0, 64, 2048, 1]cuda:0" = torch.ops.aten.neg.default(slice_74);  slice_74 = None
        cat_6: "f16[1, 32, s0, 128][4096*s0, 128*s0, 128, 1]cuda:0" = torch.ops.aten.cat.default([neg_6, slice_73], -1);  neg_6 = slice_73 = None
        
         # File: /app/low_bit_inference/model.py:107 in apply_rotary_pos_emb, code: q_embed = (q * cos) + (rotate_half(q) * sin)
        mul_1332: "f16[1, 32, s0, 128][4096*s0, 128*s0, 128, 1]cuda:0" = torch.ops.aten.mul.Tensor(cat_6, unsqueeze_23);  cat_6 = None
        add_1074: "f16[1, 32, s0, 128][4096*s0, 128, 4096, 1]cuda:0" = torch.ops.aten.add.Tensor(mul_1315, mul_1332);  mul_1315 = mul_1332 = None
        
         # File: /app/low_bit_inference/model.py:108 in apply_rotary_pos_emb, code: k_embed = (k * cos) + (rotate_half(k) * sin)
        mul_1340: "f16[1, 8, s0, 128][1024*s0, 128, 1024, 1]cuda:0" = torch.ops.aten.mul.Tensor(permute_37, unsqueeze_22);  unsqueeze_22 = None
        
         # File: /app/low_bit_inference/model.py:80 in rotate_half, code: x1 = x[..., : x.shape[-1] // 2]
        slice_75: "f16[1, 8, s0, 64][1024*s0, 128, 1024, 1]cuda:0" = torch.ops.aten.slice.Tensor(permute_37, 3, 0, 64)
        
         # File: /app/low_bit_inference/model.py:81 in rotate_half, code: x2 = x[..., x.shape[-1] // 2 :]
        slice_76: "f16[1, 8, s0, 64][1024*s0, 128, 1024, 1]cuda:0" = torch.ops.aten.slice.Tensor(permute_37, 3, 64, 9223372036854775807);  permute_37 = None
        
         # File: /app/low_bit_inference/model.py:82 in rotate_half, code: return torch.cat((-x2, x1), dim=-1)
        neg_7: "f16[1, 8, s0, 64][512*s0, 64, 512, 1]cuda:0" = torch.ops.aten.neg.default(slice_76);  slice_76 = None
        cat_7: "f16[1, 8, s0, 128][1024*s0, 128*s0, 128, 1]cuda:0" = torch.ops.aten.cat.default([neg_7, slice_75], -1);  neg_7 = slice_75 = None
        
         # File: /app/low_bit_inference/model.py:108 in apply_rotary_pos_emb, code: k_embed = (k * cos) + (rotate_half(k) * sin)
        mul_1357: "f16[1, 8, s0, 128][1024*s0, 128*s0, 128, 1]cuda:0" = torch.ops.aten.mul.Tensor(cat_7, unsqueeze_23);  cat_7 = unsqueeze_23 = None
        add_1098: "f16[1, 8, s0, 128][1024*s0, 128, 1024, 1]cuda:0" = torch.ops.aten.add.Tensor(mul_1340, mul_1357);  mul_1340 = mul_1357 = None
        
         # File: /app/low_bit_inference/optims/cache_optim.py:150 in update, code: self.keys.index_copy_(2, cache_position, key_states)
        index_put_6: "f16[1, 8, s4, 128][1024*s4, 128*s4, 128, 1]cuda:0" = torch.ops.aten.index_put.default(arg47_1, [None, None, arg4_1], add_1098);  add_1098 = None
        
         # File: /app/low_bit_inference/optims/cache_optim.py:151 in update, code: self.values.index_copy_(2, cache_position, value_states)
        index_put_7: "f16[1, 8, s4, 128][1024*s4, 128*s4, 128, 1]cuda:0" = torch.ops.aten.index_put.default(arg48_1, [None, None, arg4_1], permute_39);  permute_39 = None
        
         # File: /app/.venv/lib/python3.12/site-packages/transformers/integrations/sdpa_attention.py:15 in repeat_kv, code: return hidden_states.reshape(batch, num_key_value_heads * n_rep, slen, head_dim)
        slice_81: "f16[1, 8, s4, 128][1024*s4, 128*s4, 128, 1]cuda:0" = torch.ops.aten.slice.Tensor(index_put_6, 0, 0, 9223372036854775807)
        slice_82: "f16[1, 8, s4, 128][1024*s4, 128*s4, 128, 1]cuda:0" = torch.ops.aten.slice.Tensor(slice_81, 1, 0, 9223372036854775807);  slice_81 = None
        unsqueeze_25: "f16[1, 8, 1, s4, 128][1024*s4, 128*s4, 128*s4, 128, 1]cuda:0" = torch.ops.aten.unsqueeze.default(slice_82, 2);  slice_82 = None
        slice_83: "f16[1, 8, 1, s4, 128][1024*s4, 128*s4, 128*s4, 128, 1]cuda:0" = torch.ops.aten.slice.Tensor(unsqueeze_25, 3, 0, 9223372036854775807);  unsqueeze_25 = None
        slice_84: "f16[1, 8, 1, s4, 128][1024*s4, 128*s4, 128*s4, 128, 1]cuda:0" = torch.ops.aten.slice.Tensor(slice_83, 4, 0, 9223372036854775807);  slice_83 = None
        expand_20: "f16[1, 8, 4, s4, 128][1024*s4, 128*s4, 0, 128, 1]cuda:0" = torch.ops.aten.expand.default(slice_84, [1, 8, 4, arg7_1, 128]);  slice_84 = None
        clone_11: "f16[1, 8, 4, s4, 128][4096*s4, 512*s4, 128*s4, 128, 1]cuda:0" = torch.ops.aten.clone.default(expand_20, memory_format = torch.contiguous_format);  expand_20 = None
        view_123: "f16[1, 32, s4, 128][4096*s4, 128*s4, 128, 1]cuda:0" = torch.ops.aten.view.default(clone_11, [1, 32, arg7_1, 128]);  clone_11 = None
        
         # File: /app/.venv/lib/python3.12/site-packages/transformers/integrations/sdpa_attention.py:15 in repeat_kv, code: return hidden_states.reshape(batch, num_key_value_heads * n_rep, slen, head_dim)
        slice_89: "f16[1, 8, s4, 128][1024*s4, 128*s4, 128, 1]cuda:0" = torch.ops.aten.slice.Tensor(index_put_7, 0, 0, 9223372036854775807)
        slice_90: "f16[1, 8, s4, 128][1024*s4, 128*s4, 128, 1]cuda:0" = torch.ops.aten.slice.Tensor(slice_89, 1, 0, 9223372036854775807);  slice_89 = None
        unsqueeze_27: "f16[1, 8, 1, s4, 128][1024*s4, 128*s4, 128*s4, 128, 1]cuda:0" = torch.ops.aten.unsqueeze.default(slice_90, 2);  slice_90 = None
        slice_91: "f16[1, 8, 1, s4, 128][1024*s4, 128*s4, 128*s4, 128, 1]cuda:0" = torch.ops.aten.slice.Tensor(unsqueeze_27, 3, 0, 9223372036854775807);  unsqueeze_27 = None
        slice_92: "f16[1, 8, 1, s4, 128][1024*s4, 128*s4, 128*s4, 128, 1]cuda:0" = torch.ops.aten.slice.Tensor(slice_91, 4, 0, 9223372036854775807);  slice_91 = None
        expand_22: "f16[1, 8, 4, s4, 128][1024*s4, 128*s4, 0, 128, 1]cuda:0" = torch.ops.aten.expand.default(slice_92, [1, 8, 4, arg7_1, 128]);  slice_92 = None
        clone_12: "f16[1, 8, 4, s4, 128][4096*s4, 512*s4, 128*s4, 128, 1]cuda:0" = torch.ops.aten.clone.default(expand_22, memory_format = torch.contiguous_format);  expand_22 = None
        view_124: "f16[1, 32, s4, 128][4096*s4, 128*s4, 128, 1]cuda:0" = torch.ops.aten.view.default(clone_12, [1, 32, arg7_1, 128]);  clone_12 = None
        
         # File: /app/.venv/lib/python3.12/site-packages/transformers/integrations/sdpa_attention.py:35 in sdpa_attention_forward, code: causal_mask = causal_mask[:, :, :, : key.shape[-2]]
        slice_93: "b8[1, 1, s0, s4][s0*s4, s0*s4, s4, 1]cuda:0" = torch.ops.aten.slice.Tensor(arg8_1, 0, 0, 9223372036854775807)
        slice_94: "b8[1, 1, s0, s4][s0*s4, s0*s4, s4, 1]cuda:0" = torch.ops.aten.slice.Tensor(slice_93, 1, 0, 9223372036854775807);  slice_93 = None
        slice_95: "b8[1, 1, s0, s4][s0*s4, s0*s4, s4, 1]cuda:0" = torch.ops.aten.slice.Tensor(slice_94, 2, 0, 9223372036854775807);  slice_94 = None
        
         # File: /app/.venv/lib/python3.12/site-packages/transformers/integrations/sdpa_attention.py:39 in sdpa_attention_forward, code: query = query.contiguous()
        clone_13: "f16[1, 32, s0, 128][4096*s0, 128*s0, 128, 1]cuda:0" = torch.ops.aten.clone.default(add_1074, memory_format = torch.contiguous_format);  add_1074 = None
        
         # File: /app/.venv/lib/python3.12/site-packages/transformers/integrations/sdpa_attention.py:54 in sdpa_attention_forward, code: attn_output = torch.nn.functional.scaled_dot_product_attention(
        scalar_tensor_6: "f16[][]cuda:0" = torch.ops.aten.scalar_tensor.default(-inf, dtype = torch.float16, device = device(type='cuda', index=0))
        scalar_tensor_7: "f16[][]cuda:0" = torch.ops.aten.scalar_tensor.default(0.0, dtype = torch.float16, layout = torch.strided, device = device(type='cuda', index=0))
        where_3: "f16[1, 1, s0, s4][s0*s4, s0*s4, s4, 1]cuda:0" = torch.ops.aten.where.self(slice_95, scalar_tensor_7, scalar_tensor_6);  slice_95 = scalar_tensor_7 = scalar_tensor_6 = None
        expand_23: "f16[1, 32, s0, s4][s0*s4, 0, s4, 1]cuda:0" = torch.ops.aten.expand.default(where_3, [1, 32, arg5_1, arg7_1]);  where_3 = None
        _scaled_dot_product_efficient_attention_3 = torch.ops.aten._scaled_dot_product_efficient_attention.default(clone_13, view_123, view_124, expand_23, False, scale = 0.08838834764831845);  clone_13 = view_123 = view_124 = expand_23 = None
        getitem_26: "f16[1, 32, s0, 128][4096*s0, 128, 4096, 1]cuda:0" = _scaled_dot_product_efficient_attention_3[0];  _scaled_dot_product_efficient_attention_3 = None
        
         # File: /app/.venv/lib/python3.12/site-packages/transformers/integrations/sdpa_attention.py:63 in sdpa_attention_forward, code: attn_output = attn_output.transpose(1, 2).contiguous()
        permute_40: "f16[1, s0, 32, 128][4096*s0, 4096, 128, 1]cuda:0" = torch.ops.aten.permute.default(getitem_26, [0, 2, 1, 3]);  getitem_26 = None
        
         # File: /app/low_bit_inference/model.py:233 in forward, code: attn_output = attn_output.reshape(*input_shape, -1).contiguous()
        view_125: "f16[1, s0, 4096][4096*s0, 4096, 1]cuda:0" = torch.ops.aten.view.default(permute_40, [1, arg0_1, -1]);  permute_40 = None
        
         # File: /app/low_bit_inference/model.py:234 in forward, code: attn_output = self.o_proj(attn_output)
        permute_41: "f16[4096, 4096][1, 4096]cuda:0" = torch.ops.aten.permute.default(arg49_1, [1, 0]);  arg49_1 = None
        view_126: "f16[s0, 4096][4096, 1]cuda:0" = torch.ops.aten.view.default(view_125, [arg5_1, 4096]);  view_125 = None
        mm_24: "f16[s0, 4096][4096, 1]cuda:0" = torch.ops.aten.mm.default(view_126, permute_41);  view_126 = permute_41 = None
        view_127: "f16[1, s0, 4096][4096*s0, 4096, 1]cuda:0" = torch.ops.aten.view.default(mm_24, [1, arg5_1, 4096]);  mm_24 = None
        
         # File: /app/low_bit_inference/model.py:273 in forward, code: hidden_states = residual + hidden_states
        add_1240: "f16[1, s0, 4096][4096*s0, 4096, 1]cuda:0" = torch.ops.aten.add.Tensor(add_980, view_127);  add_980 = view_127 = None
        
         # File: /app/low_bit_inference/optims/rms_norm_kernels/liger_rms_norm.py:443 in rms_norm_forward, code: X = X.view(-1, dim)
        view_128: "f16[s0, 4096][4096, 1]cuda:0" = torch.ops.aten.view.default(add_1240, [-1, 4096])
        
         # File: /app/low_bit_inference/optims/rms_norm_kernels/liger_rms_norm.py:447 in rms_norm_forward, code: Y = torch.empty((n_rows, n_cols), dtype=X.dtype, device=X.device)
        empty_14: "f16[s0, 4096][4096, 1]cuda:0" = torch.ops.aten.empty.memory_format([arg0_1, 4096], dtype = torch.float16, device = device(type='cuda', index=0), pin_memory = False)
        alias_46: "f16[s0, 4096][4096, 1]cuda:0" = torch.ops.aten.alias.default(empty_14);  empty_14 = None
        
         # File: /app/low_bit_inference/optims/rms_norm_kernels/liger_rms_norm.py:451 in rms_norm_forward, code: RSTD = torch.empty(n_rows, dtype=rstd_dtype, device=X.device)
        empty_15: "f32[s0][1]cuda:0" = torch.ops.aten.empty.memory_format([arg0_1], dtype = torch.float32, device = device(type='cuda', index=0), pin_memory = False)
        alias_47: "f32[s0][1]cuda:0" = torch.ops.aten.alias.default(empty_15);  empty_15 = None
        
         # File: /app/low_bit_inference/optims/rms_norm_kernels/liger_rms_norm.py:461 in rms_norm_forward, code: _rms_norm_forward_kernel[(n_rows,)](
        triton_kernel_wrapper_functional_proxy_7 = torch.ops.higher_order.triton_kernel_wrapper_functional(kernel_idx = 138, constant_args_idx = 137, grid = [(arg0_1, 1, 1)], tma_descriptor_metadata = {}, kwargs = {'Y_ptr': alias_46, 'X_ptr': view_128, 'W_ptr': arg50_1, 'RSTD_ptr': alias_47}, tensors_to_clone = ['Y_ptr', 'RSTD_ptr']);  alias_46 = view_128 = arg50_1 = alias_47 = None
        getitem_30: "f16[s0, 4096][4096, 1]cuda:0" = triton_kernel_wrapper_functional_proxy_7['Y_ptr'];  triton_kernel_wrapper_functional_proxy_7 = None
        
         # File: /app/low_bit_inference/model.py:124 in forward, code: down_proj = self.down_proj(self.act_fn(self.gate_proj(x)) * self.up_proj(x))
        permute_42: "f16[4096, 14336][1, 4096]cuda:0" = torch.ops.aten.permute.default(arg51_1, [1, 0]);  arg51_1 = None
        alias_50: "f16[s0, 4096][4096, 1]cuda:0" = torch.ops.aten.alias.default(getitem_30)
        view_131: "f16[1, s0, 4096][4096*s0, 4096, 1]cuda:0" = torch.ops.aten.view.default(alias_50, [1, arg0_1, 4096]);  alias_50 = None
        view_132: "f16[s0, 4096][4096, 1]cuda:0" = torch.ops.aten.view.default(view_131, [arg5_1, 4096]);  view_131 = None
        mm_25: "f16[s0, 14336][14336, 1]cuda:0" = torch.ops.aten.mm.default(view_132, permute_42);  view_132 = permute_42 = None
        view_133: "f16[1, s0, 14336][14336*s0, 14336, 1]cuda:0" = torch.ops.aten.view.default(mm_25, [1, arg5_1, 14336]);  mm_25 = None
        convert_element_type_61: "f32[1, s0, 14336][14336*s0, 14336, 1]cuda:0" = torch.ops.prims.convert_element_type.default(view_133, torch.float32);  view_133 = None
        sigmoid_3: "f32[1, s0, 14336][14336*s0, 14336, 1]cuda:0" = torch.ops.aten.sigmoid.default(convert_element_type_61)
        mul_1589: "f32[1, s0, 14336][14336*s0, 14336, 1]cuda:0" = torch.ops.aten.mul.Tensor(convert_element_type_61, sigmoid_3);  convert_element_type_61 = sigmoid_3 = None
        convert_element_type_62: "f16[1, s0, 14336][14336*s0, 14336, 1]cuda:0" = torch.ops.prims.convert_element_type.default(mul_1589, torch.float16);  mul_1589 = None
        permute_43: "f16[4096, 14336][1, 4096]cuda:0" = torch.ops.aten.permute.default(arg52_1, [1, 0]);  arg52_1 = None
        alias_51: "f16[s0, 4096][4096, 1]cuda:0" = torch.ops.aten.alias.default(getitem_30);  getitem_30 = None
        view_135: "f16[1, s0, 4096][4096*s0, 4096, 1]cuda:0" = torch.ops.aten.view.default(alias_51, [1, arg0_1, 4096]);  alias_51 = None
        view_136: "f16[s0, 4096][4096, 1]cuda:0" = torch.ops.aten.view.default(view_135, [arg5_1, 4096]);  view_135 = None
        mm_26: "f16[s0, 14336][14336, 1]cuda:0" = torch.ops.aten.mm.default(view_136, permute_43);  view_136 = permute_43 = None
        view_137: "f16[1, s0, 14336][14336*s0, 14336, 1]cuda:0" = torch.ops.aten.view.default(mm_26, [1, arg5_1, 14336]);  mm_26 = None
        mul_1606: "f16[1, s0, 14336][14336*s0, 14336, 1]cuda:0" = torch.ops.aten.mul.Tensor(convert_element_type_62, view_137);  convert_element_type_62 = view_137 = None
        permute_44: "f16[14336, 4096][1, 14336]cuda:0" = torch.ops.aten.permute.default(arg53_1, [1, 0]);  arg53_1 = None
        view_138: "f16[s0, 14336][14336, 1]cuda:0" = torch.ops.aten.view.default(mul_1606, [arg5_1, 14336]);  mul_1606 = None
        mm_27: "f16[s0, 4096][4096, 1]cuda:0" = torch.ops.aten.mm.default(view_138, permute_44);  view_138 = permute_44 = None
        view_139: "f16[1, s0, 4096][4096*s0, 4096, 1]cuda:0" = torch.ops.aten.view.default(mm_27, [1, arg5_1, 4096]);  mm_27 = None
        
         # File: /app/low_bit_inference/model.py:279 in forward, code: hidden_states = residual + hidden_states
        add_1293: "f16[1, s0, 4096][4096*s0, 4096, 1]cuda:0" = torch.ops.aten.add.Tensor(add_1240, view_139);  add_1240 = view_139 = None
        
         # File: /app/low_bit_inference/optims/rms_norm_kernels/liger_rms_norm.py:443 in rms_norm_forward, code: X = X.view(-1, dim)
        view_140: "f16[s0, 4096][4096, 1]cuda:0" = torch.ops.aten.view.default(add_1293, [-1, 4096])
        
         # File: /app/low_bit_inference/optims/rms_norm_kernels/liger_rms_norm.py:447 in rms_norm_forward, code: Y = torch.empty((n_rows, n_cols), dtype=X.dtype, device=X.device)
        empty_16: "f16[s0, 4096][4096, 1]cuda:0" = torch.ops.aten.empty.memory_format([arg0_1, 4096], dtype = torch.float16, device = device(type='cuda', index=0), pin_memory = False)
        alias_52: "f16[s0, 4096][4096, 1]cuda:0" = torch.ops.aten.alias.default(empty_16);  empty_16 = None
        
         # File: /app/low_bit_inference/optims/rms_norm_kernels/liger_rms_norm.py:451 in rms_norm_forward, code: RSTD = torch.empty(n_rows, dtype=rstd_dtype, device=X.device)
        empty_17: "f32[s0][1]cuda:0" = torch.ops.aten.empty.memory_format([arg0_1], dtype = torch.float32, device = device(type='cuda', index=0), pin_memory = False)
        alias_53: "f32[s0][1]cuda:0" = torch.ops.aten.alias.default(empty_17);  empty_17 = None
        
         # File: /app/low_bit_inference/optims/rms_norm_kernels/liger_rms_norm.py:461 in rms_norm_forward, code: _rms_norm_forward_kernel[(n_rows,)](
        triton_kernel_wrapper_functional_proxy_8 = torch.ops.higher_order.triton_kernel_wrapper_functional(kernel_idx = 139, constant_args_idx = 138, grid = [(arg0_1, 1, 1)], tma_descriptor_metadata = {}, kwargs = {'Y_ptr': alias_52, 'X_ptr': view_140, 'W_ptr': arg54_1, 'RSTD_ptr': alias_53}, tensors_to_clone = ['Y_ptr', 'RSTD_ptr']);  alias_52 = view_140 = arg54_1 = alias_53 = None
        getitem_32: "f16[s0, 4096][4096, 1]cuda:0" = triton_kernel_wrapper_functional_proxy_8['Y_ptr'];  triton_kernel_wrapper_functional_proxy_8 = None
        
         # File: /app/low_bit_inference/model.py:206 in forward, code: query_states = self.q_proj(hidden_states).view(hidden_shape).transpose(1, 2)
        permute_45: "f16[4096, 4096][1, 4096]cuda:0" = torch.ops.aten.permute.default(arg55_1, [1, 0]);  arg55_1 = None
        alias_56: "f16[s0, 4096][4096, 1]cuda:0" = torch.ops.aten.alias.default(getitem_32)
        view_143: "f16[1, s0, 4096][4096*s0, 4096, 1]cuda:0" = torch.ops.aten.view.default(alias_56, [1, arg0_1, 4096]);  alias_56 = None
        view_144: "f16[s0, 4096][4096, 1]cuda:0" = torch.ops.aten.view.default(view_143, [arg5_1, 4096]);  view_143 = None
        mm_28: "f16[s0, 4096][4096, 1]cuda:0" = torch.ops.aten.mm.default(view_144, permute_45);  view_144 = permute_45 = None
        view_145: "f16[1, s0, 4096][4096*s0, 4096, 1]cuda:0" = torch.ops.aten.view.default(mm_28, [1, arg5_1, 4096]);  mm_28 = None
        view_146: "f16[1, s0, 32, 128][4096*s0, 4096, 128, 1]cuda:0" = torch.ops.aten.view.default(view_145, [1, arg0_1, -1, 128]);  view_145 = None
        permute_46: "f16[1, 32, s0, 128][4096*s0, 128, 4096, 1]cuda:0" = torch.ops.aten.permute.default(view_146, [0, 2, 1, 3]);  view_146 = None
        
         # File: /app/low_bit_inference/model.py:207 in forward, code: key_states = self.k_proj(hidden_states).view(hidden_shape).transpose(1, 2)
        permute_47: "f16[4096, 1024][1, 4096]cuda:0" = torch.ops.aten.permute.default(arg56_1, [1, 0]);  arg56_1 = None
        alias_57: "f16[s0, 4096][4096, 1]cuda:0" = torch.ops.aten.alias.default(getitem_32)
        view_148: "f16[1, s0, 4096][4096*s0, 4096, 1]cuda:0" = torch.ops.aten.view.default(alias_57, [1, arg0_1, 4096]);  alias_57 = None
        view_149: "f16[s0, 4096][4096, 1]cuda:0" = torch.ops.aten.view.default(view_148, [arg5_1, 4096]);  view_148 = None
        mm_29: "f16[s0, 1024][1024, 1]cuda:0" = torch.ops.aten.mm.default(view_149, permute_47);  view_149 = permute_47 = None
        view_150: "f16[1, s0, 1024][1024*s0, 1024, 1]cuda:0" = torch.ops.aten.view.default(mm_29, [1, arg5_1, 1024]);  mm_29 = None
        view_151: "f16[1, s0, 8, 128][1024*s0, 1024, 128, 1]cuda:0" = torch.ops.aten.view.default(view_150, [1, arg0_1, -1, 128]);  view_150 = None
        permute_48: "f16[1, 8, s0, 128][1024*s0, 128, 1024, 1]cuda:0" = torch.ops.aten.permute.default(view_151, [0, 2, 1, 3]);  view_151 = None
        
         # File: /app/low_bit_inference/model.py:208 in forward, code: value_states = self.v_proj(hidden_states).view(hidden_shape).transpose(1, 2)
        permute_49: "f16[4096, 1024][1, 4096]cuda:0" = torch.ops.aten.permute.default(arg57_1, [1, 0]);  arg57_1 = None
        alias_58: "f16[s0, 4096][4096, 1]cuda:0" = torch.ops.aten.alias.default(getitem_32);  getitem_32 = None
        view_153: "f16[1, s0, 4096][4096*s0, 4096, 1]cuda:0" = torch.ops.aten.view.default(alias_58, [1, arg0_1, 4096]);  alias_58 = None
        view_154: "f16[s0, 4096][4096, 1]cuda:0" = torch.ops.aten.view.default(view_153, [arg5_1, 4096]);  view_153 = None
        mm_30: "f16[s0, 1024][1024, 1]cuda:0" = torch.ops.aten.mm.default(view_154, permute_49);  view_154 = permute_49 = None
        view_155: "f16[1, s0, 1024][1024*s0, 1024, 1]cuda:0" = torch.ops.aten.view.default(mm_30, [1, arg5_1, 1024]);  mm_30 = None
        view_156: "f16[1, s0, 8, 128][1024*s0, 1024, 128, 1]cuda:0" = torch.ops.aten.view.default(view_155, [1, arg0_1, -1, 128]);  view_155 = None
        permute_50: "f16[1, 8, s0, 128][1024*s0, 128, 1024, 1]cuda:0" = torch.ops.aten.permute.default(view_156, [0, 2, 1, 3]);  view_156 = None
        
         # File: /app/low_bit_inference/model.py:105 in apply_rotary_pos_emb, code: cos = cos.unsqueeze(unsqueeze_dim)
        unsqueeze_28: "f16[1, 1, s0, 128][128*s0, 128*s0, 128, 1]cuda:0" = torch.ops.aten.unsqueeze.default(convert_element_type_1, 1)
        
         # File: /app/low_bit_inference/model.py:106 in apply_rotary_pos_emb, code: sin = sin.unsqueeze(unsqueeze_dim)
        unsqueeze_29: "f16[1, 1, s0, 128][128*s0, 128*s0, 128, 1]cuda:0" = torch.ops.aten.unsqueeze.default(convert_element_type_2, 1)
        
         # File: /app/low_bit_inference/model.py:107 in apply_rotary_pos_emb, code: q_embed = (q * cos) + (rotate_half(q) * sin)
        mul_1708: "f16[1, 32, s0, 128][4096*s0, 128, 4096, 1]cuda:0" = torch.ops.aten.mul.Tensor(permute_46, unsqueeze_28)
        
         # File: /app/low_bit_inference/model.py:80 in rotate_half, code: x1 = x[..., : x.shape[-1] // 2]
        slice_96: "f16[1, 32, s0, 64][4096*s0, 128, 4096, 1]cuda:0" = torch.ops.aten.slice.Tensor(permute_46, 3, 0, 64)
        
         # File: /app/low_bit_inference/model.py:81 in rotate_half, code: x2 = x[..., x.shape[-1] // 2 :]
        slice_97: "f16[1, 32, s0, 64][4096*s0, 128, 4096, 1]cuda:0" = torch.ops.aten.slice.Tensor(permute_46, 3, 64, 9223372036854775807);  permute_46 = None
        
         # File: /app/low_bit_inference/model.py:82 in rotate_half, code: return torch.cat((-x2, x1), dim=-1)
        neg_8: "f16[1, 32, s0, 64][2048*s0, 64, 2048, 1]cuda:0" = torch.ops.aten.neg.default(slice_97);  slice_97 = None
        cat_8: "f16[1, 32, s0, 128][4096*s0, 128*s0, 128, 1]cuda:0" = torch.ops.aten.cat.default([neg_8, slice_96], -1);  neg_8 = slice_96 = None
        
         # File: /app/low_bit_inference/model.py:107 in apply_rotary_pos_emb, code: q_embed = (q * cos) + (rotate_half(q) * sin)
        mul_1725: "f16[1, 32, s0, 128][4096*s0, 128*s0, 128, 1]cuda:0" = torch.ops.aten.mul.Tensor(cat_8, unsqueeze_29);  cat_8 = None
        add_1387: "f16[1, 32, s0, 128][4096*s0, 128, 4096, 1]cuda:0" = torch.ops.aten.add.Tensor(mul_1708, mul_1725);  mul_1708 = mul_1725 = None
        
         # File: /app/low_bit_inference/model.py:108 in apply_rotary_pos_emb, code: k_embed = (k * cos) + (rotate_half(k) * sin)
        mul_1733: "f16[1, 8, s0, 128][1024*s0, 128, 1024, 1]cuda:0" = torch.ops.aten.mul.Tensor(permute_48, unsqueeze_28);  unsqueeze_28 = None
        
         # File: /app/low_bit_inference/model.py:80 in rotate_half, code: x1 = x[..., : x.shape[-1] // 2]
        slice_98: "f16[1, 8, s0, 64][1024*s0, 128, 1024, 1]cuda:0" = torch.ops.aten.slice.Tensor(permute_48, 3, 0, 64)
        
         # File: /app/low_bit_inference/model.py:81 in rotate_half, code: x2 = x[..., x.shape[-1] // 2 :]
        slice_99: "f16[1, 8, s0, 64][1024*s0, 128, 1024, 1]cuda:0" = torch.ops.aten.slice.Tensor(permute_48, 3, 64, 9223372036854775807);  permute_48 = None
        
         # File: /app/low_bit_inference/model.py:82 in rotate_half, code: return torch.cat((-x2, x1), dim=-1)
        neg_9: "f16[1, 8, s0, 64][512*s0, 64, 512, 1]cuda:0" = torch.ops.aten.neg.default(slice_99);  slice_99 = None
        cat_9: "f16[1, 8, s0, 128][1024*s0, 128*s0, 128, 1]cuda:0" = torch.ops.aten.cat.default([neg_9, slice_98], -1);  neg_9 = slice_98 = None
        
         # File: /app/low_bit_inference/model.py:108 in apply_rotary_pos_emb, code: k_embed = (k * cos) + (rotate_half(k) * sin)
        mul_1750: "f16[1, 8, s0, 128][1024*s0, 128*s0, 128, 1]cuda:0" = torch.ops.aten.mul.Tensor(cat_9, unsqueeze_29);  cat_9 = unsqueeze_29 = None
        add_1411: "f16[1, 8, s0, 128][1024*s0, 128, 1024, 1]cuda:0" = torch.ops.aten.add.Tensor(mul_1733, mul_1750);  mul_1733 = mul_1750 = None
        
         # File: /app/low_bit_inference/optims/cache_optim.py:150 in update, code: self.keys.index_copy_(2, cache_position, key_states)
        index_put_8: "f16[1, 8, s4, 128][1024*s4, 128*s4, 128, 1]cuda:0" = torch.ops.aten.index_put.default(arg58_1, [None, None, arg4_1], add_1411);  add_1411 = None
        
         # File: /app/low_bit_inference/optims/cache_optim.py:151 in update, code: self.values.index_copy_(2, cache_position, value_states)
        index_put_9: "f16[1, 8, s4, 128][1024*s4, 128*s4, 128, 1]cuda:0" = torch.ops.aten.index_put.default(arg59_1, [None, None, arg4_1], permute_50);  permute_50 = None
        
         # File: /app/.venv/lib/python3.12/site-packages/transformers/integrations/sdpa_attention.py:15 in repeat_kv, code: return hidden_states.reshape(batch, num_key_value_heads * n_rep, slen, head_dim)
        slice_104: "f16[1, 8, s4, 128][1024*s4, 128*s4, 128, 1]cuda:0" = torch.ops.aten.slice.Tensor(index_put_8, 0, 0, 9223372036854775807)
        slice_105: "f16[1, 8, s4, 128][1024*s4, 128*s4, 128, 1]cuda:0" = torch.ops.aten.slice.Tensor(slice_104, 1, 0, 9223372036854775807);  slice_104 = None
        unsqueeze_31: "f16[1, 8, 1, s4, 128][1024*s4, 128*s4, 128*s4, 128, 1]cuda:0" = torch.ops.aten.unsqueeze.default(slice_105, 2);  slice_105 = None
        slice_106: "f16[1, 8, 1, s4, 128][1024*s4, 128*s4, 128*s4, 128, 1]cuda:0" = torch.ops.aten.slice.Tensor(unsqueeze_31, 3, 0, 9223372036854775807);  unsqueeze_31 = None
        slice_107: "f16[1, 8, 1, s4, 128][1024*s4, 128*s4, 128*s4, 128, 1]cuda:0" = torch.ops.aten.slice.Tensor(slice_106, 4, 0, 9223372036854775807);  slice_106 = None
        expand_25: "f16[1, 8, 4, s4, 128][1024*s4, 128*s4, 0, 128, 1]cuda:0" = torch.ops.aten.expand.default(slice_107, [1, 8, 4, arg7_1, 128]);  slice_107 = None
        clone_14: "f16[1, 8, 4, s4, 128][4096*s4, 512*s4, 128*s4, 128, 1]cuda:0" = torch.ops.aten.clone.default(expand_25, memory_format = torch.contiguous_format);  expand_25 = None
        view_157: "f16[1, 32, s4, 128][4096*s4, 128*s4, 128, 1]cuda:0" = torch.ops.aten.view.default(clone_14, [1, 32, arg7_1, 128]);  clone_14 = None
        
         # File: /app/.venv/lib/python3.12/site-packages/transformers/integrations/sdpa_attention.py:15 in repeat_kv, code: return hidden_states.reshape(batch, num_key_value_heads * n_rep, slen, head_dim)
        slice_112: "f16[1, 8, s4, 128][1024*s4, 128*s4, 128, 1]cuda:0" = torch.ops.aten.slice.Tensor(index_put_9, 0, 0, 9223372036854775807)
        slice_113: "f16[1, 8, s4, 128][1024*s4, 128*s4, 128, 1]cuda:0" = torch.ops.aten.slice.Tensor(slice_112, 1, 0, 9223372036854775807);  slice_112 = None
        unsqueeze_33: "f16[1, 8, 1, s4, 128][1024*s4, 128*s4, 128*s4, 128, 1]cuda:0" = torch.ops.aten.unsqueeze.default(slice_113, 2);  slice_113 = None
        slice_114: "f16[1, 8, 1, s4, 128][1024*s4, 128*s4, 128*s4, 128, 1]cuda:0" = torch.ops.aten.slice.Tensor(unsqueeze_33, 3, 0, 9223372036854775807);  unsqueeze_33 = None
        slice_115: "f16[1, 8, 1, s4, 128][1024*s4, 128*s4, 128*s4, 128, 1]cuda:0" = torch.ops.aten.slice.Tensor(slice_114, 4, 0, 9223372036854775807);  slice_114 = None
        expand_27: "f16[1, 8, 4, s4, 128][1024*s4, 128*s4, 0, 128, 1]cuda:0" = torch.ops.aten.expand.default(slice_115, [1, 8, 4, arg7_1, 128]);  slice_115 = None
        clone_15: "f16[1, 8, 4, s4, 128][4096*s4, 512*s4, 128*s4, 128, 1]cuda:0" = torch.ops.aten.clone.default(expand_27, memory_format = torch.contiguous_format);  expand_27 = None
        view_158: "f16[1, 32, s4, 128][4096*s4, 128*s4, 128, 1]cuda:0" = torch.ops.aten.view.default(clone_15, [1, 32, arg7_1, 128]);  clone_15 = None
        
         # File: /app/.venv/lib/python3.12/site-packages/transformers/integrations/sdpa_attention.py:35 in sdpa_attention_forward, code: causal_mask = causal_mask[:, :, :, : key.shape[-2]]
        slice_116: "b8[1, 1, s0, s4][s0*s4, s0*s4, s4, 1]cuda:0" = torch.ops.aten.slice.Tensor(arg8_1, 0, 0, 9223372036854775807)
        slice_117: "b8[1, 1, s0, s4][s0*s4, s0*s4, s4, 1]cuda:0" = torch.ops.aten.slice.Tensor(slice_116, 1, 0, 9223372036854775807);  slice_116 = None
        slice_118: "b8[1, 1, s0, s4][s0*s4, s0*s4, s4, 1]cuda:0" = torch.ops.aten.slice.Tensor(slice_117, 2, 0, 9223372036854775807);  slice_117 = None
        
         # File: /app/.venv/lib/python3.12/site-packages/transformers/integrations/sdpa_attention.py:39 in sdpa_attention_forward, code: query = query.contiguous()
        clone_16: "f16[1, 32, s0, 128][4096*s0, 128*s0, 128, 1]cuda:0" = torch.ops.aten.clone.default(add_1387, memory_format = torch.contiguous_format);  add_1387 = None
        
         # File: /app/.venv/lib/python3.12/site-packages/transformers/integrations/sdpa_attention.py:54 in sdpa_attention_forward, code: attn_output = torch.nn.functional.scaled_dot_product_attention(
        scalar_tensor_8: "f16[][]cuda:0" = torch.ops.aten.scalar_tensor.default(-inf, dtype = torch.float16, device = device(type='cuda', index=0))
        scalar_tensor_9: "f16[][]cuda:0" = torch.ops.aten.scalar_tensor.default(0.0, dtype = torch.float16, layout = torch.strided, device = device(type='cuda', index=0))
        where_4: "f16[1, 1, s0, s4][s0*s4, s0*s4, s4, 1]cuda:0" = torch.ops.aten.where.self(slice_118, scalar_tensor_9, scalar_tensor_8);  slice_118 = scalar_tensor_9 = scalar_tensor_8 = None
        expand_28: "f16[1, 32, s0, s4][s0*s4, 0, s4, 1]cuda:0" = torch.ops.aten.expand.default(where_4, [1, 32, arg5_1, arg7_1]);  where_4 = None
        _scaled_dot_product_efficient_attention_4 = torch.ops.aten._scaled_dot_product_efficient_attention.default(clone_16, view_157, view_158, expand_28, False, scale = 0.08838834764831845);  clone_16 = view_157 = view_158 = expand_28 = None
        getitem_34: "f16[1, 32, s0, 128][4096*s0, 128, 4096, 1]cuda:0" = _scaled_dot_product_efficient_attention_4[0];  _scaled_dot_product_efficient_attention_4 = None
        
         # File: /app/.venv/lib/python3.12/site-packages/transformers/integrations/sdpa_attention.py:63 in sdpa_attention_forward, code: attn_output = attn_output.transpose(1, 2).contiguous()
        permute_51: "f16[1, s0, 32, 128][4096*s0, 4096, 128, 1]cuda:0" = torch.ops.aten.permute.default(getitem_34, [0, 2, 1, 3]);  getitem_34 = None
        
         # File: /app/low_bit_inference/model.py:233 in forward, code: attn_output = attn_output.reshape(*input_shape, -1).contiguous()
        view_159: "f16[1, s0, 4096][4096*s0, 4096, 1]cuda:0" = torch.ops.aten.view.default(permute_51, [1, arg0_1, -1]);  permute_51 = None
        
         # File: /app/low_bit_inference/model.py:234 in forward, code: attn_output = self.o_proj(attn_output)
        permute_52: "f16[4096, 4096][1, 4096]cuda:0" = torch.ops.aten.permute.default(arg60_1, [1, 0]);  arg60_1 = None
        view_160: "f16[s0, 4096][4096, 1]cuda:0" = torch.ops.aten.view.default(view_159, [arg5_1, 4096]);  view_159 = None
        mm_31: "f16[s0, 4096][4096, 1]cuda:0" = torch.ops.aten.mm.default(view_160, permute_52);  view_160 = permute_52 = None
        view_161: "f16[1, s0, 4096][4096*s0, 4096, 1]cuda:0" = torch.ops.aten.view.default(mm_31, [1, arg5_1, 4096]);  mm_31 = None
        
         # File: /app/low_bit_inference/model.py:273 in forward, code: hidden_states = residual + hidden_states
        add_1553: "f16[1, s0, 4096][4096*s0, 4096, 1]cuda:0" = torch.ops.aten.add.Tensor(add_1293, view_161);  add_1293 = view_161 = None
        
         # File: /app/low_bit_inference/optims/rms_norm_kernels/liger_rms_norm.py:443 in rms_norm_forward, code: X = X.view(-1, dim)
        view_162: "f16[s0, 4096][4096, 1]cuda:0" = torch.ops.aten.view.default(add_1553, [-1, 4096])
        
         # File: /app/low_bit_inference/optims/rms_norm_kernels/liger_rms_norm.py:447 in rms_norm_forward, code: Y = torch.empty((n_rows, n_cols), dtype=X.dtype, device=X.device)
        empty_18: "f16[s0, 4096][4096, 1]cuda:0" = torch.ops.aten.empty.memory_format([arg0_1, 4096], dtype = torch.float16, device = device(type='cuda', index=0), pin_memory = False)
        alias_59: "f16[s0, 4096][4096, 1]cuda:0" = torch.ops.aten.alias.default(empty_18);  empty_18 = None
        
         # File: /app/low_bit_inference/optims/rms_norm_kernels/liger_rms_norm.py:451 in rms_norm_forward, code: RSTD = torch.empty(n_rows, dtype=rstd_dtype, device=X.device)
        empty_19: "f32[s0][1]cuda:0" = torch.ops.aten.empty.memory_format([arg0_1], dtype = torch.float32, device = device(type='cuda', index=0), pin_memory = False)
        alias_60: "f32[s0][1]cuda:0" = torch.ops.aten.alias.default(empty_19);  empty_19 = None
        
         # File: /app/low_bit_inference/optims/rms_norm_kernels/liger_rms_norm.py:461 in rms_norm_forward, code: _rms_norm_forward_kernel[(n_rows,)](
        triton_kernel_wrapper_functional_proxy_9 = torch.ops.higher_order.triton_kernel_wrapper_functional(kernel_idx = 140, constant_args_idx = 139, grid = [(arg0_1, 1, 1)], tma_descriptor_metadata = {}, kwargs = {'Y_ptr': alias_59, 'X_ptr': view_162, 'W_ptr': arg61_1, 'RSTD_ptr': alias_60}, tensors_to_clone = ['Y_ptr', 'RSTD_ptr']);  alias_59 = view_162 = arg61_1 = alias_60 = None
        getitem_38: "f16[s0, 4096][4096, 1]cuda:0" = triton_kernel_wrapper_functional_proxy_9['Y_ptr'];  triton_kernel_wrapper_functional_proxy_9 = None
        
         # File: /app/low_bit_inference/model.py:124 in forward, code: down_proj = self.down_proj(self.act_fn(self.gate_proj(x)) * self.up_proj(x))
        permute_53: "f16[4096, 14336][1, 4096]cuda:0" = torch.ops.aten.permute.default(arg62_1, [1, 0]);  arg62_1 = None
        alias_63: "f16[s0, 4096][4096, 1]cuda:0" = torch.ops.aten.alias.default(getitem_38)
        view_165: "f16[1, s0, 4096][4096*s0, 4096, 1]cuda:0" = torch.ops.aten.view.default(alias_63, [1, arg0_1, 4096]);  alias_63 = None
        view_166: "f16[s0, 4096][4096, 1]cuda:0" = torch.ops.aten.view.default(view_165, [arg5_1, 4096]);  view_165 = None
        mm_32: "f16[s0, 14336][14336, 1]cuda:0" = torch.ops.aten.mm.default(view_166, permute_53);  view_166 = permute_53 = None
        view_167: "f16[1, s0, 14336][14336*s0, 14336, 1]cuda:0" = torch.ops.aten.view.default(mm_32, [1, arg5_1, 14336]);  mm_32 = None
        convert_element_type_77: "f32[1, s0, 14336][14336*s0, 14336, 1]cuda:0" = torch.ops.prims.convert_element_type.default(view_167, torch.float32);  view_167 = None
        sigmoid_4: "f32[1, s0, 14336][14336*s0, 14336, 1]cuda:0" = torch.ops.aten.sigmoid.default(convert_element_type_77)
        mul_1982: "f32[1, s0, 14336][14336*s0, 14336, 1]cuda:0" = torch.ops.aten.mul.Tensor(convert_element_type_77, sigmoid_4);  convert_element_type_77 = sigmoid_4 = None
        convert_element_type_78: "f16[1, s0, 14336][14336*s0, 14336, 1]cuda:0" = torch.ops.prims.convert_element_type.default(mul_1982, torch.float16);  mul_1982 = None
        permute_54: "f16[4096, 14336][1, 4096]cuda:0" = torch.ops.aten.permute.default(arg63_1, [1, 0]);  arg63_1 = None
        alias_64: "f16[s0, 4096][4096, 1]cuda:0" = torch.ops.aten.alias.default(getitem_38);  getitem_38 = None
        view_169: "f16[1, s0, 4096][4096*s0, 4096, 1]cuda:0" = torch.ops.aten.view.default(alias_64, [1, arg0_1, 4096]);  alias_64 = None
        view_170: "f16[s0, 4096][4096, 1]cuda:0" = torch.ops.aten.view.default(view_169, [arg5_1, 4096]);  view_169 = None
        mm_33: "f16[s0, 14336][14336, 1]cuda:0" = torch.ops.aten.mm.default(view_170, permute_54);  view_170 = permute_54 = None
        view_171: "f16[1, s0, 14336][14336*s0, 14336, 1]cuda:0" = torch.ops.aten.view.default(mm_33, [1, arg5_1, 14336]);  mm_33 = None
        mul_1999: "f16[1, s0, 14336][14336*s0, 14336, 1]cuda:0" = torch.ops.aten.mul.Tensor(convert_element_type_78, view_171);  convert_element_type_78 = view_171 = None
        permute_55: "f16[14336, 4096][1, 14336]cuda:0" = torch.ops.aten.permute.default(arg64_1, [1, 0]);  arg64_1 = None
        view_172: "f16[s0, 14336][14336, 1]cuda:0" = torch.ops.aten.view.default(mul_1999, [arg5_1, 14336]);  mul_1999 = None
        mm_34: "f16[s0, 4096][4096, 1]cuda:0" = torch.ops.aten.mm.default(view_172, permute_55);  view_172 = permute_55 = None
        view_173: "f16[1, s0, 4096][4096*s0, 4096, 1]cuda:0" = torch.ops.aten.view.default(mm_34, [1, arg5_1, 4096]);  mm_34 = None
        
         # File: /app/low_bit_inference/model.py:279 in forward, code: hidden_states = residual + hidden_states
        add_1606: "f16[1, s0, 4096][4096*s0, 4096, 1]cuda:0" = torch.ops.aten.add.Tensor(add_1553, view_173);  add_1553 = view_173 = None
        
         # File: /app/low_bit_inference/optims/rms_norm_kernels/liger_rms_norm.py:443 in rms_norm_forward, code: X = X.view(-1, dim)
        view_174: "f16[s0, 4096][4096, 1]cuda:0" = torch.ops.aten.view.default(add_1606, [-1, 4096])
        
         # File: /app/low_bit_inference/optims/rms_norm_kernels/liger_rms_norm.py:447 in rms_norm_forward, code: Y = torch.empty((n_rows, n_cols), dtype=X.dtype, device=X.device)
        empty_20: "f16[s0, 4096][4096, 1]cuda:0" = torch.ops.aten.empty.memory_format([arg0_1, 4096], dtype = torch.float16, device = device(type='cuda', index=0), pin_memory = False)
        alias_65: "f16[s0, 4096][4096, 1]cuda:0" = torch.ops.aten.alias.default(empty_20);  empty_20 = None
        
         # File: /app/low_bit_inference/optims/rms_norm_kernels/liger_rms_norm.py:451 in rms_norm_forward, code: RSTD = torch.empty(n_rows, dtype=rstd_dtype, device=X.device)
        empty_21: "f32[s0][1]cuda:0" = torch.ops.aten.empty.memory_format([arg0_1], dtype = torch.float32, device = device(type='cuda', index=0), pin_memory = False)
        alias_66: "f32[s0][1]cuda:0" = torch.ops.aten.alias.default(empty_21);  empty_21 = None
        
         # File: /app/low_bit_inference/optims/rms_norm_kernels/liger_rms_norm.py:461 in rms_norm_forward, code: _rms_norm_forward_kernel[(n_rows,)](
        triton_kernel_wrapper_functional_proxy_10 = torch.ops.higher_order.triton_kernel_wrapper_functional(kernel_idx = 141, constant_args_idx = 140, grid = [(arg0_1, 1, 1)], tma_descriptor_metadata = {}, kwargs = {'Y_ptr': alias_65, 'X_ptr': view_174, 'W_ptr': arg65_1, 'RSTD_ptr': alias_66}, tensors_to_clone = ['Y_ptr', 'RSTD_ptr']);  alias_65 = view_174 = arg65_1 = alias_66 = None
        getitem_40: "f16[s0, 4096][4096, 1]cuda:0" = triton_kernel_wrapper_functional_proxy_10['Y_ptr'];  triton_kernel_wrapper_functional_proxy_10 = None
        
         # File: /app/low_bit_inference/model.py:206 in forward, code: query_states = self.q_proj(hidden_states).view(hidden_shape).transpose(1, 2)
        permute_56: "f16[4096, 4096][1, 4096]cuda:0" = torch.ops.aten.permute.default(arg66_1, [1, 0]);  arg66_1 = None
        alias_69: "f16[s0, 4096][4096, 1]cuda:0" = torch.ops.aten.alias.default(getitem_40)
        view_177: "f16[1, s0, 4096][4096*s0, 4096, 1]cuda:0" = torch.ops.aten.view.default(alias_69, [1, arg0_1, 4096]);  alias_69 = None
        view_178: "f16[s0, 4096][4096, 1]cuda:0" = torch.ops.aten.view.default(view_177, [arg5_1, 4096]);  view_177 = None
        mm_35: "f16[s0, 4096][4096, 1]cuda:0" = torch.ops.aten.mm.default(view_178, permute_56);  view_178 = permute_56 = None
        view_179: "f16[1, s0, 4096][4096*s0, 4096, 1]cuda:0" = torch.ops.aten.view.default(mm_35, [1, arg5_1, 4096]);  mm_35 = None
        view_180: "f16[1, s0, 32, 128][4096*s0, 4096, 128, 1]cuda:0" = torch.ops.aten.view.default(view_179, [1, arg0_1, -1, 128]);  view_179 = None
        permute_57: "f16[1, 32, s0, 128][4096*s0, 128, 4096, 1]cuda:0" = torch.ops.aten.permute.default(view_180, [0, 2, 1, 3]);  view_180 = None
        
         # File: /app/low_bit_inference/model.py:207 in forward, code: key_states = self.k_proj(hidden_states).view(hidden_shape).transpose(1, 2)
        permute_58: "f16[4096, 1024][1, 4096]cuda:0" = torch.ops.aten.permute.default(arg67_1, [1, 0]);  arg67_1 = None
        alias_70: "f16[s0, 4096][4096, 1]cuda:0" = torch.ops.aten.alias.default(getitem_40)
        view_182: "f16[1, s0, 4096][4096*s0, 4096, 1]cuda:0" = torch.ops.aten.view.default(alias_70, [1, arg0_1, 4096]);  alias_70 = None
        view_183: "f16[s0, 4096][4096, 1]cuda:0" = torch.ops.aten.view.default(view_182, [arg5_1, 4096]);  view_182 = None
        mm_36: "f16[s0, 1024][1024, 1]cuda:0" = torch.ops.aten.mm.default(view_183, permute_58);  view_183 = permute_58 = None
        view_184: "f16[1, s0, 1024][1024*s0, 1024, 1]cuda:0" = torch.ops.aten.view.default(mm_36, [1, arg5_1, 1024]);  mm_36 = None
        view_185: "f16[1, s0, 8, 128][1024*s0, 1024, 128, 1]cuda:0" = torch.ops.aten.view.default(view_184, [1, arg0_1, -1, 128]);  view_184 = None
        permute_59: "f16[1, 8, s0, 128][1024*s0, 128, 1024, 1]cuda:0" = torch.ops.aten.permute.default(view_185, [0, 2, 1, 3]);  view_185 = None
        
         # File: /app/low_bit_inference/model.py:208 in forward, code: value_states = self.v_proj(hidden_states).view(hidden_shape).transpose(1, 2)
        permute_60: "f16[4096, 1024][1, 4096]cuda:0" = torch.ops.aten.permute.default(arg68_1, [1, 0]);  arg68_1 = None
        alias_71: "f16[s0, 4096][4096, 1]cuda:0" = torch.ops.aten.alias.default(getitem_40);  getitem_40 = None
        view_187: "f16[1, s0, 4096][4096*s0, 4096, 1]cuda:0" = torch.ops.aten.view.default(alias_71, [1, arg0_1, 4096]);  alias_71 = None
        view_188: "f16[s0, 4096][4096, 1]cuda:0" = torch.ops.aten.view.default(view_187, [arg5_1, 4096]);  view_187 = None
        mm_37: "f16[s0, 1024][1024, 1]cuda:0" = torch.ops.aten.mm.default(view_188, permute_60);  view_188 = permute_60 = None
        view_189: "f16[1, s0, 1024][1024*s0, 1024, 1]cuda:0" = torch.ops.aten.view.default(mm_37, [1, arg5_1, 1024]);  mm_37 = None
        view_190: "f16[1, s0, 8, 128][1024*s0, 1024, 128, 1]cuda:0" = torch.ops.aten.view.default(view_189, [1, arg0_1, -1, 128]);  view_189 = None
        permute_61: "f16[1, 8, s0, 128][1024*s0, 128, 1024, 1]cuda:0" = torch.ops.aten.permute.default(view_190, [0, 2, 1, 3]);  view_190 = None
        
         # File: /app/low_bit_inference/model.py:105 in apply_rotary_pos_emb, code: cos = cos.unsqueeze(unsqueeze_dim)
        unsqueeze_34: "f16[1, 1, s0, 128][128*s0, 128*s0, 128, 1]cuda:0" = torch.ops.aten.unsqueeze.default(convert_element_type_1, 1)
        
         # File: /app/low_bit_inference/model.py:106 in apply_rotary_pos_emb, code: sin = sin.unsqueeze(unsqueeze_dim)
        unsqueeze_35: "f16[1, 1, s0, 128][128*s0, 128*s0, 128, 1]cuda:0" = torch.ops.aten.unsqueeze.default(convert_element_type_2, 1)
        
         # File: /app/low_bit_inference/model.py:107 in apply_rotary_pos_emb, code: q_embed = (q * cos) + (rotate_half(q) * sin)
        mul_2101: "f16[1, 32, s0, 128][4096*s0, 128, 4096, 1]cuda:0" = torch.ops.aten.mul.Tensor(permute_57, unsqueeze_34)
        
         # File: /app/low_bit_inference/model.py:80 in rotate_half, code: x1 = x[..., : x.shape[-1] // 2]
        slice_119: "f16[1, 32, s0, 64][4096*s0, 128, 4096, 1]cuda:0" = torch.ops.aten.slice.Tensor(permute_57, 3, 0, 64)
        
         # File: /app/low_bit_inference/model.py:81 in rotate_half, code: x2 = x[..., x.shape[-1] // 2 :]
        slice_120: "f16[1, 32, s0, 64][4096*s0, 128, 4096, 1]cuda:0" = torch.ops.aten.slice.Tensor(permute_57, 3, 64, 9223372036854775807);  permute_57 = None
        
         # File: /app/low_bit_inference/model.py:82 in rotate_half, code: return torch.cat((-x2, x1), dim=-1)
        neg_10: "f16[1, 32, s0, 64][2048*s0, 64, 2048, 1]cuda:0" = torch.ops.aten.neg.default(slice_120);  slice_120 = None
        cat_10: "f16[1, 32, s0, 128][4096*s0, 128*s0, 128, 1]cuda:0" = torch.ops.aten.cat.default([neg_10, slice_119], -1);  neg_10 = slice_119 = None
        
         # File: /app/low_bit_inference/model.py:107 in apply_rotary_pos_emb, code: q_embed = (q * cos) + (rotate_half(q) * sin)
        mul_2118: "f16[1, 32, s0, 128][4096*s0, 128*s0, 128, 1]cuda:0" = torch.ops.aten.mul.Tensor(cat_10, unsqueeze_35);  cat_10 = None
        add_1700: "f16[1, 32, s0, 128][4096*s0, 128, 4096, 1]cuda:0" = torch.ops.aten.add.Tensor(mul_2101, mul_2118);  mul_2101 = mul_2118 = None
        
         # File: /app/low_bit_inference/model.py:108 in apply_rotary_pos_emb, code: k_embed = (k * cos) + (rotate_half(k) * sin)
        mul_2126: "f16[1, 8, s0, 128][1024*s0, 128, 1024, 1]cuda:0" = torch.ops.aten.mul.Tensor(permute_59, unsqueeze_34);  unsqueeze_34 = None
        
         # File: /app/low_bit_inference/model.py:80 in rotate_half, code: x1 = x[..., : x.shape[-1] // 2]
        slice_121: "f16[1, 8, s0, 64][1024*s0, 128, 1024, 1]cuda:0" = torch.ops.aten.slice.Tensor(permute_59, 3, 0, 64)
        
         # File: /app/low_bit_inference/model.py:81 in rotate_half, code: x2 = x[..., x.shape[-1] // 2 :]
        slice_122: "f16[1, 8, s0, 64][1024*s0, 128, 1024, 1]cuda:0" = torch.ops.aten.slice.Tensor(permute_59, 3, 64, 9223372036854775807);  permute_59 = None
        
         # File: /app/low_bit_inference/model.py:82 in rotate_half, code: return torch.cat((-x2, x1), dim=-1)
        neg_11: "f16[1, 8, s0, 64][512*s0, 64, 512, 1]cuda:0" = torch.ops.aten.neg.default(slice_122);  slice_122 = None
        cat_11: "f16[1, 8, s0, 128][1024*s0, 128*s0, 128, 1]cuda:0" = torch.ops.aten.cat.default([neg_11, slice_121], -1);  neg_11 = slice_121 = None
        
         # File: /app/low_bit_inference/model.py:108 in apply_rotary_pos_emb, code: k_embed = (k * cos) + (rotate_half(k) * sin)
        mul_2143: "f16[1, 8, s0, 128][1024*s0, 128*s0, 128, 1]cuda:0" = torch.ops.aten.mul.Tensor(cat_11, unsqueeze_35);  cat_11 = unsqueeze_35 = None
        add_1724: "f16[1, 8, s0, 128][1024*s0, 128, 1024, 1]cuda:0" = torch.ops.aten.add.Tensor(mul_2126, mul_2143);  mul_2126 = mul_2143 = None
        
         # File: /app/low_bit_inference/optims/cache_optim.py:150 in update, code: self.keys.index_copy_(2, cache_position, key_states)
        index_put_10: "f16[1, 8, s4, 128][1024*s4, 128*s4, 128, 1]cuda:0" = torch.ops.aten.index_put.default(arg69_1, [None, None, arg4_1], add_1724);  add_1724 = None
        
         # File: /app/low_bit_inference/optims/cache_optim.py:151 in update, code: self.values.index_copy_(2, cache_position, value_states)
        index_put_11: "f16[1, 8, s4, 128][1024*s4, 128*s4, 128, 1]cuda:0" = torch.ops.aten.index_put.default(arg70_1, [None, None, arg4_1], permute_61);  permute_61 = None
        
         # File: /app/.venv/lib/python3.12/site-packages/transformers/integrations/sdpa_attention.py:15 in repeat_kv, code: return hidden_states.reshape(batch, num_key_value_heads * n_rep, slen, head_dim)
        slice_127: "f16[1, 8, s4, 128][1024*s4, 128*s4, 128, 1]cuda:0" = torch.ops.aten.slice.Tensor(index_put_10, 0, 0, 9223372036854775807)
        slice_128: "f16[1, 8, s4, 128][1024*s4, 128*s4, 128, 1]cuda:0" = torch.ops.aten.slice.Tensor(slice_127, 1, 0, 9223372036854775807);  slice_127 = None
        unsqueeze_37: "f16[1, 8, 1, s4, 128][1024*s4, 128*s4, 128*s4, 128, 1]cuda:0" = torch.ops.aten.unsqueeze.default(slice_128, 2);  slice_128 = None
        slice_129: "f16[1, 8, 1, s4, 128][1024*s4, 128*s4, 128*s4, 128, 1]cuda:0" = torch.ops.aten.slice.Tensor(unsqueeze_37, 3, 0, 9223372036854775807);  unsqueeze_37 = None
        slice_130: "f16[1, 8, 1, s4, 128][1024*s4, 128*s4, 128*s4, 128, 1]cuda:0" = torch.ops.aten.slice.Tensor(slice_129, 4, 0, 9223372036854775807);  slice_129 = None
        expand_30: "f16[1, 8, 4, s4, 128][1024*s4, 128*s4, 0, 128, 1]cuda:0" = torch.ops.aten.expand.default(slice_130, [1, 8, 4, arg7_1, 128]);  slice_130 = None
        clone_17: "f16[1, 8, 4, s4, 128][4096*s4, 512*s4, 128*s4, 128, 1]cuda:0" = torch.ops.aten.clone.default(expand_30, memory_format = torch.contiguous_format);  expand_30 = None
        view_191: "f16[1, 32, s4, 128][4096*s4, 128*s4, 128, 1]cuda:0" = torch.ops.aten.view.default(clone_17, [1, 32, arg7_1, 128]);  clone_17 = None
        
         # File: /app/.venv/lib/python3.12/site-packages/transformers/integrations/sdpa_attention.py:15 in repeat_kv, code: return hidden_states.reshape(batch, num_key_value_heads * n_rep, slen, head_dim)
        slice_135: "f16[1, 8, s4, 128][1024*s4, 128*s4, 128, 1]cuda:0" = torch.ops.aten.slice.Tensor(index_put_11, 0, 0, 9223372036854775807)
        slice_136: "f16[1, 8, s4, 128][1024*s4, 128*s4, 128, 1]cuda:0" = torch.ops.aten.slice.Tensor(slice_135, 1, 0, 9223372036854775807);  slice_135 = None
        unsqueeze_39: "f16[1, 8, 1, s4, 128][1024*s4, 128*s4, 128*s4, 128, 1]cuda:0" = torch.ops.aten.unsqueeze.default(slice_136, 2);  slice_136 = None
        slice_137: "f16[1, 8, 1, s4, 128][1024*s4, 128*s4, 128*s4, 128, 1]cuda:0" = torch.ops.aten.slice.Tensor(unsqueeze_39, 3, 0, 9223372036854775807);  unsqueeze_39 = None
        slice_138: "f16[1, 8, 1, s4, 128][1024*s4, 128*s4, 128*s4, 128, 1]cuda:0" = torch.ops.aten.slice.Tensor(slice_137, 4, 0, 9223372036854775807);  slice_137 = None
        expand_32: "f16[1, 8, 4, s4, 128][1024*s4, 128*s4, 0, 128, 1]cuda:0" = torch.ops.aten.expand.default(slice_138, [1, 8, 4, arg7_1, 128]);  slice_138 = None
        clone_18: "f16[1, 8, 4, s4, 128][4096*s4, 512*s4, 128*s4, 128, 1]cuda:0" = torch.ops.aten.clone.default(expand_32, memory_format = torch.contiguous_format);  expand_32 = None
        view_192: "f16[1, 32, s4, 128][4096*s4, 128*s4, 128, 1]cuda:0" = torch.ops.aten.view.default(clone_18, [1, 32, arg7_1, 128]);  clone_18 = None
        
         # File: /app/.venv/lib/python3.12/site-packages/transformers/integrations/sdpa_attention.py:35 in sdpa_attention_forward, code: causal_mask = causal_mask[:, :, :, : key.shape[-2]]
        slice_139: "b8[1, 1, s0, s4][s0*s4, s0*s4, s4, 1]cuda:0" = torch.ops.aten.slice.Tensor(arg8_1, 0, 0, 9223372036854775807)
        slice_140: "b8[1, 1, s0, s4][s0*s4, s0*s4, s4, 1]cuda:0" = torch.ops.aten.slice.Tensor(slice_139, 1, 0, 9223372036854775807);  slice_139 = None
        slice_141: "b8[1, 1, s0, s4][s0*s4, s0*s4, s4, 1]cuda:0" = torch.ops.aten.slice.Tensor(slice_140, 2, 0, 9223372036854775807);  slice_140 = None
        
         # File: /app/.venv/lib/python3.12/site-packages/transformers/integrations/sdpa_attention.py:39 in sdpa_attention_forward, code: query = query.contiguous()
        clone_19: "f16[1, 32, s0, 128][4096*s0, 128*s0, 128, 1]cuda:0" = torch.ops.aten.clone.default(add_1700, memory_format = torch.contiguous_format);  add_1700 = None
        
         # File: /app/.venv/lib/python3.12/site-packages/transformers/integrations/sdpa_attention.py:54 in sdpa_attention_forward, code: attn_output = torch.nn.functional.scaled_dot_product_attention(
        scalar_tensor_10: "f16[][]cuda:0" = torch.ops.aten.scalar_tensor.default(-inf, dtype = torch.float16, device = device(type='cuda', index=0))
        scalar_tensor_11: "f16[][]cuda:0" = torch.ops.aten.scalar_tensor.default(0.0, dtype = torch.float16, layout = torch.strided, device = device(type='cuda', index=0))
        where_5: "f16[1, 1, s0, s4][s0*s4, s0*s4, s4, 1]cuda:0" = torch.ops.aten.where.self(slice_141, scalar_tensor_11, scalar_tensor_10);  slice_141 = scalar_tensor_11 = scalar_tensor_10 = None
        expand_33: "f16[1, 32, s0, s4][s0*s4, 0, s4, 1]cuda:0" = torch.ops.aten.expand.default(where_5, [1, 32, arg5_1, arg7_1]);  where_5 = None
        _scaled_dot_product_efficient_attention_5 = torch.ops.aten._scaled_dot_product_efficient_attention.default(clone_19, view_191, view_192, expand_33, False, scale = 0.08838834764831845);  clone_19 = view_191 = view_192 = expand_33 = None
        getitem_42: "f16[1, 32, s0, 128][4096*s0, 128, 4096, 1]cuda:0" = _scaled_dot_product_efficient_attention_5[0];  _scaled_dot_product_efficient_attention_5 = None
        
         # File: /app/.venv/lib/python3.12/site-packages/transformers/integrations/sdpa_attention.py:63 in sdpa_attention_forward, code: attn_output = attn_output.transpose(1, 2).contiguous()
        permute_62: "f16[1, s0, 32, 128][4096*s0, 4096, 128, 1]cuda:0" = torch.ops.aten.permute.default(getitem_42, [0, 2, 1, 3]);  getitem_42 = None
        
         # File: /app/low_bit_inference/model.py:233 in forward, code: attn_output = attn_output.reshape(*input_shape, -1).contiguous()
        view_193: "f16[1, s0, 4096][4096*s0, 4096, 1]cuda:0" = torch.ops.aten.view.default(permute_62, [1, arg0_1, -1]);  permute_62 = None
        
         # File: /app/low_bit_inference/model.py:234 in forward, code: attn_output = self.o_proj(attn_output)
        permute_63: "f16[4096, 4096][1, 4096]cuda:0" = torch.ops.aten.permute.default(arg71_1, [1, 0]);  arg71_1 = None
        view_194: "f16[s0, 4096][4096, 1]cuda:0" = torch.ops.aten.view.default(view_193, [arg5_1, 4096]);  view_193 = None
        mm_38: "f16[s0, 4096][4096, 1]cuda:0" = torch.ops.aten.mm.default(view_194, permute_63);  view_194 = permute_63 = None
        view_195: "f16[1, s0, 4096][4096*s0, 4096, 1]cuda:0" = torch.ops.aten.view.default(mm_38, [1, arg5_1, 4096]);  mm_38 = None
        
         # File: /app/low_bit_inference/model.py:273 in forward, code: hidden_states = residual + hidden_states
        add_1866: "f16[1, s0, 4096][4096*s0, 4096, 1]cuda:0" = torch.ops.aten.add.Tensor(add_1606, view_195);  add_1606 = view_195 = None
        
         # File: /app/low_bit_inference/optims/rms_norm_kernels/liger_rms_norm.py:443 in rms_norm_forward, code: X = X.view(-1, dim)
        view_196: "f16[s0, 4096][4096, 1]cuda:0" = torch.ops.aten.view.default(add_1866, [-1, 4096])
        
         # File: /app/low_bit_inference/optims/rms_norm_kernels/liger_rms_norm.py:447 in rms_norm_forward, code: Y = torch.empty((n_rows, n_cols), dtype=X.dtype, device=X.device)
        empty_22: "f16[s0, 4096][4096, 1]cuda:0" = torch.ops.aten.empty.memory_format([arg0_1, 4096], dtype = torch.float16, device = device(type='cuda', index=0), pin_memory = False)
        alias_72: "f16[s0, 4096][4096, 1]cuda:0" = torch.ops.aten.alias.default(empty_22);  empty_22 = None
        
         # File: /app/low_bit_inference/optims/rms_norm_kernels/liger_rms_norm.py:451 in rms_norm_forward, code: RSTD = torch.empty(n_rows, dtype=rstd_dtype, device=X.device)
        empty_23: "f32[s0][1]cuda:0" = torch.ops.aten.empty.memory_format([arg0_1], dtype = torch.float32, device = device(type='cuda', index=0), pin_memory = False)
        alias_73: "f32[s0][1]cuda:0" = torch.ops.aten.alias.default(empty_23);  empty_23 = None
        
         # File: /app/low_bit_inference/optims/rms_norm_kernels/liger_rms_norm.py:461 in rms_norm_forward, code: _rms_norm_forward_kernel[(n_rows,)](
        triton_kernel_wrapper_functional_proxy_11 = torch.ops.higher_order.triton_kernel_wrapper_functional(kernel_idx = 142, constant_args_idx = 141, grid = [(arg0_1, 1, 1)], tma_descriptor_metadata = {}, kwargs = {'Y_ptr': alias_72, 'X_ptr': view_196, 'W_ptr': arg72_1, 'RSTD_ptr': alias_73}, tensors_to_clone = ['Y_ptr', 'RSTD_ptr']);  alias_72 = view_196 = arg72_1 = alias_73 = None
        getitem_46: "f16[s0, 4096][4096, 1]cuda:0" = triton_kernel_wrapper_functional_proxy_11['Y_ptr'];  triton_kernel_wrapper_functional_proxy_11 = None
        
         # File: /app/low_bit_inference/model.py:124 in forward, code: down_proj = self.down_proj(self.act_fn(self.gate_proj(x)) * self.up_proj(x))
        permute_64: "f16[4096, 14336][1, 4096]cuda:0" = torch.ops.aten.permute.default(arg73_1, [1, 0]);  arg73_1 = None
        alias_76: "f16[s0, 4096][4096, 1]cuda:0" = torch.ops.aten.alias.default(getitem_46)
        view_199: "f16[1, s0, 4096][4096*s0, 4096, 1]cuda:0" = torch.ops.aten.view.default(alias_76, [1, arg0_1, 4096]);  alias_76 = None
        view_200: "f16[s0, 4096][4096, 1]cuda:0" = torch.ops.aten.view.default(view_199, [arg5_1, 4096]);  view_199 = None
        mm_39: "f16[s0, 14336][14336, 1]cuda:0" = torch.ops.aten.mm.default(view_200, permute_64);  view_200 = permute_64 = None
        view_201: "f16[1, s0, 14336][14336*s0, 14336, 1]cuda:0" = torch.ops.aten.view.default(mm_39, [1, arg5_1, 14336]);  mm_39 = None
        convert_element_type_93: "f32[1, s0, 14336][14336*s0, 14336, 1]cuda:0" = torch.ops.prims.convert_element_type.default(view_201, torch.float32);  view_201 = None
        sigmoid_5: "f32[1, s0, 14336][14336*s0, 14336, 1]cuda:0" = torch.ops.aten.sigmoid.default(convert_element_type_93)
        mul_2375: "f32[1, s0, 14336][14336*s0, 14336, 1]cuda:0" = torch.ops.aten.mul.Tensor(convert_element_type_93, sigmoid_5);  convert_element_type_93 = sigmoid_5 = None
        convert_element_type_94: "f16[1, s0, 14336][14336*s0, 14336, 1]cuda:0" = torch.ops.prims.convert_element_type.default(mul_2375, torch.float16);  mul_2375 = None
        permute_65: "f16[4096, 14336][1, 4096]cuda:0" = torch.ops.aten.permute.default(arg74_1, [1, 0]);  arg74_1 = None
        alias_77: "f16[s0, 4096][4096, 1]cuda:0" = torch.ops.aten.alias.default(getitem_46);  getitem_46 = None
        view_203: "f16[1, s0, 4096][4096*s0, 4096, 1]cuda:0" = torch.ops.aten.view.default(alias_77, [1, arg0_1, 4096]);  alias_77 = None
        view_204: "f16[s0, 4096][4096, 1]cuda:0" = torch.ops.aten.view.default(view_203, [arg5_1, 4096]);  view_203 = None
        mm_40: "f16[s0, 14336][14336, 1]cuda:0" = torch.ops.aten.mm.default(view_204, permute_65);  view_204 = permute_65 = None
        view_205: "f16[1, s0, 14336][14336*s0, 14336, 1]cuda:0" = torch.ops.aten.view.default(mm_40, [1, arg5_1, 14336]);  mm_40 = None
        mul_2392: "f16[1, s0, 14336][14336*s0, 14336, 1]cuda:0" = torch.ops.aten.mul.Tensor(convert_element_type_94, view_205);  convert_element_type_94 = view_205 = None
        permute_66: "f16[14336, 4096][1, 14336]cuda:0" = torch.ops.aten.permute.default(arg75_1, [1, 0]);  arg75_1 = None
        view_206: "f16[s0, 14336][14336, 1]cuda:0" = torch.ops.aten.view.default(mul_2392, [arg5_1, 14336]);  mul_2392 = None
        mm_41: "f16[s0, 4096][4096, 1]cuda:0" = torch.ops.aten.mm.default(view_206, permute_66);  view_206 = permute_66 = None
        view_207: "f16[1, s0, 4096][4096*s0, 4096, 1]cuda:0" = torch.ops.aten.view.default(mm_41, [1, arg5_1, 4096]);  mm_41 = None
        
…
_397 = view_1046 = arg347_1 = alias_398 = None
        getitem_246: "f16[s0, 4096][4096, 1]cuda:0" = triton_kernel_wrapper_functional_proxy_61['Y_ptr'];  triton_kernel_wrapper_functional_proxy_61 = None
        
         # File: /app/low_bit_inference/model.py:124 in forward, code: down_proj = self.down_proj(self.act_fn(self.gate_proj(x)) * self.up_proj(x))
        permute_339: "f16[4096, 14336][1, 4096]cuda:0" = torch.ops.aten.permute.default(arg348_1, [1, 0]);  arg348_1 = None
        alias_401: "f16[s0, 4096][4096, 1]cuda:0" = torch.ops.aten.alias.default(getitem_246)
        view_1049: "f16[1, s0, 4096][4096*s0, 4096, 1]cuda:0" = torch.ops.aten.view.default(alias_401, [1, arg0_1, 4096]);  alias_401 = None
        view_1050: "f16[s0, 4096][4096, 1]cuda:0" = torch.ops.aten.view.default(view_1049, [arg5_1, 4096]);  view_1049 = None
        mm_214: "f16[s0, 14336][14336, 1]cuda:0" = torch.ops.aten.mm.default(view_1050, permute_339);  view_1050 = permute_339 = None
        view_1051: "f16[1, s0, 14336][14336*s0, 14336, 1]cuda:0" = torch.ops.aten.view.default(mm_214, [1, arg5_1, 14336]);  mm_214 = None
        convert_element_type_493: "f32[1, s0, 14336][14336*s0, 14336, 1]cuda:0" = torch.ops.prims.convert_element_type.default(view_1051, torch.float32);  view_1051 = None
        sigmoid_30: "f32[1, s0, 14336][14336*s0, 14336, 1]cuda:0" = torch.ops.aten.sigmoid.default(convert_element_type_493)
        mul_12200: "f32[1, s0, 14336][14336*s0, 14336, 1]cuda:0" = torch.ops.aten.mul.Tensor(convert_element_type_493, sigmoid_30);  convert_element_type_493 = sigmoid_30 = None
        convert_element_type_494: "f16[1, s0, 14336][14336*s0, 14336, 1]cuda:0" = torch.ops.prims.convert_element_type.default(mul_12200, torch.float16);  mul_12200 = None
        permute_340: "f16[4096, 14336][1, 4096]cuda:0" = torch.ops.aten.permute.default(arg349_1, [1, 0]);  arg349_1 = None
        alias_402: "f16[s0, 4096][4096, 1]cuda:0" = torch.ops.aten.alias.default(getitem_246);  getitem_246 = None
        view_1053: "f16[1, s0, 4096][4096*s0, 4096, 1]cuda:0" = torch.ops.aten.view.default(alias_402, [1, arg0_1, 4096]);  alias_402 = None
        view_1054: "f16[s0, 4096][4096, 1]cuda:0" = torch.ops.aten.view.default(view_1053, [arg5_1, 4096]);  view_1053 = None
        mm_215: "f16[s0, 14336][14336, 1]cuda:0" = torch.ops.aten.mm.default(view_1054, permute_340);  view_1054 = permute_340 = None
        view_1055: "f16[1, s0, 14336][14336*s0, 14336, 1]cuda:0" = torch.ops.aten.view.default(mm_215, [1, arg5_1, 14336]);  mm_215 = None
        mul_12217: "f16[1, s0, 14336][14336*s0, 14336, 1]cuda:0" = torch.ops.aten.mul.Tensor(convert_element_type_494, view_1055);  convert_element_type_494 = view_1055 = None
        permute_341: "f16[14336, 4096][1, 14336]cuda:0" = torch.ops.aten.permute.default(arg350_1, [1, 0]);  arg350_1 = None
        view_1056: "f16[s0, 14336][14336, 1]cuda:0" = torch.ops.aten.view.default(mul_12217, [arg5_1, 14336]);  mul_12217 = None
        mm_216: "f16[s0, 4096][4096, 1]cuda:0" = torch.ops.aten.mm.default(view_1056, permute_341);  view_1056 = permute_341 = None
        view_1057: "f16[1, s0, 4096][4096*s0, 4096, 1]cuda:0" = torch.ops.aten.view.default(mm_216, [1, arg5_1, 4096]);  mm_216 = None
        
         # File: /app/low_bit_inference/model.py:279 in forward, code: hidden_states = residual + hidden_states
        add_9744: "f16[1, s0, 4096][4096*s0, 4096, 1]cuda:0" = torch.ops.aten.add.Tensor(add_9691, view_1057);  add_9691 = view_1057 = None
        
         # File: /app/low_bit_inference/optims/rms_norm_kernels/liger_rms_norm.py:443 in rms_norm_forward, code: X = X.view(-1, dim)
        view_1058: "f16[s0, 4096][4096, 1]cuda:0" = torch.ops.aten.view.default(add_9744, [-1, 4096])
        
         # File: /app/low_bit_inference/optims/rms_norm_kernels/liger_rms_norm.py:447 in rms_norm_forward, code: Y = torch.empty((n_rows, n_cols), dtype=X.dtype, device=X.device)
        empty_124: "f16[s0, 4096][4096, 1]cuda:0" = torch.ops.aten.empty.memory_format([arg0_1, 4096], dtype = torch.float16, device = device(type='cuda', index=0), pin_memory = False)
        alias_403: "f16[s0, 4096][4096, 1]cuda:0" = torch.ops.aten.alias.default(empty_124);  empty_124 = None
        
         # File: /app/low_bit_inference/optims/rms_norm_kernels/liger_rms_norm.py:451 in rms_norm_forward, code: RSTD = torch.empty(n_rows, dtype=rstd_dtype, device=X.device)
        empty_125: "f32[s0][1]cuda:0" = torch.ops.aten.empty.memory_format([arg0_1], dtype = torch.float32, device = device(type='cuda', index=0), pin_memory = False)
        alias_404: "f32[s0][1]cuda:0" = torch.ops.aten.alias.default(empty_125);  empty_125 = None
        
         # File: /app/low_bit_inference/optims/rms_norm_kernels/liger_rms_norm.py:461 in rms_norm_forward, code: _rms_norm_forward_kernel[(n_rows,)](
        triton_kernel_wrapper_functional_proxy_62 = torch.ops.higher_order.triton_kernel_wrapper_functional(kernel_idx = 193, constant_args_idx = 192, grid = [(arg0_1, 1, 1)], tma_descriptor_metadata = {}, kwargs = {'Y_ptr': alias_403, 'X_ptr': view_1058, 'W_ptr': arg351_1, 'RSTD_ptr': alias_404}, tensors_to_clone = ['Y_ptr', 'RSTD_ptr']);  alias_403 = view_1058 = arg351_1 = alias_404 = None
        getitem_248: "f16[s0, 4096][4096, 1]cuda:0" = triton_kernel_wrapper_functional_proxy_62['Y_ptr'];  triton_kernel_wrapper_functional_proxy_62 = None
        
         # File: /app/low_bit_inference/model.py:206 in forward, code: query_states = self.q_proj(hidden_states).view(hidden_shape).transpose(1, 2)
        permute_342: "f16[4096, 4096][1, 4096]cuda:0" = torch.ops.aten.permute.default(arg352_1, [1, 0]);  arg352_1 = None
        alias_407: "f16[s0, 4096][4096, 1]cuda:0" = torch.ops.aten.alias.default(getitem_248)
        view_1061: "f16[1, s0, 4096][4096*s0, 4096, 1]cuda:0" = torch.ops.aten.view.default(alias_407, [1, arg0_1, 4096]);  alias_407 = None
        view_1062: "f16[s0, 4096][4096, 1]cuda:0" = torch.ops.aten.view.default(view_1061, [arg5_1, 4096]);  view_1061 = None
        mm_217: "f16[s0, 4096][4096, 1]cuda:0" = torch.ops.aten.mm.default(view_1062, permute_342);  view_1062 = permute_342 = None
        view_1063: "f16[1, s0, 4096][4096*s0, 4096, 1]cuda:0" = torch.ops.aten.view.default(mm_217, [1, arg5_1, 4096]);  mm_217 = None
        view_1064: "f16[1, s0, 32, 128][4096*s0, 4096, 128, 1]cuda:0" = torch.ops.aten.view.default(view_1063, [1, arg0_1, -1, 128]);  view_1063 = None
        permute_343: "f16[1, 32, s0, 128][4096*s0, 128, 4096, 1]cuda:0" = torch.ops.aten.permute.default(view_1064, [0, 2, 1, 3]);  view_1064 = None
        
         # File: /app/low_bit_inference/model.py:207 in forward, code: key_states = self.k_proj(hidden_states).view(hidden_shape).transpose(1, 2)
        permute_344: "f16[4096, 1024][1, 4096]cuda:0" = torch.ops.aten.permute.default(arg353_1, [1, 0]);  arg353_1 = None
        alias_408: "f16[s0, 4096][4096, 1]cuda:0" = torch.ops.aten.alias.default(getitem_248)
        view_1066: "f16[1, s0, 4096][4096*s0, 4096, 1]cuda:0" = torch.ops.aten.view.default(alias_408, [1, arg0_1, 4096]);  alias_408 = None
        view_1067: "f16[s0, 4096][4096, 1]cuda:0" = torch.ops.aten.view.default(view_1066, [arg5_1, 4096]);  view_1066 = None
        mm_218: "f16[s0, 1024][1024, 1]cuda:0" = torch.ops.aten.mm.default(view_1067, permute_344);  view_1067 = permute_344 = None
        view_1068: "f16[1, s0, 1024][1024*s0, 1024, 1]cuda:0" = torch.ops.aten.view.default(mm_218, [1, arg5_1, 1024]);  mm_218 = None
        view_1069: "f16[1, s0, 8, 128][1024*s0, 1024, 128, 1]cuda:0" = torch.ops.aten.view.default(view_1068, [1, arg0_1, -1, 128]);  view_1068 = None
        permute_345: "f16[1, 8, s0, 128][1024*s0, 128, 1024, 1]cuda:0" = torch.ops.aten.permute.default(view_1069, [0, 2, 1, 3]);  view_1069 = None
        
         # File: /app/low_bit_inference/model.py:208 in forward, code: value_states = self.v_proj(hidden_states).view(hidden_shape).transpose(1, 2)
        permute_346: "f16[4096, 1024][1, 4096]cuda:0" = torch.ops.aten.permute.default(arg354_1, [1, 0]);  arg354_1 = None
        alias_409: "f16[s0, 4096][4096, 1]cuda:0" = torch.ops.aten.alias.default(getitem_248);  getitem_248 = None
        view_1071: "f16[1, s0, 4096][4096*s0, 4096, 1]cuda:0" = torch.ops.aten.view.default(alias_409, [1, arg0_1, 4096]);  alias_409 = None
        view_1072: "f16[s0, 4096][4096, 1]cuda:0" = torch.ops.aten.view.default(view_1071, [arg5_1, 4096]);  view_1071 = None
        mm_219: "f16[s0, 1024][1024, 1]cuda:0" = torch.ops.aten.mm.default(view_1072, permute_346);  view_1072 = permute_346 = None
        view_1073: "f16[1, s0, 1024][1024*s0, 1024, 1]cuda:0" = torch.ops.aten.view.default(mm_219, [1, arg5_1, 1024]);  mm_219 = None
        view_1074: "f16[1, s0, 8, 128][1024*s0, 1024, 128, 1]cuda:0" = torch.ops.aten.view.default(view_1073, [1, arg0_1, -1, 128]);  view_1073 = None
        permute_347: "f16[1, 8, s0, 128][1024*s0, 128, 1024, 1]cuda:0" = torch.ops.aten.permute.default(view_1074, [0, 2, 1, 3]);  view_1074 = None
        
         # File: /app/low_bit_inference/model.py:105 in apply_rotary_pos_emb, code: cos = cos.unsqueeze(unsqueeze_dim)
        unsqueeze_190: "f16[1, 1, s0, 128][128*s0, 128*s0, 128, 1]cuda:0" = torch.ops.aten.unsqueeze.default(convert_element_type_1, 1);  convert_element_type_1 = None
        
         # File: /app/low_bit_inference/model.py:106 in apply_rotary_pos_emb, code: sin = sin.unsqueeze(unsqueeze_dim)
        unsqueeze_191: "f16[1, 1, s0, 128][128*s0, 128*s0, 128, 1]cuda:0" = torch.ops.aten.unsqueeze.default(convert_element_type_2, 1);  convert_element_type_2 = None
        
         # File: /app/low_bit_inference/model.py:107 in apply_rotary_pos_emb, code: q_embed = (q * cos) + (rotate_half(q) * sin)
        mul_12319: "f16[1, 32, s0, 128][4096*s0, 128, 4096, 1]cuda:0" = torch.ops.aten.mul.Tensor(permute_343, unsqueeze_190)
        
         # File: /app/low_bit_inference/model.py:80 in rotate_half, code: x1 = x[..., : x.shape[-1] // 2]
        slice_717: "f16[1, 32, s0, 64][4096*s0, 128, 4096, 1]cuda:0" = torch.ops.aten.slice.Tensor(permute_343, 3, 0, 64)
        
         # File: /app/low_bit_inference/model.py:81 in rotate_half, code: x2 = x[..., x.shape[-1] // 2 :]
        slice_718: "f16[1, 32, s0, 64][4096*s0, 128, 4096, 1]cuda:0" = torch.ops.aten.slice.Tensor(permute_343, 3, 64, 9223372036854775807);  permute_343 = None
        
         # File: /app/low_bit_inference/model.py:82 in rotate_half, code: return torch.cat((-x2, x1), dim=-1)
        neg_62: "f16[1, 32, s0, 64][2048*s0, 64, 2048, 1]cuda:0" = torch.ops.aten.neg.default(slice_718);  slice_718 = None
        cat_62: "f16[1, 32, s0, 128][4096*s0, 128*s0, 128, 1]cuda:0" = torch.ops.aten.cat.default([neg_62, slice_717], -1);  neg_62 = slice_717 = None
        
         # File: /app/low_bit_inference/model.py:107 in apply_rotary_pos_emb, code: q_embed = (q * cos) + (rotate_half(q) * sin)
        mul_12336: "f16[1, 32, s0, 128][4096*s0, 128*s0, 128, 1]cuda:0" = torch.ops.aten.mul.Tensor(cat_62, unsqueeze_191);  cat_62 = None
        add_9838: "f16[1, 32, s0, 128][4096*s0, 128, 4096, 1]cuda:0" = torch.ops.aten.add.Tensor(mul_12319, mul_12336);  mul_12319 = mul_12336 = None
        
         # File: /app/low_bit_inference/model.py:108 in apply_rotary_pos_emb, code: k_embed = (k * cos) + (rotate_half(k) * sin)
        mul_12344: "f16[1, 8, s0, 128][1024*s0, 128, 1024, 1]cuda:0" = torch.ops.aten.mul.Tensor(permute_345, unsqueeze_190);  unsqueeze_190 = None
        
         # File: /app/low_bit_inference/model.py:80 in rotate_half, code: x1 = x[..., : x.shape[-1] // 2]
        slice_719: "f16[1, 8, s0, 64][1024*s0, 128, 1024, 1]cuda:0" = torch.ops.aten.slice.Tensor(permute_345, 3, 0, 64)
        
         # File: /app/low_bit_inference/model.py:81 in rotate_half, code: x2 = x[..., x.shape[-1] // 2 :]
        slice_720: "f16[1, 8, s0, 64][1024*s0, 128, 1024, 1]cuda:0" = torch.ops.aten.slice.Tensor(permute_345, 3, 64, 9223372036854775807);  permute_345 = None
        
         # File: /app/low_bit_inference/model.py:82 in rotate_half, code: return torch.cat((-x2, x1), dim=-1)
        neg_63: "f16[1, 8, s0, 64][512*s0, 64, 512, 1]cuda:0" = torch.ops.aten.neg.default(slice_720);  slice_720 = None
        cat_63: "f16[1, 8, s0, 128][1024*s0, 128*s0, 128, 1]cuda:0" = torch.ops.aten.cat.default([neg_63, slice_719], -1);  neg_63 = slice_719 = None
        
         # File: /app/low_bit_inference/model.py:108 in apply_rotary_pos_emb, code: k_embed = (k * cos) + (rotate_half(k) * sin)
        mul_12361: "f16[1, 8, s0, 128][1024*s0, 128*s0, 128, 1]cuda:0" = torch.ops.aten.mul.Tensor(cat_63, unsqueeze_191);  cat_63 = unsqueeze_191 = None
        add_9862: "f16[1, 8, s0, 128][1024*s0, 128, 1024, 1]cuda:0" = torch.ops.aten.add.Tensor(mul_12344, mul_12361);  mul_12344 = mul_12361 = None
        
         # File: /app/low_bit_inference/optims/cache_optim.py:150 in update, code: self.keys.index_copy_(2, cache_position, key_states)
        index_put_62: "f16[1, 8, s4, 128][1024*s4, 128*s4, 128, 1]cuda:0" = torch.ops.aten.index_put.default(arg355_1, [None, None, arg4_1], add_9862);  add_9862 = None
        
         # File: /app/low_bit_inference/optims/cache_optim.py:151 in update, code: self.values.index_copy_(2, cache_position, value_states)
        index_put_63: "f16[1, 8, s4, 128][1024*s4, 128*s4, 128, 1]cuda:0" = torch.ops.aten.index_put.default(arg356_1, [None, None, arg4_1], permute_347);  arg4_1 = permute_347 = None
        
         # File: /app/.venv/lib/python3.12/site-packages/transformers/integrations/sdpa_attention.py:15 in repeat_kv, code: return hidden_states.reshape(batch, num_key_value_heads * n_rep, slen, head_dim)
        slice_725: "f16[1, 8, s4, 128][1024*s4, 128*s4, 128, 1]cuda:0" = torch.ops.aten.slice.Tensor(index_put_62, 0, 0, 9223372036854775807)
        slice_726: "f16[1, 8, s4, 128][1024*s4, 128*s4, 128, 1]cuda:0" = torch.ops.aten.slice.Tensor(slice_725, 1, 0, 9223372036854775807);  slice_725 = None
        unsqueeze_193: "f16[1, 8, 1, s4, 128][1024*s4, 128*s4, 128*s4, 128, 1]cuda:0" = torch.ops.aten.unsqueeze.default(slice_726, 2);  slice_726 = None
        slice_727: "f16[1, 8, 1, s4, 128][1024*s4, 128*s4, 128*s4, 128, 1]cuda:0" = torch.ops.aten.slice.Tensor(unsqueeze_193, 3, 0, 9223372036854775807);  unsqueeze_193 = None
        slice_728: "f16[1, 8, 1, s4, 128][1024*s4, 128*s4, 128*s4, 128, 1]cuda:0" = torch.ops.aten.slice.Tensor(slice_727, 4, 0, 9223372036854775807);  slice_727 = None
        expand_160: "f16[1, 8, 4, s4, 128][1024*s4, 128*s4, 0, 128, 1]cuda:0" = torch.ops.aten.expand.default(slice_728, [1, 8, 4, arg7_1, 128]);  slice_728 = None
        clone_95: "f16[1, 8, 4, s4, 128][4096*s4, 512*s4, 128*s4, 128, 1]cuda:0" = torch.ops.aten.clone.default(expand_160, memory_format = torch.contiguous_format);  expand_160 = None
        view_1075: "f16[1, 32, s4, 128][4096*s4, 128*s4, 128, 1]cuda:0" = torch.ops.aten.view.default(clone_95, [1, 32, arg7_1, 128]);  clone_95 = None
        
         # File: /app/.venv/lib/python3.12/site-packages/transformers/integrations/sdpa_attention.py:15 in repeat_kv, code: return hidden_states.reshape(batch, num_key_value_heads * n_rep, slen, head_dim)
        slice_733: "f16[1, 8, s4, 128][1024*s4, 128*s4, 128, 1]cuda:0" = torch.ops.aten.slice.Tensor(index_put_63, 0, 0, 9223372036854775807)
        slice_734: "f16[1, 8, s4, 128][1024*s4, 128*s4, 128, 1]cuda:0" = torch.ops.aten.slice.Tensor(slice_733, 1, 0, 9223372036854775807);  slice_733 = None
        unsqueeze_195: "f16[1, 8, 1, s4, 128][1024*s4, 128*s4, 128*s4, 128, 1]cuda:0" = torch.ops.aten.unsqueeze.default(slice_734, 2);  slice_734 = None
        slice_735: "f16[1, 8, 1, s4, 128][1024*s4, 128*s4, 128*s4, 128, 1]cuda:0" = torch.ops.aten.slice.Tensor(unsqueeze_195, 3, 0, 9223372036854775807);  unsqueeze_195 = None
        slice_736: "f16[1, 8, 1, s4, 128][1024*s4, 128*s4, 128*s4, 128, 1]cuda:0" = torch.ops.aten.slice.Tensor(slice_735, 4, 0, 9223372036854775807);  slice_735 = None
        expand_162: "f16[1, 8, 4, s4, 128][1024*s4, 128*s4, 0, 128, 1]cuda:0" = torch.ops.aten.expand.default(slice_736, [1, 8, 4, arg7_1, 128]);  slice_736 = None
        clone_96: "f16[1, 8, 4, s4, 128][4096*s4, 512*s4, 128*s4, 128, 1]cuda:0" = torch.ops.aten.clone.default(expand_162, memory_format = torch.contiguous_format);  expand_162 = None
        view_1076: "f16[1, 32, s4, 128][4096*s4, 128*s4, 128, 1]cuda:0" = torch.ops.aten.view.default(clone_96, [1, 32, arg7_1, 128]);  clone_96 = None
        
         # File: /app/.venv/lib/python3.12/site-packages/transformers/integrations/sdpa_attention.py:35 in sdpa_attention_forward, code: causal_mask = causal_mask[:, :, :, : key.shape[-2]]
        slice_737: "b8[1, 1, s0, s4][s0*s4, s0*s4, s4, 1]cuda:0" = torch.ops.aten.slice.Tensor(arg8_1, 0, 0, 9223372036854775807);  arg8_1 = None
        slice_738: "b8[1, 1, s0, s4][s0*s4, s0*s4, s4, 1]cuda:0" = torch.ops.aten.slice.Tensor(slice_737, 1, 0, 9223372036854775807);  slice_737 = None
        slice_739: "b8[1, 1, s0, s4][s0*s4, s0*s4, s4, 1]cuda:0" = torch.ops.aten.slice.Tensor(slice_738, 2, 0, 9223372036854775807);  slice_738 = None
        
         # File: /app/.venv/lib/python3.12/site-packages/transformers/integrations/sdpa_attention.py:39 in sdpa_attention_forward, code: query = query.contiguous()
        clone_97: "f16[1, 32, s0, 128][4096*s0, 128*s0, 128, 1]cuda:0" = torch.ops.aten.clone.default(add_9838, memory_format = torch.contiguous_format);  add_9838 = None
        
         # File: /app/.venv/lib/python3.12/site-packages/transformers/integrations/sdpa_attention.py:54 in sdpa_attention_forward, code: attn_output = torch.nn.functional.scaled_dot_product_attention(
        scalar_tensor_62: "f16[][]cuda:0" = torch.ops.aten.scalar_tensor.default(-inf, dtype = torch.float16, device = device(type='cuda', index=0))
        scalar_tensor_63: "f16[][]cuda:0" = torch.ops.aten.scalar_tensor.default(0.0, dtype = torch.float16, layout = torch.strided, device = device(type='cuda', index=0))
        where_31: "f16[1, 1, s0, s4][s0*s4, s0*s4, s4, 1]cuda:0" = torch.ops.aten.where.self(slice_739, scalar_tensor_63, scalar_tensor_62);  slice_739 = scalar_tensor_63 = scalar_tensor_62 = None
        expand_163: "f16[1, 32, s0, s4][s0*s4, 0, s4, 1]cuda:0" = torch.ops.aten.expand.default(where_31, [1, 32, arg5_1, arg7_1]);  where_31 = arg7_1 = None
        _scaled_dot_product_efficient_attention_31 = torch.ops.aten._scaled_dot_product_efficient_attention.default(clone_97, view_1075, view_1076, expand_163, False, scale = 0.08838834764831845);  clone_97 = view_1075 = view_1076 = expand_163 = None
        getitem_250: "f16[1, 32, s0, 128][4096*s0, 128, 4096, 1]cuda:0" = _scaled_dot_product_efficient_attention_31[0];  _scaled_dot_product_efficient_attention_31 = None
        
         # File: /app/.venv/lib/python3.12/site-packages/transformers/integrations/sdpa_attention.py:63 in sdpa_attention_forward, code: attn_output = attn_output.transpose(1, 2).contiguous()
        permute_348: "f16[1, s0, 32, 128][4096*s0, 4096, 128, 1]cuda:0" = torch.ops.aten.permute.default(getitem_250, [0, 2, 1, 3]);  getitem_250 = None
        
         # File: /app/low_bit_inference/model.py:233 in forward, code: attn_output = attn_output.reshape(*input_shape, -1).contiguous()
        view_1077: "f16[1, s0, 4096][4096*s0, 4096, 1]cuda:0" = torch.ops.aten.view.default(permute_348, [1, arg0_1, -1]);  permute_348 = None
        
         # File: /app/low_bit_inference/model.py:234 in forward, code: attn_output = self.o_proj(attn_output)
        permute_349: "f16[4096, 4096][1, 4096]cuda:0" = torch.ops.aten.permute.default(arg357_1, [1, 0]);  arg357_1 = None
        view_1078: "f16[s0, 4096][4096, 1]cuda:0" = torch.ops.aten.view.default(view_1077, [arg5_1, 4096]);  view_1077 = None
        mm_220: "f16[s0, 4096][4096, 1]cuda:0" = torch.ops.aten.mm.default(view_1078, permute_349);  view_1078 = permute_349 = None
        view_1079: "f16[1, s0, 4096][4096*s0, 4096, 1]cuda:0" = torch.ops.aten.view.default(mm_220, [1, arg5_1, 4096]);  mm_220 = None
        
         # File: /app/low_bit_inference/model.py:273 in forward, code: hidden_states = residual + hidden_states
        add_10004: "f16[1, s0, 4096][4096*s0, 4096, 1]cuda:0" = torch.ops.aten.add.Tensor(add_9744, view_1079);  add_9744 = view_1079 = None
        
         # File: /app/low_bit_inference/optims/rms_norm_kernels/liger_rms_norm.py:443 in rms_norm_forward, code: X = X.view(-1, dim)
        view_1080: "f16[s0, 4096][4096, 1]cuda:0" = torch.ops.aten.view.default(add_10004, [-1, 4096])
        
         # File: /app/low_bit_inference/optims/rms_norm_kernels/liger_rms_norm.py:447 in rms_norm_forward, code: Y = torch.empty((n_rows, n_cols), dtype=X.dtype, device=X.device)
        empty_126: "f16[s0, 4096][4096, 1]cuda:0" = torch.ops.aten.empty.memory_format([arg0_1, 4096], dtype = torch.float16, device = device(type='cuda', index=0), pin_memory = False)
        alias_410: "f16[s0, 4096][4096, 1]cuda:0" = torch.ops.aten.alias.default(empty_126);  empty_126 = None
        
         # File: /app/low_bit_inference/optims/rms_norm_kernels/liger_rms_norm.py:451 in rms_norm_forward, code: RSTD = torch.empty(n_rows, dtype=rstd_dtype, device=X.device)
        empty_127: "f32[s0][1]cuda:0" = torch.ops.aten.empty.memory_format([arg0_1], dtype = torch.float32, device = device(type='cuda', index=0), pin_memory = False)
        alias_411: "f32[s0][1]cuda:0" = torch.ops.aten.alias.default(empty_127);  empty_127 = None
        
         # File: /app/low_bit_inference/optims/rms_norm_kernels/liger_rms_norm.py:461 in rms_norm_forward, code: _rms_norm_forward_kernel[(n_rows,)](
        triton_kernel_wrapper_functional_proxy_63 = torch.ops.higher_order.triton_kernel_wrapper_functional(kernel_idx = 194, constant_args_idx = 193, grid = [(arg0_1, 1, 1)], tma_descriptor_metadata = {}, kwargs = {'Y_ptr': alias_410, 'X_ptr': view_1080, 'W_ptr': arg358_1, 'RSTD_ptr': alias_411}, tensors_to_clone = ['Y_ptr', 'RSTD_ptr']);  alias_410 = view_1080 = arg358_1 = alias_411 = None
        getitem_254: "f16[s0, 4096][4096, 1]cuda:0" = triton_kernel_wrapper_functional_proxy_63['Y_ptr'];  triton_kernel_wrapper_functional_proxy_63 = None
        
         # File: /app/low_bit_inference/model.py:124 in forward, code: down_proj = self.down_proj(self.act_fn(self.gate_proj(x)) * self.up_proj(x))
        permute_350: "f16[4096, 14336][1, 4096]cuda:0" = torch.ops.aten.permute.default(arg359_1, [1, 0]);  arg359_1 = None
        alias_414: "f16[s0, 4096][4096, 1]cuda:0" = torch.ops.aten.alias.default(getitem_254)
        view_1083: "f16[1, s0, 4096][4096*s0, 4096, 1]cuda:0" = torch.ops.aten.view.default(alias_414, [1, arg0_1, 4096]);  alias_414 = None
        view_1084: "f16[s0, 4096][4096, 1]cuda:0" = torch.ops.aten.view.default(view_1083, [arg5_1, 4096]);  view_1083 = None
        mm_221: "f16[s0, 14336][14336, 1]cuda:0" = torch.ops.aten.mm.default(view_1084, permute_350);  view_1084 = permute_350 = None
        view_1085: "f16[1, s0, 14336][14336*s0, 14336, 1]cuda:0" = torch.ops.aten.view.default(mm_221, [1, arg5_1, 14336]);  mm_221 = None
        convert_element_type_509: "f32[1, s0, 14336][14336*s0, 14336, 1]cuda:0" = torch.ops.prims.convert_element_type.default(view_1085, torch.float32);  view_1085 = None
        sigmoid_31: "f32[1, s0, 14336][14336*s0, 14336, 1]cuda:0" = torch.ops.aten.sigmoid.default(convert_element_type_509)
        mul_12593: "f32[1, s0, 14336][14336*s0, 14336, 1]cuda:0" = torch.ops.aten.mul.Tensor(convert_element_type_509, sigmoid_31);  convert_element_type_509 = sigmoid_31 = None
        convert_element_type_510: "f16[1, s0, 14336][14336*s0, 14336, 1]cuda:0" = torch.ops.prims.convert_element_type.default(mul_12593, torch.float16);  mul_12593 = None
        permute_351: "f16[4096, 14336][1, 4096]cuda:0" = torch.ops.aten.permute.default(arg360_1, [1, 0]);  arg360_1 = None
        alias_415: "f16[s0, 4096][4096, 1]cuda:0" = torch.ops.aten.alias.default(getitem_254);  getitem_254 = None
        view_1087: "f16[1, s0, 4096][4096*s0, 4096, 1]cuda:0" = torch.ops.aten.view.default(alias_415, [1, arg0_1, 4096]);  alias_415 = None
        view_1088: "f16[s0, 4096][4096, 1]cuda:0" = torch.ops.aten.view.default(view_1087, [arg5_1, 4096]);  view_1087 = None
        mm_222: "f16[s0, 14336][14336, 1]cuda:0" = torch.ops.aten.mm.default(view_1088, permute_351);  view_1088 = permute_351 = None
        view_1089: "f16[1, s0, 14336][14336*s0, 14336, 1]cuda:0" = torch.ops.aten.view.default(mm_222, [1, arg5_1, 14336]);  mm_222 = None
        mul_12610: "f16[1, s0, 14336][14336*s0, 14336, 1]cuda:0" = torch.ops.aten.mul.Tensor(convert_element_type_510, view_1089);  convert_element_type_510 = view_1089 = None
        permute_352: "f16[14336, 4096][1, 14336]cuda:0" = torch.ops.aten.permute.default(arg361_1, [1, 0]);  arg361_1 = None
        view_1090: "f16[s0, 14336][14336, 1]cuda:0" = torch.ops.aten.view.default(mul_12610, [arg5_1, 14336]);  mul_12610 = None
        mm_223: "f16[s0, 4096][4096, 1]cuda:0" = torch.ops.aten.mm.default(view_1090, permute_352);  view_1090 = permute_352 = None
        view_1091: "f16[1, s0, 4096][4096*s0, 4096, 1]cuda:0" = torch.ops.aten.view.default(mm_223, [1, arg5_1, 4096]);  mm_223 = arg5_1 = None
        
         # File: /app/low_bit_inference/model.py:279 in forward, code: hidden_states = residual + hidden_states
        add_10057: "f16[1, s0, 4096][4096*s0, 4096, 1]cuda:0" = torch.ops.aten.add.Tensor(add_10004, view_1091);  add_10004 = view_1091 = None
        
         # File: /app/low_bit_inference/optims/rms_norm_kernels/liger_rms_norm.py:443 in rms_norm_forward, code: X = X.view(-1, dim)
        view_1092: "f16[s0, 4096][4096, 1]cuda:0" = torch.ops.aten.view.default(add_10057, [-1, 4096]);  add_10057 = None
        
         # File: /app/low_bit_inference/optims/rms_norm_kernels/liger_rms_norm.py:447 in rms_norm_forward, code: Y = torch.empty((n_rows, n_cols), dtype=X.dtype, device=X.device)
        empty_128: "f16[s0, 4096][4096, 1]cuda:0" = torch.ops.aten.empty.memory_format([arg0_1, 4096], dtype = torch.float16, device = device(type='cuda', index=0), pin_memory = False)
        alias_416: "f16[s0, 4096][4096, 1]cuda:0" = torch.ops.aten.alias.default(empty_128);  empty_128 = None
        
         # File: /app/low_bit_inference/optims/rms_norm_kernels/liger_rms_norm.py:451 in rms_norm_forward, code: RSTD = torch.empty(n_rows, dtype=rstd_dtype, device=X.device)
        empty_129: "f32[s0][1]cuda:0" = torch.ops.aten.empty.memory_format([arg0_1], dtype = torch.float32, device = device(type='cuda', index=0), pin_memory = False)
        alias_417: "f32[s0][1]cuda:0" = torch.ops.aten.alias.default(empty_129);  empty_129 = None
        
         # File: /app/low_bit_inference/optims/rms_norm_kernels/liger_rms_norm.py:461 in rms_norm_forward, code: _rms_norm_forward_kernel[(n_rows,)](
        triton_kernel_wrapper_functional_proxy_64 = torch.ops.higher_order.triton_kernel_wrapper_functional(kernel_idx = 195, constant_args_idx = 194, grid = [(arg0_1, 1, 1)], tma_descriptor_metadata = {}, kwargs = {'Y_ptr': alias_416, 'X_ptr': view_1092, 'W_ptr': arg362_1, 'RSTD_ptr': alias_417}, tensors_to_clone = ['Y_ptr', 'RSTD_ptr']);  alias_416 = view_1092 = arg362_1 = alias_417 = None
        getitem_256: "f16[s0, 4096][4096, 1]cuda:0" = triton_kernel_wrapper_functional_proxy_64['Y_ptr'];  triton_kernel_wrapper_functional_proxy_64 = None
        
         # File: /app/low_bit_inference/model.py:453 in forward, code: logits = self.lm_head(hidden_states[:, slice_indices, :])
        permute_353: "f16[4096, 128256][1, 4096]cuda:0" = torch.ops.aten.permute.default(arg364_1, [1, 0]);  arg364_1 = None
        alias_420: "f16[s0, 4096][4096, 1]cuda:0" = torch.ops.aten.alias.default(getitem_256);  getitem_256 = None
        view_1095: "f16[1, s0, 4096][4096*s0, 4096, 1]cuda:0" = torch.ops.aten.view.default(alias_420, [1, arg0_1, 4096]);  alias_420 = arg0_1 = None
        slice_743: "f16[1, s0, 4096][4096*s0, 4096, 1]cuda:0" = torch.ops.aten.slice.Tensor(view_1095, 0, 0, 9223372036854775807);  view_1095 = None
        slice_744: "f16[1, 1, 4096][4096*s0, 4096, 1]cuda:0" = torch.ops.aten.slice.Tensor(slice_743, 1, -1, 9223372036854775807);  slice_743 = None
        slice_745: "f16[1, 1, 4096][4096*s0, 4096, 1]cuda:0" = torch.ops.aten.slice.Tensor(slice_744, 2, 0, 9223372036854775807);  slice_744 = None
        view_1096: "f16[1, 4096][4096*s0, 1]cuda:0" = torch.ops.aten.view.default(slice_745, [1, 4096]);  slice_745 = None
        convert_element_type_515: "f32[1, 4096][4096*s0, 1]cuda:0" = torch.ops.prims.convert_element_type.default(view_1096, torch.float32);  view_1096 = None
        convert_element_type_516: "f32[4096, 128256][1, 4096]cuda:0" = torch.ops.prims.convert_element_type.default(permute_353, torch.float32);  permute_353 = None
        unsqueeze_196: "f32[1, 4096, 1][4096*s0, 1, 1]cuda:0" = torch.ops.aten.unsqueeze.default(convert_element_type_515, 2);  convert_element_type_515 = None
        unsqueeze_197: "f32[1, 4096, 128256][4096, 1, 4096]cuda:0" = torch.ops.aten.unsqueeze.default(convert_element_type_516, 0);  convert_element_type_516 = None
        mul_12654: "f32[1, 4096, 128256][4096, 1, 4096]cuda:0" = torch.ops.aten.mul.Tensor(unsqueeze_196, unsqueeze_197);  unsqueeze_196 = unsqueeze_197 = None
        sum_1: "f32[1, 128256][128256, 1]cuda:0" = torch.ops.aten.sum.dim_IntList(mul_12654, [1]);  mul_12654 = None
        convert_element_type_517: "f16[1, 128256][128256, 1]cuda:0" = torch.ops.prims.convert_element_type.default(sum_1, torch.float16);  sum_1 = None
        view_1097: "f16[1, 1, 128256][128256, 128256, 1]cuda:0" = torch.ops.aten.view.default(convert_element_type_517, [1, 1, 128256]);  convert_element_type_517 = None
        
         # File: /app/low_bit_inference/optims/cache_optim.py:150 in update, code: self.keys.index_copy_(2, cache_position, key_states)
        copy_: "f16[1, 8, s4, 128][1024*s4, 128*s4, 128, 1]cuda:0" = torch.ops.aten.copy_.default(arg14_1, index_put);  arg14_1 = index_put = copy_ = None
        
         # File: /app/low_bit_inference/optims/cache_optim.py:151 in update, code: self.values.index_copy_(2, cache_position, value_states)
        copy__1: "f16[1, 8, s4, 128][1024*s4, 128*s4, 128, 1]cuda:0" = torch.ops.aten.copy_.default(arg15_1, index_put_1);  arg15_1 = index_put_1 = copy__1 = None
        
         # File: /app/low_bit_inference/optims/cache_optim.py:150 in update, code: self.keys.index_copy_(2, cache_position, key_states)
        copy__2: "f16[1, 8, s4, 128][1024*s4, 128*s4, 128, 1]cuda:0" = torch.ops.aten.copy_.default(arg25_1, index_put_2);  arg25_1 = index_put_2 = copy__2 = None
        
         # File: /app/low_bit_inference/optims/cache_optim.py:151 in update, code: self.values.index_copy_(2, cache_position, value_states)
        copy__3: "f16[1, 8, s4, 128][1024*s4, 128*s4, 128, 1]cuda:0" = torch.ops.aten.copy_.default(arg26_1, index_put_3);  arg26_1 = index_put_3 = copy__3 = None
        
         # File: /app/low_bit_inference/optims/cache_optim.py:150 in update, code: self.keys.index_copy_(2, cache_position, key_states)
        copy__4: "f16[1, 8, s4, 128][1024*s4, 128*s4, 128, 1]cuda:0" = torch.ops.aten.copy_.default(arg36_1, index_put_4);  arg36_1 = index_put_4 = copy__4 = None
        
         # File: /app/low_bit_inference/optims/cache_optim.py:151 in update, code: self.values.index_copy_(2, cache_position, value_states)
        copy__5: "f16[1, 8, s4, 128][1024*s4, 128*s4, 128, 1]cuda:0" = torch.ops.aten.copy_.default(arg37_1, index_put_5);  arg37_1 = index_put_5 = copy__5 = None
        
         # File: /app/low_bit_inference/optims/cache_optim.py:150 in update, code: self.keys.index_copy_(2, cache_position, key_states)
        copy__6: "f16[1, 8, s4, 128][1024*s4, 128*s4, 128, 1]cuda:0" = torch.ops.aten.copy_.default(arg47_1, index_put_6);  arg47_1 = index_put_6 = copy__6 = None
        
         # File: /app/low_bit_inference/optims/cache_optim.py:151 in update, code: self.values.index_copy_(2, cache_position, value_states)
        copy__7: "f16[1, 8, s4, 128][1024*s4, 128*s4, 128, 1]cuda:0" = torch.ops.aten.copy_.default(arg48_1, index_put_7);  arg48_1 = index_put_7 = copy__7 = None
        
         # File: /app/low_bit_inference/optims/cache_optim.py:150 in update, code: self.keys.index_copy_(2, cache_position, key_states)
        copy__8: "f16[1, 8, s4, 128][1024*s4, 128*s4, 128, 1]cuda:0" = torch.ops.aten.copy_.default(arg58_1, index_put_8);  arg58_1 = index_put_8 = copy__8 = None
        
         # File: /app/low_bit_inference/optims/cache_optim.py:151 in update, code: self.values.index_copy_(2, cache_position, value_states)
        copy__9: "f16[1, 8, s4, 128][1024*s4, 128*s4, 128, 1]cuda:0" = torch.ops.aten.copy_.default(arg59_1, index_put_9);  arg59_1 = index_put_9 = copy__9 = None
        
         # File: /app/low_bit_inference/optims/cache_optim.py:150 in update, code: self.keys.index_copy_(2, cache_position, key_states)
        copy__10: "f16[1, 8, s4, 128][1024*s4, 128*s4, 128, 1]cuda:0" = torch.ops.aten.copy_.default(arg69_1, index_put_10);  arg69_1 = index_put_10 = copy__10 = None
        
         # File: /app/low_bit_inference/optims/cache_optim.py:151 in update, code: self.values.index_copy_(2, cache_position, value_states)
        copy__11: "f16[1, 8, s4, 128][1024*s4, 128*s4, 128, 1]cuda:0" = torch.ops.aten.copy_.default(arg70_1, index_put_11);  arg70_1 = index_put_11 = copy__11 = None
        
         # File: /app/low_bit_inference/optims/cache_optim.py:150 in update, code: self.keys.index_copy_(2, cache_position, key_states)
        copy__12: "f16[1, 8, s4, 128][1024*s4, 128*s4, 128, 1]cuda:0" = torch.ops.aten.copy_.default(arg80_1, index_put_12);  arg80_1 = index_put_12 = copy__12 = None
        
         # File: /app/low_bit_inference/optims/cache_optim.py:151 in update, code: self.values.index_copy_(2, cache_position, value_states)
        copy__13: "f16[1, 8, s4, 128][1024*s4, 128*s4, 128, 1]cuda:0" = torch.ops.aten.copy_.default(arg81_1, index_put_13);  arg81_1 = index_put_13 = copy__13 = None
        
         # File: /app/low_bit_inference/optims/cache_optim.py:150 in update, code: self.keys.index_copy_(2, cache_position, key_states)
        copy__14: "f16[1, 8, s4, 128][1024*s4, 128*s4, 128, 1]cuda:0" = torch.ops.aten.copy_.default(arg91_1, index_put_14);  arg91_1 = index_put_14 = copy__14 = None
        
         # File: /app/low_bit_inference/optims/cache_optim.py:151 in update, code: self.values.index_copy_(2, cache_position, value_states)
        copy__15: "f16[1, 8, s4, 128][1024*s4, 128*s4, 128, 1]cuda:0" = torch.ops.aten.copy_.default(arg92_1, index_put_15);  arg92_1 = index_put_15 = copy__15 = None
        
         # File: /app/low_bit_inference/optims/cache_optim.py:150 in update, code: self.keys.index_copy_(2, cache_position, key_states)
        copy__16: "f16[1, 8, s4, 128][1024*s4, 128*s4, 128, 1]cuda:0" = torch.ops.aten.copy_.default(arg102_1, index_put_16);  arg102_1 = index_put_16 = copy__16 = None
        
         # File: /app/low_bit_inference/optims/cache_optim.py:151 in update, code: self.values.index_copy_(2, cache_position, value_states)
        copy__17: "f16[1, 8, s4, 128][1024*s4, 128*s4, 128, 1]cuda:0" = torch.ops.aten.copy_.default(arg103_1, index_put_17);  arg103_1 = index_put_17 = copy__17 = None
        
         # File: /app/low_bit_inference/optims/cache_optim.py:150 in update, code: self.keys.index_copy_(2, cache_position, key_states)
        copy__18: "f16[1, 8, s4, 128][1024*s4, 128*s4, 128, 1]cuda:0" = torch.ops.aten.copy_.default(arg113_1, index_put_18);  arg113_1 = index_put_18 = copy__18 = None
        
         # File: /app/low_bit_inference/optims/cache_optim.py:151 in update, code: self.values.index_copy_(2, cache_position, value_states)
        copy__19: "f16[1, 8, s4, 128][1024*s4, 128*s4, 128, 1]cuda:0" = torch.ops.aten.copy_.default(arg114_1, index_put_19);  arg114_1 = index_put_19 = copy__19 = None
        
         # File: /app/low_bit_inference/optims/cache_optim.py:150 in update, code: self.keys.index_copy_(2, cache_position, key_states)
        copy__20: "f16[1, 8, s4, 128][1024*s4, 128*s4, 128, 1]cuda:0" = torch.ops.aten.copy_.default(arg124_1, index_put_20);  arg124_1 = index_put_20 = copy__20 = None
        
         # File: /app/low_bit_inference/optims/cache_optim.py:151 in update, code: self.values.index_copy_(2, cache_position, value_states)
        copy__21: "f16[1, 8, s4, 128][1024*s4, 128*s4, 128, 1]cuda:0" = torch.ops.aten.copy_.default(arg125_1, index_put_21);  arg125_1 = index_put_21 = copy__21 = None
        
         # File: /app/low_bit_inference/optims/cache_optim.py:150 in update, code: self.keys.index_copy_(2, cache_position, key_states)
        copy__22: "f16[1, 8, s4, 128][1024*s4, 128*s4, 128, 1]cuda:0" = torch.ops.aten.copy_.default(arg135_1, index_put_22);  arg135_1 = index_put_22 = copy__22 = None
        
         # File: /app/low_bit_inference/optims/cache_optim.py:151 in update, code: self.values.index_copy_(2, cache_position, value_states)
        copy__23: "f16[1, 8, s4, 128][1024*s4, 128*s4, 128, 1]cuda:0" = torch.ops.aten.copy_.default(arg136_1, index_put_23);  arg136_1 = index_put_23 = copy__23 = None
        
         # File: /app/low_bit_inference/optims/cache_optim.py:150 in update, code: self.keys.index_copy_(2, cache_position, key_states)
        copy__24: "f16[1, 8, s4, 128][1024*s4, 128*s4, 128, 1]cuda:0" = torch.ops.aten.copy_.default(arg146_1, index_put_24);  arg146_1 = index_put_24 = copy__24 = None
        
         # File: /app/low_bit_inference/optims/cache_optim.py:151 in update, code: self.values.index_copy_(2, cache_position, value_states)
        copy__25: "f16[1, 8, s4, 128][1024*s4, 128*s4, 128, 1]cuda:0" = torch.ops.aten.copy_.default(arg147_1, index_put_25);  arg147_1 = index_put_25 = copy__25 = None
        
         # File: /app/low_bit_inference/optims/cache_optim.py:150 in update, code: self.keys.index_copy_(2, cache_position, key_states)
        copy__26: "f16[1, 8, s4, 128][1024*s4, 128*s4, 128, 1]cuda:0" = torch.ops.aten.copy_.default(arg157_1, index_put_26);  arg157_1 = index_put_26 = copy__26 = None
        
         # File: /app/low_bit_inference/optims/cache_optim.py:151 in update, code: self.values.index_copy_(2, cache_position, value_states)
        copy__27: "f16[1, 8, s4, 128][1024*s4, 128*s4, 128, 1]cuda:0" = torch.ops.aten.copy_.default(arg158_1, index_put_27);  arg158_1 = index_put_27 = copy__27 = None
        
         # File: /app/low_bit_inference/optims/cache_optim.py:150 in update, code: self.keys.index_copy_(2, cache_position, key_states)
        copy__28: "f16[1, 8, s4, 128][1024*s4, 128*s4, 128, 1]cuda:0" = torch.ops.aten.copy_.default(arg168_1, index_put_28);  arg168_1 = index_put_28 = copy__28 = None
        
         # File: /app/low_bit_inference/optims/cache_optim.py:151 in update, code: self.values.index_copy_(2, cache_position, value_states)
        copy__29: "f16[1, 8, s4, 128][1024*s4, 128*s4, 128, 1]cuda:0" = torch.ops.aten.copy_.default(arg169_1, index_put_29);  arg169_1 = index_put_29 = copy__29 = None
        
         # File: /app/low_bit_inference/optims/cache_optim.py:150 in update, code: self.keys.index_copy_(2, cache_position, key_states)
        copy__30: "f16[1, 8, s4, 128][1024*s4, 128*s4, 128, 1]cuda:0" = torch.ops.aten.copy_.default(arg179_1, index_put_30);  arg179_1 = index_put_30 = copy__30 = None
        
         # File: /app/low_bit_inference/optims/cache_optim.py:151 in update, code: self.values.index_copy_(2, cache_position, value_states)
        copy__31: "f16[1, 8, s4, 128][1024*s4, 128*s4, 128, 1]cuda:0" = torch.ops.aten.copy_.default(arg180_1, index_put_31);  arg180_1 = index_put_31 = copy__31 = None
        
         # File: /app/low_bit_inference/optims/cache_optim.py:150 in update, code: self.keys.index_copy_(2, cache_position, key_states)
        copy__32: "f16[1, 8, s4, 128][1024*s4, 128*s4, 128, 1]cuda:0" = torch.ops.aten.copy_.default(arg190_1, index_put_32);  arg190_1 = index_put_32 = copy__32 = None
        
         # File: /app/low_bit_inference/optims/cache_optim.py:151 in update, code: self.values.index_copy_(2, cache_position, value_states)
        copy__33: "f16[1, 8, s4, 128][1024*s4, 128*s4, 128, 1]cuda:0" = torch.ops.aten.copy_.default(arg191_1, index_put_33);  arg191_1 = index_put_33 = copy__33 = None
        
         # File: /app/low_bit_inference/optims/cache_optim.py:150 in update, code: self.keys.index_copy_(2, cache_position, key_states)
        copy__34: "f16[1, 8, s4, 128][1024*s4, 128*s4, 128, 1]cuda:0" = torch.ops.aten.copy_.default(arg201_1, index_put_34);  arg201_1 = index_put_34 = copy__34 = None
        
         # File: /app/low_bit_inference/optims/cache_optim.py:151 in update, code: self.values.index_copy_(2, cache_position, value_states)
        copy__35: "f16[1, 8, s4, 128][1024*s4, 128*s4, 128, 1]cuda:0" = torch.ops.aten.copy_.default(arg202_1, index_put_35);  arg202_1 = index_put_35 = copy__35 = None
        
         # File: /app/low_bit_inference/optims/cache_optim.py:150 in update, code: self.keys.index_copy_(2, cache_position, key_states)
        copy__36: "f16[1, 8, s4, 128][1024*s4, 128*s4, 128, 1]cuda:0" = torch.ops.aten.copy_.default(arg212_1, index_put_36);  arg212_1 = index_put_36 = copy__36 = None
        
         # File: /app/low_bit_inference/optims/cache_optim.py:151 in update, code: self.values.index_copy_(2, cache_position, value_states)
        copy__37: "f16[1, 8, s4, 128][1024*s4, 128*s4, 128, 1]cuda:0" = torch.ops.aten.copy_.default(arg213_1, index_put_37);  arg213_1 = index_put_37 = copy__37 = None
        
         # File: /app/low_bit_inference/optims/cache_optim.py:150 in update, code: self.keys.index_copy_(2, cache_position, key_states)
        copy__38: "f16[1, 8, s4, 128][1024*s4, 128*s4, 128, 1]cuda:0" = torch.ops.aten.copy_.default(arg223_1, index_put_38);  arg223_1 = index_put_38 = copy__38 = None
        
         # File: /app/low_bit_inference/optims/cache_optim.py:151 in update, code: self.values.index_copy_(2, cache_position, value_states)
        copy__39: "f16[1, 8, s4, 128][1024*s4, 128*s4, 128, 1]cuda:0" = torch.ops.aten.copy_.default(arg224_1, index_put_39);  arg224_1 = index_put_39 = copy__39 = None
        
         # File: /app/low_bit_inference/optims/cache_optim.py:150 in update, code: self.keys.index_copy_(2, cache_position, key_states)
        copy__40: "f16[1, 8, s4, 128][1024*s4, 128*s4, 128, 1]cuda:0" = torch.ops.aten.copy_.default(arg234_1, index_put_40);  arg234_1 = index_put_40 = copy__40 = None
        
         # File: /app/low_bit_inference/optims/cache_optim.py:151 in update, code: self.values.index_copy_(2, cache_position, value_states)
        copy__41: "f16[1, 8, s4, 128][1024*s4, 128*s4, 128, 1]cuda:0" = torch.ops.aten.copy_.default(arg235_1, index_put_41);  arg235_1 = index_put_41 = copy__41 = None
        
         # File: /app/low_bit_inference/optims/cache_optim.py:150 in update, code: self.keys.index_copy_(2, cache_position, key_states)
        copy__42: "f16[1, 8, s4, 128][1024*s4, 128*s4, 128, 1]cuda:0" = torch.ops.aten.copy_.default(arg245_1, index_put_42);  arg245_1 = index_put_42 = copy__42 = None
        
         # File: /app/low_bit_inference/optims/cache_optim.py:151 in update, code: self.values.index_copy_(2, cache_position, value_states)
        copy__43: "f16[1, 8, s4, 128][1024*s4, 128*s4, 128, 1]cuda:0" = torch.ops.aten.copy_.default(arg246_1, index_put_43);  arg246_1 = index_put_43 = copy__43 = None
        
         # File: /app/low_bit_inference/optims/cache_optim.py:150 in update, code: self.keys.index_copy_(2, cache_position, key_states)
        copy__44: "f16[1, 8, s4, 128][1024*s4, 128*s4, 128, 1]cuda:0" = torch.ops.aten.copy_.default(arg256_1, index_put_44);  arg256_1 = index_put_44 = copy__44 = None
        
         # File: /app/low_bit_inference/optims/cache_optim.py:151 in update, code: self.values.index_copy_(2, cache_position, value_states)
        copy__45: "f16[1, 8, s4, 128][1024*s4, 128*s4, 128, 1]cuda:0" = torch.ops.aten.copy_.default(arg257_1, index_put_45);  arg257_1 = index_put_45 = copy__45 = None
        
         # File: /app/low_bit_inference/optims/cache_optim.py:150 in update, code: self.keys.index_copy_(2, cache_position, key_states)
        copy__46: "f16[1, 8, s4, 128][1024*s4, 128*s4, 128, 1]cuda:0" = torch.ops.aten.copy_.default(arg267_1, index_put_46);  arg267_1 = index_put_46 = copy__46 = None
        
         # File: /app/low_bit_inference/optims/cache_optim.py:151 in update, code: self.values.index_copy_(2, cache_position, value_states)
        copy__47: "f16[1, 8, s4, 128][1024*s4, 128*s4, 128, 1]cuda:0" = torch.ops.aten.copy_.default(arg268_1, index_put_47);  arg268_1 = index_put_47 = copy__47 = None
        
         # File: /app/low_bit_inference/optims/cache_optim.py:150 in update, code: self.keys.index_copy_(2, cache_position, key_states)
        copy__48: "f16[1, 8, s4, 128][1024*s4, 128*s4, 128, 1]cuda:0" = torch.ops.aten.copy_.default(arg278_1, index_put_48);  arg278_1 = index_put_48 = copy__48 = None
        
         # File: /app/low_bit_inference/optims/cache_optim.py:151 in update, code: self.values.index_copy_(2, cache_position, value_states)
        copy__49: "f16[1, 8, s4, 128][1024*s4, 128*s4, 128, 1]cuda:0" = torch.ops.aten.copy_.default(arg279_1, index_put_49);  arg279_1 = index_put_49 = copy__49 = None
        
         # File: /app/low_bit_inference/optims/cache_optim.py:150 in update, code: self.keys.index_copy_(2, cache_position, key_states)
        copy__50: "f16[1, 8, s4, 128][1024*s4, 128*s4, 128, 1]cuda:0" = torch.ops.aten.copy_.default(arg289_1, index_put_50);  arg289_1 = index_put_50 = copy__50 = None
        
         # File: /app/low_bit_inference/optims/cache_optim.py:151 in update, code: self.values.index_copy_(2, cache_position, value_states)
        copy__51: "f16[1, 8, s4, 128][1024*s4, 128*s4, 128, 1]cuda:0" = torch.ops.aten.copy_.default(arg290_1, index_put_51);  arg290_1 = index_put_51 = copy__51 = None
        
         # File: /app/low_bit_inference/optims/cache_optim.py:150 in update, code: self.keys.index_copy_(2, cache_position, key_states)
        copy__52: "f16[1, 8, s4, 128][1024*s4, 128*s4, 128, 1]cuda:0" = torch.ops.aten.copy_.default(arg300_1, index_put_52);  arg300_1 = index_put_52 = copy__52 = None
        
         # File: /app/low_bit_inference/optims/cache_optim.py:151 in update, code: self.values.index_copy_(2, cache_position, value_states)
        copy__53: "f16[1, 8, s4, 128][1024*s4, 128*s4, 128, 1]cuda:0" = torch.ops.aten.copy_.default(arg301_1, index_put_53);  arg301_1 = index_put_53 = copy__53 = None
        
         # File: /app/low_bit_inference/optims/cache_optim.py:150 in update, code: self.keys.index_copy_(2, cache_position, key_states)
        copy__54: "f16[1, 8, s4, 128][1024*s4, 128*s4, 128, 1]cuda:0" = torch.ops.aten.copy_.default(arg311_1, index_put_54);  arg311_1 = index_put_54 = copy__54 = None
        
         # File: /app/low_bit_inference/optims/cache_optim.py:151 in update, code: self.values.index_copy_(2, cache_position, value_states)
        copy__55: "f16[1, 8, s4, 128][1024*s4, 128*s4, 128, 1]cuda:0" = torch.ops.aten.copy_.default(arg312_1, index_put_55);  arg312_1 = index_put_55 = copy__55 = None
        
         # File: /app/low_bit_inference/optims/cache_optim.py:150 in update, code: self.keys.index_copy_(2, cache_position, key_states)
        copy__56: "f16[1, 8, s4, 128][1024*s4, 128*s4, 128, 1]cuda:0" = torch.ops.aten.copy_.default(arg322_1, index_put_56);  arg322_1 = index_put_56 = copy__56 = None
        
         # File: /app/low_bit_inference/optims/cache_optim.py:151 in update, code: self.values.index_copy_(2, cache_position, value_states)
        copy__57: "f16[1, 8, s4, 128][1024*s4, 128*s4, 128, 1]cuda:0" = torch.ops.aten.copy_.default(arg323_1, index_put_57);  arg323_1 = index_put_57 = copy__57 = None
        
         # File: /app/low_bit_inference/optims/cache_optim.py:150 in update, code: self.keys.index_copy_(2, cache_position, key_states)
        copy__58: "f16[1, 8, s4, 128][1024*s4, 128*s4, 128, 1]cuda:0" = torch.ops.aten.copy_.default(arg333_1, index_put_58);  arg333_1 = index_put_58 = copy__58 = None
        
         # File: /app/low_bit_inference/optims/cache_optim.py:151 in update, code: self.values.index_copy_(2, cache_position, value_states)
        copy__59: "f16[1, 8, s4, 128][1024*s4, 128*s4, 128, 1]cuda:0" = torch.ops.aten.copy_.default(arg334_1, index_put_59);  arg334_1 = index_put_59 = copy__59 = None
        
         # File: /app/low_bit_inference/optims/cache_optim.py:150 in update, code: self.keys.index_copy_(2, cache_position, key_states)
        copy__60: "f16[1, 8, s4, 128][1024*s4, 128*s4, 128, 1]cuda:0" = torch.ops.aten.copy_.default(arg344_1, index_put_60);  arg344_1 = index_put_60 = copy__60 = None
        
         # File: /app/low_bit_inference/optims/cache_optim.py:151 in update, code: self.values.index_copy_(2, cache_position, value_states)
        copy__61: "f16[1, 8, s4, 128][1024*s4, 128*s4, 128, 1]cuda:0" = torch.ops.aten.copy_.default(arg345_1, index_put_61);  arg345_1 = index_put_61 = copy__61 = None
        
         # File: /app/low_bit_inference/optims/cache_optim.py:150 in update, code: self.keys.index_copy_(2, cache_position, key_states)
        copy__62: "f16[1, 8, s4, 128][1024*s4, 128*s4, 128, 1]cuda:0" = torch.ops.aten.copy_.default(arg355_1, index_put_62);  arg355_1 = index_put_62 = copy__62 = None
        
         # File: /app/low_bit_inference/optims/cache_optim.py:151 in update, code: self.values.index_copy_(2, cache_position, value_states)
        copy__63: "f16[1, 8, s4, 128][1024*s4, 128*s4, 128, 1]cuda:0" = torch.ops.aten.copy_.default(arg356_1, index_put_63);  arg356_1 = index_put_63 = copy__63 = None
        return (view_1097,)
        